QuantLaxmi_Research/dtrn/results/checkpoints/fold1_NIFTY/dtrn_stage1.pt (torch, 232927 bytes, 37 tensors)

embed.embed.0.weight f4 [32, 2]
000000 c5 ff 46 3f 0e 1d d8 bd 6f 57 da 3d 00 1c cb bc
       0.77734023 -0.10552417 0.10661208 -0.024793625
000010 f3 c8 c6 be b0 b2 34 3f 34 0f 3a 3f b6 9b f8 3e
       -0.38825187 0.70585155 0.7267945 0.48556298
000020 83 d5 a5 3e e1 cd 30 3f 3d b5 5c 3e 85 a2 f8 be
       0.3238946 0.69064146 0.21553512 -0.48561493
000030 6a 14 88 3e f7 a3 42 3a 10 b4 e3 be c7 03 e0 3e
       0.26578075 0.00074249454 -0.44473314 0.43752882
000040 dc 70 98 3d 43 b5 1c bf 1e 8d 28 bf 32 25 32 3f
       0.07443401 -0.61214083 -0.6584033 0.69588006
000050 cf a3 18 3f 36 97 e5 3e 73 df d2 3e 06 06 32 3f
       0.5962495 0.44841927 0.41186103 0.6954044
000060 06 5d 3f 3f d3 01 06 be 9e c4 93 3d 06 fc 00 bf
       0.7475132 -0.13086633 0.07215236 -0.5038456
000070 f8 7d 2b 3f 2a 52 12 3e 0c bd 2e 3f 8b f1 d2 be
       0.6698909 0.14289156 0.6825721 -0.41199908
000080 fe f2 07 be 81 83 82 bd 87 f0 ce be 58 d7 83 3e
       -0.13276288 -0.06372739 -0.40417883 0.25750232
000090 46 7d cc bd 11 1a 7f 3e c2 f5 49 be 00 da bc 3e
       -0.099848315 0.24912287 -0.19722655 0.3688507
0000a0 28 35 9b 3e 9e bb 44 3e c3 36 f1 3e 8e ee 13 3f
       0.30313993 0.19212195 0.47112092 0.5778588
0000b0 76 e5 a1 be 35 d2 2e bf ae 04 1b be 62 ff 2e be
       -0.31620377 -0.682895 -0.15138504 -0.17089608
0000c0 e0 81 43 bd 0a 55 0c 3f 5b f9 f5 3d 3f a6 cc 3e
       -0.04773128 0.5481726 0.120104514 0.39970586
0000d0 3c 0b 35 bf 5f 91 c9 3d 05 30 ad bc cc 20 64 bd
       -0.7072027 0.098421805 -0.021141062 -0.05569534
0000e0 0f 17 35 3e c8 21 5b 3e 2a c4 3d bd 8f 17 d6 3e
       0.17684577 0.21399605 -0.046329655 0.4181485
0000f0 e5 a9 7a be c9 7c 94 be a9 4d ae be 46 b7 f9 3d
       -0.24478872 -0.29001454 -0.34043625 0.1219316

embed.embed.0.bias f4 [32]
000000 8b 7d 58 be 5f e1 24 bf 10 a8 10 bf 0c 29 9d be
       -0.21141641 -0.6440639 -0.56506443 -0.3069538
000010 c6 c9 fc bc b6 87 14 3f e9 b9 06 bf 69 25 98 3d
       -0.030857932 0.5801958 -0.52627426 0.074290104
000020 78 f3 51 3e 0d 29 ef be 55 73 59 3d fa 22 bd 3e
       0.20503032 -0.46711007 0.053088505 0.36940747
000030 fc de 95 3e 07 66 26 3f b2 d2 88 3e 13 ea 79 3e
       0.29271686 0.6499943 0.26723248 0.24405698
000040 82 fe 38 3e 86 22 72 be 02 5b ae bd 12 8c 25 bf
       0.18065837 -0.23645982 -0.08513452 -0.64666855
000050 9d ef 87 be f7 2a 61 bd ad e4 8b 3e 93 d2 1f bf
       -0.26549998 -0.054972615 0.27322903 -0.62430686
000060 4e 0d 88 be 4f 7e e6 be 21 cd 8c be 58 69 8f 3e
       -0.2657265 -0.4501824 -0.2750025 0.28010058
000070 3f 25 d9 be a9 a4 dc be 38 ef e7 be f4 40 ba 3d
       -0.4241123 -0.43094376 -0.45299697 0.0909442

embed.embed.2.weight f4 [32, 32]
000000 16 92 49 3d 6e e5 c9 bd cb 9e f6 bd 60 b9 11 3e
       0.049211584 -0.09858213 -0.12042006 0.14230871
000010 46 8e d7 ba cd 25 04 be 5b 2e 12 bd b1 7f 22 3e
       -0.0016445599 -0.12905045 -0.03568874 0.15869023
000020 e5 a8 df 3d 60 3b d6 3d 0f 0e fb bd 6c 54 1c 3e
       0.10920886 0.10460544 -0.12258541 0.1526658
000030 eb a1 a7 3d d0 15 91 3b 2e 82 b5 bd 94 7b c0 3d
       0.0818518 0.004427649 -0.088627204 0.09398571
000040 ce 2e e1 3c ba 53 28 bc 82 ca 9b b9 82 21 1a be
       0.027488139 -0.010273868 -0.00029714784 -0.15051845
000050 ea 90 cd bd 13 94 1f be 0b 33 9f 3d 7d 47 01 3e
       -0.10037406 -0.1558383 0.077734075 0.12624927
000060 80 eb 15 bd 73 d2 00 3e d3 89 fc bd 92 60 06 be
       -0.036601543 0.1258028 -0.123309754 -0.13122776
000070 40 0d 37 3e 01 ea 98 3d ec 15 04 3d da 8a 33 3e
       0.17876148 0.07466508 0.03224747 0.17533436
000080 b3 06 18 be 49 78 db 3d f0 d1 16 bd f8 84 fb 3d
       -0.14846306 0.10716302 -0.036821306 0.12281221
000090 b4 97 e2 bb 4c c1 2d 3e 0b f8 4d 3b 5c c8 65 3d
       -0.006915057 0.16968268 0.0031428363 0.05609928
0000a0 8d 2c 19 be 4d 2b ff bc e5 b9 d6 bd 4d 33 32 be
       -0.14958401 -0.031148577 -0.10484675 -0.17402382
0000b0 cb 25 0b 3d 76 53 44 3e 40 af d7 bb bb ca 37 3e
       0.03397159 0.19172463 -0.0065821707 0.1794843
0000c0 e2 a6 a0 3d dc b7 1b 3e 6a 1f de bc d7 d4 0c be
       0.0784433 0.15206856 -0.027114589 -0.13753067
0000d0 7c 58 d7 3d 2e 89 d2 3d ef 77 8a bd c0 fc 60 bd
       0.10514924 0.10280071 -0.06761157 -0.05492854
0000e0 4f 0d 43 be cb 6b 12 be 27 0d b9 3d 61 20 de bd
       -0.19048046 -0.14298932 0.09035712 -0.108460195
0000f0 fc 7b 8c 3d 97 73 b6 3d 51 db e8 3c 3e 01 1c bd
       0.06859586 0.08908766 0.02842489 -0.038087122
000100 e6 32 c7 bd 1e e0 83 bc 9e 7f 8c bd 8f 2c c4 bc
       -0.09726505 -0.016098078 -0.068602785 -0.023947028
000110 4e f7 1b 3c 6b bb 5b bd 92 67 34 3e be 0e 2c bc
       0.009519411 -0.053645533 0.17617634 -0.010501562
000120 38 4d b1 bc eb 35 63 bd 9f 67 54 3d 3d 7f 85 bc
       -0.021643266 -0.055471342 0.051856633 -0.016296024
000130 08 1f fd 3d 84 28 76 bd 2e 85 e0 3d 46 05 a5 bd
       0.12359434 -0.060097232 0.10962902 -0.080576465
000140 f8 5a b7 3d 6f ed 6a 3d 5a ca 45 bc 33 72 02 3d
       0.08952898 0.05735534 -0.01207217 0.03184719
000150 3c ed 69 3d d0 01 4a bb 90 b4 fb 3c 7d 97 b6 bb
       0.05711101 -0.0030823834 0.030725747 -0.005572258
000160 2c 61 a9 bd 88 de e4 3d a9 37 15 be 47 74 31 bb
       -0.08270487 0.11175257 -0.14572014 -0.0027077363
000170 d0 6c f7 bd 2a af b6 3c 6f 98 fd 3d 9a a4 5c b9
       -0.12081301 0.022300322 0.1238259 -0.00021042154
000180 23 3e b0 bd cf 19 03 bd 74 7c 04 3e ce 9a cd bb
       -0.08605602 -0.032007035 0.129381 -0.0062745577
000190 5b 60 6b bc 02 8a 74 3d 0c f5 39 be 00 bc 1f 3d
       -0.014366235 0.059701927 -0.18159884 0.03899765
0001a0 94 6b bf 3c c9 32 35 be 4c 58 97 3d 1e 69 b0 3d
       0.023366727 -0.17695154 0.07389888 0.086137995
0001b0 38 29 74 3b 50 90 d4 bd 14 cc 15 3e 52 08 63 3d
       0.0037256014 -0.10379088 0.14628631 0.055427857
0001c0 ee 97 a9 bc 45 65 75 bd c1 c9 36 3e 39 fc 23 3d
       -0.020702329 -0.05991103 0.178504 0.04003546
0001d0 22 cb b0 3d 8e b9 3f 3d 41 12 bc bd 42 f8 b8 3d
       0.086324945 0.046807818 -0.09183169 0.090317264
0001e0 45 77 0c 3e d5 03 0c be fd 95 d6 bc 77 3b 8c 3c
       0.13717373 -0.13673337 -0.026194567 0.017118199
0001f0 4a 39 68 3d 7e 3f ff 3d 71 37 3d be 24 b4 8c 3d
       0.05669526 0.12463282 -0.1847818 0.068702966
000200 4e ef 00 be 8a a7 97 bd cf 23 75 bd 7c b9 7b bd
       -0.12591287 -0.074050024 -0.059848603 -0.06145619
000210 59 97 a0 3d 1f 87 8c bb c9 8e fd bd 63 db c8 bd
       0.07841367 -0.0042885686 -0.1238075 -0.0980747
000220 c7 00 57 bd 20 4e 84 3d 20 b7 20 3e f1 20 c4 bd
       -0.052490976 0.06460214 0.15694857 -0.095765956
000230 28 c3 b3 bc 30 25 2c be 65 90 38 3e 93 19 03 3e
       -0.021943644 -0.16811061 0.18023832 0.12802725
000240 5b 69 09 3e f3 ed 05 3d 7c 73 0d 3e 7f 19 a7 3c
       0.13419096 0.03269763 0.13813585 0.0203979
000250 51 f8 05 3e e8 fc 1b 3e 54 5a 61 be 59 29 9a 3d
       0.13083006 0.15233195 -0.22007114 0.07527418
000260 2b fd 8e 3d e3 ad 7f 3d e7 c6 4b be 6e c5 af bd
       0.06981882 0.06242169 -0.19900094 -0.085825786
000270 c1 ce ec 3d 7f 51 05 3e b9 ac 1b 3e 73 22 79 bd
       0.11562873 0.1301937 0.15202607 -0.06082387
000280 51 12 d2 bb a2 cf e2 3d 68 2d 91 3d 14 01 20 be
       -0.006410875 0.11074759 0.07088739 -0.15625411
000290 65 5b 8d 3d 21 01 02 3e cd ab 9b bd 13 ff 85 bd
       0.06902198 0.12695743 -0.07601128 -0.06542792
0002a0 72 ab c7 3c e1 31 d7 3c d5 07 71 39 91 40 f7 bd
       0.024373744 0.026268901 0.00022986469 -0.12072862
0002b0 ac 4b ee bb 11 c0 cf 3d c3 e2 87 3d e4 6c 23 be
       -0.0072722044 0.10144056 0.06635048 -0.15959507
0002c0 de 2e da 3d e6 95 1f 3e e7 c2 7b bd 25 96 0c be
       0.106534705 0.15584525 -0.06146517 -0.1372915
0002d0 36 54 02 3e 6b 78 8c 3d 2b 11 01 bd 44 fe bf 3d
       0.12727436 0.068589054 -0.031510513 0.09374669
0002e0 62 d0 09 3e 51 a4 b2 bc 71 db e4 bd 9a d0 0a 3e
       0.13458398 -0.021806868 -0.111746676 0.13556138
0002f0 1b aa 1c 3e df 8c 1b 3d 64 43 2d 3c 75 ed ec bd
       0.15299265 0.037976142 0.010575149 -0.11568729
000300 c7 42 66 3d 98 69 38 3d a0 3c 16 3d da d9 20 3e
       0.056216028 0.045022577 0.03667891 0.15708104
000310 77 ac 03 be 13 f1 9c 3c 3d 26 26 3c e5 db 34 3e
       -0.12858759 0.019157922 0.010140953 0.17662008
000320 0e 63 2f 3e f2 ca 08 3e ae 77 88 bd f3 ac 0a be
       0.1712763 0.13358667 -0.06663452 -0.13542537
000330 ad 38 e4 bd 78 b0 f1 bd 82 28 2d bd 0a d4 06 be
       -0.111436225 -0.11801237 -0.04227496 -0.13166824
000340 74 6c a1 bd 1e e4 3d 3c 04 20 14 3e 38 f8 03 3e
       -0.07882014 0.011590032 0.14465338 0.12887657
000350 c5 14 2f be c8 1f 85 bd 96 6c 3b 3e 5b a6 37 be
       -0.17097767 -0.065002024 0.18303141 -0.17934553
000360 ef e9 0d 3e 2d d9 d7 bd b8 e8 2e 3d 42 27 c9 3d
       0.1385877 -0.1053947 0.042702407 0.09821941
000370 da c7 c0 3c ef 52 31 bd d1 a6 f3 bd 36 58 a6 bd
       0.023532797 -0.043291982 -0.11897052 -0.08122294
000380 bf 4c 9c bc 55 f2 bb bd 62 0f 29 be 3e 8c 15 bd
       -0.019079564 -0.091770805 -0.16509774 -0.0365107
000390 be d1 38 3e 1a ba 11 3d af c0 3c 3e 3e 55 ca 3c
       0.1804876 0.03557787 0.18432878 0.02469885
0003a0 5f ce c0 bc fe 32 e1 bd 00 9b 6a 3d 63 ae 5f 3d
       -0.023535905 -0.10996054 0.057276726 0.054609668
0003b0 6b b6 1a be 84 2c 37 be 6a 3e 24 3e 50 b6 2d be
       -0.1510865 -0.17888075 0.16039434 -0.16964078
0003c0 2c ce b3 bd a3 ad eb 3d 45 f9 12 bd a3 ff b4 bd
       -0.087795585 0.11507728 -0.035882253 -0.08837821
0003d0 cb b9 e8 3d 55 a9 12 be a4 8d e7 bc 28 0f 82 3d
       0.11363562 -0.14322408 -0.028265782 0.06350547
0003e0 f1 c6 3e 3e 4d 97 28 3e 4a 1f 6e be 1b de ed bd
       0.18630578 0.16463967 -0.23254123 -0.11614629
0003f0 2c 8e 32 bd 60 8e d8 3d 4a 99 d4 3d cc 6d 8c 3d
       -0.043592617 0.10574031 0.103808 0.068568796

embed.embed.2.bias f4 [32]
000000 69 ff 88 bd fa 77 88 bd 23 2c 20 3d f4 be 0f be
       -0.066893406 -0.06663509 0.039104592 -0.14037687
000010 b0 40 31 3e 8f c8 24 bd 7a c4 18 bd 29 eb 1d 3e
       0.17309833 -0.04023033 -0.03729675 0.15421738
000020 05 47 b2 3d 54 35 af 3d 31 a8 5c bd 33 64 89 bc
       0.08704952 0.085550934 -0.053871337 -0.016771412
000030 a7 ae b1 bd a4 a4 3e 3d d7 f1 22 be ea db 4a 3d
       -0.086758904 0.046543732 -0.15912567 0.049526133
000040 89 3c 89 3d 5c 5d b3 3b 49 d8 74 3d 89 b8 ea bd
       0.06700999 0.005473776 0.059776578 -0.114609785
000050 35 68 cf 3d ea 2e 6b 3d 81 fc 2a 3e d0 60 96 bd
       0.10127298 0.057417788 0.16697885 -0.07342684
000060 a1 3b 1d 3d 28 3d 13 3d a3 3d 16 3e cb b4 81 bd
       0.038386945 0.035946995 0.1467195 -0.06333312
000070 e1 87 14 3a 6d a0 13 3d 24 f7 ec bc 20 37 08 3e
       0.00056659995 0.036041666 -0.02892644 0.13302279

input_proj.weight f4 [64, 32]
000000 ca 27 ae 3d 01 71 f0 bd e2 4d 9a 3d f6 04 14 be
       0.08503683 -0.11740304 0.07534386 -0.14455017
000010 62 9c 4c 3d ac 5d 51 bd 2d d9 a1 bd eb 5c f1 3d
       0.049953826 -0.051114723 -0.07902751 0.11785301
000020 25 7e 2a be 6b 54 bd bd 56 c0 12 be b8 74 0b 3d
       -0.16649683 -0.09244617 -0.14331183 0.03404686
000030 0d 31 a7 3d db 08 0c 3e c7 a3 0b 3e 5c 37 46 bd
       0.081636526 0.13675253 0.13636695 -0.04839264
000040 73 68 a7 3d 37 8b 38 bd cb 9a 15 3e e2 31 28 3e
       0.08174219 -0.04505464 0.1460983 0.16425279
000050 c1 4b 85 bd a1 56 11 3e 01 22 00 3c 62 9e ce bd
       -0.065085895 0.14193203 0.007820607 -0.10088803
000060 b1 82 30 bc 55 7f de bd b9 4e ad bd 24 ec 2c be
       -0.010773347 -0.108641304 -0.08462281 -0.16886955
000070 d0 11 3d 3d 97 5a 28 3e 5f 36 38 3d 52 e3 85 3d
       0.046159565 0.16440807 0.044973727 0.065374985
000080 1a 0f 34 be b3 fe 01 be 53 b5 58 bd dd a9 1d 3e
       -0.17583886 -0.12694816 -0.0529073 0.15396829
000090 a2 4f ed bd df 3a 26 3d 2f 4d 8c bc 3f d2 26 be
       -0.115874544 0.040583488 -0.017126648 -0.1629114
0000a0 e1 a2 cc bc 2f 7a 4d 3e 70 b6 79 3d 9a b0 e5 bd
       -0.02498001 0.2006614 0.060965 -0.11215325
0000b0 fd a3 e6 3d f9 a1 82 3d a0 d0 00 be d0 c9 a4 bb
       0.11261747 0.0637855 -0.12579584 -0.0050289407
0000c0 9e 29 21 bc b3 e8 29 be f1 45 08 be d6 ed 8a 3d
       -0.0098365825 -0.16592674 -0.1330793 0.06783645
0000d0 81 9d 04 be ee 2a 3f bd 74 f9 73 bd 3c 58 e8 3d
       -0.12950708 -0.0466718 -0.05956407 0.11344954
0000e0 1e 6c d9 3d f6 4a 70 bd b1 7f 8c bd 91 be 1f be
       0.10616325 -0.05866524 -0.06860293 -0.15600039
0000f0 c4 a2 16 be 08 14 98 bd 7c 62 94 3d 00 b9 08 bd
       -0.14710528 -0.07425696 0.07245347 -0.033379555
000100 5c b1 d3 3d cc 68 00 3c 0d cf f1 3d 47 a3 e0 bd
       0.10336563 0.0078374855 0.1180707 -0.10968643
000110 0e 15 38 bd 37 43 26 3e a8 0a 15 be 3f fa d0 3c
       -0.044941954 0.16236578 -0.14554846 0.025509952
000120 8d 35 ed bd d7 c9 39 be d9 9f 32 3e 0d df c7 3d
       -0.115824796 -0.18143402 0.1744379 0.097593404
000130 66 86 f7 3d 51 18 ff ba f5 79 5c bd 72 4b c0 bc
       0.12086181 -0.0019462203 -0.053827245 -0.023473475
000140 3d b3 aa bd 5f ce c6 3d 0d 43 56 3e 56 39 2c 3c
       -0.08334968 0.09707331 0.20924015 0.010511717
000150 80 20 b9 bd 14 38 30 bc f2 8b e9 bd dd 53 0b be
       -0.09039402 -0.010755558 -0.114036456 -0.1360621
000160 a4 da 7d bd 06 de 03 3e 4d 04 a6 bd bc b2 da 3d
       -0.06197609 0.12877664 -0.08106289 0.10678622
000170 0a df 41 bd 19 f4 f9 bd 67 43 1b be 8e 32 f4 3c
       -0.047331847 -0.12204761 -0.1516243 0.029809263
000180 5c e7 33 3d b3 9f df 3c c6 4c 52 be 15 6c f9 bd
       0.043921813 0.02729783 -0.20537099 -0.12178818
000190 55 45 7a bd b8 b2 20 3d 6f ba 4f 3c f7 01 0a be
       -0.061101276 0.03923294 0.012678727 -0.13477312
0001a0 60 28 0b be 49 f0 35 be 5d da 36 bc d2 88 43 3c
       -0.1358962 -0.17767443 -0.01116046 0.011934476
0001b0 76 48 9d bd 9b ab 9f 3d c6 ed 20 3e e5 fe 59 3e
       -0.076798365 0.07796403 0.15715703 0.21288641
0001c0 8c 0b 5c 3d 3f 2f 08 be 2f a2 61 bd 05 bd 0c 3e
       0.05372195 -0.13299273 -0.05508631 0.1374398
0001d0 15 b7 b0 3d ee 7d d4 bd bb 44 06 be c1 78 12 be
       0.0862867 -0.10375582 -0.13112156 -0.14303876
0001e0 f5 3b 3e bc d3 13 45 3d 27 dd 5c be bf 90 d9 3b
       -0.011610975 0.04811461 -0.21568738 0.0066395695
0001f0 cb 27 0c 3e 78 3e fa 3d 07 70 33 3e f2 2a 4f be
       0.13687055 0.12218946 0.17523204 -0.20231226
000200 d6 37 8f bc 9e 09 e9 3d 25 8b c6 3c aa 9d 84 bd
       -0.01748268 0.113787875 0.024236271 -0.064753845
000210 2a 9b e6 bd 62 dc 89 3d a1 f0 28 be 4f c2 e4 3d
       -0.11260064 0.06731488 -0.16498043 0.11169874
000220 6b 6c b7 bd f4 3b 1a 3e 0c 3a 08 3d 5d eb d0 3d
       -0.08956226 0.15061933 0.033258483 0.10201142
000230 d2 a2 12 3e 34 55 d7 3d 93 cf 2d be db 09 33 3d
       0.14319924 0.10514298 -0.16973715 0.04371057
000240 1d 3d 13 be b5 e7 10 3e 88 54 b5 bd 7e 0d 63 bd
       -0.14378782 0.14150889 -0.08854014 -0.05543279
000250 2c 0a 25 be 93 1e 39 3c 45 51 c7 3c e5 75 2c be
       -0.16117162 0.011298793 0.024330745 -0.16841848
000260 42 30 0c 3e ae 33 1b bd 49 98 74 bb c6 60 e3 3d
       0.13690284 -0.037891082 -0.0037322214 0.111024424
000270 a2 62 72 3d 05 ab 35 3e be 3f dd 3d 93 ed 01 3e
       0.059176095 0.1774102 0.108031735 0.12688284
000280 8a 62 25 be b7 99 a8 bb 61 1c b3 bc d9 df 2c 3e
       -0.16150871 -0.0051452774 -0.021864118 0.16882266
000290 78 f5 18 bd 8b de 03 3e b0 b8 9a bd 02 c4 21 bd
       -0.037343472 0.12877862 -0.075547576 -0.03949357
0002a0 19 1b b8 3d c3 0f 2e be 69 42 b7 bc d4 67 c7 3c
       0.089895435 -0.169982 -0.022370534 0.024341501
0002b0 6d 1c 84 3d 32 22 90 3c d8 b6 c6 bc ee 22 23 3e
       0.06450734 0.01759443 -0.024257109 0.15931293
0002c0 26 62 55 3e 68 14 c1 bd 9d 53 ca 3d 64 64 83 bb
       0.20838222 -0.0942772 0.09879229 -0.00400977
0002d0 41 b2 29 be 18 36 d9 3c 5d 03 54 3d ff 28 85 3d
       -0.16571905 0.026515052 0.05176102 0.0650196
0002e0 07 39 39 be 96 84 b1 3c 0b b2 f9 3c 62 50 bb 3d
       -0.1808816 0.021669667 0.030480405 0.09146191
0002f0 2f 5a 03 bd 1e 23 14 3d b4 df 8c bd 20 6e 81 bc
       -0.032068428 0.036166303 -0.068786055 -0.015799582
000300 02 06 81 bd f7 27 83 bd 69 10 d4 3d 26 3a 9a 3d
       -0.06299974 -0.06404107 0.103546925 0.07530622
000310 5e 44 b8 bd 53 d5 88 bc d3 10 32 be b7 a4 2c 3e
       -0.08997415 -0.016703283 -0.1738923 0.16859709
000320 bd 41 22 bd 28 70 88 3d 90 61 05 3e 20 69 9d bc
       -0.039613474 0.06662017 0.13025498 -0.019215167
000330 73 49 d2 bd 0f 9a d5 bd 95 0d 93 bb fc 5b 99 3d
       -0.102679156 -0.10429775 -0.004487703 0.07488248
000340 40 03 99 3d 00 a1 8a bc 55 60 20 3e 7f 8b 0e be
       0.07471323 -0.016922474 0.15661748 -0.13920401
000350 dc d0 0d 3d e2 89 61 3d f6 db 04 3e df a0 d1 3d
       0.034623012 0.055063136 0.12974533 0.10235762
000360 8f aa 81 bd c1 53 08 bd db c3 e8 bb df bd 29 3e
       -0.063313596 -0.033283 -0.007103426 0.16576336
000370 93 a9 ae bd 98 bf 14 be e6 71 a8 3c 64 16 f1 3d
       -0.085284375 -0.14526212 0.020562124 0.11771849
000380 80 8c d4 3d 5f 23 d0 bd 15 a0 1c be 3a a5 0c 3e
       0.10378361 -0.101629965 -0.15295441 0.13734904
000390 44 78 0b be bd ac ba 3c c3 fc 02 3e 93 d1 c5 3d
       -0.13620096 0.022787446 0.12791733 0.09659114
0003a0 2f 8f 9a bd df 4b 19 3e b2 0c 03 3e 1e 66 ad bd
       -0.07546841 0.14970349 0.12797812 -0.08466743
0003b0 da d4 b6 3d 97 03 14 3d 24 67 ff bd ab 62 81 3d
       0.08927317 0.036136236 -0.124708444 0.063176475
0003c0 11 07 d3 3d 30 f2 36 3e 4c 38 6a bc 27 66 01 3d
       0.10304082 0.17865825 -0.014295649 0.03159156
0003d0 e7 e3 e8 bc 29 c4 dc 3d 59 f8 4e bc 7f f9 1d be
       -0.028428985 0.10779602 -0.012632453 -0.15427206
0003e0 07 0a f2 3d 2e 16 1e bd ba 85 b2 bc e9 e2 38 bb
       0.11818319 -0.03859537 -0.021792281 -0.002821142
0003f0 f8 70 f0 3d 63 be 92 bd f0 5f 04 3d f5 f9 48 bd
       0.11740297 -0.0716522 0.032318056 -0.049066503

input_proj.bias f4 [64]
000000 ce 54 d0 bd 05 ab 2c bb ec 5d af 3d 0d e9 ff bd
       -0.10172425 -0.0026347053 0.08562836 -0.12495623
000010 be c9 7f 3d 3c 5f 18 be 76 11 c4 3d 35 7f 56 3e
       0.062448256 -0.14880079 0.09573643 0.20946963
000020 30 14 02 3e 4a ab 0f 3e 36 6e 6a bd 23 51 13 be
       0.12703013 0.14030185 -0.05723401 -0.1438642
000030 fd 1b 4e be b1 cb 3c 3e ad ac 39 3e cc 25 68 3d
       -0.20127864 0.18437077 0.18132277 0.05667667
000040 c7 40 fc bd d3 89 14 3e ac 3d af 3d 6b ce 93 bd
       -0.12317043 0.14505701 0.08556685 -0.072171055
000050 48 fb 3e 3e 98 5b 13 be 8c 20 ab 3b 99 9e d4 3c
       0.18650544 -0.14390409 0.0052223857 0.025954532
000060 14 b1 42 be 3f a7 0e be 3d 6b f9 bd 8b 0b 0e 3e
       -0.19012862 -0.13930987 -0.12178657 0.13871591
000070 c1 73 27 3e 89 48 fc 3d ac a2 95 3d 59 a1 22 3e
       0.1635275 0.123185225 0.07306418 0.15881862
000080 ad 39 d0 3b f0 ce 7e bd cc 03 36 be bb 6d 04 3e
       0.0063545317 -0.06220907 -0.17774886 0.12932484
000090 bb a0 70 3d 41 51 fd 3d 6f 09 f8 3d 35 45 93 3d
       0.058747035 0.123690136 0.12111174 0.071909346
0000a0 fe d1 1c be 6a a6 27 bd 8f 6d d5 bd ea 5b 95 3c
       -0.1531448 -0.04093019 -0.10421287 0.018232305
0000b0 50 c0 43 bd 4c 17 92 bc 11 f7 a3 bd 07 b6 f5 3d
       -0.047790825 -0.017833374 -0.080061086 0.119976096
0000c0 b5 8d 42 3e 7b 69 52 3d 04 86 8b bd be e6 e5 3d
       0.1899937 0.051370125 -0.06812671 0.11225651
0000d0 c8 48 17 3e 13 0a 9c bb d7 ce 7d bc fa 0e a9 bd
       0.14773858 -0.004761943 -0.015491209 -0.0825481
0000e0 f4 f5 17 bc 99 31 5e be aa 37 ea 3d 75 1b ff 3d
       -0.009274948 -0.21698608 0.11436398 0.12456409
0000f0 80 9a e5 bd 46 88 90 bd a0 5f 2a bd 6c 89 db bb
       -0.11211109 -0.07057242 -0.0415951 -0.0066997316

msg_layers.0.W_self.weight f4 [64, 64]
000000 4a ef 86 3d ec 62 84 ba 07 c8 a2 3d 0a 81 32 3e
       0.065886095 -0.0010100282 0.079483084 0.17432037
000010 fd 28 15 bc ff ca fe bc 6f 13 11 be f7 c4 8b bd
       -0.009104011 -0.031102655 -0.1416757 -0.068246774
000020 b4 3c 79 3d e0 aa 13 3c 7f 6c 4e bc 64 64 61 bc
       0.060848907 0.009012908 -0.01259911 -0.013756845
000030 bb 4d 0c bd 6c 36 73 3d 07 61 33 3d 55 9a a2 bd
       -0.034253817 0.059378073 0.043793704 -0.07939593
000040 83 63 75 bd eb 4c 95 bc 29 e6 a5 3c cc fe 34 bd
       -0.059909355 -0.018225154 0.02025135 -0.044188306
000050 6c 0a ea bd d7 32 70 bd 97 91 e0 bd 36 04 1e 3c
       -0.11427769 -0.058642235 -0.10965269 0.009644559
000060 cd dc 35 3c c2 cb 79 3b c0 47 1a 3c 5c d1 22 bd
       0.011100006 0.0038115834 0.009416521 -0.039750442
000070 54 60 ff bd c2 53 cc bd d1 07 e8 bd c9 54 8e bd
       -0.12469545 -0.09976913 -0.11329616 -0.06949765
000080 a8 59 0b bc 9b c3 e2 3d a8 21 37 bc 6e bd 0e be
       -0.008505262 0.11072465 -0.011177458 -0.13939449
000090 f9 d3 d3 bd 21 61 3f bb 9f 5a 92 3d 7d 2f d8 bd
       -0.10343165 -0.002920218 0.07146191 -0.10555933
0000a0 75 b0 34 3d fd fc 07 be 1b ae 44 bd a5 2d a0 bd
       0.044113595 -0.13280101 -0.048017602 -0.07821206
0000b0 d7 74 f1 bc a0 cc a0 3d 5a fb 84 3d 83 bd b2 bd
       -0.029474659 0.07851529 0.06493254 -0.08727553
0000c0 15 c4 7a bd b1 f5 d5 bc 6f ca 12 3c 77 76 25 3e
       -0.061222155 -0.026118131 0.008959397 0.16158472
0000d0 68 c9 8b 3d 20 a2 2f bc 66 95 35 3c 3d 28 52 bd
       0.068255246 -0.010719806 0.011082983 -0.051307905
0000e0 09 2f 11 3d a6 14 11 bd 70 a6 da 3c 79 03 01 bd
       0.035445247 -0.035420083 0.026690692 -0.031497452
0000f0 d3 63 3a bd 18 91 59 be d6 08 26 bd 0d b5 13 3d
       -0.045505356 -0.21246755 -0.04053577 0.036061335
000100 d3 34 f6 bc 31 23 d3 bd 90 02 e7 3d 7a 78 fc bd
       -0.030054485 -0.103094466 0.11279786 -0.123276666
000110 24 63 2d bd c0 b1 45 3d 7e 42 a4 bd 6d 27 9d bc
       -0.042330876 0.04826522 -0.08020495 -0.019183839
000120 d1 af 49 bd c5 cf 58 3d 18 b0 a3 3d 3f 46 d6 3d
       -0.049239937 0.05293252 0.079925716 0.10462617
000130 c2 af 2f bb ad 5a 84 3c 3a 39 af bd bc b2 f7 bc
       -0.002680764 0.016156519 -0.08555837 -0.030236594
000140 9f 71 9c bd 8e eb 1a bd d7 02 fd bc 71 58 30 3d
       -0.07638859 -0.0378223 -0.030885143 0.043053094
000150 43 f5 b8 bd 9e ff 75 3d b2 0e f7 bd 58 ed b1 bc
       -0.09031155 0.06005823 -0.1206335 -0.02171962
000160 f8 de 76 bd 45 78 ae 3d 3e ec d3 3c 22 20 92 bd
       -0.060271233 0.08519033 0.025869485 -0.07135035
000170 6a 84 02 3e 67 62 d4 3d cf cf c5 3d c3 f0 6f 3d
       0.12745824 0.10370331 0.09658777 0.058579218
000180 e9 e3 7a 3d e6 7c 84 3c ad 90 7f bc 1a ac ec 3c
       0.06125251 0.016172837 -0.015598458 0.028890658
000190 e4 2e 46 bd 49 d7 ec 3d ca 37 c8 3d 6b 93 71 bd
       -0.048384562 0.115645 0.09776266 -0.05897848
0001a0 97 89 a8 3d 6c c1 38 3c 3b 2b d6 3c dd 6e 9b 3d
       0.08229368 0.011276584 0.02614366 0.07589505
0001b0 d3 5d 07 be d0 56 ea 3d 51 f3 b7 3d 0a cf 38 3d
       -0.13219385 0.114423394 0.08981956 0.045119323
0001c0 f8 47 e8 3d bf ea 29 3d 06 68 24 bd c6 1f 64 bd
       0.11341852 0.041483637 -0.040138267 -0.055694364
0001d0 dc e8 c7 bd b9 71 7e bd 8c 7f a8 bd b1 15 84 3c
       -0.09761211 -0.062120173 -0.08227453 0.016123625
0001e0 6a 87 19 3c e4 84 ed bd 38 98 d4 bd b1 7f e7 bd
       0.009370664 -0.115976125 -0.10380596 -0.11303652
0001f0 c8 36 15 be a8 30 c1 bd 88 d9 d0 bd 50 f1 e8 3d
       -0.14571679 -0.094331086 -0.10197741 0.11374152
000200 9a 61 7f bc bd d0 26 3d 4c 09 ec bb e2 f7 d9 3d
       -0.015587235 0.040726412 -0.0072032567 0.10642983
000210 ee af 43 bd 09 4c 5b 3d 69 55 57 3d 0b e0 e1 bc
       -0.0477752 0.05353931 0.052571688 -0.027572652
000220 4d 7e 3d bd ea eb 03 bd 2d 4c 08 bd 49 a5 91 bd
       -0.046263028 -0.032207407 -0.033275772 -0.07111604
000230 15 26 03 3e 43 d2 3a bd a5 af 97 bd 84 40 10 bc
       0.12807496 -0.045610677 -0.074065484 -0.008804444
000240 4d d9 11 3c b5 79 ad bd 1a 74 f4 bd 03 89 02 be
       0.008901906 -0.084704794 -0.11936207 -0.12747578
000250 a9 d1 0c be 14 e4 02 bd 55 85 0c 3c b4 fb 2d bd
       -0.13751854 -0.031955793 0.008576711 -0.04247637
000260 3c 47 a6 3c fb 58 07 3e 40 33 79 3b d9 ba 3a 3d
       0.02029764 0.13217537 0.0038024932 0.045588348
000270 9d 16 ca 3d e3 e9 cc bc 0c 2a e8 bd 27 c5 dd bd
       0.098675944 -0.02501387 -0.11336145 -0.108286195
000280 f1 99 9a 3d fa cd 09 3e 47 ba d8 3d 4b 46 d7 bc
       0.07548893 0.1345748 0.105824046 -0.026278635
000290 be 1f b7 bc 4a 37 f9 3d 37 c3 29 3e c6 01 a8 bd
       -0.022354003 0.12168749 0.16578375 -0.08203463
0002a0 1f 82 ea 3d da 81 80 bc c7 28 47 bd 4c e2 a3 bd
       0.114506 -0.015686918 -0.048622873 -0.08002147
0002b0 e3 57 86 bd 11 7f b5 3d 03 14 ab bb 2b b3 9f 3b
       -0.06559732 0.088621266 -0.0052208914 0.0048736534
0002c0 3e c4 03 3d 88 0c 25 3d a8 a9 7e bd 02 8f e3 3d
       0.032169573 0.040295154 -0.062173516 0.11111261
0002d0 da 3b 08 be 8e 3c 0a 3d fe 97 f8 3c 6f 37 bf 3d
       -0.13304082 0.033749156 0.030345913 0.09336745
0002e0 37 03 7f bc c7 7c 08 3d 96 ec f6 3d 92 c2 62 3c
       -0.015564731 0.033322122 0.12056844 0.0138403345
0002f0 43 4b 79 3c 27 88 5d be b8 62 d0 3d 28 77 b0 3d
       0.015215698 -0.21633969 0.10175079 0.08616477
000300 9a a1 cb bd 02 f1 4b 3d 18 82 9b 3d 40 0c 5f 3b
       -0.099429324 0.04979039 0.07593173 0.0034034401
000310 1e 68 50 bd 8c a3 94 3d ad b0 cb bd c9 e3 e4 bd
       -0.050880544 0.072577566 -0.099458076 -0.11176259
000320 69 cd 1a bc b7 2b 29 be 40 32 bc bd f1 64 c4 3d
       -0.009448388 -0.16520582 -0.09189272 0.095895655
000330 b8 93 92 3c 8e 83 88 3d 76 72 88 bd 68 53 e2 3b
       0.017892703 0.06665717 -0.06662457 0.0069069155
000340 a4 f2 71 bd e5 7d b3 3d ba 4e ef bd cf f3 00 bd
       -0.05906929 0.08764247 -0.11684938 -0.031482514
000350 9d 2a d7 bd 5e 87 9f 3d 0f 73 05 bd 34 ad 8c 3c
       -0.10506175 0.07789491 -0.03258043 0.017172433
000360 af 85 19 3e 57 be d9 bb 6a f6 c0 3d fe 0f 4c 3d
       0.14992402 -0.0066450047 0.09422 0.04981994
000370 d7 05 02 be f9 77 03 be 12 98 6c 3d ac e1 73 bd
       -0.1269754 -0.12838735 0.057762213 -0.05954139
000380 12 8b 4a bd ed 72 ae 3d 46 2b f0 3d 3d 7f 08 be
       -0.049449034 0.08518014 0.11727004 -0.13329788
000390 61 cb cb 3b 7d bd be bb da e0 98 3d 7c 83 85 3d
       0.006219313 -0.0058209286 0.07464762 0.06519219
0003a0 74 b8 1a ba 63 24 1a be 59 6e 93 bc 47 01 d6 3d
       -0.00059021194 -0.15052943 -0.017996954 0.104494624
0003b0 d6 36 6b 3c 0b b5 d5 bb 00 a7 11 3e b5 98 0d be
       0.014356336 -0.006521826 0.14223862 -0.13827784
0003c0 87 6f 8b ba d3 75 4b 3c cc 94 a3 3d 86 ed 20 3d
       -0.0010638096 0.012418228 0.07987365 0.03928902
0003d0 9a c1 35 bd 8f 1f a5 3d a0 c0 dd bd 8e bc c0 bd
       -0.044374086 0.0806266 -0.10827756 -0.09410964
0003e0 db 3a c6 3d 82 4c a4 bd 7a a1 4b bd 71 7e 2e bd
       0.096791945 -0.08022405 -0.049714543 -0.042601053
0003f0 4b 67 c1 3d 50 df 15 be 8a 75 f7 bc fa b5 84 3d
       0.0944353 -0.14635968 -0.030207414 0.06480022

msg_layers.0.W_self.bias f4 [64]
000000 ae 2e a2 3d f4 e0 0e 3d 8b 88 a5 bd 70 55 83 3d
       0.0791906 0.0348825 -0.08082684 0.0641278
000010 8a ce f5 bd 30 42 bf bd a4 4b 8c bd b0 1e 25 3d
       -0.12002285 -0.09338796 -0.06850365 0.04031247
000020 bc e0 37 bd d9 d3 33 bd 50 60 b0 bd df 81 4c bd
       -0.044892058 -0.043903206 -0.0861212 -0.049928542
000030 16 1f 81 3c bb f3 05 3c da 68 af bd f4 e6 e0 3d
       0.015761893 0.008175786 -0.08564921 0.10981551
000040 56 a4 f5 bd 4c a6 fe bb df 96 15 bc 90 c6 36 3e
       -0.11994235 -0.007771289 -0.009130209 0.17849183
000050 1d 58 d3 bc 9e ea dc bc fc 13 cc 3c 3a be b1 3d
       -0.025798852 -0.026967343 0.024911873 0.08678861
000060 f4 3e 48 bd b1 f5 1a 3d 48 61 00 bb ea 75 3c bd
       -0.04888816 0.037831966 -0.0019589234 -0.04601089
000070 c4 49 9e bd a6 f4 3c bc 59 79 1f 3c 64 8b b5 bb
       -0.077289134 -0.011532938 0.009733521 -0.0055402983
000080 ec 04 d4 bd 80 e7 1b bd 6f c8 98 3c 53 56 14 3e
       -0.10352501 -0.038062572 0.018650262 0.14486055
000090 22 a8 08 3d 60 2f 2c bd 88 cf a4 3c 4e 9d 67 3b
       0.03336347 -0.042037368 0.02011849 0.0035341564
0000a0 31 49 30 bb 11 05 f5 3b 41 4d 02 be 5d 69 a5 bd
       -0.0026899094 0.0074774106 -0.12724783 -0.08076737
0000b0 bb a8 d8 3d a2 f7 94 bd f4 e8 d0 3c ec 41 13 be
       0.10579058 -0.07273795 0.025501706 -0.14380616
0000c0 29 50 96 3d 34 4c 90 bd f7 4d 9d bd 70 b0 74 bc
       0.07339508 -0.070457846 -0.07680886 -0.014934644
0000d0 14 13 8d bb 3f f0 a6 bd b9 c5 a7 3c 03 5a 64 3c
       -0.004305253 -0.08151292 0.020480024 0.013937476
0000e0 2a 73 d5 3c 3e 7f c6 3c 92 dc a2 3a 6e f1 19 bd
       0.026055891 0.024230596 0.0012425354 -0.03758376
0000f0 e6 1e 37 bd 5c bf a8 3d cc 7a db bd 6a 70 a6 bd
       -0.0447072 0.08239624 -0.10716781 -0.0812691

msg_layers.0.W_msg.weight f4 [64, 64]
000000 55 ce 67 bd cc ad c3 3d df 98 54 bd 09 1d cc bc
       -0.056593258 0.095546335 -0.0519036 -0.024916189
000010 94 09 bd bc 43 53 a5 3c a0 4b d9 bd f0 58 e3 3d
       -0.023075856 0.020181304 -0.106101274 0.11100948
000020 64 d1 1e bd 98 a9 8c 3d 0a c3 8e 3a 8e db a9 3d
       -0.03877391 0.06868285 0.0010891866 0.0829383
000030 d1 22 dc bd 66 d4 db 3d 80 70 53 3d 80 89 d4 3d
       -0.10748828 0.10733871 0.05162096 0.103777885
000040 c7 72 9b bd a9 74 2a 3d fd 08 de bd 0d d1 c1 3d
       -0.075902514 0.041615162 -0.10841558 0.094637014
000050 89 ac c7 bd cd dd ba 3d a7 ee 9c bd 2b 21 ae 3c
       -0.09749705 0.091243364 -0.07662707 0.02125605
000060 59 17 3f bd 02 95 a9 bc f5 a8 1b bd 43 fb cd 3d
       -0.046653125 -0.020700935 -0.038002927 0.1005769
000070 bf ea 4a 3d 3a b9 a3 bd cf b8 3a bc 39 78 a1 bc
       0.049540278 -0.079943135 -0.011396601 -0.019710647
000080 46 cd eb 3c b8 1a 96 3d 69 e6 d3 bd 16 85 b4 bd
       0.028784405 0.07329315 -0.103466816 -0.08814447
000090 9d 57 ae bd 08 44 37 bd 6f cd 4c 3d 23 89 a2 3d
       -0.08512805 -0.044742614 0.050000604 0.07936313
0000a0 62 d1 4c bd f0 60 88 bd 73 ed e0 3d 16 98 a0 3a
       -0.05000437 -0.06659114 0.1098279 0.0012252356
0000b0 c3 00 40 3d 1a 32 a0 3d 97 82 01 3b 7e 4a fb bc
       0.046875726 0.07822056 0.0019761676 -0.03067517
0000c0 60 fa d2 3d b8 f1 5e bb 9e 6b b8 3d 2c 85 81 3c
       0.103016615 -0.0034018587 0.09004901 0.015810572
0000d0 16 8a c8 3c 58 c2 0c 3e 7b 98 d3 3d 9e 3e 6e 3d
       0.024479907 0.13746011 0.10331818 0.058165185
0000e0 70 a1 f6 3d 9e b3 a3 3c 4c 3d 2e 3d 7f 6e b6 bd
       0.120425105 0.01998311 0.042538926 -0.08907794
0000f0 ae 93 ef 3c 68 02 0f bd 46 52 c3 bd 42 bf be bd
       0.029245224 -0.034914404 -0.09537177 -0.09313823
000100 22 84 c4 3c 4b ca aa bb ba 77 a6 3d 20 a7 dc bb
       0.023988787 -0.0052121035 0.08128305 -0.00673379
000110 78 10 d4 bd 01 a8 1c 3d 09 cb 9c bc f6 e3 bc bc
       -0.10354704 0.03824616 -0.019139783 -0.023057919
000120 b9 57 76 3d e4 60 f6 3d ef 8d 97 bd 43 8b 32 bd
       0.060142253 0.12030199 -0.074001186 -0.04358984
000130 36 31 16 3d db 80 b7 bd ad 97 2d 3d 26 45 cf bd
       0.036668025 -0.08960124 0.042380977 -0.10120611
000140 a7 fa 6e bd 72 a4 86 bd fa 0d a1 3d 08 ce c5 3c
       -0.05834451 -0.06574334 0.07863994 0.024146095
000150 c0 54 db 3d 21 a0 c4 bc 77 d6 fc bd 62 4d b9 bc
       0.10709524 -0.024002137 -0.123455934 -0.022619907
000160 57 9d 42 bc f1 69 5a bc f5 39 0d 3e 45 04 d7 3d
       -0.011878333 -0.013330922 0.1379164 0.10498861
000170 3d ac d3 bc 98 db cf bd db 83 79 bd da ea 80 3d
       -0.025838966 -0.10149306 -0.060916763 0.062947944
000180 42 c3 5d bc ad 60 5c bd d5 4d 0e bb 21 a3 1a bd
       -0.013535323 -0.053803135 -0.0021713872 -0.037753228
000190 f4 81 d4 bd 4b 31 2d bc 8a 27 9d bd c5 41 b0 bd
       -0.10376349 -0.010570834 -0.07673557 -0.086062945
0001a0 e1 e5 c4 3d 03 28 4a 3d 99 30 84 bd 4a 9e 93 3c
       0.096141584 0.049354564 -0.06454582 0.018019814
0001b0 62 e6 91 bd fd 70 3c bd 24 66 08 3e a6 84 73 bc
       -0.0712402 -0.04600619 0.13320214 -0.014863169
0001c0 25 18 e1 bd ae 71 dd 3c 33 57 e4 bd 76 bc 1d bd
       -0.10990933 0.027031746 -0.111494444 -0.03850981
0001d0 d8 91 f3 bd 05 7f 73 3c df e2 73 bd 99 dd de bc
       -0.11893052 0.014861827 -0.059542533 -0.027205275
0001e0 67 d7 a2 bd 81 25 ca 3c 2f 01 49 bc 12 b7 ab bd
       -0.07951241 0.024676086 -0.012268349 -0.08384527
0001f0 6e 22 f2 3c a5 b2 ce bd 58 54 61 3c e3 7b f6 bc
       0.029557433 -0.100926675 0.013753019 -0.03008837
000200 0c 19 cd 3d 05 90 25 3d 3f dc a6 bd dd f9 c5 3b
       0.10014543 0.04042055 -0.08147477 0.006041749
000210 2a 74 8f bc 97 4e e1 3d 31 6f b8 3d 3d da 48 bd
       -0.017511446 0.11001318 0.09005583 -0.049036253
000220 c2 80 4d bc 69 df 96 bc 82 ec 95 3a 13 ae c7 3d
       -0.012542905 -0.018417077 0.0011438283 0.09749999
000230 40 56 99 bd df 3c e4 bd 8e a4 3d 3d dc 1c f1 bc
       -0.07487154 -0.11144423 0.04629951 -0.029432707
000240 8a b0 df 3c 33 2f b5 3b 3a 0d 21 3d 6b cf 0c bd
       0.02730586 0.005529308 0.039319254 -0.034377497
000250 59 47 4e 3d 53 fb 7d 3d 1d eb c6 3d 8a 16 94 bd
       0.05036101 0.06200726 0.09712813 -0.072308615
000260 19 f0 9b 3d 06 0b 86 bd a1 0e 43 bd 1b d1 4b 3d
       0.07614154 -0.06545071 -0.047621373 0.049759965
000270 41 a6 24 3d 1b a4 a8 3d df 51 bd bd 9b 7c f6 bd
       0.040197615 0.08234426 -0.09244131 -0.12035485
000280 44 69 79 bd c0 07 e8 3d 00 c7 b7 bc 52 2b 58 3d
       -0.060891405 0.11329603 -0.022433758 0.05277569
000290 3a f1 6a 3c 7b 58 86 bd 9c 44 2c bd d1 1a ad 3b
       0.014339739 -0.06559845 -0.04205762 0.005282738
0002a0 0f ce a5 bd d8 5e 39 bd 2a 27 bc 3d 05 7c 97 bd
       -0.08095943 -0.045256466 0.091871575 -0.07396702
0002b0 47 08 a6 bd 35 e7 a7 bd 44 39 43 bd 3a 6a bc 3d
       -0.081070475 -0.08198396 -0.047662035 0.091999486
0002c0 fe 80 c1 bd 53 ac 83 bc b3 12 98 3d 22 f2 c0 3d
       -0.094484314 -0.016073382 0.074254416 0.09421183
0002d0 cc d1 8e bd 02 ed d4 3d 3e 1a 63 bd 54 50 b2 3d
       -0.06973609 0.10396768 -0.05544495 0.087067276
0002e0 26 e1 77 bd af 64 5b 3d ca c8 31 bd 9f 3a 7e 3d
       -0.060517453 0.053562816 -0.043404378 0.062067624
0002f0 4a 3e 93 bd 55 09 d1 bc 56 15 6f bb ba 71 8b bd
       -0.07189615 -0.025517145 -0.0036481223 -0.06808801
000300 99 11 3e 3c 50 ec 9c 3d 6d 5f 7d bc ec 6f 9d bd
       0.011600875 0.076622605 -0.015464646 -0.07687363
000310 ee b2 2b bd 29 50 1c bd be 96 93 3d 0a ee 12 3c
       -0.041918688 -0.038162384 0.07206486 0.008967886
000320 b0 be c5 bc d4 36 df bd f5 4b b4 bc 11 ef 17 bd
       -0.024138778 -0.108991295 -0.022008875 -0.037093226
000330 1b 1a 00 be 4d c8 40 3e cf d8 1b 3e 9f f7 6f 3d
       -0.12509958 0.18826409 0.15219425 0.05858576
000340 9f db f9 bc e0 a0 93 3d dc da 72 3d 49 a2 db 3c
       -0.030500231 0.07208419 0.05929075 0.026810782
000350 20 95 d4 bc 06 34 98 3d be 9a 10 3e 93 c0 8f 3c
       -0.025950015 0.07431798 0.1412153 0.017547881
000360 2f ea da 3d a7 46 3f 3d 83 42 12 bd d0 30 7b 3d
       0.10689198 0.04669824 -0.03570796 0.061325848
000370 eb 94 d9 bd af eb ca bc bc e6 1f 3d c3 c2 e4 bd
       -0.10624107 -0.024770586 0.039038405 -0.1116996
000380 6e d2 63 bd 2c a6 92 3c 42 7c 2e 3d 53 8e 16 3e
       -0.055620603 0.017901503 0.04259897 0.1470273
000390 0a 4b b9 bd ea 37 91 bd 0c 7b f1 bc a4 38 38 bb
       -0.09047516 -0.07090743 -0.029477619 -0.0028109932
0003a0 bf 80 13 be f5 ff 04 3d a1 03 f5 bc 7d 5d 90 bd
       -0.14404581 0.032470662 -0.029908957 -0.070490815
0003b0 5d 55 97 3d 35 2b fb bc 85 94 c2 bd 1d 97 a2 bd
       0.07389329 -0.030660251 -0.09500984 -0.07938979
0003c0 40 78 c7 3d 7b f1 8d 3d 9f a7 58 bd a8 24 1a be
       0.09739733 0.06930824 -0.05289423 -0.15053046
0003d0 5a 71 04 3d 98 b7 b8 3d a9 fc 70 3d 8b 2b 86 bb
       0.032334663 0.09019393 0.058834706 -0.004094546
0003e0 cf f6 3c 3c 15 a2 fd bc 22 e2 28 bd 26 37 a4 bd
       0.011533453 -0.030961076 -0.041231282 -0.08018331
0003f0 e2 65 59 bd 4c a4 db 3d 7e 4e 1a 3d 64 f8 ec 3c
       -0.05307568 0.107246965 0.037672512 0.028927036

msg_layers.0.W_msg.bias f4 [64]
000000 47 a7 00 bd 99 98 8f bc 0b 88 c6 3c e2 e1 6f bd
       -0.031409528 -0.017528819 0.024234792 -0.058565028
000010 8c bb 7b bd e9 de fe bb 90 88 89 bd 52 07 38 3d
       -0.061458156 -0.007778038 -0.067155 0.044928856
000020 69 f3 c8 bc 0c 0e a9 3c 6f 5d 9e bd ec 18 99 bc
       -0.02453013 0.02063658 -0.07732665 -0.018688641
000030 49 5d e7 bd e6 5e 34 bd 57 04 81 ba 98 03 3c 3d
       -0.112970896 -0.044035815 -0.0009843212 0.045901865
000040 1f 5c 01 be 9a 8f 84 bd b2 27 11 bc 74 f7 95 3c
       -0.12632798 -0.06472702 -0.008859562 0.018306471
000050 7d c6 cb bd 32 64 f2 bd 1d 10 d4 3d 97 03 a1 3d
       -0.09949968 -0.11835517 0.10354636 0.07862013
000060 73 aa f1 3d 9c bf 2c bd 0e 67 92 3d 9b fe fd bd
       0.11800089 -0.04217492 0.07148562 -0.12402078
000070 da d2 72 3c 1d 63 84 3c ef 1b 42 3d c0 0d 01 bb
       0.014820779 0.016160542 0.04738992 -0.0019692034
000080 4b 5f 01 be 7d e0 77 bd f9 bd b8 3d cb 47 42 bd
       -0.12634008 -0.060516823 0.090206094 -0.04743175
000090 ea a1 2b 3d 8e 2a cc 3d 0e 1e b9 bd 53 55 32 bc
       0.04190246 0.09969054 -0.090389356 -0.010884601
0000a0 df fa d4 bb 76 28 a4 3c 82 9a 37 3c f9 00 9c bd
       -0.0064996327 0.020038825 0.011206271 -0.07617373
0000b0 31 88 6c 3d 35 47 4f bd f5 6e 45 3d 38 72 9a 3b
       0.05774707 -0.050605018 0.04820152 0.004713323
0000c0 95 18 7b 3d 47 fc 84 bd d1 ce cb 3c 0a 96 d0 3d
       0.06130274 -0.064934306 0.024878891 0.10184868
0000d0 dc 6b a5 3d 23 29 41 bc d4 cf ac 3d 46 5e fd 3d
       0.08077213 -0.011789593 0.084380776 0.12371497
0000e0 9c d2 48 3d 29 c7 a7 3c ad 88 70 3d eb ca 78 bc
       0.049028978 0.02048071 0.058724094 -0.015185098
0000f0 69 92 78 bd 8d 7d 64 bc 66 dc df bc 3f c1 0b 3e
       -0.060686503 -0.013945949 -0.027326774 0.13647936

msg_layers.0.norm.weight f4 [64]
000000 82 c3 7b 3f cb 19 80 3f c9 5f 80 3f c4 5f 8c 3f
       0.98345196 1.0007871 1.0029231 1.0966725
000010 3f a8 79 3f c3 bd 7f 3f e3 ae 7a 3f 7f bf 7e 3f
       0.9752235 0.9989893 0.97923106 0.9951095
000020 21 1a 75 3f ed 47 7c 3f b9 bb 78 3f 92 6d 89 3f
       0.95742995 0.9854725 0.9716144 1.0736563
000030 eb f3 84 3f c7 30 82 3f 47 64 72 3f ab 26 69 3f
       1.0386938 1.0171136 0.9468426 0.9107463
000040 dd b6 82 3f cc 81 71 3f c3 59 7f 3f d3 26 87 3f
       1.0212055 0.9433868 0.9974634 1.0558723
000050 0a 94 84 3f f6 46 80 3f d6 c0 73 3f 21 95 83 3f
       1.0357678 1.0021656 0.9521612 1.0279886
000060 d2 f3 78 3f 87 0a 6d 3f ca 40 80 3f 73 0d 7f 3f
       0.9724704 0.9259419 1.0019772 0.99629897
000070 31 c8 73 3f 1b e9 79 3f 68 c8 81 3f 33 3c 87 3f
       0.9522734 0.97621316 1.0139284 1.0565246
000080 ff 85 6f 3f 38 1d 81 3f a0 93 81 3f 9d c8 81 3f
       0.93563837 1.0087042 1.0123177 1.0139347
000090 bf b2 74 3f bb ab 72 3f 6c ce 7f 3f 00 f1 77 3f
       0.95585245 0.9479329 0.9992435 0.9685211
0000a0 3c 24 65 3f 19 35 8e 3f ba 72 7d 3f 74 70 7c 3f
       0.89508414 1.1109954 0.99003184 0.9860909
0000b0 cc 1c 7a 3f c8 0d 81 3f 92 e8 80 3f e1 08 80 3f
       0.9770019 1.0082331 1.0070975 1.000271
0000c0 eb 0a 83 3f f4 40 87 3f 62 48 73 3f 0e a8 6d 3f
       1.0237707 1.0566697 0.9503232 0.92834556
0000d0 b6 1d 83 3f 2d 46 76 3f b5 83 84 3f cf 7b 81 3f
       1.0243442 0.9620083 1.0352694 1.0115908
0000e0 d7 4c 7a 3f 89 82 8a 3f 8f a3 81 3f e6 c5 79 3f
       0.977735 1.0821086 1.0128039 0.97567594
0000f0 09 82 80 3f 61 5b 84 3f 22 f4 81 3f 5d 23 6d 3f
       1.0039684 1.0340387 1.0152628 0.92632085

msg_layers.0.norm.bias f4 [64]
000000 75 46 a4 bb ae 9a 89 3b 64 a4 9f bc e3 dc a0 bd
       -0.005013282 0.0041993475 -0.019487567 -0.07854631
000010 fc 19 db bb c6 37 4b bc 94 e4 c0 3c 56 aa 81 3d
       -0.006686447 -0.012403434 0.023546495 0.06331317
000020 35 22 0e 3d 8f 0d 1e 3b 2f 65 f3 b9 11 c4 cf bd
       0.03470059 0.0024116968 -0.0004642396 -0.101448186
000030 fd 71 43 bd b6 d5 9b 3c 05 6f ea 3c 8f 7a 93 3b
       -0.04771613 0.019022804 0.028617391 0.004500694
000040 cd 40 b6 bc 82 40 9d 3c ba dc 27 3d e4 6c 8d 3d
       -0.022247696 0.019195799 0.040981986 0.06905535
000050 86 94 0e 3d 4b 28 35 bc b3 04 1c 3d 51 96 33 3d
       0.03480961 -0.01105697 0.03809042 0.043844525
000060 0b b1 c2 bb ce ee 0b bb 49 0e 09 bd 32 15 42 3c
       -0.0059415153 -0.0021352055 -0.03346089 0.011845874
000070 be 70 1e 3d c6 0d 81 3c 79 4e 0c 3d 74 4b 11 bc
       0.038681738 0.015753638 0.034254525 -0.008868087
000080 39 1e 18 3b 4a f7 95 bc cf 40 e7 bc 36 d6 0b 3d
       0.0023211373 -0.018306393 -0.028229145 0.034139834
000090 67 6d 06 3c c1 eb a5 3c c6 48 18 3c 16 a3 1d 3d
       0.0082047945 0.020254018 0.009294694 0.03848561
0000a0 38 68 0b bc 17 d2 b7 3d c9 d3 82 3b ac ce 45 3c
       -0.008508734 0.08975618 0.003992532 0.0120732
0000b0 09 48 c8 3c e7 21 fb bc 95 10 c3 bc 21 98 32 bd
       0.024448412 -0.030655814 -0.023811618 -0.043602113
0000c0 1b 55 d1 3c 04 29 62 3d 47 9d 6f bc db c0 eb bc
       0.025553277 0.055214897 -0.0146249 -0.028778484
0000d0 54 91 ad 3d 15 9b 0a 3d a0 1f b9 3c 85 6a 08 bc
       0.08474985 0.033839304 0.022598088 -0.0083261775
0000e0 de a0 f9 3c 18 e9 9b bd 3a 02 05 bd e1 da 86 bb
       0.030472215 -0.076128185 -0.032472827 -0.004115448
0000f0 8d 05 7f bc 5d 73 46 3d dc a1 2c bd d9 96 5d 3c
       -0.015565288 0.048449863 -0.04214655 0.013524734

msg_layers.1.W_self.weight f4 [64, 64]
000000 ad c5 22 3d 2e d0 55 3d 76 d5 de 3d df 53 de 3c
       0.0397393 0.05220049 0.10880558 0.027139602
000010 ed 5a e1 3d d6 ef 4b 3d 9b 50 b9 bd 54 80 03 be
       0.11003671 0.049789272 -0.090485774 -0.12841922
000020 77 80 97 3d e9 1a 0f 3e f4 73 7b bd 52 b0 e2 3d
       0.073975496 0.13975109 -0.06138988 0.11068787
000030 a6 75 29 3d fa 5a 52 bd ed 0d 05 be 9f 22 20 3d
       0.041371964 -0.051356293 -0.12993594 0.039095517
000040 b0 b3 a3 bd 9c 82 0f bd 14 c7 fe bd e5 4a c9 bc
       -0.07993257 -0.03503667 -0.12440315 -0.024571845
000050 90 72 e9 bc cc 15 f1 3d 77 94 8b bd 64 eb 7d bd
       -0.02849701 0.117717355 -0.06815427 -0.061992064
000060 f4 1c 20 be 70 d7 49 bd d7 bd 99 bd 35 8b 4a 3c
       -0.15636045 -0.049277723 -0.07506912 0.012362291
000070 e2 14 92 bd 40 1c 32 3e 3a 2a f2 bd 80 c7 b2 3d
       -0.07132889 0.17393589 -0.1182446 0.08729458
000080 d5 74 44 bc 5b 7d 21 3d 11 78 33 3a f6 14 f3 bd
       -0.011990746 0.03942619 0.00068461994 -0.11869232
000090 c9 61 c9 3d 9c 26 4a bd 11 a7 0d 3e e0 ad f6 bd
       0.09833104 -0.049353227 0.13833262 -0.12044883
0000a0 2e 59 bc 3d 30 f0 f0 bd 9c f0 69 3c 19 e5 74 bd
       0.09196697 -0.11764562 0.014278557 -0.059788797
0000b0 99 fe 58 bd 56 2d 21 3e 4a b8 e2 3d 1a 25 9e bd
       -0.05297718 0.1573995 0.110703066 -0.0772192
0000c0 68 c9 14 be 9e e4 b5 3c fe 0a fb bd 80 ab 6f 3d
       -0.14529955 0.02220374 -0.12257956 0.058513165
0000d0 b3 01 a1 3c c0 8e 0b 3e 34 e6 00 be ac 1a e8 bd
       0.01965413 0.13628674 -0.12587816 -0.11333212
0000e0 a8 9e cb 3d a7 01 b6 3d c9 02 42 bd 5c 4e ad bc
       0.09942371 0.08887034 -0.047365937 -0.021155529
0000f0 4c fa dc 3d 4e a5 95 3d 49 7e 8a 3b 3e 6b d4 bd
       0.10789928 0.0730692 0.00422648 -0.10372017
000100 a0 25 e5 bd 68 c2 29 be f3 a9 a9 bd 04 d2 e6 3c
       -0.11188817 -0.16578066 -0.08284368 0.028176315
000110 c3 b3 ab bd 4d 22 ed bc e6 82 0e 3e 7e b8 ba 3d
       -0.08383896 -0.02894702 0.13917121 0.0911722
000120 ee 14 c2 3d ba f9 c7 bd 2a d7 38 bd 31 f7 a5 bd
       0.09476648 -0.097644284 -0.04512707 -0.08103789
000130 a7 03 ef bb 1d 19 1e bb c0 c3 30 3d c4 65 e0 3d
       -0.0072941366 -0.0024123855 0.04315543 0.1095691
000140 2a fa 20 bd 68 bb 83 bc 76 ae 37 3e fc 66 47 3e
       -0.039301075 -0.016080573 0.17937645 0.19472879
000150 b6 f4 35 bd 13 e0 7f bd 4f 54 42 3d 7f 29 19 3e
       -0.044422828 -0.062469553 0.047443684 0.14957236
000160 e4 43 6d 3c db 71 52 bc 04 ad 13 bd 26 6a 60 bd
       0.014481518 -0.012844528 -0.036053672 -0.05478873
000170 fe 39 3c 3d 7b 16 27 bd c0 aa c2 3d 53 1a 80 bd
       0.045953743 -0.040792923 0.09505224 -0.06255021
000180 cf 70 31 3d 47 55 1d be 8d 4f e1 bd 7d f0 53 3d
       0.043320473 -0.15364562 -0.11001501 0.05174302
000190 5c b4 0b be 4c c0 b1 3d d7 3b c6 bc 61 d7 89 bd
       -0.1364302 0.08679256 -0.024198456 -0.067305334
0001a0 d7 88 6e bd 29 06 f4 3c 33 31 2a bc f9 dc 86 bd
       -0.05823597 0.029788094 -0.010387707 -0.06585116
0001b0 ac ee 87 3b 12 aa 18 be a3 aa 3f bd 2e 6f 2e be
       0.004148325 -0.14908627 -0.04679359 -0.17034599
0001c0 35 3c 14 3e 4d be 29 bd 61 70 36 3c 24 9e 39 3c
       0.14476092 -0.04144125 0.011135192 0.011329208
0001d0 fc 8f 9a 3d be 7f 0f be 11 1f 84 bc b8 33 20 bd
       0.07546994 -0.14013574 -0.016128095 -0.039111823
0001e0 94 b3 78 bd 99 68 94 bd 30 e9 32 be cb 2c e6 ba
       -0.060718134 -0.07246513 -0.17471766 -0.0017560957
0001f0 ed 4f 9e bd 7d 40 3a 3e 09 a4 5c 3d 70 50 49 3e
       -0.077300884 0.18188663 0.053867374 0.1965959
000200 e1 c8 de 3c 36 54 3c 3e e7 8c b8 bc 77 21 c4 3d
       0.027195396 0.18391499 -0.022528125 0.095766954
000210 fb 9d 6d bd 71 cb b3 3d 40 57 6d bd 1e 49 a0 bd
       -0.05801199 0.08779038 -0.057944536 -0.07826446
000220 42 9a 14 3d 52 d5 8b 3d af 77 03 bc 99 28 8d 3d
       0.036279924 0.06827797 -0.00802414 0.06892509
000230 e8 83 1c 3e eb 56 0a 3e 2c 7d f1 bd 81 c3 40 bd
       0.15284693 0.13509719 -0.11791453 -0.047061447
000240 fb f9 4e bb 8b 1a 84 bd 5d 68 de bd 62 84 1c bd
       -0.0031582105 -0.06450375 -0.108597495 -0.038212188
000250 cc ee be bc b5 c4 67 bb 29 66 5f bd 5d 68 67 bc
       -0.023307227 -0.003536505 -0.054540787 -0.014124003
000260 cf 47 13 bd 38 6d fd bd 24 e6 20 bd 2e a6 43 3d
       -0.035957154 -0.123743474 -0.03928198 0.047765903
000270 59 44 ed 3d af b5 24 3e 9e 00 0f be f2 dc cc 3d
       0.11585302 0.16084932 -0.13965079 0.100030795
000280 e0 be 6b bd a6 61 e8 bc 9f 5d 11 bd b9 31 ac bd
       -0.05755508 -0.028366875 -0.035489675 -0.08407921
000290 05 34 0c bd 1a 09 a7 bd 68 ef a3 3d e2 73 2d 3d
       -0.034229297 -0.08156033 0.080046475 0.042346843
0002a0 6f 31 ab bb 19 d6 ca bd e6 93 3b 3d d1 14 db 3d
       -0.005224399 -0.09904117 0.045795344 0.1069733
0002b0 a6 56 2b be 75 d6 5e bd 7b 86 13 3e 41 33 51 bd
       -0.16732273 -0.05440374 0.14406769 -0.05107427
0002c0 65 a7 c3 3d 5b d1 07 3d 8c 09 c7 bc a1 1e da 3d
       0.09553412 0.03315864 -0.024296544 0.10650373
0002d0 97 9a 6b 3d a5 cb 5d bc 57 7f 54 3c 7c 93 a2 3d
       0.057520475 -0.013537322 0.012969813 0.07938287
0002e0 52 f2 54 3d 11 0c 11 be 73 a4 d5 3d 32 c1 59 bd
       0.051988907 -0.14164759 0.10431757 -0.05316276
0002f0 18 08 b8 3d 2b 8a 98 bc 85 9d 1f 3d 33 40 b0 3b
       0.08985919 -0.018620571 0.03896858 0.005378747
000300 4b ea 7b bd 89 0e a6 bd 88 83 d8 bd f4 0e bd bd
       -0.061502736 -0.08108241 -0.105719626 -0.09231368
000310 c7 61 72 bd 04 e5 a9 3d 76 a3 ed bc 11 10 0a bd
       -0.05917528 0.082956344 -0.029008608 -0.03370673
000320 02 a3 8e bd 6c 21 05 bd 18 49 1b 3e b1 5b a9 3c
       -0.06964685 -0.032502577 0.15164602 0.020673605
000330 e7 38 8d 3c af 6e 04 3d 2d 92 4d 3d dc c0 dd bc
       0.017239047 0.03233212 0.050188232 -0.027069502
000340 9b 43 80 3d f3 46 04 3e 6f 62 29 3d 85 ec 03 bc
       0.06262895 0.1291769 0.04135364 -0.008051996
000350 71 30 55 3d 22 63 f8 bd 64 2a 0b be 14 b0 1a bd
       0.05204815 -0.12128283 -0.1359039 -0.037765577
000360 52 ed 0f 3e 2d b7 83 bd 0e ce ed bc 29 8d af 3d
       0.14055374 -0.064314224 -0.029028919 0.08571846
000370 8f d2 af 3d 6d ca 2a bd 93 d8 90 bd 26 2a c1 bd
       0.08585083 -0.041696955 -0.07072558 -0.09431867
000380 ef 0d ee 3d b0 39 88 3d 38 90 18 bd a9 74 b6 bd
       0.11623751 0.06651628 -0.037246913 -0.0890897
000390 4a c8 5d 3d a0 00 65 bc 6d 16 3d 3d 0b 20 d2 3b
       0.05414609 -0.0139772 0.046163965 0.006412511
0003a0 58 31 f3 3c ba 2c d5 bd 22 10 e4 3c e3 47 a4 bd
       0.029686615 -0.104089215 0.027839724 -0.08021524
0003b0 bb f0 11 3e ba 14 a9 bc b4 dc 55 3d 6b e9 4a 3d
       0.14251988 -0.020639766 0.052212432 0.04953901
0003c0 3a 79 1e be b4 03 e7 3d 56 bf b8 3d b5 76 c3 3d
       -0.15475932 0.11280003 0.090208694 0.09544126
0003d0 34 39 f1 3c 51 3a 6f 3c 8a e6 d9 3d 81 22 25 3e
       0.029446222 0.014601306 0.10639675 0.16126443
0003e0 24 71 21 3d 7d a7 50 3d ff cf 99 3d 73 3c 0c 3d
       0.03941454 0.05094098 0.07510375 0.034237336
0003f0 fe 69 45 3c ad e6 91 bd 48 4f a4 bd cc 12 8a 3d
       0.012049196 -0.07124076 -0.08022934 0.067418665

msg_layers.1.W_self.bias f4 [64]
000000 c0 36 c1 bb 54 88 ce 3d 72 dc e6 bd 5f 17 7a bd
       -0.0058964193 0.10084596 -0.11272515 -0.061057445
000010 ef 13 30 bd 51 f4 91 bc df c8 da bc 4b 54 0e 3e
       -0.04298776 -0.017816694 -0.02670711 0.13899343
000020 02 da 4f 3d 66 02 05 be 77 1f 10 3c 82 10 dd bd
       0.050745018 -0.12989196 0.008796564 -0.10794164
000030 a7 d0 8f 3c 05 8f 0f 3e 6e 38 04 3e 0b cc 14 bd
       0.017555548 0.14019401 0.12912151 -0.036327403
000040 fa f8 b1 bd 85 1a 03 be f3 ce cd 3c 2d d4 60 3e
       -0.08690067 -0.12803085 0.025123095 0.21955939
000050 c8 cc 0b 3e bd e6 f0 bd 62 b5 36 bd 71 85 22 3d
       0.13652337 -0.1176276 -0.044606574 0.03967804
000060 1c 36 0b 3e 7b 9d 0c bd 40 5f bc bd 51 1c 86 bd
       0.1359486 -0.034329873 -0.09197855 -0.0654837
000070 93 ba bb bd 10 c7 3d bd 82 91 c7 bc bb 83 a7 bd
       -0.091664456 -0.04633242 -0.024361376 -0.081794225
000080 a2 e4 47 3d eb 60 e0 bd 86 e8 63 bc 03 ad 1f 3d
       0.048802026 -0.10955986 -0.013910418 0.038983356
000090 dc b2 c9 3d 23 11 4c bd 7c e0 37 bd f0 39 81 3c
       0.09848568 -0.04982103 -0.04489182 0.015774697
0000a0 86 b3 de 3c c6 a6 c3 3e a5 00 ef 3d 28 3b b4 3d
       0.027185213 0.38213176 0.11670045 0.08800346
0000b0 98 ad 49 3d 42 82 9d 3d a5 46 04 be c5 4b 8e 3d
       0.049237818 0.0769086 -0.12917574 0.06948046
0000c0 06 2a fd 3d 55 a9 46 bd d4 f6 40 bc c4 66 27 bd
       0.12361531 -0.04850133 -0.011777598 -0.04086949
0000d0 40 60 ac bc eb 21 aa 3c fa 60 cf bd b5 4e e2 3d
       -0.02104199 0.020768126 -0.10125919 0.110501684
0000e0 92 5c 19 bc 80 26 8c bc 3b f8 ef bc 3c 3d 21 3d
       -0.009360449 -0.017108202 -0.02929317 0.03936504
0000f0 dd ef 56 3d 4e 71 4b bb ee 00 8b bc 4f d6 b0 3d
       0.052474845 -0.0031042877 -0.016968217 0.08634626
