QuantLaxmi_Research/dtrn/results/checkpoints/fold1_NIFTY/dtrn_stage2.pt (torch, 232927 bytes, 37 tensors)

embed.embed.0.weight f4 [32, 2]
00000000: 22c8 3b3f 76da 06be b8d6 983d 0b9b 8ebd
00000010: e5da c1be dc0d 2e3f 2d73 313f 7bda ef3e
00000020: 3027 9e3e 0e52 2c3f 8960 723e 5444 e7be
00000030: ebdb 863e e6fb 4abc 9198 d3be 701b eb3e
00000040: 7cd4 8c3d 0675 14bf 6eea 28bf a0dc 293f
00000050: 4215 123f 1ab7 d43e 3f9f ca3e f711 2d3f
00000060: 384c 423f 7a1e d9bd dd16 943d 056b f0be
00000070: 6d86 233f b271 fc3d 22b8 2c3f 1e5d d0be
00000080: 6adc 01be 733f 1ebd 7b59 c5be 469d 653e
00000090: 1bd7 bdbd 7382 623e a4c9 57be 9818 b93e
000000a0: 55a6 8b3e a97c 213e d76a ed3e 09e1 0c3f
000000b0: 7f0a a7be 7d63 29bf f2ee f6bd 3e16 24be
000000c0: c52c 3ebd 297a 063f 8d20 de3d aec3 c33e
000000d0: 4913 33bf d810 853d 6097 063c 7f49 1fbd
000000e0: 1914 1a3e c8e7 3d3e ba63 5abd 9b6b c53e
000000f0: 85f4 68be e258 80be e678 9dbe dea5 003e
0.73352253 -0.13169274 0.07462829 -0.06963166 -0.37862316 0.679899 0.6931637 0.46846375
0.30889273 0.67312706 0.23669638 -0.45169318 0.2633966 -0.012389159 -0.41327336 0.4591937
0.06876466 -0.57991064 -0.6598271 0.6635227 0.57063687 0.41545945 0.3957462 0.6760554
0.7589755 -0.10601516 0.07230923 -0.4695665 0.6387699 0.12326373 0.67468464 -0.40696043
-0.12681738 -0.03863473 -0.3854483 0.22423276 -0.09269544 0.22120075 -0.21073014 0.36151576
0.2727534 0.1577021 0.46370575 0.55030876 -0.32625195 -0.6616743 -0.12057294 -0.1602411
-0.046429414 0.5253015 0.10846052 0.3823523 -0.699513 0.06497353 0.008214802 -0.03888845
0.15046729 0.18545449 -0.053317763 0.3855866 -0.22749527 -0.25067812 -0.307563 0.12563273

embed.embed.0.bias f4 [32]
00000000: 5cd6 78be a537 2cbf e4de 14bf d904 b7be
00000010: eb87 a5bd a9c2 123f 9b8d 13bf 6008 e73d
00000020: bb6c 813e d03b fdbe 1501 0e3b 9ed1 9f3e
00000030: 4409 903e c73f 343f e2b6 693e 4c05 813e
00000040: eb4b 6e3e e816 97be 9b5d 0fbe 7fbb 2fbf
00000050: 663e a0be 3370 e6bd f8ee 9d3e 95fd 20bf
00000060: 29ea a4be 8efd 00bf f2b5 8ebe 458e a53e
00000070: 5553 f4be 6677 fabe 0b14 f2be 0e86 063e
-0.24300522 -0.67272407 -0.58152604 -0.35745886 -0.08082565 0.5732828 -0.5763795 0.11280894
0.25278267 -0.49459696 0.0021668125 0.31214613 0.2813207 0.70409817 0.2282367 0.25199354
0.23271148 -0.29509664 -0.14000551 -0.6864547 -0.31297606 -0.11251869 0.3084638 -0.62886935
-0.322099 -0.50386894 -0.27873188 0.32335106 -0.47719827 -0.4891922 -0.47280917 0.13137075

embed.embed.2.weight f4 [32, 32]
00000000: 651a 6c3d 6799 debd 514a 29be c152 0e3e
00000010: ad05 febb 3e8e c3bd 7746 2fbd 9ebc 113e
00000020: 2c0e 1c3e 92d7 6b3d 4617 ecbd b368 1d3e
00000030: 4cc6 f53d 53bd 063d f60e 8bbd 7dd7 0f3e
00000040: 51d7 1d3d 8aca 62bd f96a 3bbd a793 2ebe
00000050: 148a e0bd 44f5 20be 36be e23d 6ad7 ec3d
00000060: fb1e a3bd 3785 d23d e625 20be 6ef8 eebd
00000070: 98ed 293e 2791 363d 8da6 b73c dd3a 2a3e
00000080: ad35 21be 1649 7f3d c011 88bd 022b f53d
00000090: f3c0 a2bb a181 553e f5f1 15bd ed2d 9b3d
000000a0: a96a 0fbe 590b 85bd b183 cabd 8948 01be
000000b0: e876 ad3d a602 693e c157 303d fcb5 673e
000000c0: 8509 e93d 8764 d73d 5d54 33bd 919e 3abe
000000d0: ad71 c53d f013 d63d 59d0 86bd 92b3 cdbd
000000e0: 9793 4cbe 6cf2 29be 2a57 233d a03b 84bd
000000f0: c9ef 043d 5795 583d 8023 9cbc c77c 8cbc
00000100: bc87 ccbd cd6e d13c ae96 e8bc d2a0 fcbc
00000110: f147 edba 3bd7 bfbd 9986 503e 0d6e e2ba
00000120: 0924 57bd 233f 50bc 1ba6 cd3c 9d51 78bd
00000130: 0f98 9d3d 2488 c6bd 7f7f 813d 1d08 00be
00000140: c40d 753d fe60 d13d 3998 cc3c 6eb9 983d
00000150: b909 8e3d 9a48 a6bc d5e7 ec3b 553f 173d
00000160: 1c7e 52bd c61f 0d3e e89b cebd 959a 35bd
00000170: ef90 bebd e6e9 753d 6ae1 2b3e 8d9d 76bb
00000180: 6a22 a9bd 8aac 6b3c 09c3 2a3e f82d 34bc
00000190: c1aa 25bd 93df 8f3c b70b 10be d512 433c
000001a0: 2f3d 083b 4ed8 0cbe 5c11 b83c fab1 f73c
000001b0: 69a6 51bd 3b35 13be 409c b53d d334 a33b
000001c0: 0687 73bd 0622 4dbc f346 533e 14c8 b03d
000001d0: d79d cb3d 22ba da3c 1af9 dfbd 9662 0c3e
000001e0: 6e41 203e 8eec d6bd b8bd c63c c8e4 e8bc
000001f0: f45d c23d 32da 283e d5f3 0bbe a4b4 2d3d
00000200: 9c33 f2bd dfad 0ebd d59c c6bc dbcc 70bd
00000210: 7a5c 873d 0fb6 24bd 6480 b2bd ecaa efbd
00000220: 747b 8fbd 17e9 d73d f770 e53d 2a90 0fbe
00000230: d546 92bd 9145 4ebe bcba 063e 1c52 a23d
00000240: 6b08 d33d b9f6 a33d c1cd 273e 3ac1 753d
00000250: 1060 133e 0f94 193e 63b8 6bbe feb5 ea3d
00000260: dc7f b53d 3c83 b33d 3049 17be f875 febd
00000270: 6d79 183e 5727 283e c206 453e bef8 a2bd
00000280: 36f1 9b3b bda8 a63d 6190 313d 9fc8 0abe
00000290: 62d8 013e 03f1 1f3e 0aaf bbbd c964 3dbd
000002a0: c614 0b3d b01f d7bb 2912 813d d13b 83bd
000002b0: 46f0 3b3d 4715 fe3d c737 fc3d 9c2c e3bd
000002c0: ffbf 013e 690a f13d 0ab0 a3bd 8e70 2bbe
000002d0: 8c90 013e c057 f23d 3278 c0bc db43 813d
000002e0: d78d 013e 537a 05bd f71e 20be f318 283e
000002f0: 4ea4 0d3e a1c0 663c a5e9 b1bc 734a cebd
00000300: 4d25 af3c 7cac 913c 6fac 8dbb 4bf8 f93d
00000310: 00da 29be ed9c 563d ef08 a0bc 02e0 343e
00000320: 92dd 573e 22ab b33d 056a 8bbd a9f1 f6bd
00000330: c654 a4bd 7ba8 aebd 7064 83bc 43ea c2bd
00000340: 60a7 51bd 05d1 fcbc 9c94 cd3d 3d9f c83d
00000350: 890f 51be 48fa cabd 5a6e 5d3e b3aa 53be
00000360: 75bf c63d 739a 0dbe c1ad ac3a 4b0d 023e
00000370: f145 e6bb 8bc1 9cbd 208f 15be 4e87 8ebd
00000380: e5f1 7fbc f8f6 47bd 5da2 05be 2ebe 15bd
00000390: 6cb9 353e 9107 c8bb de31 5f3e 25af 2f3b
000003a0: edb4 15bd 01ca 94bd 358f 063d 251e f03b
000003b0: d3ee 4ebe af22 5ebe d055 df3d 2538 5ebe
000003c0: 2988 f9bd 4d4c 263e 5dbc 83bc 34f0 2fbd
000003d0: ed81 fb3d ec96 15be f4aa 1ebd df8c db3d
000003e0: 020a 4b3e 021f 403e 9646 3bbe 3a71 22be
000003f0: ab2a 4dbc 149c 133e 2c79 183e 6c57 3c3d
0.05764236 -0.10869103 -0.16532256 0.13898756 -0.0077521414 -0.09548615 -0.04279181 0.14232108
0.15239781 0.05757863 -0.115278766 0.15371971 0.12000713 0.032895397 -0.06789963 0.14047046
0.03853542 -0.055368938 -0.045756314 -0.17048512 -0.10963836 -0.15718561 0.11071436 0.115645245
-0.079648934 0.10279315 -0.15639457 -0.11668478 0.16594541 0.04457202 0.022418285 0.16624017
-0.15743132 0.06232556 -0.066440105 0.11971094 -0.004966849 0.20850231 -0.0366077 0.07577119
-0.14005531 -0.06496305 -0.098883994 -0.12625326 0.08469945 0.22754917 0.04305244 0.22628015
0.11378769 0.10517221 -0.043781627 -0.18224551 0.096408226 0.104530215 -0.06582708 -0.10044016
-0.19978176 -0.16596383 0.039878048 -0.06456685 0.03245524 0.052876797 -0.019059896 -0.017149342
-0.09986827 0.02556553 -0.028392162 -0.030838404 -0.0018103105 -0.09367224 0.20363845 -0.0017275229
-0.0525246 -0.0127103655 0.02510362 -0.060624707 0.076950185 -0.096939355 0.06323146 -0.12503095
0.05982758 0.10223578 0.02497493 0.07457243 0.06935448 -0.020298291 0.007229785 0.036925633
-0.0513898 0.13781652 -0.100883305 -0.044336874 -0.09304988 0.060037516 0.16785207 -0.0037630529
-0.08258517 0.014384398 0.16675963 -0.010997288 -0.040446047 0.017562663 -0.14066969 0.011906345
0.0020788421 -0.13754389 0.022469215 0.030236233 -0.05118409 -0.14375775 0.08867693 0.0049806624
-0.05945494 -0.012520319 0.20632534 0.08631912 0.09942215 0.026700083 -0.10936184 0.13709483
0.1564996 -0.10494338 0.024260387 -0.028429404 0.094905764 0.16489485 -0.13667233 0.0424086
-0.1182625 -0.034833785 -0.024244705 -0.058789115 0.066094354 -0.040212687 -0.08715895 -0.11702523
-0.07005969 0.10542505 0.11203187 -0.14019838 -0.071424164 -0.20143725 0.13157171 0.07925817
0.1030434 0.08006043 0.16387083 0.05999873 0.14392114 0.14997886 -0.23019557 0.114604935
0.08862278 0.08765265 -0.14774013 -0.124248445 0.1489007 0.16421257 0.19240859 -0.079576
0.004758979 0.08137653 0.04335058 -0.13553093 0.126802 0.15619282 -0.091642454 -0.046238694
0.033955358 -0.0065650567 0.06302292 -0.064078934 0.04588344 0.12406402 0.12315326 -0.11092493
0.12670897 0.11769564 -0.07992561 -0.16742155 0.12652797 0.11833143 -0.023494814 0.063117705
0.12651764 -0.03258736 -0.15636812 0.16415767 0.13832209 0.014084012 -0.021717856 -0.10072794
0.021380091 0.017782442 -0.004323534 0.12205561 -0.16587067 0.05239575 -0.01953551 0.17663577
0.21080616 0.08772875 -0.06807331 -0.12057812 -0.08023982 -0.08528229 -0.016039103 -0.09517338
-0.051185012 -0.030861387 0.100381106 0.09795997 -0.20416082 -0.099110186 0.21624127 -0.20670585
0.09704486 -0.13828449 0.0013174341 0.12700383 -0.0070273806 -0.07654103 -0.14605379 -0.06959401
-0.015621637 -0.048819512 -0.13050218 -0.036558323 0.17746514 -0.0061044176 0.21796367 0.0026807275
-0.036549497 -0.07265092 0.032851417 0.0073278123 -0.20208292 -0.21692918 0.10905039 -0.21701105
-0.121841736 0.16240044 -0.01608103 -0.042953685 0.12280641 -0.14608353 -0.038737252 0.107202284
0.19828036 0.18761829 -0.18288645 -0.15863505 -0.01252238 0.14415008 0.14889973 0.04598181

embed.embed.2.bias f4 [32]
00000000: 6e4b 66bd 7fa4 afbc 63d9 68bb 5296 3fbe
00000010: 3c0c 093e 9dd5 14bc c0ee 26bc 0a56 e23d
00000020: c524 073e f0aa d93d 7cde 22bd 16e0 7f3c
00000030: 4623 75bd 0cfc e43c a34b 1ebe cccb 713d
00000040: 60ba 083d 1e8b 30bd 15ae a73d 6109 2ebe
00000050: 55fb 703d 4272 c73d b342 fe3d 8a50 c7bc
00000060: 1f97 2b3c 1c21 1dbc ffc8 f13d 1508 8ebc
00000070: 086b d73c 253d 1dbb 87be b33c fbc4 c83d
-0.05622428 -0.021440743 -0.0035529963 -0.18709686 0.13383573 -0.0090841325 -0.010188758 0.11051567
0.1319762 0.10628307 -0.03976296 0.015617391 -0.059848092 0.027952217 -0.1545854 0.059032246
0.033380866 -0.043101422 0.081875004 -0.16995765 0.05883344 0.0973859 0.124150656 -0.024330396
0.010473042 -0.009590413 0.11805915 -0.017337838 0.026296154 -0.0023992744 0.021941436 0.09803196

input_proj.weight f4 [64, 32]
00000000: a8e1 733d 82d6 d4bd 51b7 9d3d 91b1 1ebe
00000010: 3417 883d 05ad 6ebd 0159 b3bd 0c43 073e
00000020: 3c97 39be 8dcf 9abd 452a 26be b177 2b3c
00000030: 142b 4a3d 8cfb 073e 6328 043e 6171 84bd
00000040: 74d5 803d 0185 6fbd 0725 063e eace 173e
00000050: 9560 4ebd 82da 1d3e 13a0 dd3c 1a6a a2bd
00000060: 87ba 8b3c d798 c2bd 791e 84bd c9ab 3cbe
00000070: 184b 673c f163 3a3e 98eb 433d 85db 993d
00000080: a909 1ebe 9e22 fdbd 42fb 99bd a880 123e
00000090: 2cde cdbd c6a1 5b3d e8e2 78bd fa14 17be
000000a0: c204 04bd b05e 583e 8d5e 843d 6f74 17be
000000b0: c2f2 ef3d bc8a 923d fd1e 19be aa9d 95bc
000000c0: 8fc5 83bc 2630 35be 7c3e 0cbe c60a 6d3d
000000d0: 7774 cdbd 5095 edbc f9e4 08bd 06e0 f23d
000000e0: 7141 e23d a4ce 3fbd fea4 8dbd 8131 25be
000000f0: 5ea1 13be 1a73 92bd 695f a63d 59bd ff3b
00000100: 384a c53d 6f2c 173b ad14 063e bbf8 d8bd
00000110: 8535 0dba c6b1 233e ce6d 45be 5f1e 803d
00000120: dd74 26be f0f7 2cbe 8f8d 253e 03c5 3c3d
00000130: 7702 d53d b707 293a 0302 83bd c555 88bd
00000140: adff c6bd a8d7 b83d 6fc5 413e caa9 0f3c
00000150: bb6b 47bd b008 3f3b 7888 c9bd 8586 09be
00000160: 8fd6 11bc 576e 2e3e 65d2 74bd 052e 7d3d
00000170: ec80 b9bd d145 91bd 4747 33be 6bc5 9f3d
00000180: 8f26 013d 3f29 863d 9a6d 60be 8368 10be
00000190: 864e 7fbd 0b2b a03d ee4f 0dbd dece 23be
000001a0: e759 07be 8d2c 1fbe e017 38bd a657 fabc
000001b0: da60 ebbd ba50 313d afd4 0d3e 5dfe 273e
000001c0: 1570 973c dd76 24be b6bb c1bd cb85 fa3d
000001d0: 1c4c bd3d 73fb 9bbd a770 02be 5643 01be
000001e0: b7a1 863c b988 0f3d b521 30be 0366 5b3c
000001f0: de90 c33d 9b99 023e a6ae 393e 2b84 27be
00000200: 6d4a 243d 1409 9d3d 1d4d 7a3c 47bf 64bd
00000210: 25d4 9ebd b9d5 743d f475 42be 263e 173e
00000220: 72da f6bd 285b 0e3e 4e49 493d 5622 b33d
00000230: 008c 413e 1e0b 0e3e 0910 44be 8c1e ab3d
00000240: dd3e dabd 98d7 243e f952 5fbd 56a0 51bd
00000250: a159 00be 77d5 6c3c a393 463d c22f 47be
00000260: f1dc d63d 46f7 ce3a 4026 28bd 1af1 9e3d
00000270: d6a9 ca3d 811f 323e 97ba d83d ccb9 243e
00000280: 116d 2cbe 0afc 8b3c 5210 86bc 9386 273e
00000290: 8097 4dbd c191 273e 4489 d3bd 5834 82bd
000002a0: eeb3 b83d 792c 26be 9d9c 02bd b650 e43b
000002b0: d613 203d daf0 0dbc b59b d1bc 2ee0 033e
000002c0: f097 423e 78a1 dabd 6e16 a13d 37f8 d2bb
000002d0: ebc6 41be 31cd 133d 2282 183d 506c 963d
000002e0: cd3e 29be e15a 3d3b c43b 603d 1c60 d13d
000002f0: 394c 74bd 066c 4f3d 3ba0 a2bd 0214 f93a
00000300: 6ebd 1dbd fb02 d7bd a21a 063e 7153 e63d
00000310: 0305 56bd 372f 57bd a233 37be aabb 553e
00000320: c5b7 9dbd 360e fc3c 7dcf 153e 6cc7 aebc
00000330: 8fd3 85bd 1d9b 77bd 0c1d d43c 6bd5 e03d
00000340: b98c e93d 24bc ac3c 0f2d 453e 5b31 d1bd
00000350: 3f53 8e3d 9446 943c 7b80 013e 5e58 7f3d
00000360: cf92 99bd 85cb e63b c672 2cbd 465d 003e
00000370: 8c07 49bd d808 f3bd 99bf 5bbc bf50 033e
00000380: 7c4b e93d c9ed e2bd df76 23be 7539 0d3e
00000390: ed85 11be 2e35 0c3c 79ed 243e aff8 b63d
000003a0: ce0e 98bd 5586 153e acd3 233e 2cdb 22bd
000003b0: 262a fb3d a778 2c3d eecc f3bd 522b d53d
000003c0: 67f5 e23d 5561 3d3e 3d36 363c 6c41 e93c
000003d0: 95bb 54bd ce4a dd3d a328 aabc ca1e 1bbe
000003e0: fade b33d b88c 27bd fda6 71bd 4477 133a
000003f0: 3e11 273e b8e5 9fbd 6a47 0c3d 2d73 b3bd
0.059541374 -0.103924766 0.077009805 -0.15497424 0.06645051 -0.058270473 -0.087572105 0.1320917
-0.18124098 -0.075591184 -0.16227062 0.010465548 0.04935749 0.13279551 0.12906031 -0.06466938
0.06290713 -0.05847645 0.13100062 0.14825025 -0.050385077 0.15415385 0.027053868 -0.079303935
0.017056717 -0.09501808 -0.06451125 -0.18424906 0.014117025 0.18202187 0.0478321 0.07512573
-0.15433373 -0.12360118 -0.07518627 0.14306891 -0.100521415 0.053621076 -0.06076327 -0.14754096
-0.0322311 0.2112987 0.06463347 -0.1479051 0.11716224 0.07155368 -0.14953227 -0.018263657
-0.016085414 -0.17694148 -0.13695711 0.057871602 -0.100319795 -0.029001862 -0.03342149 0.11859135
0.11047638 -0.046827927 -0.069162354 -0.16132165 -0.14417025 -0.0715086 0.08123667 0.0078045544
0.09633297 0.0023067256 0.13093825 -0.105943166 -0.0005386698 0.15985784 -0.19280168 0.06255793
-0.16255517 -0.16891456 0.16167282 0.046086323 0.10400861 0.0006447988 -0.06396868 -0.06656984
-0.09716735 0.09025508 0.18922971 0.008768508 -0.048686724 0.0029149465 -0.098404825 -0.13430221
-0.008901252 0.17034279 -0.05977096 0.061811466 -0.09057793 -0.070933945 -0.17507659 0.07801326
0.031530913 0.06550836 -0.2191681 -0.14102368 -0.062330745 0.0782071 -0.034500055 -0.15996882
-0.13217889 -0.15544339 -0.044944644 -0.030559372 -0.11493082 0.043289877 0.13850664 0.16405626
0.018486062 -0.16060968 -0.09459631 0.1223255 0.09243032 -0.076163195 -0.12738286 -0.12623343
0.016434534 0.0350425 -0.17200358 0.013391021 0.095491156 0.12753908 0.1813303 -0.16359012
0.04011004 0.07667747 0.015277174 -0.05584648 -0.07755307 0.059774134 -0.18990308 0.14769801
-0.12053384 0.13901961 0.049142174 0.087467834 0.18901062 0.13871428 -0.19146742 0.08355436
-0.106565215 0.16097867 -0.05452249 -0.0511783 -0.1253419 0.014455191 0.04848064 -0.19451812
0.1049136 0.0015790246 -0.041052103 0.0776083 0.09895675 0.1739483 0.10582464 0.16086501
-0.1683848 0.017087955 -0.016365204 0.1635993 -0.05019331 0.16364194 -0.10328916 -0.0635764
0.09018694 -0.16227902 -0.03188764 0.0069676293 0.039081417 -0.0086633805 -0.025586942 0.12878487
0.19003272 -0.10675329 0.07865606 -0.006438281 -0.18923537 0.036084358 0.03723348 0.07344878
-0.16527863 0.002889328 0.054744497 0.102234095 -0.059643004 0.05064013 -0.07940718 0.0019003155
-0.038510732 -0.10498615 0.13096097 0.11246384 -0.052250873 -0.052535262 -0.1789079 0.2087237
-0.07701067 0.030768495 0.14629932 -0.021335326 -0.06534492 -0.060450662 0.025892757 0.10978206
0.11403794 0.021085806 0.1925547 -0.10214492 0.06949472 0.01810006 0.12646668 0.062340133
-0.07498705 0.0070433044 -0.042101644 0.12535581 -0.049079463 -0.11866921 -0.01341238 0.12823771
0.113913506 -0.1108051 -0.15963314 0.1379145 -0.14211245 0.008557601 0.16106214 0.089341514
-0.07424699 0.14602025 0.15998715 -0.0397598 0.122638986 0.04210725 -0.119043216 0.10408653
0.11081963 0.1849416 0.01112133 0.028473578 -0.051936705 0.108052835 -0.02077133 -0.15148464
0.08782764 -0.040905684 -0.058997143 0.0005625377 0.16315171 -0.07807487 0.034247793 -0.087622024

input_proj.bias f4 [64]
00000000: 731d c8bd 677f 033d f504 d13d 389b c7bd
00000010: 4478 b33d 8cc3 15be 0210 8f3d a45c 423e
00000020: 3763 103e 0174 333e 189f 49bd cc93 e4bd
00000030: 6f88 3ebe b461 363e 69ae 623e 3f7f 973d
00000040: 26a1 c4bd 51a4 d83d 8e9a 333d 4941 aebd
00000050: 6f9c 3e3e 95a4 05be 89f6 1abd 534b 7abc
00000060: 97ad 73be 7484 2ebe d90d f2bd 2572 2a3e
00000070: c166 583e 7760 2b3e aa57 c73c c738 543e
00000080: c5dc 96bc 49d5 24bd 2dca 10be 07f0 ea3d
00000090: 6048 e33d ac0e 953d a201 2b3e 2c3a 033d
000000a0: 1080 debd 64f8 b0bd 555d 00be bf04 913d
000000b0: 1449 bdbd e8b0 da3c e2b5 30bd 350d 0d3e
000000c0: 50dd 503e 1ccd a73c bd3d d0bd d455 dc3d
000000d0: 094d e53d c412 263d 6f26 36bd 3817 08be
000000e0: ee05 353a 0488 73be cbd8 193e f915 243e
000000f0: 50e5 d5bd 0d1f e3bd 20ff 80bd 1c63 3ebd
-0.09771242 0.032103922 0.102060236 -0.097464025 0.08763173 -0.14625376 0.06985475 0.18980652
0.14100347 0.1752472 -0.04922399 -0.111610025 -0.18606733 0.17810708 0.22136845 0.07397317
-0.09601049 0.10578216 0.043848567 -0.08508546 0.18614362 -0.13051064 -0.03783277 -0.015276748
-0.23796688 -0.17042714 -0.118190475 0.16645105 0.21132948 0.16736017 0.024333794 0.20724784
-0.018415818 -0.040242467 -0.14139624 0.11471563 0.11097789 0.07278189 0.16699842 0.0320379
-0.1086427 -0.08641127 -0.12535603 0.07080983 -0.09242454 0.026695684 -0.043142207 0.1377457
0.20396924 0.020483546 -0.10168026 0.10758558 0.11196334 0.04054524 -0.044470247 -0.13290107
0.00069054856 -0.23782355 0.15024106 0.16024007 -0.104441285 -0.11089907 -0.06298661 -0.046481237

msg_layers.0.W_self.weight f4 [64, 64]
00000000: 3091 7a3d b68b 433c c80b bd3d 688a 263e
00000010: 0aea 363c b44c 29bd 3b20 d8bd 429f 0dbd
00000020: 12ba 8b3d d17d 843c 97fc 3abd 895d 55bd
00000030: fa7b 94bd 1dc6 893d 698c 803d 98f3 a0bd
00000040: 7469 88bd ec01 9a3c 4d67 703d 28e9 e8bb
00000050: ba24 d0bd e16c 84bd cf05 abbd 40bf 403d
00000060: f797 6c3b 1a85 88bc 10c5 dc38 ebe2 05bd
00000070: 26fb f1bd c167 bcbd b401 9bbd b7da 70bd
00000080: af14 783b 0870 943d f188 4abd abb3 04be
00000090: 497f b6bd 11b4 0d3d dfb4 963d 6142 a0bd
000000a0: 3a68 0e3c b824 d0bd 7623 61bd a43f 85bd
000000b0: c52c 08bd 2ea0 a53d ea19 6a3d d2c8 8ebd
000000c0: d0bf 4abd 7522 0b3c ef97 3dbc 230e 013e
000000d0: 4ed0 ce3d 99bf 87bb 0a26 c73c f83b b3bd
000000e0: 6247 303d ccde 31bd cd56 f83c bd1b d8bc
000000f0: c6d3 56bd 645f 36be 70d8 a2bd 3d06 8f3d
00000100: 4624 0ebd d1a8 c4bd 9813 f73d 3ca1 31be
00000110: fe66 143c d1f8 8bbb 7f8a 12bd 02e6 003d
00000120: 11fc e3bc d55d 973d d43f 033d 74cc 663d
00000130: d39f 67bd b81b 203d f598 43bd a0e0 54bd
00000140: 88cb c9bd d998 fc3b f221 a33c 0ed2 b93d
00000150: 5479 1bbd a8bf 3e3d 78fc d0bd b7f5 d93c
00000160: 9b26 aebd e12c 043d f08e d3bc c2b7 59bd
00000170: 30d9 0e3e effe fb3d 4ecc 063e 4beb 853d
00000180: 814f 673d 2f81 0ebd d143 8cbd e98d 923d
00000190: 9bb4 f8bc 2f16 193e 6bb0 d53d e80e 72bd
000001a0: 35bf 683d a48a 223d 80e7 a23c 8830 b13d
000001b0: 37b1 10be 6115 ef3d afaa 7c3d 616c c93d
000001c0: 288b 243e b01f b83d 04f5 bdbd 3008 bdbd
000001d0: cc32 41bd 6df7 5bbd dac1 81bd 11ef babc
000001e0: 5b55 4dbb b6e8 12be ce2d c4bd ce25 d8bd
000001f0: 5a86 1ebe 6909 6bbd 7b72 1ebe 0541 223e
00000200: a17c e3bc de4d 4f3d f8e1 c1bc fad5 be3d
00000210: 8ee8 0fbd f8d1 243d 7415 9b3d 9eea 4bba
00000220: 35a9 0bbd e2e0 a5bc f0f5 7ebd 96ee e0bd
00000230: a4e1 bb3d ff26 09bd e3d9 81bd 42a8 e83a
00000240: 7bd6 83bb 7fdb 50bd 715f a5bd 1540 cabd
00000250: d349 fdbd fd53 35bd 7253 653c 1bd7 ffbb
00000260: 911a 093c ceb8 fa3d 8026 1cbc 6b1c 6b3d
00000270: f09b e23d 0c63 5bbc 10b8 b9bd 9015 c7bd
00000280: 38f2 ac3d 028b c33d 283d 893d 692a 43bc
00000290: 7294 30bc e283 0a3e 772e 323e 274d 9fbd
000002a0: 0644 aa3d 40cc 42bb 199f 7bbd 3b98 c8bd
000002b0: c7dd 97bd 17f6 c63d d878 a6bc f11f 5b3c
000002c0: e6f5 373d e3d9 903d 3c07 9bbd 58a8 9a3d
000002d0: 3198 e5bd 209b 3c3d dc55 da3c 04c3 6e3d
000002e0: 2a2e 3cbc f878 a93c 9760 053e 90ef cd3c
000002f0: e253 433a 0876 35be 94e6 843d 9498 e43d
00000300: 497a 01be 61c1 ac3d 9cff 553d e840 cfbc
00000310: d217 a9bc c60a 383d 0410 97bd 2258 d5bd
00000320: 9295 533c 5aad 0bbe 4be9 83bd 0987 e63d
00000330: 32bf 78ba 7525 be3d c678 3fbd 7625 6a3c
00000340: b59c a6bd 6955 643d bebd d9bd 8806 e8bc
00000350: 9d6c 93bd 9a05 5c3d 31a7 86bd e2e7 c5bb
00000360: 5dd6 013e 5963 1cbd 2d08 813d 7873 9d3d
00000370: f13b c4bd 2460 c6bd f892 e83c 46e4 e2bc
00000380: 7a24 b5bd 059e 973d aaac ea3d adce eabd
00000390: cc66 2c3d 8194 12bd bdac cb3d 7755 fb3c
000003a0: 63ce 093d bb10 39be b105 48bd 84de a53d
000003b0: d4e8 43bc 232c c93c dcd4 e03d 6461 cfbd
000003c0: 780d 903c cba0 5b3d b90f 363d 1e49 b43c
000003d0: 7c00 d0bc 07f7 df3d b3ca 0ebe 1dee c1bd
000003e0: 4e6b df3d cf99 ddbd 92ff 03bd df7e d2bc
000003f0: 468f 743d 96d0 ddbd 889e 06bd e17f 473d
0.061173618 0.011935165 0.09230763 0.16263735 0.011164198 -0.041332915 -0.105530225 -0.03457571
0.068225995 0.016173275 -0.045651045 -0.052091155 -0.07250209 0.0672724 0.06276781 -0.07858962
-0.066607386 0.018799745 0.058692265 -0.0071078725 -0.10163255 -0.064660795 -0.08350717 0.04705739
0.003610132 -0.01666503 0.00010527123 -0.03268711 -0.11815481 -0.09199477 -0.07568684 -0.058802333
0.0037854125 0.07247931 -0.049447004 -0.12959163 -0.089109965 0.034595553 0.07358717 -0.07825161
0.008691842 -0.101632535 -0.05496546 -0.06506279 -0.03324582 0.080871925 0.05715362 -0.06971897
-0.049499333 0.008492102 -0.011571868 0.12603049 0.10098325 -0.0041427133 0.02431013 -0.087516725
0.043036826 -0.043425366 0.030314827 -0.026380414 -0.052448057 -0.17809826 -0.079514384 0.06983612
-0.03470256 -0.09602512 0.12064284 -0.17346662 0.009057758 -0.0042716046 -0.03577661 0.031469353
-0.027830156 0.07390944 0.032043293 0.056347325 -0.056548905 0.039088935 -0.047753293 -0.05197203
-0.09853274 0.0077086505 0.019913647 0.09073268 -0.037957504 0.046569496 -0.102044046 0.026606424
-0.08503457 0.032269362 -0.025824994 -0.05315376 0.13950038 0.12304484 0.13163874 0.06539019
0.056472305 -0.034791168 -0.068488725 0.071559735 -0.030359557 0.14949869 0.1043404 -0.059096247
0.056822974 0.039683 0.019885778 0.08651835 -0.14130102 0.116739996 0.061686214 0.09835125
0.16068709 0.08990419 -0.09275249 -0.09230077 -0.047167584 -0.05370276 -0.063358024 -0.022819074
-0.0031331393 -0.14346585 -0.09579049 -0.10554086 -0.15480939 -0.05738202 -0.15473358 0.15845115
-0.027769389 0.05061137 -0.02366732 0.093181565 -0.03513389 0.040239304 0.07572451 -0.0007778796
-0.034096915 -0.020248834 -0.062246263 -0.10983007 0.09173897 -0.033484455 -0.06340387 0.001775034
-0.004023371 -0.050990578 -0.08074845 -0.09875504 -0.123675965 -0.04426955 0.013996946 -0.007807625
0.00836815 0.1224228 -0.0095306635 0.05740015 0.11064899 -0.013390314 -0.0906831 -0.097209096
0.08444637 0.09547998 0.06701118 -0.011911967 -0.01077758 0.13526872 0.17400537 -0.077783875
0.08313756 -0.0029723793 -0.061431024 -0.09794661 -0.074153475 0.09714907 -0.020321295 0.013374315
0.04491224 0.070728086 -0.07569739 0.0755164 -0.11210669 0.046046376 0.026652269 0.05829145
-0.011485616 0.020687565 0.13025127 0.025138646 0.0007451159 -0.17720807 0.06489292 0.111619145
-0.12644304 0.084353216 0.05224572 -0.025299504 -0.020641241 0.04493215 -0.073761016 -0.104172006
0.012914078 -0.13640347 -0.064409815 0.11256225 -0.00094889395 0.09284488 -0.046746038 0.014291158
-0.08135358 0.055745516 -0.106318936 -0.028323427 -0.07198451 0.05371628 -0.06574858 -0.0060396055
0.1267943 -0.038180683 0.063003875 0.076880395 -0.095817454 -0.09686306 0.028390393 -0.02769674
-0.08844848 0.07403187 0.11458714 -0.114652015 0.042090222 -0.035786156 0.099450566 0.030680401
0.03364409 -0.18072788 -0.048833553 0.08099082 -0.011957366 0.024557179 0.109781 -0.10125998
0.017584547 0.05362014 0.044448588 0.022007521 -0.025390856 0.109357886 -0.13944511 -0.09469245
0.109091386 -0.10820352 -0.032226153 -0.025695262 0.05970695 -0.108308 -0.03286603 0.04870594

msg_layers.0.W_self.bias f4 [64]
00000000: 14d4 b23d d9d6 983d 13ca 8bbd 05f5 ad3d
00000010: 054f 80bd 4ef8 a3bd eece 9ebd e3f1 3b3c
00000020: ab12 82bd 9913 a63c 9751 b8bd 512e 26bd
00000030: 4bc6 173d c481 273d 2611 8cbd b79a 873d
00000040: f7aa c5bd 0551 13bd 3d6d 51bd 2bbc 213e
00000050: c1c3 9fbc 0049 d4bb 0523 ea3b 6cc2 2f3d
00000060: 8576 d7bd b9f0 813d de95 eabc b148 c63b
00000070: af25 26bd 5513 ef3c 2ee6 febc 96fa 2c3d
00000080: fa89 dcbd 251d a2bc ec67 623d ded8 013e
00000090: b660 a13d 754f a2bd db02 6e3d 4434 d4bc
000000a0: 891d 533d a7d0 29bd c52d fabd 5d10 00bd
000000b0: 0ea6 aa3d 10ad 83bc 752b 433d 5ab9 01be
000000c0: 6b78 a43d c95d ccbd 0551 0cbe 64f3 8ebd
000000d0: 9e6b 34bd 9633 51bd be61 6bbb 87fa 29bd
000000e0: f104 ce3c b7ee e73a 3a0f bb3c 32ed 98bb
000000f0: 0b15 8fbc 9e51 2a3d 2534 cfbd d734 febd
0.08731857 0.07462854 -0.06825652 0.084939994 -0.06265072 -0.08006345 -0.077543125 0.0114712445
-0.06351217 0.020273017 -0.08999937 -0.040571515 0.03705434 0.04089524 -0.06839208 0.066213064
-0.096517496 -0.035965938 -0.05112957 0.15794437 -0.019502522 -0.006478429 0.007145288 0.042910025
-0.10520653 0.06344742 -0.028635915 0.006051146 -0.04056328 0.029184023 -0.031115618 0.042231165
-0.107685044 -0.019789288 0.05527489 0.12680385 0.07879774 -0.079253115 0.058108192 -0.025903828
0.05154184 -0.041458752 -0.12215761 -0.031265605 0.08332454 -0.016073734 0.047648866 -0.12668362
0.080307804 -0.099788256 -0.13702781 -0.06980017 -0.044047944 -0.051074587 -0.0035916413 -0.041498687
0.02514884 0.0017695044 0.022834409 -0.0046669478 -0.017466089 0.041581742 -0.10117368 -0.12412422

msg_layers.0.W_msg.weight f4 [64, 64]
00000000: 3e31 90bd b1c8 d43d 4a4b 5bbd 1561 99bc
00000010: 6570 d4bc fb91 d03c 4735 d3bd a7ed e33d
00000020: 82b1 8b3b 6fd2 9b3d 8187 4d3c 97c2 b93d
00000030: 9e78 d1bd d614 da3d 64f8 623d dfa8 d23d
00000040: 5cc2 a9bd 2eb1 ea3c 5fde f1bd 956a a93d
00000050: f7eb ddbd 073e 393d 8841 babd 2dd6 123c
00000060: 5142 8cbd 47d4 62bc 9046 e6bc 23c9 063e
00000070: c602 b43d 2fa3 67bd b6c4 9dbc bbb0 e73a
00000080: 189e 3bbb faa3 a53d 5a77 c8bd 3985 babd
00000090: 9cb6 8abd 7865 4bbd 833b 9f3d 9f25 8f3d
000000a0: 53ed 50bd c95f 9dbd ee1f be3d e8d3 a9bb
000000b0: a768 e43b 0f55 b53d 5ab6 803c 6487 10bd
000000c0: 8b00 cf3d 0d4e 88bc ca48 c43d 0200 733d
000000d0: a805 953c 0704 1e3e b3de ac3d 63b4 723d
000000e0: 7444 213e 5aeb b13c bda0 b93d 5304 2dbd
000000f0: abe8 163d 0774 75bd b40f b6bd e354 ddbd
00000100: 83dd a43d d99b 4abc 6e1b 0a3e 6560 81bd
00000110: ceb9 40bd 30e6 9abc 72a8 93bc c4c1 213c
00000120: d1ea 993c eb6d 343e f291 06be 59ca cbbd
00000130: e554 a4bc 6816 b4bd aa81 0d3d e418 19be
00000140: 1d7a 12bd 9740 19bc 51f5 093e b50a a93d
00000150: 6958 283e 3b7a cf3c 7a0f 8cbd 1dbc 0b3d
00000160: a4f8 193c fc90 8fbd 5b47 a33d f9e4 883d
00000170: 6ca4 58bd 830b 84bd d3ba a6bb 5575 013c
00000180: ab71 59bd 083c d8bd 04dc 70bd d153 223a
00000190: e38a 4dbd f653 3c3d 648f 07be 3e85 49bd
000001a0: afbe 9f3d ce2f d93d 1436 0ebc 6b43 9b3d
000001b0: f193 d5bc 4014 cebd 49b2 993d 4b62 263d
000001c0: 01ba 7ebd eb45 ae3d 5596 2dbe 8688 b5bd
000001d0: 314c 89bd eb7a 28bd f404 1fbb ac2e 47bd
000001e0: 8f18 0bbe 88e4 dabc 759b 72bd 2a6e 0cbe
000001f0: e78c 84bb 18e8 30bd 9dc2 31bd 8649 dc3c
00000200: 68c3 863d ceab 503d 0c8a e2bd e250 0d3d
00000210: e9a5 3dbd 0b23 103e 73d6 a83d cc88 86bd
00000220: 31e7 f03c 39c6 42bd bbf6 123d c016 033e
00000230: 3cbf 39bd f684 e4bd 9969 3a3d 02b8 b2bb
00000240: b685 cc3c 60e6 e6bc 8f2b 0a3c 075e 8fbd
00000250: d88f 8d3c 4a63 a13c 9f18 853d 69fc d7bd
00000260: 4e00 823d edfe 09bd 0c13 7bbc 2886 ab3d
00000270: b8fd 783d 1a1f 993d ed77 f8bd 57e0 a8bd
00000280: 5daa 7bbd 7f1f 073e 5628 033c 2b6a 323d
00000290: 281b 933b 7d9a c6bd d78f 50bb faf1 f9bb
000002a0: deed 84bd c557 a0bd 0b4b 673d a0da ddbd
000002b0: 5be4 f2bd 9474 5abd 8f56 5dbc accc 813d
000002c0: 0bac e2bd bcb9 4cbd a7a8 d93d 91d6 0f3e
000002d0: 0b98 bdbd 56f7 0e3e 885b bebd e642 d03d
000002e0: a815 abbc 94ad 993d f1d3 a23b e847 d83d
000002f0: 2c15 7cbd d821 80bd 727d d83c 891e d4bd
00000300: 4a9e f2bc fea9 d33d 9107 61bd 3b6b 0ebd
00000310: 3814 a9bd 3c7c e93a a94e 8c3d d5db 66bc
00000320: 002b d4bb 522f 02be 496c 943c df11 c43b
00000330: 3753 abbd e79b 313e be62 1a3e 9451 a13d
00000340: c187 cbbc 22bd f53c 1c7d 803c c861 eebb
00000350: 8404 88bd 6166 5b3d 5878 c43d fa0a c5bc
00000360: 2a84 c23d 1695 b13d 73c6 9e3b 26d0 a03d
00000370: f08d 6cbd 83e1 19bd 20a2 97bb 4edf 8abd
00000380: 029b 78bd 9e3e 7b3d 151b ac3d 4199 e53d
00000390: 16a9 d9bd 1d01 e4bd f7b6 263c 63a4 28bd
000003a0: 6777 08be 9ec4 13bc a655 93bd 539b d8bd
000003b0: 50d3 023d 4124 683c 2888 74bd 93b5 f7bd
000003c0: c759 783d 3de3 eb3c 08f9 70bc 667a dfbd
000003d0: bf55 32bc ab6d 013e 8994 a53c a6f3 413c
000003e0: 635b 0c3d b037 143c 1f1c 90bc 4da7 64bd
000003f0: aa84 61bd f1ba 983d 37d4 a13d c8b5 19bc
-0.07040642 0.10389841 -0.053538598 -0.01872305 -0.0259325 0.025460234 -0.10312896 0.11129313
0.004263104 0.076084964 0.012544514 0.09070318 -0.10228084 0.106485054 0.055412665 0.10286116
-0.08289024 0.028648939 -0.11809992 0.08272282 -0.10836022 0.04522517 -0.0909453 0.008962196
-0.06848586 -0.013844556 -0.028109819 0.13162665 0.087895915 -0.05655211 -0.019258838 0.0017676571
-0.0028628167 0.08087917 -0.097883895 -0.091074415 -0.06773111 -0.049657315 0.07775023 0.069895975
-0.05100758 -0.07684285 0.09283434 -0.005182732 0.0069704833 0.08854114 0.015711952 -0.03528537
0.101075254 -0.01663878 0.09584196 0.05932618 0.018191174 0.15431224 0.08440914 0.05925406
0.15748769 0.02171867 0.090638615 -0.042240452 0.036842983 -0.059925105 -0.08889714 -0.108072065
0.080500625 -0.012366259 0.13487026 -0.06317214 -0.047052197 -0.01890859 -0.018024657 0.0098728575
0.018788727 0.17620055 -0.13141611 -0.09950704 -0.020060012 -0.08793336 0.034547485 -0.14950901
-0.035760988 -0.009353778 0.13472487 0.08253995 0.16439976 0.025326839 -0.068388894 0.034114946
0.009397659 -0.070100754 0.07972594 0.06684298 -0.05289118 -0.06447508 -0.005088189 0.007901509
-0.053086918 -0.10558325 -0.058803573 0.0006192299 -0.05018128 0.04597851 -0.13238293 -0.049199335
0.07800042 0.10604821 -0.008679885 0.07581218 -0.02607152 -0.10062456 0.07504708 0.040621083
-0.062189106 0.085094295 -0.16951878 -0.088639304 -0.067039855 -0.04113285 -0.0024264427 -0.048628494
-0.13583587 -0.0267203 -0.059230287 -0.13713899 -0.004045117 -0.04319009 -0.04339849 0.026890527
0.065802395 0.050945096 -0.110614866 0.034500964 -0.046300802 0.14075868 0.08244028 -0.06569061
0.029407116 -0.04755232 0.03587983 0.12801647 -0.04534839 -0.11158173 0.045510862 -0.0054540643
0.024966102 -0.028186023 0.008433237 -0.07000356 0.017280504 0.019700665 0.06498837 -0.1054619
0.06347714 -0.03369038 -0.015324365 0.08375198 0.06078884 0.07476635 -0.12132249 -0.082459144
-0.061441768 0.13195609 0.008005222 0.04355828 0.0044893213 -0.09697435 -0.0031824016 -0.007627723
-0.06490682 -0.07829241 0.05646805 -0.10832715 -0.118599616 -0.053333834 -0.013509407 0.06337866
-0.11067971 -0.049981818 0.10627871 0.14046694 -0.092575155 0.13961539 -0.09294802 0.1016901
-0.02088435 0.075038105 0.004969113 0.1056059 -0.06154363 -0.06256455 0.026427004 -0.103573866
-0.029616494 0.10335158 -0.054938857 -0.03477023 -0.082558095 0.0017813514 0.06850941 -0.014090498
-0.0064748526 -0.12713364 0.01811804 0.0059835757 -0.08365481 0.17344628 0.1507673 0.07876888
-0.024845006 0.029997412 0.015684657 -0.00727484 -0.06641486 0.053564433 0.09593266 -0.024053086
0.094978645 0.08671014 0.0048454343 0.07852201 -0.05775255 -0.03756858 -0.004627481 -0.06780873
-0.060694702 0.061339013 0.08403603 0.112108715 -0.10627954 -0.11133025 0.010175458 -0.041172396
-0.13326798 -0.009019045 -0.071940705 -0.10576501 0.031939805 0.0141688 -0.05970016 -0.120951794
0.060632493 0.02879488 -0.014707811 -0.109120175 -0.010884701 0.12639491 0.020212429 0.0118378755
0.03426684 0.00904648 -0.017591534 -0.055823613 -0.05505816 0.07457531 0.07901805 -0.009381719

msg_layers.0.W_msg.bias f4 [64]
00000000: 6844 06bd 9844 0b3d d687 363b 95fe c9bd
00000010: 1dfa 8abc 54da e9bb 8ced 85bd 2f11 683d
00000020: f613 05bc 53d2 813d 702e 8fbd 910d 63bd
00000030: 7201 f2bd fcef 51bc b346 a23c 1716 2a3d
00000040: be16 fabd c7d9 68bd c7b7 cbbc b91f 583c
00000050: 4102 9dbd cce3 1fbe 40c7 093e b640 833d
00000060: 736f 9e3d fd7f 67bd 4736 c63c ae3d aabd
00000070: 6555 893c 8e53 203d bc7f c33c 1e8b 453d
00000080: bf4b c8bd 546e c5bd c83b de3d 7624 1ebd
00000090: 1895 ae3d f647 613d 9803 55bd afcc ecbc
000000a0: 17e5 323d 06f0 b2bb db5f 79bc e66d a8bd
000000b0: 0bda 1c3d 89b0 a9bc 3db5 543d e204 dabc
000000c0: e7c7 d03d c542 62bd c79f c5bc 67ad 983d
000000d0: f847 9e3d 45d2 093d 4881 1a3d cf97 bb3d
000000e0: 6a6a 973d 3183 fcbc 5b89 8d3d 308f d9bc
000000f0: ae5d 26bd 51e6 12bc f8dd 89bd d4c2 e93d
-0.03278008 0.034000963 0.002785196 -0.09863011 -0.016964966 -0.0071366224 -0.06539449 0.056657013
-0.008122435 0.06338944 -0.06991279 -0.05543286 -0.11816682 -0.012813564 0.019809103 0.041524973
-0.12211369 -0.056848314 -0.024867905 0.013191157 -0.076664455 -0.15614241 0.13454914 0.06408827
0.07736101 -0.056518544 0.024195803 -0.08312546 0.016764352 0.039142184 0.02386462 0.048228376
-0.097800724 -0.09640184 0.10851246 -0.03860899 0.08524531 0.055000268 -0.05200538 -0.028906194
0.04367551 -0.005460742 -0.015220608 -0.082240865 0.03829388 -0.020714061 0.051930655 -0.026613656
0.10194378 -0.055239458 -0.02412404 0.07454949 0.07728571 0.033647794 0.03772095 0.091598146
0.07393344 -0.030824276 0.06910964 -0.026557535 -0.040616684 -0.0089660445 -0.0673179 0.11414114

msg_layers.0.norm.weight f4 [64]
00000000: 5901 7a3f 2525 853f ad59 753f 5ef7 893f
00000010: eeed 813f 62ef 793f ad13 773f ad07 803f
00000020: 9d5d 743f d014 863f c51b 823f 94b1 883f
00000030: 53c4 803f 7359 833f a7f7 7a3f e603 6f3f
00000040: de7c 7c3f fceb 753f b338 833f 4afa 823f
00000050: 86b0 823f ab75 743f eef1 7c3f 32b0 803f
00000060: 2207 7f3f 9979 753f fba3 853f 7aea 833f
00000070: 378c 763f 28d1 813f f6e4 853f 7f49 8b3f
00000080: f31b 723f affc 763f 042d 823f 6f5f 7f3f
00000090: a0ad 7d3f 0966 7e3f ed50 833f 08f0 753f
000000a0: faae 6e3f ceff 883f e8df 783f 559c 783f
000000b0: f660 7a3f 07db 843f f27f 7b3f 169e 773f
000000c0: b9a1 823f e19b 823f 5faf 803f 3519 793f
000000d0: 170c 7f3f bf6d 7c3f 0e3b 883f f2f6 803f
000000e0: b2df 763f 6fbb 8b3f 4ec3 7c3f dcd9 743f
000000f0: 5eba 773f 4264 7e3f 26b3 7c3f c176 743f
0.97658306 1.0401961 0.9583996 1.0778615 1.0150735 0.97630894 0.965144 1.0002342
0.9545534 1.0475101 1.0164725 1.0679193 1.0059913 1.0261673 0.9803414 0.93365324
0.9862803 0.9606321 1.0251678 1.0232632 1.0210121 0.9549205 0.98806655 1.005377
0.9962026 0.9588867 1.0440668 1.0305932 0.963077 1.0141954 1.0460498 1.0881804
0.945739 0.96479315 1.0169988 0.99754995 0.99093056 0.99374443 1.0259072 0.96069384
0.93235743 1.0703065 0.97216654 0.97113544 0.978042 1.0379342 0.98242104 0.96725595
1.0205604 1.020382 1.0053519 0.9730409 0.9962782 0.9860496 1.0643022 1.0075362
0.9643508 1.0916575 0.9873551 0.9564493 0.9676875 0.9937173 0.9871086 0.95493704

msg_layers.0.norm.bias f4 [64]
00000000: 300d c13c 1857 793d 0bdc 123c ab99 8bbd
00000010: f2c4 603d 700a 043c 727d c73c 6ede 6c3d
00000020: 50e2 833c 9681 823d 691d 9cbb 989a ccbd
00000030: 5be2 fabc 4143 8a3d 7165 253d 0b23 01bd
00000040: db58 9e3c e9b6 b5bb f993 c2ba cc51 a33d
00000050: db0c 853d 01f0 153d 323f 093d 2ab5 6dba
00000060: bc38 85bd e698 2cbd 48b7 bebd c997 8b3d
00000070: 8fba b13d fa97 483d 6b80 0ebc d4c7 123d
00000080: a85c 83bb b4d9 9f3c 3604 97bb 634b 153c
00000090: 5541 663d 2d80 dabc e479 513d 756c 4b3c
000000a0: e09f 463d 5aa3 463d 281a 143d 66e4 853d
000000b0: 4668 a5ba 45a7 893b a1e0 29ba 4307 92ba
000000c0: d26f 853d 5527 963c 41e5 a1bd ff04 b3bd
000000d0: 7748 4d3d 2830 873d 854c 8f3a a2b7 8dbd
000000e0: 2f26 4c3d f8b3 e9bd 96e0 623c 9a6a c43c
000000f0: 36f1 da3c 0612 993b 199a 3bbd 7c55 f2bc
0.023565859 0.060874075 0.008963595 -0.06816419 0.05487532 0.008059129 0.02435181 0.057829313
0.016099125 0.06372373 -0.004764248 -0.09990424 -0.030625513 0.06751109 0.040379945 -0.03152756
0.019329479 -0.005545486 -0.0014845125 0.07974586 0.064965926 0.03660584 0.033507533 -0.0009067828
-0.06504962 -0.042138003 -0.09312302 0.0681606 0.08678161 0.04897306 -0.008697609 0.035835102
-0.004008848 0.019512989 -0.0046086563 0.009112212 0.05621465 -0.026672447 0.051141635 0.012415995
0.048492312 0.048495628 0.036157757 0.06537704 -0.0012619577 0.0042008483 -0.00064803107 -0.001114108
0.06515469 0.018329302 -0.07905055 -0.08741187 0.050117936 0.06600982 0.0010932839 -0.06919791
0.049841102 -0.114112794 0.013847491 0.023976613 0.026726346 0.004671338 -0.045801256 -0.029581778

msg_layers.1.W_self.weight f4 [64, 64]
00000000: 92e4 823d 79ee 143d bb03 c03d 6bc0 153d
00000010: 65ff ef3d b0c9 9d3d afa6 6fbd b4e4 fcbd
00000020: 66ad 3f3d e5f4 fb3d f92e 9dbd cc9f be3d
00000030: 2be3 c93c ad93 8cbd b9fc cabd a7ac 193d
00000040: 7ba4 54bd 179b 6abc 668d a1bd 6699 bcbb
00000050: 9141 0abd d0c3 143e 4afe 1fbd 7721 15bd
00000060: fe9e 0dbe d4f5 40bd 7ebc 6bbd aaa9 cebb
00000070: 7d6f b3bd 4137 203e 0344 b0bd c8d4 8e3d
00000080: 07ff b2bc 74fc 363d 28bd ccbc e374 0bbe
00000090: 0665 ac3d 7766 86bc 19e7 f23d fea8 cbbd
000000a0: 80b5 a23d 8a04 a3bd 134a 273d 42c8 0bbd
000000b0: 2d12 04bd 125c 0b3e 818b 0a3e dbd0 6cbd
000000c0: b29a 26be 7dfa 9b3b 946c e2bd d427 3a3d
000000d0: e29a 223d 43a9 f73d 1089 d8bd 78e8 c0bd
000000e0: 8a18 f23d fb4f d63d 1cb0 96bd 9097 d4bc
000000f0: 481a d33d 18d0 633d efed edbc 02cb a9bd
00000100: 39f2 10be 77e9 0abe 3979 edbd 95f4 e0bb
00000110: 7348 4fbd cda9 7dbd 5474 f63d 4ba9 033e
00000120: 60ad 043e 7df5 aebd d761 57bd 95f7 edbd
00000130: 8c25 34bd 134a 803c 1d96 983c 357f ed3d
00000140: cfff 92bd e969 4f3c 5d12 3e3e 12ae 563e
00000150: 0a9d e2bc 1441 c2bd c3ae 5d3d cd25 3f3e
00000160: abbb 2bbc 1edc 55bd b9a0 8dbd 1040 dfbc
00000170: c8f6 573d 31c4 e1bc dc56 d33d 7c38 37bd
00000180: 3cd7 25ba a805 41be 2c9c 1abe a5fe a23d
00000190: 6a37 01be b093 893d 5aed 08bb de04 52bd
000001a0: f1b3 dabc 47c7 403d e8ea 26bd d1d5 bbbd
000001b0: 68ff 3c3c 4ca4 30be 5a34 9fbd e7b1 51be
000001c0: ca57 333e 03d8 08bc ff7a b4bc db46 96bc
000001d0: 5310 e63d b7c3 f5bd 1cf0 79bc b920 47bd
000001e0: b059 5abd d82e c5bd 3a2f 47be 3cbc 21bd
000001f0: a327 d5bd dd6d 5d3e 3cdf 963c 52b1 303e
00000200: 7897 af3a fe13 4b3e 58dc 96bd 8b92 643d
00000210: 7a70 c1bc 78e5 843d f3c9 97bd a932 f6bc
00000220: 1f08 993d f94a a03d e2ae 92ba 7695 fe3c
00000230: 9dad db3d ca43 153e 36d9 13be 06e5 2cbd
00000240: c7e3 c2bc 8889 56bd fd69 bbbd c866 b7bb
00000250: 9413 40bc 301f dfbc 07b4 84bd 1b33 c33c
00000260: 0284 34bd ba6e 25be 70a0 73bd 77e6 6d3d
00000270: 0292 ff3d d2b5 2d3e 6289 17be b6d7 e23d
00000280: ac6b b6bd 2e14 9abd b524 9abd ddbe 8abd
00000290: ae7c e1bc d394 c3bd 9f8a b93d d216 163d
000002a0: 818d 1a3c 2355 67bd b670 e03c 988c b43d
000002b0: 9b6b 2dbe 2272 58bd 1c49 f53d caca ccbd
000002c0: c383 f03d 8e35 9e3d 1f96 3abd 8e44 993d
000002d0: 522f d23d 1fef 0dbb aed7 ab3b 9acf b23d
000002e0: c712 2c3d 39bf 1bbe 3f7f b93d 0a54 d0bd
000002f0: a5c6 4a3d f44a e53c d08c cc3a f7b6 343b
00000300: a4b5 febc 1050 debd ec69 aabd 6655 75bd
00000310: 3f32 9cbd 2399 de3d 4ff2 113a 4e94 56bd
00000320: a500 c7bd ccb0 71bd 1904 163e 1997 113d
00000330: 8a30 063d 312d 943b f445 a53d 5c3e 1abd
00000340: 6457 b73d d767 fd3d e040 8a3d 22e5 98bc
00000350: 4c26 1b3d 8caa c3bd 1249 ccbd 122b 38bd
00000360: 7caa 243e 5bef 41bd 3618 b03b 65b1 863d
00000370: c084 743d d1e4 65bd 7dc1 1cbd 769e 07be
00000380: 6f0c 023e f13d b33d deae 23bd b054 fbbd
00000390: ef78 173d f62f 9e3c be8b 6b3c d3bf 543c
000003a0: b3a2 1f39 28cb c4bd e16b 6d3d cc81 31bd
000003b0: 5cd9 133e 6dd9 1ebd 2dda a13d 28e9 953d
000003c0: 4823 33be f636 aa3d 5199 df3d 1f36 da3d
000003d0: 2862 ea3c 7299 26bc 119b 093e ea43 193e
000003e0: bce1 7f3d 7f0f 983d 0682 723d dbe4 5a3d
000003f0: 3ab4 0d3d dd8f c7bd dcc4 8dbd e158 a53d
0.063912526 0.036360238 0.093757115 0.036560457 0.117186345 0.077044845 -0.05850857 -0.12348309
0.046796225 0.12302569 -0.07674975 0.093078226 0.024644455 -0.068641044 -0.09911484 0.03751817
-0.051914673 -0.014319203 -0.07888298 -0.005755591 -0.033753935 0.14527822 -0.03906087 -0.036408868
-0.13830182 -0.04710944 -0.057552807 -0.0063068466 -0.08761499 0.15646078 -0.08606722 0.069741786
-0.021850122 0.04467435 -0.02499254 -0.13618807 0.08417706 -0.01640628 0.11860485 -0.09944342
0.07944775 -0.0795985 0.040842127 -0.034126528 -0.032243896 0.13609341 0.13529779 -0.057816368
-0.16269949 0.004760085 -0.11055866 0.04544814 0.03969849 0.12092831 -0.105730176 -0.0941934
0.11821087 0.10464474 -0.07357809 -0.025951177 0.10307747 0.055618376 -0.02904412 -0.08290674
-0.141549 -0.13565622 -0.11595387 -0.006865094 -0.050606202 -0.061929513 0.120339066 0.12857549
0.12956762 -0.08542917 -0.05258354 -0.11619488 -0.04398112 0.015660321 0.018626267 0.115965284
-0.07177698 0.012659528 0.18561693 0.2096484 -0.027662773 -0.09485069 0.054121744 0.18666764
-0.010481755 -0.052211873 -0.06915421 -0.027252227 0.052725583 -0.027559372 0.103193015 -0.044731602
-0.0006326323 -0.18849814 -0.15098637 0.07958726 -0.12618795 0.06717622 -0.0020893426 -0.051274173
-0.02669713 0.047065046 -0.040751368 -0.091716416 0.011535503 -0.17250174 -0.07773657 -0.2047802
0.17513958 -0.008352282 -0.022031305 -0.018344333 0.11233582 -0.1200022 -0.015255 -0.04861519
-0.05330819 -0.09628075 -0.19451609 -0.039486155 -0.10407951 0.21623941 0.018416993 0.17255142
0.0013396582 0.19831845 -0.07366246 0.055803817 -0.023613203 0.0648908 -0.07411566 -0.030053454
0.07472252 0.078268 -0.0011191035 0.031077128 0.107264735 0.1457664 -0.14438328 -0.0422106
-0.023790253 -0.052377254 -0.09151075 -0.0055969693 -0.011723418 -0.027236551 -0.0647965 0.02382808
-0.044071205 -0.1615552 -0.059479177 0.058081117 0.12479021 0.1696389 -0.14798501 0.110763
-0.089072555 -0.0752338 -0.075265326 -0.067746855 -0.027525272 -0.0954987 0.09059643 0.036642857
0.009433151 -0.056477677 0.027397495 0.08815879 -0.1693558 -0.05284322 0.11976835 -0.099996164
0.117438816 0.077250585 -0.045553323 0.07483779 0.10262932 -0.002165742 0.005244217 0.08731003
0.042010095 -0.15209664 0.090574734 -0.10172279 0.04950585 0.027989842 0.001560593 0.0027574876
-0.031092472 -0.108551145 -0.08320984 -0.059895895 -0.07626771 0.10869052 0.0005567418 -0.052387528
-0.0971692 -0.059006497 0.1465 0.03554449 0.032761134 0.004521989 0.08069983 -0.037657127
0.08952215 0.123733215 0.06750655 -0.018663947 0.03787832 -0.095540136 -0.099748746 -0.04496295
0.1608066 -0.047347408 0.00537398 0.06576804 0.059696913 -0.05612642 -0.038270462 -0.13244042
0.12700056 0.08752049 -0.03996169 -0.12272012 0.036980566 0.019309979 0.014376579 0.012985188
0.00015224032 -0.096090615 0.05796421 -0.043336675 0.14438385 -0.038781572 0.07902942 0.07319862
-0.17493927 0.08311264 0.10917915 0.10654854 0.028611258 -0.01016842 0.1343806 0.14967313
0.062471136 0.07424831 0.05920603 0.05344091 0.034595706 -0.097442366 -0.069223136 0.08073593

msg_layers.1.W_self.bias f4 [64]
00000000: af1a 0ebd 6490 093e 2657 b8bd cf96 b1bd
00000010: 485f 963c e3da f53b 5c91 a03c d803 ef3d
00000020: e130 5c3d e727 45be 391a 7c3c 8cbf 0ebe
00000030: 429d 473d 0c42 2e3e fcce e13d a090 50bd
00000040: 3d47 f0bc d4a9 d8bd ef30 153d 2b5e 553e
00000050: 2d60 2b3e f642 b1bd 0881 93bb d3a3 b53c
00000060: 8f39 cc3d 1c99 7f3b 8582 19be 5315 1bbc
00000070: 1f58 8ebd 887a e0bd 8e02 8bbd 2652 06be
00000080: 4d97 e03c 3145 bcbd b683 873c 7336 133d
00000090: ae54 193e cf24 cabd 16d6 21bd 0634 18bc
000000a0: d7d4 ae3d fe68 ae3e 9017 fb3d d927 ed3d
000000b0: fc01 8a3d 9a1a fe3c cde8 b8bd 8c83 e63d
000000c0: 4835 f13d 8a60 72bd 14ed 67bd f2b4 4cbd
000000d0: 8b87 16bd 23ed 323c 15a9 8bbd d018 913d
000000e0: 0051 44bc 68bb 15bd 47ea 01bc fa5f aa3d
000000f0: c14b 993d 1ef8 3ebd 8b15 4bbd 9762 2d3d
-0.034693416 0.13433987 -0.09000997 -0.086713426 0.01835598 0.0075029 0.019600563 0.11670655
0.053757552 -0.19253503 0.015387111 -0.13940257 0.048733957 0.17017382 0.11025807 -0.050919175
-0.029330844 -0.10579267 0.03642362 0.20836703 0.16735907 -0.0865535 -0.0045014657 0.022172844
0.09971916 0.0039001172 -0.14991195 -0.009465533 -0.069504015 -0.10960871 -0.06787597 -0.13117275
0.027415896 -0.09192885 0.016542297 0.0359406 0.14973709 -0.09870302 -0.03951081 -0.009289747
0.0853669 0.34064478 0.122603536 0.11579866 0.0673866 0.031018544 -0.09028778 0.11255559
0.11777741 -0.059174098 -0.05662258 -0.04997725 -0.036750358 0.010920796 -0.06819359 0.07084811
-0.0119822025 -0.036555678 -0.007929391 0.08319087 0.07485152 -0.04662334 -0.04958109 0.04233035

msg_layers.1.W_msg.weight f4 [64, 64]
00000000: fb8a 42bd 0dd3 003c 2a0f 1cbd d798 fe3b
00000010: 7da1 873c a67a 1ebc 3e19 a83d 61cc 9e3c
00000020: 7b3d e6bc 186e 593c 29cd 1c3e e960 0f3e
00000030: d414 e8bd 97c0 d8b8 5617 72bd 7571 acbd
00000040: d7f8 e6bd d7c9 793d 6b12 17be 120d 95bd
00000050: 41ba 373d c301 4c3d c7af ffbd b1bc 083e
00000060: 82d7 6f3d e27e 3f3d 2bb1 46bd 2b4a e23b
00000070: 3579 babd 0e19 a0bc d51b 303d 829e 05be
00000080: a749 e2bd 6b93 e53d 7525 26bc ac5f aabd
00000090: 26cb 88bd 9d65 013b 902e 123d 9421 c9bd
000000a0: 87a6 4cbc 51e8 e93b e472 f3bd 93fc 38bc
000000b0: 7f33 22bd 914f d53d f207 bbbc d9f6 623d
000000c0: f798 f0bd a866 5fbd 9752 ffbc a5b8 07be
000000d0: e521 9f3d 7556 89bd fb06 913c b489 ec3d
000000e0: 853c 04bd e7a1 e63d afc0 19bd 21e5 d3bd
000000f0: 0e98 e43d 0f9a 0b3e f0ad f1bd 6d59 c0bb
00000100: 4b20 c9bd 6e90 823d 3d3c dc3d 4407 bd3c
00000110: 0489 143d 634d 003e fcf4 7dbd f807 e0bd
00000120: a393 cebd b849 173d b342 73ba 9bf9 c83d
00000130: 608b 64bd c4dc 983d d8d8 073e 29ca 3f3b
00000140: a9de c8bd 87d5 f3bb 7d85 fcbd 367d dd3d
00000150: 0186 943d 8e16 0a3d 8773 483d ab02 13be
00000160: d3a7 b0bc 1ac0 bcbd 7772 71bd 5c28 7ebd
00000170: c97b 1a3e 79f7 a53c 474a 4fbc eb67 823d
00000180: c721 f13d 4ebd f23d 8a83 4c3c ea54 df3c
00000190: b001 2b3e 1d77 303c 1b7b 4a3d b48d 8f3b
000001a0: 1fc5 2a3e bd14 abbd 9c3a 513d 9bd5 5a3d
000001b0: 02c5 e4bd b051 0d3e 650f ae3d 12b6 013e
000001c0: d069 893d 1dfa 7c3c 0c09 143d 2b6d 83bd
000001d0: c4d8 20be 2bc7 363e e6e6 93bd eee9 a8bd
000001e0: 8f5b 41bc 34cb bdba 7208 b23d 3e6a 4ebb
000001f0: ab75 0dbd 31b5 3abe c229 6abc ed06 12be
00000200: ecc8 e3bd 7aca 8dbd 47c2 00bd 73e0 d9bc
00000210: c2d6 95bd fb4f e9bd 2935 b63d 9177 013d
00000220: 02a8 753c 88ba 8f3c 334e 8bbc b11f 963d
00000230: 0734 cf3d 2d2f b5bd 5b06 d83d 3d48 80bc
00000240: aa09 36bd 423d 9ebd 774f 483d 3a6c ff3d
00000250: 0d01 4fbd 1a12 ecbd 6b57 80bd 35ee c7bd
00000260: 7fdb 95bc 20c5 7b3d 1aba e53b a12c ad3d
00000270: a074 c93d 4a7f f13d fbe3 60bd 3193 c4bd
00000280: 2d9f adbd 90e1 0bbe ad5c 00bd 067f 253d
00000290: bb60 92bc c9dd 033e 47e5 3bbd c023 93bc
000002a0: 2941 c6bc c03a ae3d 2af5 8dbd 5cc0 093e
000002b0: 8bcf 12bd 62b1 ba3d 8f4d ccbd 9ba8 883d
000002c0: 6dc5 0b3e ae83 333d 7d45 573d 8d85 a3bd
000002d0: 8715 883d 6061 18bd 7137 f33d ab2f a63c
000002e0: c3dc 0a3d 646e b03d 14d3 4bbd 0891 963d
000002f0: 2de9 63bd d36f 263d 2d8b 0ebe 9898 70bb
00000300: bdd8 b63d 7dde b43d e9aa 0a3e 8542 dfbd
00000310: 999c 233d 754f ca3d c33c 193e 0756 e83c
00000320: 37bb 0ebe b4a5 c6ba 0361 39bc c69b f1bd
00000330: 3f3f 2abc f27f a4bc 7285 bd3d ab95 193d
00000340: 21b2 c2bd 7b20 6a3d 1a2f 843d 15cf 1c3e
00000350: ef1e ed3d aca6 2f3d 857a d13c 7c88 53bc
00000360: 1a05 b13d 815b 0abe 48fb 47be 09bf 443d
00000370: 392c bebc 3c12 be3d c89e 47bd 523a b93d
00000380: b942 e73d dd5f 983c 0361 ebbd 29ee 8ebd
00000390: 461b 0b3e 5f53 70bd e82d 0b3e 7d21 13be
000003a0: 7c46 8d3d dd5f cebb 3afe f93d 0486 cb3c
000003b0: 88a4 56bd aa77 1bbd d20f 11bd ec98 bbbc
000003c0: f4e3 d23d 5c1b bcbd 3241 0ebe 6417 96bc
000003d0: efc0 e53d 7616 da3c 4b93 febd add7 20bd
000003e0: 8c05 653b 70c4 62be ede7 7fbd bf08 dfbc
000003f0: 3faf 4a3b eb72 0b3d c910 89bc 76c1 72bd
-0.047495823 0.007862818 -0.0381004 0.007769685 0.016556496 -0.009672796 0.082079396 0.019384565
-0.028105488 0.013270877 0.15312637 0.14001812 -0.11332098 -0.00010335555 -0.059104286 -0.08420078
-0.11277931 0.060983505 -0.1475312 -0.072778836 0.04485536 0.049806368 -0.12484699 0.1335323
0.058555134 0.046751864 -0.048508804 0.006905814 -0.0910515 -0.019543197 0.042995293 -0.13048747
-0.11049204 0.11209758 -0.010140766 -0.08319029 -0.066793725 0.0019744404 0.035688937 -0.09820858
-0.012490875 0.00713829 -0.11887148 -0.011290687 -0.03959989 0.10415567 -0.022830937 0.055411194
-0.11747926 -0.05454126 -0.031167312 -0.1325403 0.07770137 -0.067059435 0.017703524 0.11549702
-0.03228428 0.11261349 -0.037537273 -0.10346437 0.11161815 0.13632987 -0.11800754 -0.0058700354
-0.098206125 0.06375204 0.10753677 0.023074754 0.03626348 0.1252952 -0.062001213 -0.1093902
-0.10086753 0.036935538 -0.00092796533 0.098132335 -0.05579698 0.07463983 0.13266313 0.0029264784
-0.09808094 -0.007441226 -0.12330148 0.10814898 0.07252122 0.033712916 0.0489383 -0.14356486
-0.0215644 -0.09216328 -0.058947053 -0.06205021 0.15086283 0.020259606 -0.012651986 0.06367477
0.11774021 0.11852513 0.012482533 0.02726217 0.16699862 0.010770586 0.04943381 0.004380906
0.16676758 -0.08353565 0.051081285 0.053426366 -0.11170389 0.13800693 0.0849903 0.1266711
0.06709635 0.015440491 0.03614144 -0.064173065 -0.1570769 0.17849414 -0.07221775 -0.082477435
-0.011801614 -0.0014480115 0.08693017 -0.003149643 -0.034536045 -0.18233182 -0.014292182 -0.14260454
-0.11122307 -0.06923385 -0.031435277 -0.026596284 -0.073163524 -0.11392208 0.08896858 0.031608168
0.014993669 0.017545 -0.017005062 0.073302634 0.10117345 -0.08846889 0.10548087 -0.015659446
-0.04444281 -0.07726528 0.04890391 0.124718145 -0.05053811 -0.1152689 -0.06266674 -0.09762231
-0.01829314 0.06146729 0.0070107104 0.08455778 0.098366976 0.117918566 -0.05490492 -0.09598387
-0.08477626 -0.13660264 -0.031338383 0.040404342 -0.01786839 0.12877573 -0.045872953 -0.017961383
-0.024200993 0.085072994 -0.06931527 0.13452286 -0.03584246 0.09115864 -0.09975731 0.06672784
0.1364953 0.04382675 0.052556504 -0.07984457 0.06644731 -0.03720224 0.11875809 0.020286402
0.03390194 0.08614805 -0.049761847 0.07351881 -0.055642296 0.040633988 -0.13920279 -0.0036712047
0.08928058 0.08831499 0.1354176 -0.109013595 0.039944265 0.098784365 0.14964585 0.028361334
-0.13938604 -0.0015155585 -0.011314633 -0.117972896 -0.010391056 -0.02008054 0.09253968 0.03749625
-0.09506632 0.057159882 0.064542964 0.1531337 0.11578166 0.04288356 0.025571117 -0.012910958
0.08643551 -0.13511468 -0.1952945 0.048033748 -0.023214446 0.09280822 -0.04873541 0.09044327
0.11292023 0.018600399 -0.11493113 -0.06979019 0.13584623 -0.05867326 0.1359173 -0.14368244
0.068982095 -0.006298049 0.12206693 0.024844177 -0.052403003 -0.037955917 -0.035415478 -0.022900067
0.10297385 -0.09184906 -0.13892058 -0.0183217 0.1121844 0.026622038 -0.12430438 -0.039268184
0.0034945933 -0.22145247 -0.06247704 -0.02722585 0.0030927209 0.03404514 -0.016731637 -0.05926653
