QuantLaxmi_Research/dtrn/results/checkpoints/fold1_NIFTY/dtrn_final.pt (torch, 236213 bytes, 37 tensors)

embed.embed.0.weight f4 [32, 2]
00000000: 1743 3c3f 419b 03be db38 903d cd2c 85bd
00000010: 8870 cbbe 2c8b 2e3f d610 323f 147e f03e
00000020: 588a 983e 9969 2c3f e549 783e 4968 e7be
00000030: e0e4 8a3e 6518 51bc f697 c0be dfad ea3e
00000040: 4b47 933d 75b7 14bf 68ff 32bf 9b79 2a3f
00000050: 07fc 103f da7c d43e f3f9 bc3e 6e63 2d3f
00000060: e339 433f ce8e d1bd a0fe a23d 8dde f0be
00000070: 0180 2b3f 1445 f63d b352 2c3f d53c d0be
00000080: 1392 aebd 159c 24bd ed35 debe 4caf 673e
00000090: edd4 08be 6fcd 633e 743e 81be 938d b93e
000000a0: c00d 8e3e cde8 213e 7b32 ed3e 28e7 0c3f
000000b0: 998e 96be 43de 29bf c678 0abe 3182 21be
000000c0: c3e9 8dbd 00bc 063f 4e50 d83d 6c06 c43e
000000d0: f116 33bf 1147 8a3d 2402 943c e8d1 21bd
000000e0: 1935 1c3e 0352 3e3e 4fab bdbd 3a0d c63e
000000f0: a7a7 76be 7b0a 7cbe 51b6 b6be 87ba 003e
0.7353987 -0.12852193 0.07042094 -0.06502686 -0.39734292 0.6818111 0.6955694 0.4697119
0.29793048 0.6734863 0.24246939 -0.4519675 0.27127743 -0.012762164 -0.37615937 0.45835778
0.071913324 -0.58092433 -0.6992097 0.66591805 0.56634563 0.41501504 0.36909446 0.6772984
0.76260203 -0.10232316 0.07958722 -0.47044793 0.66992193 0.12024894 0.6731369 -0.4067141
-0.08523955 -0.040187914 -0.43400517 0.22625464 -0.13362475 0.22246335 -0.2524296 0.36240825
0.27744865 0.15811463 0.46327576 0.55040216 -0.29405668 -0.6635477 -0.13522634 -0.1577232
-0.06929352 0.52630615 0.10562192 0.3828615 -0.6995688 0.06751836 0.018067427 -0.039506823
0.1525463 0.18585972 -0.0926119 0.38681966 -0.24087392 -0.24613373 -0.3568597 0.12571155

embed.embed.0.bias f4 [32]
00000000: 3357 77be b32b 2cbf c166 14bf 878e b6be
00000010: 0f70 a5bd 7982 123f e6bb 13bf 6ad0 e53d
00000020: 7d55 813e f607 fcbe c14d ea3a 2c54 a03e
00000030: f7b5 903e a937 343f 0049 643e 5019 823e
00000040: 210c 6d3e 5b2c 96be b4ba 0ebe 3889 2fbf
00000050: b46f a0be 5064 e4bd 8d2a 9e3e 4155 20bf
00000060: 2996 a4be 52e8 00bf a602 8dbe ad88 a53e
00000070: 231b f4be 71ec f9be 107c f2be 94e8 063e
-0.24154358 -0.6725418 -0.5796929 -0.35655615 -0.08078014 0.57230335 -0.57708585 0.112213925
0.25260535 -0.49224824 0.0017875956 0.31314218 0.28263828 0.7039743 0.22293472 0.25409937
0.23149158 -0.29330716 -0.13938409 -0.68568754 -0.31335223 -0.111519456 0.3089184 -0.6263009
-0.32145813 -0.5035449 -0.27541083 0.32330838 -0.47676954 -0.48813203 -0.47360277 0.13174659

embed.embed.2.weight f4 [32, 32]
00000000: b305 733d 7b73 e3bd d74c 14be 560e 023e
00000010: 0f85 19bc 8423 cabd bbd2 2fbd 6104 193e
00000020: 18f4 1b3e 6a8e a83d d050 f8bd a298 1c3e
00000030: f118 eb3d d5c4 0a3d d389 99bd f972 123e
00000040: b9df 323d d8d3 e0bc 4d86 1fbd 7350 2cbe
00000050: 2919 e5bd d1b2 25be 333e f03d 1c0b e93d
00000060: 0e86 a0bd 4112 c93d 16ff 0fbe fbfb eabd
00000070: a736 273e 950d 3c3d dbb7 ad3c 447f 363e
00000080: ede6 21be 21ed 7d3d b26f 95bd ccc9 f43d
00000090: 175b a8bb a191 583e 9810 18bd 81fc 983d
000000a0: 6ed1 0dbe 1456 90bd acf5 c9bd 564a 01be
000000b0: 4d9b b03d c403 6b3e aa42 333d 516b 6b3e
000000c0: f7e7 e83d fefe c93d f054 3dbd 00a2 3bbe
000000d0: f63c c43d 981d d63d 8a51 84bd 6659 cebd
000000e0: 3909 4ebe 3912 2bbe 1a6d 163d f976 83bd
000000f0: bcf9 023d 60e5 503d 4391 9ebc 27f5 97bc
00000100: 1de2 cabd 66dc d53c c9d0 bebc 12d8 edbc
00000110: 46e2 beba 8698 c5bd 8323 513e 6ef8 9eba
00000120: cabe 5ebd a3b4 13bc 7a09 cf3c cb01 78bd
00000130: 92ee 9b3d c90c cbbd dcf9 803d 8a83 03be
00000140: b3e8 723d 47ec d83d 3365 dd3c e8ca 9a3d
00000150: 3056 903d 243a a3bc 38d5 ad3b 1987 193d
00000160: b256 4cbd 21c4 0e3e 9ce4 cabd 0e28 38bd
00000170: 81fd bcbd ddc4 7d3d 8865 2c3e c0d3 5abb
00000180: 1473 a4bd 552c 693c f2c7 323e 002d ffbb
00000190: 3f44 21bd bcd3 773c 98c6 0fbe 4fcc 5c3c
000001a0: 07e3 1eba ee1a 06be 1416 c03c 3bd9 fd3c
000001b0: 3334 4fbd 1c3b 15be 63ef b63d 9c3a 8e3b
000001c0: a0c5 72bd d5f2 b6bb 498b 563e 1541 b23d
000001d0: de9b ce3d 4820 e43c 01b4 e4bd 9e55 0c3e
000001e0: b59a 223e f83b d4bd a0bf e13c 6aec e8bc
000001f0: 18ee c23d e39c 2a3e 6403 0cbe ce07 353d
00000200: 814d edbd d5a8 09bd 339e 96bc 4793 6dbd
00000210: c9b1 863d 724e 32bd 4065 afbd fa77 efbd
00000220: ee1c 92bd ded8 e03d 5e49 e43d 7833 10be
00000230: 714c 95bd 1848 51be aab1 053e 9501 9d3d
00000240: 4fb2 d03d e5f0 ae3d d699 293e de55 7d3d
00000250: 9dca 153e 683c 193e 7ce1 6cbe 014f ed3d
00000260: 9a69 b73d ff7f b83d 174a 14be ea98 00be
00000270: fb15 1a3e 51ec 2a3e bc47 463e edad a2bd
00000280: 7880 4f3b 9c49 a53d 976f 173d ce0f 0ebe
00000290: ac6e 013e 870e 233e 0b71 bdbd c59b 3fbd
000002a0: a9e8 133d d12e 36bc 7276 803d fb55 83bd
000002b0: e42d 3e3d 0697 013e bb8d fc3d 660a debd
000002c0: 2874 023e f7ab e63d eac7 a8bd 13bd 2cbe
000002d0: a3cb ff3d 5f51 f13d e122 aebc 17a9 7f3d
000002e0: 1e8c ff3d 1159 0dbd dac3 22be d7e4 283e
000002f0: a59d 0c3e aea0 413c 7242 b7bc bf57 cfbd
00000300: 6561 ad3c e22e 8a3c ca5e fabb 6181 ef3d
00000310: 7109 2bbe c67f 723d 1de7 a7bc 3fa8 343e
00000320: 6216 5b3e c090 b33d cd9d 8dbd 1808 f8bd
00000330: a8ab 9fbd 44e7 a4bd a59d 83bc 6205 babd
00000340: 7c42 4bbd ebb8 01bd 76a3 c83d 8ce4 c53d
00000350: c875 53be 60e5 cdbd dc66 613e 63af 54be
00000360: 4cbf c13d 7974 11be e2fa 193b ee49 033e
00000370: 356d 0dbc e844 a4bd 7a58 16be a5c6 8cbd
00000380: f9f7 5cbc eac9 43bd 49e7 fabd 4566 0ebd
00000390: 80c7 353e c2af 20bc ee87 603e 6452 543b
000003a0: a283 1ebd e47a 88bd d595 053d b8d1 e53b
000003b0: 8458 50be 4346 61be e3b2 dd3d 144e 62be
000003c0: ff66 fbbd 640b 2d3e a9b6 58bc b69f 28bd
000003d0: dec9 ff3d fd8b 15be a5f2 26bd 89b8 dd3d
000003e0: 63ce 4c3e be8d 423e 22a5 37be 71a0 23be
000003f0: d666 36bc 0488 163e a482 193e b9f3 3e3d
0.059331607 -0.111060105 -0.14482437 0.12700781 -0.009370103 -0.09870055 -0.042925578 0.14943077
0.15229833 0.08230288 -0.12124789 0.152926 0.114793666 0.03387912 -0.07496991 0.14301671
0.04367039 -0.027444765 -0.03894644 -0.16827564 -0.111864395 -0.16181494 0.117306136 0.11379072
-0.07838069 0.09817935 -0.14062151 -0.11473843 0.16329442 0.04591139 0.021205833 0.17821985
-0.15810747 0.061993722 -0.07296695 0.11952552 -0.005137812 0.21149303 -0.0371252 0.07470036
-0.13849422 -0.07047668 -0.09861311 -0.12626013 0.08623371 0.22950655 0.043764748 0.22990157
0.11372369 0.09863089 -0.04622358 -0.18323517 0.0958194 0.10454863 -0.06460865 -0.10075645
-0.20120706 -0.1670617 0.03672514 -0.064191766 0.031976447 0.051 -0.019356376 -0.018549515
-0.09906409 0.02610607 -0.023292916 -0.029033694 -0.0014563284 -0.09648232 0.20423703 -0.0012128481
-0.05438117 -0.009015235 0.025273073 -0.060548585 0.07613863 -0.09914548 0.06297657 -0.12843147
0.05930395 0.10591941 0.027025795 0.075582325 0.07047689 -0.019925185 0.0053049587 0.037482355
-0.049887367 0.13942005 -0.09906885 -0.044960074 -0.092280395 0.06195532 0.16835606 -0.0033390373
-0.08029762 0.014231761 0.17459086 -0.007787347 -0.039371725 0.015126165 -0.14040601 0.013476445
-0.00060610514 -0.1309621 0.023448028 0.030987373 -0.05058689 -0.1457333 0.08932378 0.004340483
-0.0592705 -0.005583147 0.2095157 0.0870382 0.10088323 0.027847424 -0.111671455 0.13704535
0.15879329 -0.10363001 0.027557194 -0.028433044 0.09518069 0.1666141 -0.13673168 0.044196896
-0.11587048 -0.033608276 -0.018385982 -0.058001783 0.065768786 -0.043531843 -0.08564234 -0.116928056
-0.07134424 0.10978864 0.11146806 -0.14082134 -0.07289971 -0.20437658 0.13056055 0.076663174
0.1019026 0.08542041 0.1656259 0.061849467 0.14628072 0.1496445 -0.2313289 0.115873344
0.08955689 0.09008788 -0.14481388 -0.12558332 0.15047447 0.1669171 0.19363302 -0.0794333
0.0031662267 0.080706805 0.036971655 -0.13873217 0.12639874 0.1592351 -0.09250077 -0.046779413
0.036110554 -0.01111956 0.06272592 -0.06412884 0.046430483 0.12655267 0.123317204 -0.10841827
0.12739623 0.112632684 -0.082412556 -0.16869001 0.124900125 0.117830984 -0.021256866 0.062417116
0.12477897 -0.03450877 -0.15895024 0.16493545 0.13732012 0.011818094 -0.02237055 -0.10124158
0.021164605 0.016868059 -0.0076406943 0.11694599 -0.1670282 0.059203885 -0.020495946 0.17642306
0.21395257 0.08767843 -0.06914864 -0.12110919 -0.07796413 -0.08051923 -0.016066382 -0.09083058
-0.04962395 -0.031670492 0.09796803 0.096627325 -0.20650399 -0.100535154 0.22011894 -0.2077003
0.09460315 -0.14204587 0.0023495485 0.1282117 -0.008631994 -0.08020955 -0.14682189 -0.06873826
-0.013486856 -0.047799982 -0.122511454 -0.0347655 0.17751884 -0.009807529 0.21926853 0.0032397741
-0.038699754 -0.066640645 0.032613594 0.007013526 -0.20346266 -0.21999459 0.108251356 -0.22100097
-0.12275504 0.16898876 -0.013227143 -0.041167937 0.12489675 -0.14604183 -0.040758748 0.10826213
0.20000605 0.18999383 -0.17934087 -0.15979172 -0.011132916 0.14700323 0.14991242 0.04661915

embed.embed.2.bias f4 [32]
00000000: 2480 5dbd 640e adbc 83d0 86bb 4780 3fbe
00000010: 07c3 073e bc75 09bc 1441 16bc 2830 e03d
00000020: 8aab 053e cd96 d63d f158 31bd 4947 853c
00000030: a0ec 6ebd 7046 f13c 627a 1ebe d55a 763d
00000040: b78b 133d e935 2cbd 8b83 aa3d dac1 2abe
00000050: 604a 753d e8cd c63d bff2 fb3d e12b dbbc
00000060: c299 0d3c b350 10bc b4db f03d 7f03 8abc
00000070: 12bc fc3c 5485 39bb 2e5b bf3c 8b55 c83d
-0.054077283 -0.021125026 -0.004114212 -0.18701278 0.13257991 -0.0083898865 -0.009170789 0.10946685
0.13053718 0.10477982 -0.04329771 0.016269343 -0.058331132 0.029452533 -0.15476373 0.060145218
0.036021914 -0.0420436 0.08325871 -0.16675511 0.059885383 0.09707242 0.123021595 -0.026754322
0.008642616 -0.008808303 0.11760655 -0.01684737 0.030851398 -0.002830823 0.023358908 0.09781941

input_proj.weight f4 [64, 32]
00000000: bc29 803d 1fb2 d6bd 583b 973d f6f7 22be
00000010: edd4 6a3d ccdf 6cbd 449a abbd 3f2c 033e
00000020: 9b2d 33be 2d16 90bd 9982 25be fa85 563c
00000030: 3b7a 513d 96d7 143e 3866 ff3d a3b5 7bbd
00000040: 4a95 803d cbe3 7bbd 9bb0 053e 1374 133e
00000050: 9618 4dbd 8e33 203e dfdb f93c 282e 9cbd
00000060: ab70 6d3c 7bd4 cebd 7909 87bd 401b 37be
00000070: 32b3 843c c70c 353e f48b 523d 4616 943d
00000080: 6ae2 25be a659 f7bd 7725 9ebd f5c9 103e
00000090: 9248 b4bd 1bbd 813d 6140 94bd 8f1b 0bbe
000000a0: 1c61 1fbd 9267 593e 2f84 8c3d 3cd0 10be
000000b0: ed35 f53d d208 3c3d 960c 19be bec7 bbbc
000000c0: d8af c4bc 0102 38be 5499 09be 51bd 653d
000000d0: 28fa ccbd 96cd c7bc b879 12bd fb7f 003e
000000e0: 599e dc3d 3a5e 13bd 8a7a 95bd 20c5 23be
000000f0: dbfe 0dbe b405 8cbd ae24 aa3d 7bcb f23b
00000100: 9068 c33d a2c0 93ba 567c 013e 0dc6 e0bd
00000110: 2d57 0d3b 7ad6 273e 210a 49be 835a 8e3d
00000120: 4cbd 24be 24d3 29be b3dc 283e 3d06 5f3d
00000130: 3d8e df3d 65a3 383b 1188 8dbd 0cc3 6dbd
00000140: 3f0b c2bd 1e01 b33d b8eb 473e 2ab4 813b
00000150: 1d48 30bd c4b8 f83b 7daa b7bd b580 05be
00000160: 373f 7fbc 09b5 323e b99d 86bd 32ca 7c3d
00000170: 5c57 acbd 1817 9ebd 78d3 2cbe d463 a33d
00000180: 1a6c 1b3d 1785 8a3d c41c 63be 0608 14be
00000190: 98be 8cbd 4556 a23d 7537 08bd a99d 2abe
000001a0: d0ed 03be d36a 1abe 5de9 30bd 5772 01bd
000001b0: d133 e9bd 54a1 6d3d ca89 0a3e c3b3 273e
000001c0: 26ce 843c ef04 28be a6ed c5bd 57e3 f33d
000001d0: 8178 bc3d 3787 97bd 1cf6 01be e960 fcbd
000001e0: ec0e 7a3c 669b fc3c 7662 30be 2efe 953c
000001f0: b95e c63d c735 ff3d ac31 3c3e 174d 27be
00000200: 4f39 1e3d 1e56 863d cd93 863c 3af7 5cbd
00000210: 3159 99bd a8b3 683d c3a5 40be 77f1 1c3e
00000220: f183 f1bd bca5 0b3e 4b4b 473d b360 a93d
00000230: 9cbd 433e 80d3 2e3e 7e30 44be feb9 b63d
00000240: 7911 cabd 8650 283e ac36 43bd 284f 4bbd
00000250: 1798 f1bd 837b 4a3c 9670 553d 9b76 4bbe
00000260: 0e03 d43d 4042 c23b 9e82 34bd eb35 a03d
00000270: e223 cb3d cce5 303e 8a77 d63d d401 263e
00000280: 231b 2bbe d6e4 bb3c 0e26 96bc 96a5 243e
00000290: 1589 5cbd 97aa 2a3e 998c d6bd bb19 85bd
000002a0: 736c be3d e697 22be c4fa fcbc 11ed 913c
000002b0: 360c 1d3d 7601 e7bc ee27 dcbc 9765 023e
000002c0: 38e6 3c3e 20c9 e1bd 8cbf 973d 6294 1cbc
000002d0: 880d 47be 8abd 1e3d 9b7e 1a3d 6772 a23d
000002e0: a705 2abe d7be 4eba 1dd0 643d 1d4f de3d
000002f0: de32 6dbd 3a44 4a3d a97d 9cbd 72f2 143a
00000300: 649b 22bd 9f5d d8bd b2af 073e b950 ec3d
00000310: 0bce 32bd 6f2d 5bbd 88ea 39be 9f1d 5c3e
00000320: 5e65 c5bd 8e25 dc3c d0b7 163e 00bc e4bc
00000330: afe7 81bd c6b6 5abd 0378 dd3c fff2 e33d
00000340: 66ea f13d 1d35 c73c 9d25 4b3e b295 cabd
00000350: 79ac 9a3d 280e 863c 6de2 013e e056 693d
00000360: 74bb 99bd 31f0 663c 60f1 35bd 57c9 ef3d
00000370: b30a 4bbd f6f7 eebd ba3e 84bc 125c 083e
00000380: 1cf4 e73d 7fd6 d7bd 739a 24be c7ed 0c3e
00000390: 808f 0abe f94d 343c fa81 1f3e 4e99 c33d
000003a0: 2555 9abd 79dc 143e 1b11 263e 482f 1cbd
000003b0: 0a87 003e d5ce ae3c b6fc f4bd fa32 db3d
000003c0: f2ee dc3d e0f5 3c3e 2e5d 873c a1e7 e63c
000003d0: d6c9 42bd 4904 e03d 45b4 97bc 7bdc 1abe
000003e0: 3e72 af3d 8cef 0bbd db8f 7fbd 0bd8 193a
000003f0: 670d 293e a31e a1bd ff6e 0f3d 9dc6 a8bd
0.0625796 -0.10483193 0.07384366 -0.15914902 0.057331968 -0.057830617 -0.08379033 0.12809847
-0.17497866 -0.0703548 -0.161631 0.013093466 0.05114196 0.14535365 0.124706686 -0.06145252
0.06278475 -0.061496537 0.13055651 0.14399748 -0.050072275 0.15644667 0.03050035 -0.07625991
0.014492194 -0.10099121 -0.06593604 -0.17881489 0.016198728 0.17680655 0.051403 0.07230811
-0.16199651 -0.12077646 -0.077219896 0.1413954 -0.08802904 0.06334897 -0.07238842 -0.13584732
-0.03891097 0.21230915 0.068611495 -0.14141935 0.11973176 0.04590685 -0.14946207 -0.022922393
-0.02400963 -0.17969514 -0.13437396 0.05608875 -0.10008651 -0.024390023 -0.03576061 0.1254882
0.1077239 -0.035978533 -0.07298763 -0.15993166 -0.13866751 -0.06837025 0.08307777 0.0074095107
0.09541428 -0.0011272619 0.12645087 -0.10975275 0.0021566853 0.1639041 -0.1963277 0.069508575
-0.16087836 -0.1658445 0.1649044 0.05444931 0.10915802 0.0028173563 -0.06910718 -0.05804734
-0.09474801 0.087404475 0.19523513 0.003958245 -0.043037523 0.007590385 -0.08968065 -0.13037379
-0.015579036 0.17451872 -0.06573052 0.061716266 -0.084151 -0.077192485 -0.16877544 0.07978025
0.03794489 0.06763666 -0.22178942 -0.14456186 -0.068722904 0.07926611 -0.033256013 -0.16661705
-0.12883687 -0.15079813 -0.043191303 -0.031603184 -0.11386836 0.058015183 0.13529125 0.16377167
0.01621158 -0.16408132 -0.096644685 0.11908596 0.09202672 -0.07398837 -0.1269154 -0.12323172
0.015262347 0.030835818 -0.1722506 0.018309679 0.09686036 0.12461429 0.18378323 -0.16338001
0.038628872 0.06559394 0.016427899 -0.05394671 -0.07487715 0.05681196 -0.18813233 0.15326487
-0.11792744 0.13637441 0.04865579 0.08270397 0.19115299 0.17072868 -0.19159123 0.08922194
-0.09866614 0.16436967 -0.04765956 -0.049636036 -0.11796587 0.012358549 0.052109323 -0.19869463
0.10352145 0.005928308 -0.04406988 0.07822784 0.099189535 0.1727516 0.10472019 0.16211635
-0.1670957 0.022936266 -0.018328693 0.16078791 -0.05384167 0.16666637 -0.104760356 -0.06499048
0.09298029 -0.15878257 -0.030881293 0.017813237 0.038341723 -0.028198939 -0.026874509 0.12734066
0.18447196 -0.1102469 0.074095815 -0.009556862 -0.19438756 0.038754977 0.037718397 0.07931977
-0.16603719 -0.0007886714 0.055862535 0.108549334 -0.05790984 0.049381472 -0.07641155 0.0005681879
-0.039698973 -0.10564732 0.13250616 0.11538834 -0.04365353 -0.053510126 -0.18155873 0.21495675
-0.09638475 0.026873376 0.14718556 -0.027921677 -0.06343018 -0.053396963 0.027034765 0.11130332
0.11812286 0.024317319 0.19838567 -0.09891833 0.07552428 0.016364172 0.12684031 0.056967616
-0.07506457 0.014095352 -0.044419646 0.117083244 -0.04957075 -0.116683885 -0.016143192 0.13316372
0.11325857 -0.10538959 -0.16074543 0.1376258 -0.13531303 0.011004918 0.15576926 0.09550725
-0.07535771 0.14537229 0.16217463 -0.03813103 0.12551513 0.02133886 -0.11962263 0.107030824
0.10787763 0.18453169 0.016523924 0.028186621 -0.047555767 0.10938317 -0.018518576 -0.15123169
0.08566712 -0.034163997 -0.06239305 0.000586868 0.16509019 -0.078671716 0.035017963 -0.082410075

input_proj.bias f4 [64]
00000000: 9d32 c2bd 6d6a 133d 15ed db3d 9b00 c3bd
00000010: 9ecf b13d 0cb9 13be 72a2 8c3d c9a4 433e
00000020: 07dc 0c3e 70b6 353e 5618 63bd 5484 e4bd
00000030: 9e9b 3bbe e4f3 333e 8bd7 603e 2ed8 8b3d
00000040: e24e bfbd 5e57 dc3d 88f7 323d a574 abbd
00000050: 05a3 3e3e cee7 00be 224c 1cbd ad19 81bc
00000060: 302f 74be 1c1e 2ebe d2f9 f1bd 38be 2f3e
00000070: 480e 5a3e 5492 2b3e 452f c03c 25bb 523e
00000080: 8909 aebc 9f11 23bd 699f 10be 22a7 e73d
00000090: 6ed0 d83d 5913 933d bfaf 2b3e b218 053d
000000a0: f1fa e1bd ce89 b1bd 6848 fabd eca6 953d
000000b0: dbb0 c1bd 5f63 e03c dd3d 21bd db2f 133e
000000c0: e12b 553e 0b6d a33c e6a4 e1bd caa3 dc3d
000000d0: 2db7 e43d 7558 113d 9077 39bd 8722 11be
000000e0: 872d e33a 32fb 73be ecb5 1b3e e254 253e
000000f0: e74f ccbd 595d ecbd 14e7 84bd bfba 53bd
-0.0948231 0.035990167 0.10738579 -0.095216 0.08682178 -0.14426059 0.068669215 0.1910583
0.13755809 0.17745376 -0.05544313 -0.11158052 -0.18321082 0.17573506 0.21957223 0.068283424
-0.093412176 0.107588515 0.043693095 -0.083718576 0.18616875 -0.12588426 -0.038158543 -0.015759313
-0.23846126 -0.17003673 -0.118152276 0.17162406 0.2129451 0.16755038 0.02346004 0.20579202
-0.021244781 -0.039811727 -0.1412331 0.11311175 0.1058663 0.07181425 0.1676626 0.032494254
-0.110341914 -0.08668862 -0.12220842 0.073072284 -0.09457561 0.027391134 -0.039365638 0.14373724
0.2081752 0.019949457 -0.1101778 0.10773428 0.111677505 0.03548475 -0.04528004 -0.14173327
0.0017332294 -0.23826292 0.15206116 0.16145661 -0.09976178 -0.11541242 -0.06489387 -0.051691767

msg_layers.0.W_self.weight f4 [64, 64]
00000000: 9465 773d 41c8 9e3c 311a c03d 9799 243e
00000010: 0084 553c 1351 39bd 9af0 d7bd 31a2 07bd
00000020: 5633 8d3d cd20 a53c 3046 44bd 673c 88bd
00000030: c8a6 9bbd c6ac 873d 3234 7c3d d8a4 abbd
00000040: b304 8abd a8a2 ae3c 59ca 7f3d e344 403b
00000050: 7498 cbbd b302 84bd 690d afbd 6aeb 413d
00000060: 437b 413b 3ddd c3bc 7b57 44bb e740 05bd
00000070: 4dab ecbd 2aa7 b7bd 38ac 9abd 87d0 6ebd
00000080: c40f 0cba 39a6 a63d 0504 60bd 98b2 03be
00000090: 3529 b2bd 6b4c 493d e96a 9a3d ddb7 a6bd
000000a0: 87a0 113c 8c1b cabd 7891 62bd 5414 6fbd
000000b0: d087 12bd 81a9 ab3d 7876 683d e1e0 8bbd
000000c0: 0749 48bd b5e0 e63b 3505 83bc 2740 033e
000000d0: 9e1c cd3d d5a2 85bb 5b0e d33c 8f4a b3bd
000000e0: e7de 2b3d e9d3 36bd ea5b fa3c c3a3 dbbc
000000f0: df9b 55bd 39b4 36be bc2d a5bd eaf8 8f3d
00000100: 55fc 30bd ba92 a4bd 16e0 023e eeb0 34be
00000110: cbda 5c3c fff9 f6bb 3eba 05bd 9c28 0d3d
00000120: 10c0 c0bc b5cd a83d e206 273d 405e a83d
00000130: 96f3 76bd 0ace 3d3d bd73 30bd 810e 2ebd
00000140: 7d87 d2bd a860 edbb f97c 06bc c7af 933d
00000150: 4d42 06bd c168 223d d711 f5bd 2368 8b3c
00000160: ba56 b8bd e1f3 133d fb0d 14bd 6421 3dbd
00000170: 3579 183e 2237 073e e0e0 ea3d e70c a03d
00000180: b458 2f3d 3df9 29bd 50d1 8ebd a2cc 983d
00000190: c2ea a3bc d2e2 0a3e 03c6 dd3d bf08 9abd
000001a0: bb7d 563d 4e0d a03c c755 153c 2951 c43d
000001b0: 27ef 14be 003b 063e 198b 6b3d 9fc7 da3d
000001c0: 7aff 283e 7fa2 b53d 6bb7 c7bd e4c2 a2bd
000001d0: 16db 3abd 6c5b 40bd af11 94bd eab2 d4bc
000001e0: 6816 57b9 a801 19be afa9 b8bd 7be7 c9bd
000001f0: 6343 23be c477 76bd 5d37 25be 727c 1c3e
00000200: b5cf f5bc 3f14 473d 2a02 8cbc 1649 b43d
00000210: 7429 eebc 5203 153d 014f ab3d d523 ae3b
00000220: 75c1 e8bc 7b9a 92bc 96ad 75bd 1e0a fcbd
00000230: 080c ad3d f9b4 eabc a3a7 64bd 0168 973b
00000240: 2732 0cbc 4cda 5fbd b893 9cbd bec2 c8bd
00000250: 3d96 08be fcf6 49bd 0af9 653c 7c8f 35bc
00000260: 4b70 423b 03f8 f13d 2c23 1fbc 88dd 7e3d
00000270: 55d9 e63d 6fc0 21bc cc0c a4bd 5132 c4bd
00000280: 8b26 a53d ca30 b13d 1320 753d d103 e1bb
00000290: 367f fdbb 97ba 163e eae4 363e 55bd 8dbd
000002a0: 0508 9b3d d699 f4ba db29 82bd 1d3c c2bd
000002b0: b030 a2bd 4590 c63d be2d 10bc 9b58 a23c
000002c0: 9a6c 503d 2d03 833d 8555 a7bd 3fcb 9e3d
000002d0: 3138 d5bd 207c 4a3d 54ce b83c 1f28 513d
000002e0: 6644 8cbb bbdc 823c 5748 0b3e c5ca f83c
000002f0: bf66 313c 5a03 3cbe 3b1e 693d db18 db3d
00000300: 57bf 05be 0982 b63d 309b 473d 0ed9 e4bc
00000310: 6eb6 9bbc 310c 2a3d 51cd 97bd faea d1bd
00000320: 8cdb 733c 19db 07be 2ec5 7bbd 3a55 f13d
00000330: 36de 8cb9 f481 c33d 5464 3fbd 79ad 903c
00000340: b97f acbd 5683 5a3d 3c24 e3bd d0e6 02bd
00000350: 6562 7cbd 009e 523d e8b7 8fbd 04ba 13bc
00000360: 6b0b ff3d eed1 1dbd 3d5f 6a3d fc62 a23d
00000370: 11df bbbd 1524 c0bd 9c87 ac3c 4886 c0bc
00000380: ad29 b9bd 0a73 953d 8e63 f03d e474 e5bd
00000390: b26c 383d 3c42 3ebd 1d83 d13d f012 c33c
000003a0: c4a7 0f3d 8deb 3dbe 1726 58bd f7cf 993d
000003b0: 5706 67bc 93bb ef3c ba50 d33d 0cf4 d0bd
000003c0: d8f7 9e3c 1cf8 5d3d 9bdf 2d3d 7073 cc3c
000003d0: de71 cdbc 5b95 e63d 59dc 11be 70cc c1bd
000003e0: 4002 e13d be3b e3bd f2dc f9bc 1b89 c1bc
000003f0: 7aed 673d ada2 dfbd 41f6 fdbc 44c7 3c3d
0.060399607 0.019382598 0.093799956 0.16074215 0.0130319595 -0.045243334 -0.10543938 -0.033113662
0.06894557 0.020157242 -0.0479185 -0.06652146 -0.076001704 0.06624751 0.061573215 -0.08381051
-0.067391776 0.021317795 0.062448833 0.0029337935 -0.099411875 -0.06445827 -0.0854748 0.04734365
0.0029522933 -0.023909206 -0.002995937 -0.0325326 -0.115561105 -0.08967431 -0.07552379 -0.058304336
-0.00053429254 0.08137173 -0.054691333 -0.12861097 -0.08699266 0.049145143 0.07539923 -0.08140538
0.00888837 -0.098685354 -0.05531451 -0.058368996 -0.035774052 0.0838194 0.056753606 -0.068300016
-0.04889777 0.00704583 -0.015993694 0.12817441 0.10015224 -0.004078249 0.025763681 -0.08754455
0.041960623 -0.044635687 0.030561406 -0.026811486 -0.052150603 -0.17842187 -0.08065364 0.070298985
-0.043209393 -0.08035798 0.12780795 -0.17645618 0.013479899 -0.007537126 -0.032648318 0.034462556
-0.023529083 0.082423605 0.04077805 0.08221102 -0.060290895 0.046339072 -0.043079127 -0.0424943
-0.102797486 -0.0072441883 -0.008208507 0.07211261 -0.032778073 0.039650682 -0.11966293 0.01701743
-0.09000917 0.036121253 -0.036146145 -0.046174422 0.14889987 0.13204625 0.11468673 0.07814961
0.042809203 -0.041497458 -0.06973517 0.074609056 -0.020009402 0.13563088 0.10828783 -0.075211994
0.052366 0.019537594 0.009114689 0.095857926 -0.14544354 0.13108444 0.0575057 0.10682606
0.16503707 0.08868884 -0.09751781 -0.07947329 -0.045619093 -0.046962187 -0.072299354 -0.02596422
-0.00020512345 -0.14942038 -0.090167396 -0.098586045 -0.15943675 -0.06017281 -0.161344 0.15281847
-0.030006269 0.048603293 -0.017090876 0.088030025 -0.0290725 0.03638012 0.08364678 0.00531433
-0.02841256 -0.017895928 -0.059979998 -0.12306617 0.084495604 -0.028650748 -0.055823933 0.0046205525
-0.008556879 -0.054651543 -0.076453626 -0.09802769 -0.13338561 -0.04930781 0.014036426 -0.011081573
0.0029668983 0.118148826 -0.0097129755 0.062222987 0.112719215 -0.00987254 -0.08010253 -0.095799096
0.08063992 0.08651884 0.05984504 -0.00686691 -0.007736112 0.14719616 0.17860761 -0.06920878
0.07569889 -0.0018661569 -0.063556395 -0.09484122 -0.07919443 0.09695486 -0.008799968 0.019817641
0.05088482 0.0639709 -0.081706084 0.0775361 -0.10411108 0.04943478 0.022559322 0.051063653
-0.0042806147 0.015974393 0.13601814 0.030370126 0.010827719 -0.18360654 0.056913596 0.106981
-0.13061272 0.08911521 0.048731983 -0.027935531 -0.019007888 0.041515533 -0.07412208 -0.10249896
0.014883887 -0.13267173 -0.061467342 0.11783834 -0.0002686844 0.09546271 -0.04672654 0.017660843
-0.08422799 0.053347908 -0.110908955 -0.0319584 -0.061617274 0.05142021 -0.07017499 -0.009016518
0.1245335 -0.038530283 0.057219733 0.07929036 -0.09173406 -0.09381882 0.021060757 -0.02350153
-0.09041152 0.072973326 0.117377385 -0.11203936 0.045025535 -0.046449885 0.10230086 0.023812741
0.035072103 -0.18546887 -0.0527707 0.07510369 -0.014100633 0.029264247 0.10318132 -0.10202798
0.01940529 0.054191694 0.042449575 0.024957389 -0.02507871 0.11258956 -0.14244212 -0.094628215
0.10986757 -0.11095379 -0.030500863 -0.023624947 0.05662296 -0.109197 -0.031001212 0.046088472

msg_layers.0.W_self.bias f4 [64]
00000000: 1b01 b53d 3db1 a33d 41bd 80bd a932 b23d
00000010: 0120 83bd c28e 9dbd 631e 9fbd c201 5b3c
00000020: d810 8cbd 4fca b53c 8e38 cebd 0709 27bd
00000030: 31b9 223d 0062 223d 3958 a2bd 8123 7d3d
00000040: c24d c0bd a283 14bd f784 53bd 386d 223e
00000050: aa52 96bc 084c f839 9f55 ce3b 41a5 233d
00000060: 7150 dbbd f231 7f3d fb2e f5bc d9a1 2b3c
00000070: 67ce 1cbd bc72 003d 8912 02bd 74ff 2a3d
00000080: 6597 eabd bc18 a0bc 0c83 663d 5851 fc3d
00000090: 70ab 983d 7e13 a9bd 52a7 6a3d b974 cbbc
000000a0: 8a5d 3e3d 60a3 2dbd 278f f5bd eb70 01bd
000000b0: ce64 b23d 5f7d 65bc 0ca9 4b3d 6e8e f0bd
000000c0: fd44 a73d 7b26 d5bd 7109 17be deb5 99bd
000000d0: 2ac9 3abd 4cf7 5cbd 4f79 dfba 257a 4bbd
000000e0: 14e8 cb3c c194 a5ba 1ef4 bf3c 60dd d3b9
000000f0: 1812 86bc 1a8f 0f3d 33e5 cebd ca2f 06be
0.088381015 0.0799279 -0.06286097 0.08701069 -0.06402589 -0.076932445 -0.07769468 0.013367118
-0.0683915 0.022191195 -0.10069381 -0.040780094 0.039727394 0.03964424 -0.079269834 0.061801437
-0.09389831 -0.036258347 -0.051640477 0.15861976 -0.018349964 0.00047358894 0.006296828 0.03995252
-0.10708702 0.06230349 -0.029929629 0.010475599 -0.038282778 0.03135942 -0.031755958 0.041747525
-0.114546575 -0.019543044 0.05627732 0.123202026 0.07454574 -0.08255671 0.057288475 -0.024835931
0.046475925 -0.042392135 -0.11990195 -0.031601828 0.08710633 -0.014006942 0.049721763 -0.11745916
0.08167455 -0.1040773 -0.14749695 -0.075053915 -0.045602 -0.05394678 -0.0017049703 -0.049677033
0.024890937 -0.0012632833 0.023431834 -0.00040409993 -0.01636605 0.03504858 -0.1010231 -0.13104168

msg_layers.0.W_msg.weight f4 [64, 64]
00000000: cb57 62bd 0853 ab3d bd9a 86bd 4f77 70bb
00000010: ff3c 21bd 6311 353d 59c1 e8bd b7bc c33d
00000020: 208c febb 13c0 683d 2982 e23a b9f9 f73d
00000030: 7d94 b3bd fb0d d53d 66d5 4f3d 3bf0 d33d
00000040: aa92 8ebd 583b 913c 7cc9 0fbe 3696 983d
00000050: 8bce d7bd 3ab5 533d cf13 9ebd af88 c33c
00000060: 4f13 6dbd 6f38 0d3c 4865 89bc db66 fb3d
00000070: 9189 8e3d c808 91bd 735c c23a e535 07bc
00000080: b868 0d3c 5dfd 413d 681d 9fbd 896e d7bd
00000090: 8418 a4bd 5535 79bd 401f 703d 0d0a 9d3d
000000a0: 740d 25bd a707 9cbd 0ec9 ce3d 719f 92bc
000000b0: a85c cf3c 9b38 8b3d 0764 1f3b 4fe1 3bbd
000000c0: 78d3 b83d d493 433c 9760 e13d b95a 293d
000000d0: b6fd 333c 5ed2 103e b852 b43d a3f5 913d
000000e0: 1cba 133e 36ab 073d 54e1 a43d 5027 4cbd
000000f0: 513d e33c 25b5 21bd 09e4 a8bd d728 b8bd
00000100: bd7c 983d 9f44 93bc 6c06 033e 58d0 81bd
00000110: 6a30 52bd 58a4 82bc 9a5f 90bc e456 3b3c
00000120: c545 943c 38de 2f3e 07fc f8bd cba7 cabd
00000130: eff9 6dbc 782e bdbd 0eed 003d 32d8 10be
00000140: b135 1ebd 1986 963b 2faf 1a3e 8341 9a3d
00000150: 5bd8 1f3e 4260 eb3c 66f1 7abd e1a3 063d
00000160: 324c 403c b1ec 89bd 7ccb ae3d c11c 813d
00000170: afac 64bd 36b3 8fbd aea0 20bc b7e9 4c3b
00000180: 1e0c 38bd 2ac5 d9bd 7aac 5ebd 790f c23b
00000190: 8d36 67bd 993d 1e3d 1dff 01be 957b 26bd
000001a0: 4ca9 a33d 59f3 d93d 42f2 c8bb 8ef9 8a3d
000001b0: a3d8 ccbc 50d5 d4bd e3ac b23d 9d77 083d
000001c0: 3078 82bd 319f 8d3d 7e0f 27be e215 c1bd
000001d0: 3437 80bd 31c0 1abd 2903 10b9 0ebc 58bd
000001e0: 5281 03be 09ef babc 3e46 7fbd 006c 10be
000001f0: 20d4 d23b 0db8 58bd b8d0 13bd 04d5 a33c
00000200: 26ad 9e3d b1b9 303d 15c0 e7bd ddc5 2c3d
00000210: 91af 52bd 83f7 173e 059e 9a3d ff18 9bbd
00000220: 0986 af3c 15de 63bd 741d 163c 75cb 103e
00000230: 50f0 2abd cad8 eabd 4862 2a3d 2632 8ebc
00000240: 61da 103d 1de6 00bd 53a9 a03c 1f78 97bd
00000250: f871 f73c eb38 ca3c 897f 903d d56d bdbd
00000260: 8895 8f3d 6b42 ccbc db22 58bc 80f6 9e3d
00000270: f7eb 543d 78ee 8e3d 2f13 9ebd 6b1f b5bd
00000280: 4b56 6dbd b563 a83d b1f2 773c 0c28 063d
00000290: 0a18 253a 5f39 cdbd b075 8abc 755d a2bb
000002a0: 5280 70bd 57d8 92bd df8c 7e3d 65a4 e5bd
000002b0: 0f14 ddbd 51c4 82bd 5528 31bd 8a26 7e3d
000002c0: 1a13 f1bd 292b d7bc 8e2c e03d 737a 063e
000002d0: b455 cdbd 2020 033e 945f b3bd 39b9 e33d
000002e0: 5d9e 07bd fa47 a43d 0f46 d9ba 99b5 cc3d
000002f0: c3ae a8bd ac4e 3abd 311e d03c 06e2 b2bd
00000300: c3fe a3bc d16d d83d bb92 43bd e185 01bd
00000310: e1b9 a5bd f75f 443b 6bb6 853d 436e a7bc
00000320: e7e7 27bc 1bf5 02be fa77 88bc 46cc 6d3c
00000330: 79c8 b5bd 4923 333e 8fdd 1a3e beee 3e3d
00000340: 2185 8bbc 5c6b 893c f0fd ac3c ce72 063c
00000350: fb76 11bd d8a2 5b3d 94d7 bd3d e0b1 5abc
00000360: 7284 c63d 2276 b73d af17 dfba f263 9e3d
00000370: 83ed 76bd 6c1a 0dbd 7915 253d 73e8 8abd
00000380: f744 8cbd f4c2 b93c 91b9 aa3d 48fc d33d
00000390: 0259 cfbd 8ed5 cfbd 254b 80ba 216d 65bd
000003a0: f803 07be 7ea2 04bb 437a 91bd ff49 c8bd
000003b0: b386 1a3d 46b8 253c 445e c6bd 57b6 e6bd
000003c0: 3e79 6d3d 16ec 593d 9bed abbc 737b e3bd
000003d0: 93e4 a1bc de2e ee3d 6173 b73c 9c85 9e3c
000003e0: 9749 a83c 59d8 033c 6d83 9ebc 3e6a 67bd
000003f0: ea77 abbd 4cd6 bc3d 68ba 8a3d 75c8 f53b
-0.055259507 0.08365446 -0.06572483 -0.0036692207 -0.03936481 0.044206034 -0.11365003 0.09557479
-0.007768169 0.0568238 0.0017281222 0.12108178 -0.08768556 0.10403057 0.050740622 0.10348555
-0.06961568 0.017728493 -0.14041704 0.074505255 -0.10537442 0.051686503 -0.07718622 0.023868887
-0.057879742 0.008619412 -0.016771927 0.122754775 0.069598325 -0.07081753 0.0014828577 -0.008252596
0.008630924 0.047360767 -0.07769281 -0.1051913 -0.080124885 -0.060841877 0.058623552 0.07667933
-0.040296033 -0.07618647 0.10096942 -0.017898293 0.025312737 0.06797906 0.0024321096 -0.045869168
0.090247095 0.0119371 0.11004751 0.041346285 0.010985782 0.14142749 0.0880484 0.071269296
0.14426464 0.033122264 0.080507904 -0.04984218 0.027739199 -0.039479394 -0.08246619 -0.089921646
0.07445667 -0.017977057 0.12795419 -0.063385665 -0.051315702 -0.015947506 -0.017623711 0.011434291
0.018099675 0.17174613 -0.121574454 -0.09895285 -0.014524921 -0.09237379 0.031476073 -0.14144972
-0.038625423 0.0045936224 0.1510589 0.075320266 0.15609877 0.028732423 -0.06126537 0.03287113
0.011736916 -0.067345984 0.08534905 0.063043125 -0.055828746 -0.07016604 -0.009803934 0.0031267235
-0.04493343 -0.10633309 -0.054363705 0.0059222546 -0.056448508 0.038632963 -0.12694974 -0.0406452
0.07991275 0.10642118 -0.006132395 0.0678588 -0.025005644 -0.10392249 0.08724382 0.033317197
-0.0637058 0.06915129 -0.16314504 -0.09428002 -0.06260529 -0.037780944 -0.00013734087 -0.052913718
-0.128423 -0.022819059 -0.062322848 -0.14103699 0.0064339787 -0.0529099 -0.03608772 0.019999035
0.07747869 0.04314584 -0.113159336 0.042180885 -0.051436964 0.14840512 0.07549671 -0.07573127
0.021426218 -0.055631716 0.009162296 0.14140113 -0.041733086 -0.114671305 0.041597635 -0.017357897
0.035364512 -0.031469453 0.01961199 -0.07395958 0.030205712 0.024685344 0.070555754 -0.092494644
0.07010943 -0.024934014 -0.013191904 0.0776186 0.051982846 0.06979078 -0.07718503 -0.08843883
-0.057943624 0.082221426 0.015133546 0.032753035 0.00062978326 -0.10020708 -0.01690182 -0.0049549886
-0.058716126 -0.0717017 0.062146064 -0.112129964 -0.107948415 -0.06385101 -0.043251354 0.062048472
-0.117712215 -0.026265698 0.10945998 0.13132648 -0.10026112 0.12805223 -0.087584645 0.11119313
-0.03311001 0.08021541 -0.0016576665 0.099955745 -0.08236458 -0.045485184 0.025405021 -0.08734517
-0.02001894 0.10567821 -0.047747355 -0.031621817 -0.08092094 0.0029964426 0.06528934 -0.02043832
-0.010248161 -0.12788813 -0.016658772 0.014514035 -0.08876128 0.17493929 0.1512358 0.0466144
-0.017031254 0.016774826 0.02111718 0.0082060825 -0.03551386 0.053622097 0.09269634 -0.013348073
0.09693231 0.08958079 -0.0017020608 0.07733907 -0.060285103 -0.034449026 0.04030368 -0.067826174
-0.068490915 0.022675969 0.08336175 0.10350853 -0.10124399 -0.10148154 -0.000978802 -0.056012277
-0.13185108 -0.0020238454 -0.07103398 -0.09779739 0.037726115 0.010114735 -0.096859485 -0.11265247
0.057976954 0.053203665 -0.020987323 -0.111075304 -0.019762313 0.11630033 0.022393884 0.01935082
0.020542903 0.008047187 -0.019349778 -0.056497805 -0.08372481 0.092205614 0.067738354 0.007500703

msg_layers.0.W_msg.bias f4 [64]
00000000: 55e7 36bd ee2c fa3c de59 5ebb 7717 cbbd
00000010: cccb 81bc 4f50 a5bb 4e2a a7bd 997e 4a3d
00000020: 1a8c 2cbc eab5 9e3d b78e 8abd f2c5 47bd
00000030: 0857 f0bd d97f f0bb 8357 853c 5c7c 353d
00000040: 4778 fdbd 74ec 62bd 3194 d8bc 5bee 973c
00000050: 069a 98bd 365d 4fbe e877 fe3d cf5e 813d
00000060: f82c ba3d 85bf 60bd 4851 233c 028b a8bd
00000070: 892a 793c e569 1a3d 88dc ca3c 48ea 523d
00000080: 4e01 bebd c474 cabd a654 f83d 28b4 1ebd
00000090: 57cc a13d 94b4 443d ace4 58bd d7eb 29bd
000000a0: a3b1 453d f8fb 45bc e503 b0bc 61fc afbd
000000b0: 509e 033d fd95 a3bc adeb 443d fa15 22bd
000000c0: 1b6b bc3d aacb 88bd 1823 aebc 9e95 973d
000000d0: 1617 a13d 92cd f73c 7eb1 fe3c fb62 dd3d
000000e0: 6404 9f3d 625d 6ebd 16a3 863d a551 0fbd
000000f0: 2d1b 28bd 7c77 68bc 8a92 83bd 05be eb3d
-0.04465421 0.030539002 -0.0033928077 -0.09916585 -0.015844248 -0.005044974 -0.08162366 0.04943714
-0.01053145 0.07749541 -0.06765502 -0.04877276 -0.1173535 -0.0073394594 0.01627708 0.04430805
-0.12376457 -0.05540128 -0.02643785 0.018546274 -0.07451253 -0.20250401 0.12425214 0.063169114
0.09090608 -0.054870147 0.009968109 -0.08229639 0.015207895 0.037698645 0.02476336 0.05149296
-0.092775926 -0.098855525 0.121255204 -0.03874603 0.07900303 0.048023775 -0.052952453 -0.04148468
0.04826511 -0.012084 -0.021486232 -0.08593059 0.0321334 -0.01996898 0.04807632 -0.03957174
0.09200116 -0.06679471 -0.021256968 0.07401584 0.078657314 0.03024939 0.031090494 0.10809895
0.07764509 -0.058194526 0.06574075 -0.03498997 -0.04104154 -0.014188644 -0.064244345 0.11510853

msg_layers.0.norm.weight f4 [64]
00000000: 2429 793f 557a 853f 40ef 773f f5a5 893f
00000010: bf9d 813f 69ba 783f 4893 773f 0c1f 803f
00000020: 7606 733f 15f5 863f e474 7e3f 4cbf 883f
00000030: ba83 803f 8c3f 833f 7010 7d3f c17a 6e3f
00000040: 3a4d 7b3f ea7c 753f ef46 833f fbe0 813f
00000050: e27a 823f e423 733f 0f56 7d3f 1cc9 803f
00000060: 908a 7f3f 4565 723f 676c 853f 2f7d 843f
00000070: ac42 763f ba07 823f f6fd 853f 1b26 8b3f
00000080: a36b 713f 45a3 763f 3b34 833f 8029 7e3f
00000090: 20f5 7c3f 79b4 7f3f 7626 833f e7dd 743f
000000a0: 446b 6e3f 43ee 883f 98c6 783f 8af2 753f
000000b0: a1fc 7b3f c71e 853f 07bc 7b3f ae5d 763f
000000c0: eaba 823f b7af 813f 489b 823f 8b87 7d3f
000000d0: b676 7f3f 1101 7b3f 236d 883f 904f 833f
000000e0: 72eb 773f 6cea 8b3f a6dd 7c3f 8b1c 783f
000000f0: c7cf 773f 5230 7f3f ef00 7d3f 2228 763f
0.973284 1.0427958 0.9684944 1.0753771 1.0126265 0.9715944 0.9670911 1.0009475
0.94931734 1.0543543 0.9939711 1.0683379 1.00402 1.0253768 0.98853207 0.9315606
0.98164713 0.9589373 1.0256022 1.0146784 1.0193751 0.9497664 0.9895944 1.0061374
0.99820805 0.94685775 1.0423707 1.0350703 0.96195483 1.0158608 1.0468128 1.0871004
0.94304866 0.9634288 1.0250314 0.99282074 0.9881153 0.99884754 1.0246112 0.95651096
0.93132424 1.0697712 0.9717803 0.9607321 0.98432356 1.0400017 0.9833378 0.96236694
1.0213292 1.0131749 1.0203638 0.9903495 0.99790514 0.980485 1.0658306 1.0258656
0.96843636 1.0930915 0.9877571 0.96918553 0.9680142 0.99683106 0.9882955 0.9615499

msg_layers.0.norm.bias f4 [64]
00000000: 9b66 c53c 41a2 8b3d a14b 3e3c a520 86bd
00000010: e54e 5c3d 5b21 4e3c 928d ab3c b4a5 6c3d
00000020: 5724 193c 8d15 863d 34d2 66bc fb03 cbbd
00000030: 0bb7 e4bc 5173 873d 636c f73c 6eb6 08bd
00000040: 3b43 c33c ed3a b2bb 77e4 0fbb b710 a63d
00000050: 1a62 883d 283a 363d 7a44 043d 110b 23bb
00000060: 051a 89bd f16f 33bd 7f29 bbbd 9936 983d
00000070: 70b4 b23d 7855 543d 95f9 26bc d3b4 0e3d
00000080: a21e dcbb 204c a63c 17bb 4ebb c6ba c93b
00000090: 7dcf 503d bdb6 f1bc cba3 4a3d 9c13 523c
000000a0: d44c 353d 0777 423d 77a7 183d fc10 8d3d
000000b0: d669 45bb 71dc c83b de64 c03a 355b 883b
000000c0: af5a 893d 187f 8c3c 71e6 c5bd d33f cfbd
000000d0: 980c 483d b236 7c3d 331c d6ba 6062 b3bd
000000e0: 939c 4b3d aa29 ebbd e27c 6b3c 3f48 cc3c
000000f0: 7100 dd3c 0393 41bb 20ff 36bd 8073 0fbd
0.024096778 0.06818057 0.011614711 -0.06549195 0.053786177 0.012581195 0.02094153 0.057775214
0.009347043 0.06547079 -0.014088202 -0.099128686 -0.027919313 0.06613792 0.03020305 -0.033377104
0.023835769 -0.0054391534 -0.0021956244 0.08108657 0.066593364 0.044489056 0.032291867 -0.0024878422
-0.06694416 -0.043807928 -0.09138774 0.07432289 0.08725822 0.05183932 -0.010191341 0.034840416
-0.006717519 0.020299971 -0.003154462 0.0061562983 0.050979126 -0.029506082 0.04947261 0.012822058
0.044262722 0.047476795 0.037269082 0.06888005 -0.0030122898 0.0061297943 0.0014678498 0.0041612634
0.0670675 0.017150447 -0.09663094 -0.101195954 0.048840135 0.0615756 -0.0016335308 -0.08758998
0.049709868 -0.11482556 0.014373036 0.024936793 0.02697775 -0.0029537089 -0.0446769 -0.03502226

msg_layers.1.W_self.weight f4 [64, 64]
00000000: 9572 853d b92e 073d f799 d43d b0ad 1e3d
00000010: 11c4 f73d 50db 9d3d 0096 40bd f1ec f8bd
00000020: c4ad 4a3d dc31 f53d 68c7 88bd 535a b53d
00000030: 79af bd3c 817f 8bbd ccf4 b0bd aa93 193d
00000040: c6f3 56bd b4e8 56bc 8572 9ebd e5f0 523b
00000050: 1174 fdbc 9e7d 133e 5d70 04bd a638 0abd
00000060: 2059 0fbe 8680 46bd 4999 69bd 1363 d1bb
00000070: 6ab0 b9bd 7539 1f3e 552e a7bd 4aa6 8e3d
00000080: f18e b0bc 82ae 3b3d 6fa5 08bd 6dd0 08be
00000090: 9a2e aa3d be1d 66bc 38be f33d 2cbb bdbd
000000a0: 3901 9c3d 0401 9cbd 4722 2c3d 0236 10bd
000000b0: a55f ebbc 12b1 083e 0fc1 0f3e d8b4 5fbd
000000c0: c045 25be 413f da3b e4d7 e3bd 63be 383d
000000d0: 0237 333d 778b f03d af1d dabd e8e4 c6bd
000000e0: 7ea5 033e fd55 d23d c58f 93bd b8bb b2bc
000000f0: 1253 d43d f6e6 763d 0314 03bd 0167 acbd
00000100: 39d7 0fbe e6de 0dbe 5db7 ecbd fdbe f8bb
00000110: 5ade 48bd aef7 7abd 60c3 033e f770 053e
00000120: 249c 053e 0ef4 b2bd 418c 43bd d1fd f5bd
00000130: e9eb 3abd 19bc 7f3c 1053 aa3c d615 f03d
00000140: 18cf 93bd 8cbd 633c 218a 403e bb83 573e
00000150: cd36 e4bc 56b4 bfbd 659d 793d 4b04 413e
00000160: f45f 30bc bc87 47bd f5aa 8bbd d3d9 e2bc
00000170: 2db3 4d3d 9ec3 e5bc b743 df3d b64f 42bd
00000180: 88eb afba ee06 42be 8c38 20be feb0 a33d
00000190: 735a 04be 0db3 8a3d 13d4 1cbb 6515 35bd
000001a0: 48b3 debc b1b7 4c3d 7a5f 1fbd 6a30 bebd
000001b0: 88ac 4c3c f7f6 33be b47f 88bd d574 50be
000001c0: c75c 343e 8570 0dbc 89c4 aebc 1209 a3bc
000001d0: 3b03 f13d c21d f8bd 9bf3 6cbc ee07 4dbd
000001e0: 2168 46bd f40e c5bd 6a9d 47be 7690 1abd
000001f0: 6a3a d7bd 1d61 5d3e f0c1 8c3c cc34 303e
00000200: e556 8abb e48c 4a3e 3cb0 8abd 99ac 5c3d
00000210: 0860 63bc 66b5 7b3d 3984 83bd 5174 adbc
00000220: 9f5e a73d ab70 a03d 2a41 da3b 5153 a23c
00000230: 1231 ce3d 166a 193e fc6d 12be 7168 2ebd
00000240: e8da ecbc 0c2d 52bd f787 bdbd 5953 c5bb
00000250: 1922 ebbb 30ec fbbc a3d4 69bd 52d2 c23c
00000260: 6637 4ebd ce87 22be cb62 7bbd 0d8e 803d
00000270: 33f1 fb3d 34c7 303e a846 19be 7199 ea3d
00000280: 1ed9 bbbd 00cf a1bd 5c9c a1bd a544 7bbd
00000290: ef9d e7bc 5225 ccbd e8db c33d 5b50 283d
000002a0: e10f 1e3c ec6e 75bd 919b dc3c de84 a73d
000002b0: 758d 2cbe fa8e 58bd 82b6 023e e4c4 cabd
000002c0: fda6 fb3d 8b5b a03d d4b2 4bbd 665e 8e3d
000002d0: 0500 da3d d5fb 78bb d23d 3739 1c51 a13d
000002e0: 3500 693d d956 22be 59ce c43d b5f8 bfbd
000002f0: fb2d 803d aa03 e83c 5182 c1bb 989b 74bb
00000300: 1a5c 02bd b7a4 b8bd 7e3c 65bd 2f45 91bd
00000310: 6678 48bd ce74 ce3d c9b5 c93c 10a6 0cbd
00000320: d1d7 b5bd f097 56bd f1c4 073e 0252 a23c
00000330: 6f3c 863c d721 4c3c 018b cc3d af0a 5ebd
00000340: 7bb7 a43d 4470 013e c685 7c3d 107b d3bb
00000350: 1501 0a3d 05b0 dcbd edc3 bbbd ecc1 4abd
00000360: 0578 183e 8296 61bd 2aa6 d0bb af6c a13d
00000370: 5560 813d 81e3 2ebd 7dca 5bbd 50e6 f6bd
00000380: 2c33 e03d b67a a33d 6b38 4ebd 9560 f4bd
00000390: 6bb0 443d 949f a73c 3abc dc3c 97d4 3f3c
000003a0: 6591 c43b d3b9 dabd f5f9 523d 04d8 23bd
000003b0: 985e 0c3e c18f fdbc 5fe7 a33d 161a 953d
000003c0: 4c48 27be 160c 923d fad3 be3d 816a c53d
000003d0: 5840 c53c a1ab c6bb f0c0 023e 8753 0d3e
000003e0: 9646 803d 2f34 733d c272 8a3d 1741 573d
000003f0: ad74 363d 159a ccbd 63c5 b1bd e238 923d
0.065159954 0.033003543 0.10380929 0.03873986 0.120979436 0.07707846 -0.04701805 -0.12154568
0.049482122 0.119724005 -0.06678659 0.088551186 0.023154961 -0.06811429 -0.08640441 0.03749434
-0.052478574 -0.013117004 -0.077366866 0.0032187041 -0.030939134 0.14403388 -0.03233372 -0.03374543
-0.13998842 -0.048462413 -0.05703095 -0.0063899844 -0.090668514 0.15549262 -0.08163134 0.06965311
-0.021552535 0.04582072 -0.033360895 -0.13360758 0.0830967 -0.014045177 0.11901516 -0.09264216
0.07617421 -0.07617381 0.042024877 -0.035207756 -0.02873213 0.13348797 0.1403849 -0.054615825
-0.16139889 0.0066603725 -0.11125162 0.045103442 0.04375363 0.11745351 -0.10650193 -0.09711629
0.12856099 0.10270307 -0.07205156 -0.021818027 0.10367407 0.060278855 -0.032001507 -0.08418084
-0.14046945 -0.1385456 -0.11558411 -0.007591127 -0.049040176 -0.061271362 0.12867498 0.13031374
0.13047844 -0.08737956 -0.04774118 -0.12011302 -0.045635138 0.015608811 0.02079156 0.11722915
-0.072172344 0.013900172 0.18802692 0.21046345 -0.027858162 -0.09360568 0.06094112 0.18849294
-0.0107650645 -0.04871343 -0.06819717 -0.027691757 0.050219703 -0.02804738 0.109015875 -0.0474393
-0.0013421634 -0.18947956 -0.15646571 0.07992743 -0.12925129 0.067724325 -0.0023930117 -0.044209857
-0.027185097 0.04997987 -0.038909413 -0.09286578 0.0124923065 -0.17574678 -0.066649824 -0.20357068
0.17613517 -0.008632784 -0.02133395 -0.019901786 0.11768194 -0.12115051 -0.014462377 -0.05005639
-0.04843915 -0.09621993 -0.19493642 -0.037735425 -0.105091885 0.21619077 0.01718232 0.1720764
-0.0042217844 0.19780308 -0.06771895 0.05387554 -0.013877876 0.061452292 -0.06421704 -0.021173628
0.081723444 0.0783399 0.0066606 0.019815119 0.10067953 0.14981875 -0.14299768 -0.04258007
-0.028912976 -0.05131249 -0.09254449 -0.0060218987 -0.0071756956 -0.030752271 -0.05708755 0.02378193
-0.0503458 -0.15872118 -0.061373513 0.06277094 0.123018645 0.1726349 -0.1496836 0.11455048
-0.09172271 -0.0790081 -0.07891151 -0.06134476 -0.02827355 -0.09968056 0.09563428 0.041092258
0.0096473405 -0.059920236 0.026929649 0.08179639 -0.16850837 -0.052870728 0.12764934 -0.09900835
0.1228771 0.078299604 -0.04973109 0.06951599 0.10644535 -0.00379919 0.0001747527 0.078767985
0.056884963 -0.15853442 0.0960967 -0.09373609 0.0625877 0.02832206 -0.0059054275 -0.0037324186
-0.031826116 -0.09015792 -0.055965893 -0.07093274 -0.048942946 0.100808725 0.024622815 -0.034338057
-0.08879054 -0.052390993 0.13258721 0.019814495 0.016386239 0.01245924 0.099874504 -0.054209407
0.080428086 0.12640482 0.061651014 -0.006453879 0.03369244 -0.107757606 -0.09168229 -0.049501345
0.14889534 -0.055075176 -0.0063674645 0.07882058 0.06317202 -0.042697433 -0.053659905 -0.120556474
0.1094726 0.0798239 -0.050346773 -0.11932484 0.048019808 0.020461835 0.026945222 0.0117084
0.0059987777 -0.106799744 0.05150791 -0.04000093 0.1370796 -0.030952336 0.08003115 0.07280366
-0.16336173 0.071312115 0.09317775 0.09639455 0.024078533 -0.00606294 0.12768912 0.13801394
0.06263463 0.059375938 0.067601696 0.05255231 0.044544864 -0.09990326 -0.08680227 0.07139756

msg_layers.1.W_self.bias f4 [64]
00000000: 1fc1 11bd f889 083e f808 b4bd 583f 9dbd
00000010: dac2 bb3c 1f95 f73b 9bf9 c83c 9d6e f53d
00000020: b920 513d b2ea 47be 5905 933c 4753 09be
00000030: 2090 4f3d d8ba 2c3e 76f3 e83d 5cfb 5ebd
00000040: ac75 d2bc 9e0f dbbd cf9e 203d 9185 563e
00000050: 9da0 233e 05b2 a9bd 1f96 c4bb a03b d33c
00000060: 55a1 dc3d 96fe 8d3b 946d 18be 76b8 87bc
00000070: 48d0 8cbd bb85 e4bd 87be 8ebd 40a7 0ebe
00000080: 4c6d 233d c126 bbbd 62d4 413b b04c 523d
00000090: e767 173e 6a36 d0bd 560c 2cbd e1a7 64bc
000000a0: 5415 a93d bede ae3e 5a84 083e 9716 ea3d
000000b0: af18 933d e9b8 d93c 1f8e afbd 8949 f03d
000000c0: 0fe8 f13d 0a53 76bd 7211 82bd cbc7 32bd
000000d0: 54c7 1abd 9593 b83c 789d 98bd e019 863d
000000e0: c878 97bc ecc3 2ebd cbff ffbb 7b28 b83d
000000f0: e8a1 9d3d 22a3 5cbd f877 40bd 28ad 5f3d
-0.035584565 0.13333881 -0.08790773 -0.076780975 0.02292006 0.0075556184 0.024533084 0.119839884
0.051056597 -0.19523123 0.017946886 -0.13410674 0.050674558 0.1686815 0.113745615 -0.054438934
-0.025690876 -0.10696338 0.03921395 0.20949389 0.15979238 -0.08285908 -0.005999341 0.025785267
0.10772959 0.0043333275 -0.1488555 -0.01656745 -0.06875664 -0.111583196 -0.06969934 -0.13930988
0.039899155 -0.09138251 0.0029576053 0.051342666 0.1478573 -0.10166629 -0.042003952 -0.013956041
0.08256021 0.34154314 0.13331738 0.1143009 0.071824424 0.02657743 -0.08572029 0.11732776
0.1181184 -0.060137786 -0.06350984 -0.04364757 -0.03778775 0.02253131 -0.0745191 0.06547904
-0.01849021 -0.042667314 -0.0078124753 0.08992096 0.07696897 -0.053866513 -0.04698941 0.054608494

msg_layers.1.W_msg.weight f4 [64, 64]
00000000: 34b6 56bd bdaa cf3b 9ee2 01bc af09 3f3c
00000010: d6c8 973c 8fce 00bc 97f9 b93d 3ecd 7f3c
00000020: 7377 2bbc 414e 203c 4c48 153e 240a 133e
00000030: 0c43 e5bd 409b acba 34e4 88bd ce3c a7bd
00000040: 03d7 e0bd 1ede 683d 9f9e 13be 21a8 a2bd
00000050: 9738 6b3d 55e4 4c3d 1496 07be 3120 0f3e
00000060: 5c86 753d 6add 583d efd9 3ebd 0b15 7c3b
00000070: f1fa c4bd d44b b3bc f0a7 243d 66ce 00be
00000080: aec9 ddbd d994 ea3d 64c8 e4bc db96 a3bd
00000090: 34b1 88bd 4e2f 293c 0a24 093d 7fcb c1bd
000000a0: dc2e 84bc 3801 093c 649a efbd 85de 98bc
000000b0: 2ba0 14bd 5452 d43d 64c5 b9bc c06e 883d
000000c0: 24de f5bd 5ad3 28bd 1891 f6bc ee49 04be
000000d0: f100 953d 3d9c 98bd 6bf1 a03c 03fb f23d
000000e0: b711 30bd 821a e73d b321 1abd fd97 c1bd
000000f0: d7dc dc3d c4d8 183e df85 f0bd a323 dfba
00000100: 51cb c2bd 42af 803d 11ef b73d 08c6 b13c
00000110: d6c7 0d3d de3f fd3d 1cb8 85bd 4856 e1bd
00000120: ecac d9bd a654 223d a8fa b3bb c031 c93d
00000130: 186a 66bd 4735 9c3d d088 043e 8713 5f3b
00000140: 7735 ccbd bdaf cebb 63b4 ffbd 9035 d13d
00000150: df2f 853d d58c 073d 5b37 513d 968f 15be
00000160: 7103 b3bc a727 c3bd e2c1 72bd c275 7cbd
00000170: d8e4 193e ec82 ac3c 345e 303b 8552 663d
00000180: 0ba2 ef3d 4efb eb3d 6967 e23c a50d c03c
00000190: dc2d 2a3e 5f50 ca3b 26f6 493d c411 c63b
000001a0: 9f5a 2f3e f7ca a7bd 0cbc 493d fcaa 6e3d
000001b0: 34aa ebbd 1969 0b3e 92be ab3d 0860 f53d
000001c0: 2d7b 8e3d 33c2 1b3c fd26 163d c5fe 88bd
000001d0: aa83 21be 1f08 3b3e 4c5a 97bd b6bd abbd
000001e0: 6940 cfba 1ae4 abba c717 ae3d 75bd 04bc
000001f0: ea38 15bd a9f4 43be 4165 64bc 6cec 13be
00000200: 6a02 fcbd 7e29 8dbd 8e65 59bc dd5d cabc
00000210: 6f62 8ebd 318a e9bd fc8f ba3d 4c25 fb3c
00000220: 39c1 623c 653a 833c 69e7 b0bc 0fd2 993d
00000230: 8af9 cd3d 84d9 b7bd df8e d23d 4936 80bc
00000240: ba04 30bd 1543 9cbd 5662 4e3d d494 fa3d
00000250: 4f71 2cbd 7872 ebbd 7892 85bd 4e9e bdbd
00000260: 4455 90bc 4042 843d d564 f53b 880e a93d
00000270: 6790 c03d cafe ee3d 1eb7 4fbd 29f6 c0bd
00000280: 7573 adbd b5d8 0bbe 21ca 23bd 1118 253d
00000290: f9d5 95bc 5164 0b3e d0bf 44bd 37c9 8cbc
000002a0: 3ce8 ccbc c5b0 b13d 8363 8ebd ba29 063e
000002b0: 83ac 05bd cc1d b53d 7dcb d3bd 22b4 973d
000002c0: 8b19 0a3e b259 5b3d 468b 553d 7c9e a1bd
000002d0: 7235 863d 8028 2fbd a792 f53d ca23 b53c
000002e0: 6fde f93c 5fcd af3d e550 60bd 3b2a a03d
000002f0: 7c20 60bd dbd3 583d 7a74 0fbe 4258 50ba
00000300: 0cb0 b83d 5727 cb3d 3a5b 343e 1784 e7bd
00000310: ed35 513d 02aa c03d e74b 1f3e e246 063d
00000320: 9aef 07be 4091 5a3a b8fd 6abc 614f fcbd
00000330: f43d 9bbc 13d6 99bc 043a d53d a1c4 d33c
00000340: f461 c5bd 1eab 673d 68d3 7a3d ab11 2f3e
00000350: 5bf0 003e b379 1c3d c432 9f3c 89e4 4bbc
00000360: 192a a83d 0ccc 0abe 77bc 4ebe f310 5a3d
00000370: 5e08 9ebc 35ab c83d 6ba9 a0bd 7f50 e03d
00000380: a7a4 d63d 19aa 9e3c f379 11be 8888 91bd
00000390: f16e 173e ac86 1dbd f9f4 0f3e b6b9 1fbe
000003a0: 9529 8e3d 74b2 10bc 9022 f43d 0559 c13c
000003b0: 1e12 54bd 96b8 00bd b082 33bd 8e18 1dbc
000003c0: 2924 d53d 5062 a4bd 7c44 18be 73a0 96bc
000003d0: 04b8 d03d 5474 b03c dc27 ffbd 7dd5 22bd
000003e0: 3a11 b3bc 697d 6abe 8a88 72bd 690e d3bc
000003f0: 1a1c 523b ac89 6c3d 8eea d6bc 11d5 6fbd
-0.052419856 0.0063374923 -0.007927565 0.011660024 0.018528383 -0.007861747 0.090808086 0.015612898
-0.010465491 0.009784282 0.1457836 0.14359337 -0.11194429 -0.0013168827 -0.06684151 -0.081658944
-0.1097851 0.056852452 -0.14415978 -0.07942224 0.057427015 0.050022442 -0.13240844 0.13977124
0.05994259 0.052945532 -0.046594556 0.003846469 -0.09618176 -0.021886744 0.04019922 -0.12578735
-0.10829483 0.11454172 -0.027927585 -0.07987758 -0.06674424 0.01032622 0.033481635 -0.09462642
-0.016135626 0.008362107 -0.116993695 -0.018660793 -0.03628556 0.10367265 -0.022677131 0.06661749
-0.120052606 -0.041217186 -0.030098483 -0.12918827 0.0727557 -0.07451675 0.019646367 0.11864283
-0.042985644 0.11284353 -0.037629794 -0.094528176 0.10784309 0.1492644 -0.11744284 -0.001702417
-0.09511436 0.06283428 0.08981145 0.021700874 0.034614407 0.12365697 -0.06529257 -0.11002785
-0.10628685 0.03963151 -0.005492527 0.09823942 -0.056253523 0.07627349 0.12942815 0.0034038739
-0.09971135 -0.0063075707 -0.12485578 0.10215294 0.06503271 0.033093292 0.05107818 -0.14605555
-0.021852227 -0.095290475 -0.059266932 -0.06163574 0.15028703 0.021058522 0.0026911618 0.05623104
0.11700829 0.11522542 0.0276372 0.023444006 0.16619056 0.0061741318 0.04930701 0.0060445983
0.17124413 -0.08193009 0.0492516 0.058268532 -0.11507073 0.1361431 0.08385958 0.11981207
0.06957088 0.00950675 0.036658276 -0.066892184 -0.15772882 0.18264817 -0.0739027 -0.08385794
-0.0015812042 -0.0013114244 0.08500629 -0.008101811 -0.03643123 -0.19136299 -0.013940156 -0.14445657
-0.12305148 -0.0689268 -0.013268841 -0.02470296 -0.069523685 -0.11403311 0.09109494 0.030657433
0.013840013 0.016019056 -0.02159472 0.075107686 0.100573614 -0.08977035 0.10281157 -0.015650885
-0.042973258 -0.076299824 0.05038675 0.12235418 -0.042100247 -0.114964426 -0.06522077 -0.0925871
-0.017618783 0.06457949 0.0074888268 0.08254725 0.094025426 0.11669691 -0.050711744 -0.09421951
-0.08469287 -0.13656886 -0.039987687 0.040306155 -0.018290507 0.13612486 -0.04803449 -0.01718579
-0.025013082 0.08676294 -0.06952574 0.13101855 -0.032635223 0.08843574 -0.10341547 0.074074045
0.13486306 0.053552337 0.052134775 -0.078915566 0.06553163 -0.042763233 0.11990862 0.022111792
0.030501572 0.08584093 -0.054764647 0.07820555 -0.05471848 0.052936416 -0.14009276 -0.0007947722
0.09017953 0.09919613 0.17612925 -0.11304491 0.05107682 0.094074264 0.15556298 0.032782443
-0.13274994 0.0008337684 -0.014342718 -0.12319828 -0.01895044 -0.018778836 0.10411456 0.025850596
-0.09637824 0.056559674 0.06123677 0.17096584 0.12591688 0.038202 0.019433387 -0.012444624
0.082111545 -0.135544 -0.20189081 0.05323882 -0.0192911 0.0979828 -0.07844814 0.109528534
0.10480624 0.019368218 -0.14206676 -0.071061194 0.14788415 -0.03845851 0.14058293 -0.15598187
0.06941525 -0.008831609 0.11920655 0.023602018 -0.05177509 -0.031426035 -0.043825805 -0.009588374
0.104072876 -0.08026564 -0.14869875 -0.018387055 0.10191348 0.021539845 -0.124587744 -0.03975438
-0.0218588 -0.22899403 -0.059212245 -0.025763707 0.0032060207 0.05774848 -0.026234891 -0.058552805
