QuantLaxmi_Research/dtrn/results/checkpoints/fold4_NIFTY/dtrn_final.pt (torch, 236213 bytes, 37 tensors)

embed.embed.0.weight f4 [32, 2]
000000 6b 34 e1 bd 0c 9e bf 3e ca bc 81 3f ba 7e 32 bf
       -0.10996326 0.37425268 1.0135739 -0.6972462
000010 9b c0 cb be 93 a5 14 3f c9 24 5e 3d 9d 6f 40 bc
       -0.39795384 0.58065146 0.0542343 -0.011745361
000020 df 75 cb be d0 44 cc bd 48 bd 9b be a0 9f ee 3d
       -0.39738366 -0.099740624 -0.30417848 0.1165154
000030 d8 84 4d bf e2 31 2b bf 34 b4 39 bf 3d 19 c4 3e
       -0.8028083 -0.6687299 -0.72540593 0.38300505
000040 18 c3 10 be 9c 52 0d 3c fb 28 eb 3e d4 11 4c bf
       -0.14136922 0.008625653 0.45929703 -0.79714704
000050 d2 43 18 3f 91 36 06 3f 37 a0 4c 3e e5 6c d4 bd
       0.59478486 0.5242701 0.19982992 -0.103723325
000060 e7 13 b0 be e2 a5 ef 3e 87 11 18 bf 0f 52 e2 3e
       -0.34390184 0.46806246 -0.59401745 0.4420323
000070 30 73 15 3e 9e 1f ca be 61 7e fb 3d 0b 0d 4a bd
       0.14594722 -0.39477247 0.12279964 -0.049328845
000080 3d f4 a5 be 14 c6 ab be ec 33 89 3e c9 5e f8 3d
       -0.32412902 -0.3354956 0.26797426 0.12127454
000090 f5 d9 82 be ee 4e 24 3e 34 02 ff 3d 63 a0 7d be
       -0.25556913 0.16045734 0.12451592 -0.24768214
0000a0 a3 f5 83 3e bd d4 c1 3e f5 c1 f0 bc 22 00 4d bd
       0.25773343 0.3785762 -0.02938936 -0.050048955
0000b0 11 62 c6 3e 5a 0d 3a bf 08 a7 9d be f9 f6 10 bf
       0.38746694 -0.7267662 -0.30791497 -0.5662685
0000c0 27 99 ad 3e 51 2b 25 3e 6b 36 b9 be a6 d7 91 3e
       0.33905908 0.16129805 -0.3617433 0.2848484
0000d0 d2 b4 dc be e3 57 18 3e d1 e2 6e be c1 77 e9 3e
       -0.43106705 0.14877276 -0.23328711 0.45599177
0000e0 4b a6 15 3f b1 a1 82 3e 62 37 64 bd de 83 61 bf
       0.5845687 0.25513986 -0.05571688 -0.8809184
0000f0 98 73 a5 3c e8 86 61 bf 67 d0 57 be 0e c4 ca 3e
       0.020196721 -0.88096476 -0.21075593 0.39602703

embed.embed.0.bias f4 [32]
000000 3f 78 3d 3d 13 1d 5d bf 1f d4 18 bf c7 1d f5 3d
       0.046257254 -0.8637249 -0.5969867 0.1196857
000010 11 a3 12 be 16 0e 42 be ec d8 16 bf 4d c9 c6 3e
       -0.14320017 -0.18950686 -0.58924747 0.38825455
000020 54 db b1 3e f2 fa 9d 3e da af bc 3d 3c 2f bb 3e
       0.34737647 0.3085552 0.092132285 0.36559474
000030 8b 99 0e bf 43 9f b0 bd 42 2e f4 3e 62 32 8e 3e
       -0.5570304 -0.08624127 0.47691542 0.27772814
000040 a1 50 8a be ff e3 19 bf bf 97 4b be a3 97 ff 3e
       -0.2701464 -0.6011352 -0.19882105 0.49920377
000050 5c c0 1f bf 61 41 9b 3d df 40 08 3f 43 48 4b 3d
       -0.6240289 0.075808294 0.53223985 0.04962946
000060 a2 6e 29 bf 1e 79 b4 be 3f 86 48 3e 10 36 e6 be
       -0.6618444 -0.35248655 0.19582461 -0.4496312
000070 64 f6 38 bf 04 7c 48 bf ec 0b 1b bf 6b fe 12 bf
       -0.7225096 -0.7831423 -0.60565066 -0.5741946

embed.embed.2.weight f4 [32, 32]
000000 18 ff c4 bd 34 54 01 3f ca 3b 09 3e 68 3a f7 bd
       -0.09618968 0.5051911 0.13401714 -0.12071687
000010 89 47 fc 3c 0a 10 39 3e c4 97 a3 bd b7 55 a9 3d
       0.03079583 0.18072525 -0.07987931 0.08268302
000020 c3 00 22 3d 1a a9 5a 3e a4 df a2 bd c9 96 1d be
       0.039551508 0.2135357 -0.07952812 -0.15389551
000030 d6 83 32 3e 00 74 10 3e 2e f4 93 bd 22 80 52 3d
       0.17433104 0.1410675 -0.07224308 0.05139173
000040 8b 10 1f 3e 0f 0c 41 3e 5a d4 10 3e b7 30 b3 bd
       0.15533654 0.18852256 0.14143506 -0.08749526
000050 c3 43 cc bd 33 cb 1d be af 52 30 3e af 08 93 3d
       -0.09973862 -0.15409546 0.17219041 0.07179391
000060 49 00 a2 3e 1e 72 88 3d 30 13 fa 3d 4a 97 9a 3d
       0.31640843 0.06662391 0.12210691 0.07548387
000070 e6 09 4d 3e 02 97 0a 3e 9f e9 5d ba 0e 26 f1 3d
       0.20023307 0.13534167 -0.0008465293 0.117748365
000080 76 48 27 bd d7 37 0c 3f 60 58 d0 bb 7b 97 dd bc
       -0.04084059 0.54772705 -0.0063581914 -0.02704977
000090 0b 78 c6 3c 76 06 d4 bd b5 30 07 be 65 57 2f 3d
       0.024227163 -0.10352795 -0.13202174 0.042807955
0000a0 65 35 3e 3d a3 40 56 3e 3f 98 cf 3d 85 4c 0e 3e
       0.04643764 0.20923094 0.101364605 0.13896377
0000b0 7b e7 ba bc c3 97 10 3e dd a1 00 3e 08 3f d8 3d
       -0.022815457 0.14120393 0.12561746 0.10558897
0000c0 28 37 d3 bd bd c6 08 3e 5f 5b ac bd 72 a1 15 bd
       -0.103132546 0.13357063 -0.08415865 -0.03653092
0000d0 4d 7a cc 3c ea 5e 07 bc e4 6e 9c 3e 4c 99 b4 3d
       0.024960661 -0.008262375 0.30553353 0.088183016
0000e0 7c c3 8e 3e 2c 8c d0 3d 56 7a a3 bd c4 53 49 3d
       0.27883518 0.10182986 -0.07982318 0.04915215
0000f0 67 e6 2d 3e a0 39 20 be 0f 03 19 bc 48 22 68 bd
       0.16982423 -0.15646982 -0.009339108 -0.05667332
000100 08 ef b3 bd 01 e1 de 3e 44 4e 2b 3e b6 ea f9 bc
       -0.08785826 0.4353104 0.16729075 -0.030507427
000110 2d ad 62 3e 4a bf 61 bd 34 07 fc bd 5a 30 28 bd
       0.22136374 -0.055114068 -0.123060614 -0.041061737
000120 64 e7 1f be b0 5b 85 3e 16 b4 99 3d 37 58 b4 bb
       -0.15615612 0.26046515 0.07505052 -0.00550368
000130 c3 2c 44 bd a6 04 04 be 4a 16 28 be 23 a1 99 bd
       -0.04789425 -0.12892398 -0.16414753 -0.075014375
000140 85 f4 70 3e 7d c2 63 bc 50 f3 4f 3d ad 34 a7 bd
       0.23530777 -0.01390135 0.05076915 -0.08164344
000150 24 3c b6 bc ce 17 55 be 42 45 0d 3e 9f 1a 4d 3e
       -0.022245474 -0.20809862 0.13795951 0.20029686
000160 50 5e d5 3d 71 1c ba 3c bd 49 51 bd 3e 78 dc bb
       0.10418379 0.02271864 -0.051095713 -0.006728201
000170 be 7a 82 3e 9c c6 68 bd ad f9 44 bd 62 7c fa bc
       0.2548427 -0.056830034 -0.048089672 -0.030576888
000180 83 bc c5 3a d1 df 82 be 40 80 4b be cc 4c eb bd
       0.0015086088 -0.25561383 -0.19873142 -0.11489257
000190 50 7f b6 be 03 d0 93 be 75 18 ed 3d 36 4c 5e be
       -0.35644007 -0.28869638 0.115769304 -0.2170876
0001a0 58 13 a5 bd 49 0e 28 be 97 09 0b 3e 8a 15 f7 3c
       -0.0806033 -0.164117 0.13577877 0.030161638
0001b0 47 bc 55 be 7e d6 65 bd 48 e9 2d be 5f 9a 27 bd
       -0.20872603 -0.05611276 -0.16983521 -0.040918704
0001c0 fd e2 7a bd f9 e5 55 be 7d e9 b7 3d 69 c4 7e 3d
       -0.06125163 -0.20888509 0.08980081 0.06219903
0001d0 5b 26 02 3e b5 b0 9c 3d a2 05 c8 3d af fb 41 be
       0.12709944 0.07650892 0.097666994 -0.18943666
0001e0 fb 42 bc 3d dd 8e 97 be c4 56 be bd 14 84 28 be
       0.09192463 -0.29601184 -0.09293893 -0.16456634
0001f0 25 3d c7 bd 40 61 43 3d 70 06 01 be 28 4d 87 be
       -0.09728459 0.047700167 -0.12600112 -0.26426053
000200 ba 1c 04 bd 52 2f ff 3d 1f 30 95 bd a8 0f 0d be
       -0.03225396 0.124601975 -0.07284569 -0.13775504
000210 ad 89 a7 bd b9 df 41 3e e3 45 94 3d 43 cc 57 bd
       -0.081805564 0.18933 0.07239892 -0.052685034
000220 99 4b af bd 07 c7 8e 3d 5f 1d 16 3d 0b 1e 15 be
       -0.08559341 0.06971555 0.036649104 -0.14562242
000230 f0 8e ee 3a 05 5d 26 3e 5a ce 47 bd af af a9 bd
       0.0018200558 0.16246422 -0.048780777 -0.08285462
000240 43 d3 50 3e 96 3c e8 3c 29 01 54 3d 57 f0 dd bd
       0.2039309 0.028349202 0.05175892 -0.10836857
000250 3d eb 54 3e 75 96 8d 3d d6 77 61 3e 09 fd 0c be
       0.20792861 0.06913463 0.2201837 -0.137684
000260 a2 77 c8 3d 26 7b a7 bd 26 23 7c bd 46 5a 45 3d
       0.09788443 -0.081777856 -0.061556958 0.048181795
000270 2a 7b 55 3d 77 c4 1e 3e 11 c5 15 3e bf 39 dd 3d
       0.05211941 0.15504633 0.14625956 0.1080203
000280 96 c2 03 3e 1b 95 0e bf bb c1 7f be 89 4f ae 3c
       0.12867197 -0.55696267 -0.24976246 0.02127816
000290 b4 94 6b be ec ca b0 3d 9a f8 22 3e 1f 0c b5 3d
       -0.23005944 0.08632454 0.15915146 0.088402025
0002a0 cd eb 38 3c ed 56 20 be 1e 8c 36 bc 0a 36 ff bd
       0.011286688 -0.1565816 -0.011141805 -0.12461479
0002b0 3e 76 4a 3d d8 59 56 3c 30 e4 c7 3c 5a 1b 04 be
       0.04942917 0.013082944 0.0244008 -0.12901059
0002c0 51 49 58 be 79 b2 3e be 41 43 d1 bd 13 ec 84 3b
       -0.21121718 -0.1862277 -0.10217906 0.0040564626
0002d0 41 6e 83 be b0 8d b9 3c 60 ff 77 be bc 41 30 3d
       -0.25670055 0.02265057 -0.24218512 0.04303144
0002e0 69 ec 89 be bc e6 39 be 1f ce 46 3d 99 a1 30 bd
       -0.2693818 -0.18154424 0.048536416 -0.04312286
0002f0 fe de 71 be 98 96 e4 bc 02 3f fe bd 04 46 b7 bd
       -0.23620221 -0.02790384 -0.124143615 -0.08948901
000300 cd f2 68 3e 75 0c 20 be 2f 07 0f be 43 36 18 3e
       0.22748871 -0.15629752 -0.13967584 0.14864449
000310 31 3f 98 3c f7 4b e5 bd ee 89 87 3d 79 7e 13 bd
       0.01858482 -0.1119613 0.06618105 -0.036009286
000320 ec f6 5b 3d 9a 73 22 bd 87 40 56 bd 3b b9 bd bc
       0.05370228 -0.039661027 -0.05230763 -0.023159614
000330 1e 8b ac bc d9 ad dc bd 83 65 d0 3c fe 5d 8d bc
       -0.02106243 -0.10775346 0.02543903 -0.017256733
000340 3f 6e 75 bd 0d e6 44 be d7 de 45 3e e6 5c 43 3e
       -0.059919592 -0.19228382 0.19323288 0.19078407
000350 97 67 41 bd 95 79 08 3e 11 d8 66 bd e6 ab 09 3b
       -0.04721793 0.1332763 -0.0563584 0.0021007
000360 06 27 f5 bd da 1f 8b bd d7 93 9c 3b 00 f9 40 3e
       -0.11970334 -0.067931846 0.004778366 0.18844986
000370 b9 8d bd 3d 2d a2 de bb 67 d6 f5 bd ef 89 0a 3e
       0.09255547 -0.006794235 -0.120037846 0.1352918
000380 55 79 e2 3c 67 14 8f 3e b8 aa 20 3e 7a f5 3c be
       0.027645746 0.27945253 0.15690124 -0.18453017
000390 4c 80 09 bd 30 ed 80 3d 51 ac 2b be 3e 94 04 3e
       -0.03356962 0.0629524 -0.16764952 0.12947175
0003a0 c7 77 db bd a0 25 92 bd fc 33 8c bd f8 32 df 3d
       -0.10716205 -0.07136083 -0.06845853 0.108983934
0003b0 81 3f 8a 3e ff b1 02 3e 82 57 8c bc 7d c0 dc bb
       0.27001575 0.12763213 -0.01713157 -0.0067368136
0003c0 f0 65 09 be db 33 4a bd e7 c7 37 3c 5f ad 28 be
       -0.13417792 -0.04936586 0.011217094 -0.16472386
0003d0 e9 4d 9a 3d 13 eb 86 3d 29 4c 6b 3a 80 16 a2 3d
       0.075343914 0.065878056 0.00089758873 0.07914448
0003e0 56 a6 13 3e 87 72 53 3e 9c 5f 86 3d a7 8e 82 3e
       0.14418921 0.20649157 0.06561205 0.2549946
0003f0 1b 16 09 bd 6f 9b 3b 3e 52 da 80 3d c5 cd ce 3c
       -0.033468347 0.18321012 0.06291641 0.025244603

embed.embed.2.bias f4 [32]
000000 c5 c9 fc bd 75 58 db bd 3e 70 2c bd 9e 0e e1 bd
       -0.12343172 -0.10710231 -0.04209923 -0.10989116
000010 a6 b0 61 bd 50 a0 ed bc ed 55 3b 3e e7 28 0a 3e
       -0.055100106 -0.029007107 0.18294497 0.13492166
000020 61 a7 8b bd e6 b5 40 be e1 47 36 3d 3d 49 b2 bc
       -0.06819034 -0.18819389 0.044502143 -0.021763438
000030 fd 64 87 3d c3 af 2d 3e 95 1b 91 3d e9 9d 43 3e
       0.06611059 0.16961579 0.07085339 0.19103207
000040 c4 4f 8a 3d 08 67 05 b9 e2 a0 3e be 64 00 36 3e
       0.06753495 -0.0001272225 -0.1861606 0.17773587
000050 b0 ea 66 3e 13 4a a1 bd 07 25 93 bc 5e a8 d8 3d
       0.22550464 -0.07875457 -0.017961992 0.105789885
000060 b2 a2 2c be e1 72 08 be 67 4e 25 3d 7b 9f 25 3a
       -0.16858938 -0.13325073 0.040357973 0.0006318015
000070 a7 16 aa bc d7 6a 0a 3e 2e db 2b 3a 78 76 5b bd
       -0.020762755 0.13517319 0.00065557926 -0.053579777

input_proj.weight f4 [64, 32]
000000 d2 08 7b be 55 d7 17 bd 73 a9 cf bc d1 3a 8b 3e
       -0.24515083 -0.03707059 -0.025349354 0.2719331
000010 b3 90 f7 3d 51 fd 0b be 53 c8 15 3e 4e 03 3c be
       0.12088146 -0.13670851 0.14627199 -0.18360636
000020 7c 23 82 3d 78 85 1c 3e 30 3a 02 3d 10 8d c9 3d
       0.06354424 0.1528529 0.031793773 0.09841359
000030 8f 95 d7 bd 83 10 c5 3d a7 a8 89 3e dd 04 57 be
       -0.10526573 0.0962229 0.26886484 -0.20997949
000040 a4 ae 55 3e 05 ae 60 3e 8b eb 1d be b6 4f 3d bd
       0.20867401 0.21941383 -0.15421884 -0.046218596
000050 a6 03 af bd 7e 52 26 bc 47 4a e3 3d 8a 06 26 3e
       -0.08545618 -0.010151504 0.11098152 0.16213432
000060 35 da f4 3d 8c 8c a0 3d 51 d4 e4 3d 26 ca 96 3d
       0.11955682 0.07839307 0.11173309 0.073627755
000070 9a cf 6e 3d e3 ae 12 be d8 15 29 be 64 33 1b 3d
       0.058303453 -0.14324526 -0.16512239 0.037890807
000080 b8 48 39 be 22 e7 a8 be 27 4d ed 3d 93 54 97 3e
       -0.18094146 -0.3298884 0.11586981 0.29556713
000090 6c 8f 3b be 06 c8 25 3e 43 0d 29 be 37 93 b4 be
       -0.1831643 0.16189584 -0.16508965 -0.35268566
0000a0 02 d1 81 3d e3 cf 52 be 8d 03 e2 be 98 f0 92 3d
       0.06338693 -0.20587115 -0.44143334 0.07174796
0000b0 04 51 d5 bd 64 63 e1 3d f7 4a 8c 3e 05 5a 73 be
       -0.10415843 0.110052854 0.27400944 -0.23764808
0000c0 61 e7 54 3e 95 a4 9a bd b5 7e d3 bd 7e 35 77 be
       0.20791389 -0.07550923 -0.10326902 -0.241415
0000d0 9c 83 8c be cc 48 8e 3d 99 dd 2d 3e 7d 00 12 bd
       -0.2744416 0.06947479 0.16979064 -0.035644997
0000e0 17 c7 c8 bd 13 82 a4 3e a1 0d b1 be a0 43 59 3e
       -0.098035984 0.3213049 -0.3458071 0.21217203
0000f0 49 79 98 be eb b2 f5 bc e8 3b 32 bd 57 28 4a bd
       -0.29780033 -0.029992541 -0.043514162 -0.049354877
000100 6b ed d2 3d ab 54 c2 bd 06 a0 f7 bd 10 76 76 3d
       0.1029919 -0.094888054 -0.12091069 0.060171187
000110 c0 57 08 3d 4b bc 10 be 73 5a ff bd ee f2 ea 3d
       0.03328681 -0.14134328 -0.12468424 0.114721164
000120 b6 9b b5 bd ad 1b d8 3d da eb f9 bd 65 de 61 3d
       -0.0886759 0.10552154 -0.12203188 0.055143733
000130 5f 7f 5d be 97 55 99 3d 33 d2 6f 3d 9c eb 21 be
       -0.2163062 0.07487028 0.05855007 -0.15812534
000140 e5 af 1c 3d 7a 84 de 3d e2 23 14 3d 58 bc 3e be
       0.038253684 0.10865112 0.036167033 -0.18626535
000150 eb f8 0e be ff e9 fc bc ec 13 f4 3d 2d 86 ab 3d
       -0.13962142 -0.030873297 0.11917862 0.083752014
000160 f5 9c 4b 3d bd 22 c8 3d e8 fd 99 bc 62 bf 78 3e
       0.049710233 0.09772251 -0.01879783 0.24291757
000170 bd 14 91 3d 76 e8 f4 3d 88 5e 99 bd 36 f6 07 3e
       0.07084034 0.11958401 -0.074887335 0.13277516
000180 5b 16 a7 bd ce 69 f0 3a 16 19 74 3c 74 16 e5 3d
       -0.08158561 0.0018342079 0.014898559 0.11185923
000190 b2 80 f1 3d 26 d6 3b 3d 08 28 ce 3d 86 1f f0 3d
       0.11792125 0.045858525 0.10066229 0.117247626
0001a0 51 0d 0c 3d 18 f0 fc 3c 52 8f 9f 3d 34 1d ed 3d
       0.034192387 0.030876204 0.07791008 0.11577836
0001b0 bf 02 41 bd 63 6f 82 bd 49 9f 4b 3e 07 7b 70 bd
       -0.04712176 -0.063689016 0.19884981 -0.058711078
0001c0 df ad b3 3d 24 85 97 3d 19 6e 6d 3b a2 d0 c3 bd
       0.08773398 0.073984414 0.0036228953 -0.09561278
0001d0 99 1d de bd 5e c2 1e 3e 6d e0 9c bc f7 ff 1b 3e
       -0.10845489 0.15503833 -0.019149983 0.15234362
0001e0 c0 f0 2f bd f8 2d 8b bd b8 85 31 be 09 89 4f 3e
       -0.042954206 -0.06795877 -0.17336166 0.20267119
0001f0 31 fd f9 bc b6 34 c5 3d d5 2f 99 bc 82 92 70 3d
       -0.030516239 0.096291944 -0.018699566 0.05873347
000200 53 cc 81 be 14 d8 a1 3d 79 f2 ed 3c c4 90 a5 bd
       -0.253512 0.07902542 0.029046284 -0.080842525
000210 b4 c3 b7 bd 07 b0 3d 3e 5a 93 b5 3d b8 33 ef bc
       -0.08972874 0.1852418 0.08865996 -0.029199466
000220 70 e6 b9 bd ae 1d 47 bd be 35 09 bd 80 e0 39 3e
       -0.090771556 -0.04861229 -0.03349852 0.18152046
000230 9b 13 89 3d c5 3c 31 bd ae b0 80 bd 22 d3 1f 3e
       0.066931926 -0.043270845 -0.06283699 0.15607885
000240 df 66 d9 3d a0 f3 7c bc ca ed ee bc 83 8d 5c bd
       0.10615324 -0.015438944 -0.029166121 -0.053845894
000250 42 8e 0e bd 98 b5 83 bd da b3 bc bb 37 bb 3d 3e
       -0.034803636 -0.06431121 -0.0057587447 0.18528448
000260 ab 6b 09 be f1 dd 97 bc 66 43 eb 3d bf f3 5a be
       -0.13419978 -0.018538447 0.114874646 -0.21382044
000270 03 e1 61 bd 6e fd 28 3e cd f2 56 bd 4d 08 10 3e
       -0.05514623 0.16502926 -0.052477647 0.14065666
000280 91 63 62 be 71 5c c0 3d 1a 4f b3 3d ca 05 ea 3d
       -0.22108294 0.09392632 0.08755322 0.114268854
000290 4d 6b af 3d 1d 80 f3 bd 33 23 a5 3d 31 60 8d bc
       0.08565388 -0.1188967 0.08063354 -0.017257782
0002a0 79 fb 89 3c d8 42 bf bd b2 a8 43 3d ad d9 52 3d
       0.016843544 -0.09338921 0.047768302 0.051477123
0002b0 5d 67 44 3d d1 dc 0e 3d 2a cf 27 3e fd 6f 02 bd
       0.047950137 0.034878556 0.1638762 -0.03184508
0002c0 48 eb 35 3e 25 9e fa bd 65 59 50 be 32 15 43 3e
       0.17765534 -0.12237195 -0.20346601 0.19051054
0002d0 7f 57 f2 bd a5 80 0e 3e 94 57 0f 3c 66 7c 44 bd
       -0.11833095 0.13916261 0.008748908 -0.047970198
0002e0 d3 c3 97 3d 25 bb 52 3c e8 ae 0b bc e3 3b f0 3c
       0.074103974 0.012862002 -0.008525588 0.029325431
0002f0 81 3a 32 bd 73 55 17 3e c0 43 b7 3d 4c c6 44 3c
       -0.043512825 0.1477869 0.08948469 0.012010168
000300 44 59 99 3d f8 2a 3b bd 9f 81 9f bd 8f b7 e1 bd
       0.07487729 -0.045695275 -0.07788395 -0.11021339
000310 75 f8 1d be 61 5c ed 3c 0b 96 19 bd 85 a0 3f bd
       -0.1542681 0.028974714 -0.037496608 -0.046783943
000320 ba a7 0d 3e 6e bb 06 bd 64 fc 24 3d 2b 49 17 3c
       0.13833514 -0.03289359 0.04027976 0.009233753
000330 03 9d 5a 3d a5 92 84 3e 53 70 29 3e c0 be d0 3d
       0.053372394 0.2589313 0.16546755 0.10192633
000340 1c 6c f4 bc 1d 10 d6 bb 9b 74 3f 3e 6e 6f 47 bd
       -0.029836707 -0.0065326826 0.18696825 -0.048690252
000350 be d0 92 3d b3 5a 03 be 63 b2 9d 3d ca 01 53 3d
       0.07168721 -0.12827568 0.0770004 0.051515378
000360 e2 9f 32 3c 63 a5 18 be 11 05 44 3e 6a 7a 48 bd
       0.010902377 -0.1490684 0.19142558 -0.04894487
000370 52 03 2f 3d 2b 9e 4c 3e 73 55 5c bb 5b ae e7 3d
       0.042727776 0.19982211 -0.0033620268 0.113125525
000380 98 f6 3a 3e 6b 6f 86 3e 14 74 f0 bd 9b f1 ac 3d
       0.1825813 0.2625688 -0.1174089 0.0844452
000390 95 58 f9 3c eb 1d 01 be 60 bd 8b bd 5b de 0b 3e
       0.030437747 -0.12609069 -0.0682323 0.1365904
0003a0 8c f0 1e 3e 90 88 44 3e 97 84 68 3e 69 91 68 bd
       0.15521449 0.1919272 0.22706829 -0.0567793
0003b0 5e 05 10 3e f9 ca 3e bd f1 91 d8 bd cb 55 9f bd
       0.14064547 -0.04658029 -0.10574711 -0.077800356
0003c0 08 73 8b 3d de e0 56 be 69 22 49 be 12 14 c7 3c
       0.0680905 -0.20984218 -0.19642033 0.024301562
0003d0 d2 ad c8 3d 47 90 1a bd 46 25 4d bd 56 c8 33 be
       0.097987786 -0.03773525 -0.050084375 -0.17556891
0003e0 51 14 7a 3e c4 af 3c be 12 87 5e be 5b 88 48 3d
       0.24421813 -0.18426424 -0.21731213 0.048958164
0003f0 55 02 7e 3d 8c df 09 3d 1c 30 d3 bc 07 f0 b4 bc
       0.062013943 0.033660457 -0.025779776 -0.02208711

input_proj.bias f4 [64]
000000 8b 38 1a 3d a1 37 aa be b8 55 a0 3d ef 06 e6 3d
       0.03765158 -0.33245566 0.078288496 0.11231791
000010 1a 6c d8 3d 18 59 ff bd 2c 4e 6e 3d c3 bd 1c be
       0.10567494 -0.12468165 0.05818002 -0.15306763
000020 7c bb 2d bd 05 e2 36 3d df aa a8 bd 63 33 09 3e
       -0.042415127 0.044649143 -0.08235716 0.13398509
000030 5d 73 26 3e 06 e8 4c be d4 9f d5 3d 3d 00 82 3d
       0.16254945 -0.20010385 0.104308754 0.06347702
000040 11 23 43 3e 4d b3 8b 3e e0 46 61 bc 73 4e c0 bd
       0.19056346 0.27285233 -0.013749808 -0.09389963
000050 f4 29 d0 3d 3c ad 95 3c 0c 6c ec 3c d5 40 03 be
       0.10164252 0.018271081 0.028860115 -0.128177
000060 0d 00 58 3d 83 b6 1e 3e 9c a6 01 be 49 70 2f be
       0.052734423 0.1549931 -0.12661213 -0.17132677
000070 d1 9d 8f bd 0a 38 28 3e d6 e9 a1 bd 3f 4a ab 3d
       -0.07012523 0.16427627 -0.07905929 0.08363771
000080 48 68 9b 3a 9d 64 9a bd 20 50 9f 3a c5 32 90 be
       0.001185664 -0.07538722 0.0012154616 -0.28163734
000090 ca f7 a9 bc fd 6c c0 3d 70 ac 44 be d8 f9 d8 bd
       -0.020748038 0.09395788 -0.19206405 -0.10594529
0000a0 6f 40 e4 bc d0 23 d3 bd b1 11 b2 bd 97 de 2a be
       -0.027862756 -0.10309565 -0.086947806 -0.16686474
0000b0 8f 10 7d bd 9b 2f 14 3e c5 5c 86 3c 6a da 65 3b
       -0.06178337 0.14471285 0.016401658 0.0035072812
0000c0 7d 25 f4 bd 0b e9 65 3c ee d6 19 3e 75 54 d3 3d
       -0.11921213 0.014032613 0.15023395 0.10318843
0000d0 c5 f2 46 3d bc d0 0d bb f7 ae f6 3c 27 06 1b be
       0.048571367 -0.0021639308 0.030112727 -0.15139066
0000e0 7c f0 c4 bd 80 8a c4 3d 4e e8 0b 3e 5e 84 e5 bd
       -0.09616181 0.09596729 0.13662836 -0.11206888
0000f0 0f 8e 59 3d 1d 26 94 bd bd 1d ba 3c 0d 82 72 bc
       0.053113993 -0.07233832 0.022719258 -0.014801514

msg_layers.0.W_self.weight f4 [64, 64]
000000 97 ef 1b bd df 59 28 be dd 5a d0 bd ae f5 3f be
       -0.038070288 -0.16440533 -0.10173581 -0.18746063
000010 23 02 0f bd d2 b9 47 be 6e 7d ed 3d 91 7e 40 be
       -0.034914147 -0.19504479 0.115961894 -0.18798281
000020 33 36 34 3e 33 81 d5 bd a5 05 e1 bd c9 54 3e 3e
       0.175988 -0.104250334 -0.10987405 0.1858703
000030 53 61 ea bd be 58 b0 bd 7c b1 19 3e 7e 64 3a be
       -0.11444344 -0.08610676 0.15009111 -0.18202397
000040 49 41 15 3e 7e b8 16 3e 27 b3 b0 3d 2f 69 07 bc
       0.14575686 0.14718816 0.086279206 -0.008264824
000050 1e ca 8c 39 87 9a ad bd c2 5c 20 3e 71 bc 3e 3e
       0.0002685347 -0.084767394 0.15660384 0.18626572
000060 75 1a 80 be 1f 58 ad bd 65 e0 26 be e7 24 07 be
       -0.25020185 -0.084640734 -0.16296537 -0.13197671
000070 ea 8a 55 bc 65 70 ff 3d d9 09 bd bd b3 f6 cd 3d
       -0.013033608 0.124726094 -0.09230394 0.1005682
000080 30 1d 2c 3e b4 a9 98 bd 4b 85 24 be 8e 9b 27 b9
       0.16808009 -0.07454243 -0.16066472 -0.0001598431
000090 bd e7 f5 3d 07 c5 95 3c f7 2f 90 bc 16 51 11 3c
       0.12007091 0.018282427 -0.017600996 0.00886943
0000a0 30 e2 80 3e 43 93 63 bc 5c 9a c4 ba 12 d4 2f be
       0.25172567 -0.01389009 -0.0014999616 -0.17170742
0000b0 1c 76 c8 3c 25 54 f9 3b fc 3f d7 3d 4f 9d d6 3d
       0.024470381 0.0076089078 0.10510251 0.10479223
0000c0 7e ef 20 be f2 c6 17 3d 0e f6 f2 3d 02 4d 00 bb
       -0.15716359 0.037054963 0.118633375 -0.001957715
0000d0 77 de ba bd 12 2f b0 3d b4 ec 84 bd 59 d6 fd bd
       -0.09124463 0.08602728 -0.0649046 -0.12394399
0000e0 1c 63 58 bc 28 0f 45 3d 29 af 0e bd e8 40 bb bd
       -0.013207223 0.048110157 -0.034835014 -0.09143239
0000f0 65 72 02 3e 7b 64 ee bd d3 15 97 bd a9 60 b3 bd
       0.1273895 -0.11640259 -0.073772095 -0.08758671
000100 8b b4 01 be f2 9e 5c 3e da 25 c2 3d 33 b9 52 bd
       -0.12666528 0.21545008 0.09479876 -0.05144615
000110 4b 6e 43 3d 78 57 98 3d af 95 98 bd 5d 36 6f 3e
       0.047712605 0.07438558 -0.07450425 0.23360582
000120 a1 ac 1b 3e 86 ad 13 bd fb c3 ef 3d 45 2b d9 bd
       0.15202571 -0.036054157 0.11707302 -0.10603956
000130 d4 3f 02 be d3 ae 78 3e 10 19 d9 3d ba 7e 55 be
       -0.12719661 0.2428544 0.106004834 -0.20849124
000140 16 26 27 be ed eb b3 bd 56 da dc bd d8 e7 0a bd
       -0.16323122 -0.08785234 -0.10783832 -0.03391251
000150 ac c5 06 3e d3 33 3c bc 28 41 36 bd 0e 95 3c 3e
       0.13161343 -0.011486965 -0.04449573 0.18416235
000160 87 f2 48 3e 46 5d 55 be 09 f4 b3 bd 5d 7e eb 3d
       0.19623767 -0.20836362 -0.087867804 0.11498711
000170 8b dd 12 bd 39 fd 18 be f8 32 7f 3e 20 91 3d be
       -0.03585581 -0.14940347 0.24921787 -0.18512392
000180 67 db b1 3d 40 f2 9e 3d cc c9 67 bd a1 c1 e9 3d
       0.08684426 0.07761049 -0.056588933 0.11413885
000190 96 43 8c bc 0f 1e 30 3d cd c4 38 3e f1 ab b5 3c
       -0.017122071 0.042997416 0.18043824 0.022176715
0001a0 9d f7 d2 bc e6 d1 04 3e ee cc dc 3c 92 93 62 3e
       -0.025752837 0.12970695 0.026953187 0.22126606
0001b0 8a a2 90 bc 80 b8 49 3d d8 79 47 bd 91 4c 3a 3d
       -0.01765563 0.04924822 -0.048700184 0.045483176
0001c0 52 6d 39 ba fe 58 4b 3e d9 41 15 be 9a 81 8f bd
       -0.000707348 0.19858167 -0.145759 -0.070071414
0001d0 32 ae f5 bd d9 0b 04 3e a2 1a ea 3d cc 33 b6 3d
       -0.11996116 0.12895145 0.11430861 0.08896598
0001e0 26 90 7d 3e 6b d6 74 3c c4 bb 22 bd c9 43 11 3e
       0.2476202 0.014943699 -0.03972985 0.14186014
0001f0 48 26 16 be 6b fd ae 3d fd f4 77 be 86 4e 04 3e
       -0.1466304 0.085444294 -0.2421455 0.1292058
000200 e4 7d 60 3e c0 c2 53 3e 4b 1a 18 3e ff 6d 5f 3e
       0.21923023 0.2067976 0.1485378 0.21819304
000210 2e c1 07 3e ca 1b 11 3e fa 14 6f be 17 aa 2b bd
       0.13257286 0.14170757 -0.23347846 -0.041910257
000220 47 e2 1e bd fa dd cb 3d 9d 10 0a 3e 1e 1a 48 be
       -0.038790014 0.09954448 0.134829 -0.19541213
000230 99 cd d6 3d 9f 6e 58 3e f3 e0 f8 bd 89 a9 9a 3d
       0.104884334 0.21135949 -0.12152281 0.075518675
000240 e2 a1 d0 bd 45 f9 41 be 90 16 cc bd f2 81 fe 3d
       -0.10187127 -0.18942745 -0.09965241 0.12427129
000250 4e 88 4e 3e e5 78 fe 3d a2 aa 4d bd d5 33 34 bd
       0.20169184 0.124254026 -0.050211556 -0.043994743
000260 08 ac 15 3e 31 b9 b6 3d 92 b2 11 3e 03 c3 90 3c
       0.14616406 0.08922041 0.14228275 0.017671114
000270 7a 6b 29 3e 52 d1 0a be 84 cc 8f bd 47 b7 54 be
       0.16544905 -0.13556412 -0.0702143 -0.2077304
000280 35 c2 66 be 6c 22 af bd 55 34 76 3e 8d 9d f2 3b
       -0.22535022 -0.08551487 0.240434 0.0074040354
000290 73 6b 03 be e3 ac 0b 3d 86 41 8e 3d bd bf 55 3c
       -0.12833957 0.034100424 0.06946091 0.013046202
0002a0 18 af fd bd c0 91 97 bd 83 07 56 bd 57 fc 9a bd
       -0.12386912 -0.074008465 -0.052253257 -0.07567661
0002b0 16 b8 20 be 08 0b 0a be 8f ae ce bc 12 82 d0 3c
       -0.15695223 -0.1348077 -0.02522972 0.025452647
0002c0 3b ab 15 3e c1 dd f4 3d 33 ea c7 bd 49 f1 b7 bd
       0.146161 0.11956359 -0.09761467 -0.08981568
0002d0 0a 38 87 bd fb 3d 21 3e ce eb 37 be 0a fd 9a 3b
       -0.066024855 0.157463 -0.17961046 0.0047298716
0002e0 4c bc b6 3d 56 ff 9b 3c f2 d7 a3 bb fa 3d a6 bd
       0.089226335 0.019042652 -0.005000108 -0.0811729
0002f0 26 32 85 be 19 c9 35 bd 02 b5 1f 3e 54 6c 13 be
       -0.26014823 -0.044381235 0.15596393 -0.14396793
000300 a5 b9 ad 3d 1a 30 46 3c 45 39 27 bc bf 2d 69 bd
       0.084826745 0.012096429 -0.010206525 -0.056928392
000310 68 f6 ca 3d a8 11 01 be bf 6d 74 3d 0a a5 da bd
       0.099102795 -0.12604392 0.059674975 -0.1067601
000320 11 12 97 bc fa ce d0 3d bc 4a c4 bd 90 5a 97 bd
       -0.018441232 0.10195728 -0.09584567 -0.0739032
000330 3a 0b 21 3e 52 45 b5 3d 3a b1 87 bc ae 74 c6 3d
       0.15726939 0.088511124 -0.016564 0.09690224
000340 6f 48 0a bd 58 54 e4 3d 77 83 ab bc 97 ad 08 3d
       -0.033760484 0.111489 -0.02093671 0.033368673
000350 30 1a 0f bd c7 f9 34 bd 0b a0 ac 3d 91 b8 4c 3d
       -0.034937084 -0.04418352 0.08428963 0.049980704
000360 20 18 b3 3d ec 36 28 3e 92 d9 b7 bd cb 06 fc bc
       0.08744836 0.16427201 -0.08977045 -0.030764958
000370 47 bb 20 bd ec 7c 1c 3e f3 ca 06 be 01 d9 05 3e
       -0.0392411 0.15282029 -0.13163356 0.13071062
000380 3d e8 b0 3d 45 c7 9c 3d 15 16 fe 3d b0 4c a7 3c
       0.08638046 0.07655195 0.124065556 0.02042231
000390 73 3f 59 bc 97 39 db bd c0 16 41 bd 38 aa 27 be
       -0.013259756 -0.10704344 -0.047140837 -0.16373527
0003a0 71 15 48 3d ac 59 9e bd a8 c0 a7 3c f4 20 0f bd
       0.048848573 -0.07731947 0.020477608 -0.034943536
0003b0 3f 2b 4d bb ad a5 89 3b b5 9c 14 bd b4 e3 45 bd
       -0.0031306294 0.0042006583 -0.03628226 -0.048312858
0003c0 7a f5 d7 bd b3 91 8a bc 6f b8 57 3d 24 dd 01 3c
       -0.10544868 -0.016915178 0.052666124 0.007926259
0003d0 bf 92 84 bd c4 60 80 bc 0b bb 0e 3c a1 6b 4b bc
       -0.06473302 -0.015671141 0.008711587 -0.012415797
0003e0 c4 7a 10 be 70 b6 14 bd a7 aa 4b 3d 93 75 17 bd
       -0.14109331 -0.0363068 0.049723294 -0.036977362
0003f0 e0 5f d3 3c 59 9a 37 3d e1 5f a1 3d 50 41 b0 3d
       0.025802553 0.04482493 0.078796156 0.08606207

msg_layers.0.W_self.bias f4 [64]
000000 56 40 59 bd 8f 88 81 bb 18 f2 60 bc 8a 98 04 3c
       -0.05303987 -0.0039530466 -0.013729595 0.008093009
000010 34 21 41 bc 1d 6e a9 bd 6c 8d 67 bc e2 b3 4e bd
       -0.011787701 -0.082729556 -0.014132839 -0.05046452
000020 4c ed 8f 3d 97 5c de bd b6 c4 86 3b f2 ac 97 bc
       0.07027683 -0.10857504 0.0041128052 -0.018515084
000030 06 af c9 bc 18 52 0f be e0 2b 3c 3c f5 bf 9c 3d
       -0.02461959 -0.1399616 0.01148507 0.076538004
000040 37 79 1f 3d 0d 8c 9a 3e b3 13 23 3e e8 bc 2c 3b
       0.03893396 0.30184975 0.15925483 0.0026357714
000050 a9 d7 e4 3d d6 a1 81 bd 29 aa 13 3e 30 ad 2e 3e
       0.111739464 -0.06329696 0.1442038 0.17058253
000060 65 db 95 bd 9b 9a 20 bd 66 d5 89 bd 30 72 cf 3d
       -0.07317237 -0.039209943 -0.06730156 0.101292014
000070 7f 95 f0 bd 5c 2f 14 be 13 74 8a bd de e6 28 3d
       -0.11747264 -0.14471191 -0.06760421 0.041235797
000080 64 4b 1c be dd e7 30 bb 6e 5d 10 3c 6c 74 d4 3d
       -0.15263134 -0.002699367 0.008811338 0.10373768
000090 a7 bf ca 3c a7 d4 92 bd f7 c8 a2 bd 08 76 90 bd
       0.02474959 -0.071694665 -0.07948487 -0.07053763
0000a0 42 a2 29 3e c8 7e 70 bd 77 18 49 3d 7d 7e 84 3d
       0.16565803 -0.058714658 0.049095597 0.06469438
0000b0 95 ce bb 3d d9 4d 60 3e b6 2b e0 3b a7 1b 26 3e
       0.09170262 0.21904697 0.0068411482 0.16221486
0000c0 5a 1e 9f bc 58 87 50 bd bd fd 1c be 9f dc c6 3d
       -0.019423652 -0.050910324 -0.15331168 0.09710049
0000d0 d5 4a b7 bd 4c 21 aa 3d fd 93 51 3d 3d 2b 25 bd
       -0.0894982 0.08307132 0.051166523 -0.04032444
0000e0 e4 0c db 3c 06 e9 de 3d c5 f8 f2 3d 8d 50 15 3c
       0.026739545 0.108842894 0.11863855 0.009113443
0000f0 cb 70 9f bd b6 09 68 bd e5 98 1b be e0 0a 41 bd
       -0.077851854 -0.056649886 -0.15195043 -0.04712951

msg_layers.0.W_msg.weight f4 [64, 64]
000000 dd c7 e1 3d eb 50 43 3e 6f 72 0f 3d c8 2f a9 3d
       0.11024449 0.19073837 0.03502124 0.08261067
000010 6c a7 46 3e 33 0b c7 bd d4 0f e8 3c 01 2e e5 bd
       0.19399804 -0.09718933 0.02832786 -0.11190415
000020 42 4e fa bc 92 4a 67 3d 7f 9a 54 3e 8a dd 5a bd
       -0.030554894 0.0564676 0.2076206 -0.053433932
000030 8d 9a 1a 3e 83 b7 cb bd 87 f6 06 bd 9d c3 99 3e
       0.15098019 -0.099471115 -0.03294995 0.30032054
000040 39 e8 4f 3e e0 55 bf 3d 63 94 cc bc de 02 14 3e
       0.2030343 0.09342551 -0.0249731 0.14454219
000050 6b 8e 8d 3d 13 b5 8f bd 6d a3 70 3d 89 47 e7 3b
       0.0691193 -0.07016959 0.058749605 0.007058088
000060 4a ab e5 bd 4a ff 89 3e 62 0c 07 3e 8b ee b9 bd
       -0.112143114 0.26952583 0.13188317 -0.090787016
000070 c3 a4 15 3e b4 dd 7e 3c d1 51 85 bd aa 41 bd bd
       0.14613633 0.015555788 -0.06509746 -0.0924104
000080 95 28 fb 3b ea 3c ef bd 7a 37 f4 3c 1f 4d 05 3d
       0.00766475 -0.1168154 0.02981161 0.03254425
000090 7e c9 ac bc 75 13 ae bb 8a b5 3a be 66 b7 30 3d
       -0.021092173 -0.005312378 -0.18233314 0.043143652
0000a0 47 3f d0 3b 82 8b 92 bd 48 63 82 bd 2f 4b aa bd
       0.0063551995 -0.07155515 -0.06366593 -0.083151214
0000b0 f6 3f 50 3d fc e4 9a bb e4 56 84 bd ca b4 ad bd
       0.050842248 -0.004727004 -0.064618856 -0.084817484
0000c0 28 22 5b bc f6 c4 be bd c4 23 83 3d 6c 8d 59 3c
       -0.013374843 -0.09314911 0.06403306 0.0132783465
0000d0 ee e2 31 ba bc 1f 19 3d 79 37 17 be 8d 6b aa bd
       -0.00067858293 0.03738378 -0.14767255 -0.08321295
0000e0 6e 64 c9 bc 20 2e fb 3d 08 74 b1 bd 4b 20 85 3d
       -0.024584021 0.12264657 -0.08664709 0.065003
0000f0 7b 16 bf 3c 84 be 11 3d e0 77 a4 3d 15 22 2a bc
       0.02332615 0.03558208 0.08030677 -0.010384102
000100 a8 5d 43 bc 31 0d e2 3c 5d d8 e1 bd 6c 74 3a be
       -0.011924185 0.02759418 -0.11027596 -0.18208474
000110 e3 fe cd bd 30 0c 84 3d c5 4c 09 bd 7f 3b af bd
       -0.100583814 0.06447637 -0.03352048 -0.0855627
000120 4d 63 01 3e 8a 82 de bd df 29 26 3d a0 87 05 3e
       0.12635536 -0.10864742 0.040567275 0.13040018
000130 25 2c 88 bb 60 df cc 3d 09 b5 61 bd 4c 2f d4 bd
       -0.004155653 0.10003543 -0.05510429 -0.10360584
000140 44 8d bf bc ee 0e 66 bd 15 5a 9b bd 0d 3d fb bd
       -0.02338279 -0.05616658 -0.07585541 -0.12267504
000150 5b 89 83 bd f8 a1 08 3d 02 50 23 3d 55 6d d3 bd
       -0.06422683 0.03335759 0.039871223 -0.10323588
000160 29 16 09 bd 6f 0b 1f 3d 85 20 33 3d 97 4c a5 3d
       -0.0334684 0.038829263 0.043732185 0.08071249
000170 b1 93 51 3d 61 7d 6e bd 92 b0 fe bd 34 10 97 3d
       0.05116624 -0.05822504 -0.12436022 0.073761374
000180 f5 88 d6 bd d1 12 d4 3b db 8c 7b 3a d0 39 2c be
       -0.10475341 0.0064719697 0.0009595879 -0.16818929
000190 1a 36 cd bd 63 c0 6e bd 37 7a 81 bc 16 0f 66 3a
       -0.10020085 -0.058288943 -0.015805347 0.00087760517
0001a0 f9 de cd bd 44 4c 8c bb 17 56 c1 3c 83 be df 3c
       -0.10052294 -0.0042815525 0.023600621 0.027312523
0001b0 fc 1d 8e bc 1f b2 09 be 2f b0 3f bd 08 d5 53 be
       -0.017348282 -0.13446854 -0.04679888 -0.20686734
0001c0 34 4c e6 3b a9 c8 0a be d0 9b eb bc 03 84 a8 3c
       0.007028127 -0.13553108 -0.02876082 0.02057076
0001d0 21 17 9e 3c 95 14 fb bc 8d d8 13 3d e8 17 c2 bd
       0.019298138 -0.030649463 0.03609519 -0.09477216
0001e0 34 68 4a bd b8 55 14 3e 3c ff 1c bd 5c 06 5c 39
       -0.049415782 0.14485824 -0.038329348 0.00020983204
0001f0 03 76 61 3d 55 f4 e7 3d c0 8f 6d 3d 90 ad a8 3c
       0.055044185 0.113258995 0.05799842 0.020590574
000200 8d 88 54 3d 0e e4 91 bd 2d 35 0d ba ad 04 69 3c
       0.051888037 -0.07123576 -0.0005386647 0.014222306
000210 b5 20 22 3e c2 cf 30 3c 65 06 5d bd 5f 8a 01 be
       0.15832789 0.010791721 -0.053961176 -0.1265044
000220 5a a8 73 bd c5 b1 a5 bc 67 d3 b5 3d c7 6b c0 3d
       -0.059486724 -0.020226369 0.088782124 0.09395557
000230 08 99 b4 3d db d9 5e bb cc 3b ed bc 2f 30 49 3e
       0.08818251 -0.0034004364 -0.028959177 0.19647287
000240 f6 b4 0d 3e ee 01 03 3e 5a 70 2e bd 22 91 29 3c
       0.13838562 0.12793705 -0.042587616 0.010349544
000250 f8 a0 dd 3c c5 ac 6e 3d bb 4f 24 bc b0 2b 91 bd
       0.027054295 0.058270235 -0.010028775 -0.07088411
000260 44 1c 05 be db 6c 38 3e a8 a6 c2 3d f3 4d e1 bd
       -0.12999064 0.18010275 0.095044434 -0.11001196
000270 a2 04 ed 3d 1e 4c 4e 3d b9 80 91 3d 26 51 7d bc
       0.11573149 0.05036556 0.0710463 -0.015461242
000280 e9 57 8f bd 29 0f dd bd d4 e0 25 bd cc b2 0f bd
       -0.069991894 -0.10793907 -0.040497616 -0.035082623
000290 e3 49 e5 bc 32 8d 32 bd 8d 5e 17 3c 26 e8 b8 39
       -0.027989333 -0.043591686 0.009238851 0.0003526818
0002a0 7e 20 61 3d d7 87 50 bd 25 de be bd b0 3b b8 bd
       0.054962628 -0.050910797 -0.093197145 -0.089957595
0002b0 b3 2e ad bd 7b e9 dd bc c3 92 d7 3d 78 19 cc bc
       -0.08456173 -0.027088871 0.105260395 -0.024914488
0002c0 b7 05 b7 3d 86 b9 de bd 38 4f 6b bd 63 90 01 3e
       0.08936637 -0.108752295 -0.057448596 0.12652735
0002d0 f8 83 45 3d be ff 2e bb 73 3a eb 3d 99 bf 92 bd
       0.04822156 -0.0026702727 0.11485758 -0.071654506
0002e0 c5 e8 c2 3d c2 f0 16 3d e3 33 eb 3d 9f 92 e4 bd
       0.095170535 0.0368507 0.11484506 -0.11160778
0002f0 11 2c d0 3d c1 d5 79 3d 29 50 00 3b 76 7e bc bc
       0.10164655 0.060994867 0.001957903 -0.02300952
000300 24 0c d0 bc cf c7 8d 3c ee 28 7c bd a1 2e 37 3e
       -0.025396414 0.01730719 -0.06156247 0.17888881
000310 94 fd e6 3d 21 f6 a4 bd 19 75 85 bd 6c dc cf bd
       0.11278835 -0.08054758 -0.06516475 -0.10149464
000320 74 cb fb bc 8f 1d 3e 3e 92 b0 a4 bd e7 cc b6 bd
       -0.030736662 0.18565963 -0.080414906 -0.08925801
000330 99 4c 80 3d d8 6f 78 3d 14 fe 4f bd 97 0e 3f 38
       0.0626461 0.060653538 -0.050779417 4.5551536e-05
000340 b9 c8 36 bd 8f b4 d5 3d 03 c1 40 3d ce 29 a7 3d
       -0.044625018 0.104348294 0.04705907 0.081622705
000350 b3 72 8d 3c 31 fb a0 3d 74 60 b9 3d 23 3e ff bd
       0.017266607 0.07860411 0.090516 -0.124630235
000360 b5 40 4e 3e 76 02 f4 3d 63 26 c3 3d 57 13 38 3e
       0.20141871 0.11914532 0.09528806 0.17976128
000370 41 e3 26 3e bb c5 e9 bd c1 09 23 be d4 f4 bc 3c
       0.16297628 -0.11414667 -0.1592169 0.023065962
000380 93 7e 30 be 4b ce a7 3d 00 bd 1c 3e 9d e7 65 bd
       -0.17235784 0.08193644 0.15306473 -0.056129087
000390 10 00 3d be c5 48 5b 3d d1 32 ca 3d 08 9d 38 bd
       -0.18457055 0.053536195 0.09872974 -0.04507163
0003a0 07 2d 81 3d b7 23 cf 3d 44 88 35 bd a7 8c 96 3d
       0.063074164 0.10114234 -0.044319406 0.07351046
0003b0 b2 90 34 3d 02 d1 3e be 31 82 09 be ee a0 ab 3c
       0.044083305 -0.18634418 -0.1342857 0.02095076
0003c0 47 0e 1e 3e d2 7e bf 3c 11 33 92 3d dc 06 bd 3d
       0.15435134 0.023375902 0.071386464 0.09229824
0003d0 4f 3d 15 be 9f a9 60 bc 7b 91 05 be 96 63 57 bd
       -0.14574169 -0.013712316 -0.13043778 -0.052585207
0003e0 b1 d2 cd bd 62 45 13 be 0c 00 e0 bd d2 fa ce bd
       -0.10049952 -0.14381936 -0.10937509 -0.10106434
0003f0 82 cc 24 be 70 9e 1b 3e 77 5e 17 3e 66 da 85 bd
       -0.16093639 0.15197158 0.14782129 -0.06535797

msg_layers.0.W_msg.bias f4 [64]
000000 19 81 4b bc be 0e c7 3d 1f 86 29 3c 7b 5c fd bc
       -0.012420916 0.09719609 0.010346918 -0.030927887
000010 17 09 e5 3d c7 6d dd 3d 6d 1f a1 bd c5 3f 41 be
       0.111833744 0.10811954 -0.07867322 -0.18871982
000020 82 85 30 bd 93 1e b6 3d 44 5d 4c bd 26 0d 26 be
       -0.043096073 0.0889255 -0.049893633 -0.16215953
000030 91 59 60 bb ea 53 df 3d b5 69 f0 3d 02 c1 9d bd
       -0.0034233073 0.10904677 0.11738912 -0.07702829
000040 e5 53 2c be e9 3d 0f be 51 44 52 bc 15 65 02 bc
       -0.16828878 -0.1398846 -0.012833671 -0.00795867
000050 54 6c a3 3d dd 87 ec bd c3 e7 d3 bc 24 a7 0d be
       0.07979646 -0.11549351 -0.025867349 -0.1383329
000060 f0 35 29 be 91 88 ce bd 1b 17 84 bd d7 7f 33 bd
       -0.16524482 -0.10084642 -0.064497195 -0.04382309
000070 bd de eb bc 26 0c c3 3d b0 db 95 bd 39 64 cd bb
       -0.028792733 0.095238015 -0.07317293 -0.006268051
000080 f7 a3 39 bd 2f 4a 27 3e 07 f6 1b be ae 4d b1 bd
       -0.045322385 0.16336893 -0.1523057 -0.08657394
000090 d9 5d 4c 3d 4b 6e ab 3d 87 c0 74 bc bf fe b6 bc
       0.049894188 0.08370646 -0.01493848 -0.02233827
0000a0 57 93 8f 3d 85 5d 05 3e a6 d5 e6 bb 37 e9 04 3d
       0.07010525 0.13023956 -0.007044512 0.032448974
0000b0 90 51 a5 bd c4 8e ff bd 61 37 b4 bc a0 61 d6 3d
       -0.080721974 -0.12478402 -0.021999063 0.10467839
0000c0 c3 ba e1 bd 17 5d e7 bd 3d 63 8c 3c 62 dd 4c be
       -0.1102195 -0.11297052 0.017137164 -0.20006326
0000d0 37 39 e2 bd af ae ec bc 4f 6e 6a 3d 0b a7 1a be
       -0.11046069 -0.02889189 0.057234105 -0.15102784
0000e0 5a 1d ce bd 60 22 e2 bd c9 ec 70 3e 65 78 ef 3d
       -0.10064192 -0.11041713 0.23527826 0.11692885
0000f0 08 bd 47 3e c5 0f c3 bc 39 35 da 3c c3 e8 97 3d
       0.19505703 -0.02381123 0.026636707 0.07417443

msg_layers.0.norm.weight f4 [64]
000000 15 c7 6a 3f 26 75 9a 3f 9f f6 75 3f 08 9d 7a 3f
       0.91710025 1.2067001 0.9607944 0.9789586
000010 a5 a3 61 3f 5d 16 58 3f 49 1c 31 3f 1f fc 67 3f
       0.88140327 0.84409124 0.69183785 0.9061908
000020 40 3b 4f 3f 59 2f 70 3f 7a 80 8a 3f a7 80 8b 3f
       0.80949783 0.93822247 1.0820458 1.0898637
000030 c4 8d 7e 3f 50 3b 94 3f 8b 81 76 3f a9 9c 93 3f
       0.9943507 1.1580601 0.96291417 1.1532184
000040 ad 5e 86 3f 31 6d 96 3f 84 20 63 3f d2 b7 6d 3f
       1.0497643 1.1752073 0.8872149 0.9285861
000050 ca c1 84 3f a9 c0 7b 3f ec 65 8d 3f 16 ef 84 3f
       1.037164 0.9834085 1.1046729 1.0385463
000060 5a c5 6b 3f 4d c4 91 3f 80 18 4a 3f 44 72 86 3f
       0.9209801 1.1388031 0.78943634 1.0503621
000070 85 72 85 3f ab 29 5f 3f 90 42 6b 3f a1 0a 7f 3f
       1.0425574 0.87172955 0.9189844 0.99625593
000080 d7 c1 89 3f 95 d8 82 3f d8 4b 83 3f 40 b8 8b 3f
       1.076228 1.0222346 1.0257521 1.0915604
000090 32 ec 76 3f 72 84 52 3f 7e f6 80 3f 1e d6 69 3f
       0.96454155 0.82233346 1.0075223 0.9134234
0000a0 d8 c3 75 3f 4c eb 8c 3f 5f f5 65 3f 2d 2e 7f 3f
       0.9600196 1.1009307 0.8982753 0.99679834
0000b0 1c 19 5f 3f 45 4a 90 3f 9e 42 82 3f 84 af 76 3f
       0.8714769 1.1272665 1.017658 0.96361566
0000c0 1a 63 63 3f b6 55 70 3f 78 43 80 3f 7e 5a 80 3f
       0.8882309 0.93880785 1.002059 1.0027616
0000d0 a7 c5 7b 3f 50 fa 89 3f 34 e2 87 3f 3d ff 7b 3f
       0.9834847 1.0779514 1.0615907 0.9843634
0000e0 fe 67 73 3f f8 79 82 3f 92 a2 81 3f e3 57 48 3f
       0.95080554 1.0193472 1.0127738 0.78259104
0000f0 5c 71 85 3f b4 62 68 3f 1e 8e 5a 3f c9 bf 80 3f
       1.042522 0.9077561 0.85373104 1.0058528

msg_layers.0.norm.bias f4 [64]
000000 8b 38 3a bd 93 68 fe bd 04 b9 25 bd 2c c5 85 3b
       -0.04546408 -0.1242229 -0.040459648 0.0040823426
000010 f7 32 1c 3e 80 c2 ce 3d 9a 2d 98 3d 5d 19 7d 3d
       0.15253817 0.10095692 0.07430573 0.061791766
000020 85 f9 f2 3d 48 06 5b 3d 11 50 c9 bd 40 6b 67 bd
       0.11863998 0.053472787 -0.098297246 -0.056498766
000030 57 63 09 bd a4 a0 01 3d de d0 c4 3d d8 d5 29 3d
       -0.033542003 0.03164734 0.09610151 0.041463703
000040 44 98 91 3c b8 87 6a bd a2 40 96 3b fb 57 4a 3d
       0.017772801 -0.057258338 0.0045853416 0.04940031
000050 84 b4 3f bd 74 53 f7 3b 76 d3 18 bd ef 79 4c bd
       -0.046803012 0.00754779 -0.03731104 -0.049920972
000060 70 10 a0 bd 0c 99 21 bb ea 06 3b 3e dc a0 c4 ba
       -0.07815635 -0.0024657873 0.18264356 -0.0015001553
000070 c7 99 0e bc 8f 4b 1e bd 63 f8 2a 3d 29 23 0b bd
       -0.008703656 -0.038646277 0.041740786 -0.03396908
000080 4d 75 b5 bd a1 6e 73 3c 0c 72 13 3e 4f a4 f2 bd
       -0.08860264 0.014857919 0.14398974 -0.118477456
000090 bc 63 d3 3c 75 c2 71 bd 06 50 08 bd be bf 92 bc
       0.025804393 -0.05902334 -0.03327944 -0.017913695
0000a0 f8 e6 72 3c 14 6c 22 bc 14 9e 0f 3d dd da 59 bd
       0.014825575 -0.009913463 0.035062864 -0.05318724
0000b0 d8 81 1c 3d 1a 02 48 3b 0d c7 4c bd 3f e2 85 3d
       0.038209766 0.003051883 -0.049994517 0.06537294
0000c0 0a 55 51 3c 6a 7b a0 3c 65 2b d2 3c 3e 2d ea bc
       0.012776623 0.019590098 0.025655458 -0.028586026
0000d0 ea 55 16 bd 7b 0c 87 bd 84 3c 6f bd c9 a9 12 bd
       -0.036703028 -0.06594177 -0.05840732 -0.03580645
0000e0 82 8a 60 3d 21 b0 a4 bc 65 c8 48 bd 07 83 2f 3a
       0.05481959 -0.020103516 -0.049019236 0.0006695245
0000f0 48 cd 10 3e b6 2c b2 3d 97 33 75 bc 67 3d 8c bd
       0.14140809 0.08699934 -0.014965913 -0.06847649

msg_layers.1.W_self.weight f4 [64, 64]
000000 ca c0 99 bd 9e b0 e3 3d e1 15 5d 3d 79 3f 2e 3e
       -0.07507475 0.111176714 0.053975943 0.170164
000010 3c 94 1b 3e 1f af 31 3d 84 68 4d 3d 16 7a cc 3d
       0.15193266 0.0433799 0.050148502 0.099842235
000020 39 bf 19 be 6b 14 41 3e 98 d6 0d 3e 23 d4 ca bd
       -0.15014352 0.18855445 0.13851392 -0.09903743
000030 f7 63 86 3d d4 09 0d 3e 49 16 f5 3c 36 a4 88 3c
       0.065620355 0.1377328 0.029917853 0.016679864
000040 c4 ab 39 bc 31 9c 21 bd df ae 10 3e 22 35 ed 3d
       -0.011332456 -0.039455596 0.14129208 0.115824
000050 1b d2 d7 3d 64 23 46 3e 17 fb 2b 3d 78 c2 e8 3d
       0.10538121 0.19349438 0.041987505 0.11365217
000060 09 28 af 3d 54 76 c7 bd 40 c9 35 3e a5 76 45 3e
       0.08552558 -0.09739366 0.17752552 0.1928354
000070 58 b0 24 3e 1d 3c c9 3d 1e fb 5e 3d 61 f6 66 bd
       0.16082895 0.09825919 0.054438703 -0.05638731
000080 7e 14 15 bd 2a be a0 3d 42 e5 4f 3d 2f b6 e1 3d
       -0.036396496 0.07848771 0.050755747 0.11021077
000090 6f 48 2c be 9c 77 87 bd b9 68 96 bd a1 09 de ba
       -0.16824506 -0.066146106 -0.07344193 -0.0016940125
0000a0 08 86 59 be 92 d9 2a 3c 81 40 16 3e 8a 80 94 3d
       -0.21242535 0.010427849 0.14673044 0.072510794
0000b0 39 45 9f 3c 83 e3 2e bd 15 37 09 3e 7c 88 7e 3c
       0.019442188 -0.04269744 0.13399918 0.01553547
0000c0 4c 92 8f bc 13 f9 3c be ea 08 c7 3c 98 65 10 3d
       -0.017525814 -0.1845439 0.024296243 0.035253137
0000d0 9a ab fe bd d3 61 16 be fb bf 58 be 60 1e 6d bd
       -0.12435074 -0.14685754 -0.21166985 -0.057890296
0000e0 a3 cc f3 bc e9 ae 71 be ef 3a ab bd c2 da e4 3d
       -0.029760664 -0.23601879 -0.0836085 0.11174537
0000f0 84 f3 1d 3c ca 3a 2e 3d 62 1c 8d 3d 92 2c 80 be
       0.009640578 0.042536534 0.06890179 -0.25034004
000100 bf 84 d2 bd 6b 63 f8 bd c0 17 e4 bd 30 5a ab 3d
       -0.102792256 -0.121283375 -0.111373425 0.08366811
000110 88 02 9d 3b 49 21 63 3b fb 81 1b b9 d3 92 e9 3d
       0.0047915615 0.003465729 -0.00014830373 0.114049576
000120 f5 d7 26 3e 89 6f 77 3d d9 3e 00 3e 51 3b 93 bd
       0.16293319 0.060409103 0.12523974 -0.07189048
000130 ad 0a 8f 3d c1 52 d4 3c cd 71 9a 3e 25 30 7b bd
       0.06984458 0.025918366 0.30164948 -0.06132521
000140 3e c0 15 be c2 d3 ad bd 47 22 58 3c 09 c4 cf bd
       -0.14624116 -0.08487655 0.013191766 -0.101448126
000150 7e bd 5e bc fc 55 93 bd ad 86 10 3e dc ec 25 3d
       -0.013594983 -0.071941346 0.14113875 0.04050909
000160 a4 48 95 3c 3f 5e 86 3c b0 f7 f4 3c f6 b0 2c bc
       0.018223114 0.016402362 0.029903263 -0.010540238
000170 8f 40 72 3c 56 47 9d 3d 15 27 a2 3d 79 0a 86 be
       0.0147859 0.07679622 0.079176106 -0.26179865
000180 97 77 d0 3c 28 99 97 3d 0f 36 e5 bd 3a c9 20 3e
       0.02544765 0.07402259 -0.111919515 0.15701762
000190 6c c9 25 bd 3f cc 83 3d ba 74 b9 3d 63 5e f4 bc
       -0.040475294 0.06435441 0.09055467 -0.029830163
0001a0 69 a1 6c bd 83 e6 f0 3c 10 91 88 3d 74 ab 41 bd
       -0.05777112 0.029406792 0.066682935 -0.04728265
0001b0 c3 cf 94 ba 5a ba 49 bd 28 32 8a 3d 87 24 55 3d
       -0.0011353422 -0.049249984 0.06747848 0.05203679
0001c0 e2 da f5 bd e6 99 3a 3e 25 2f c0 bd fc 9f 79 bd
       -0.12004639 0.1822277 -0.09383992 -0.06094359
0001d0 36 08 cb bd e1 cd 99 3d f5 4c 54 3e de d8 86 3c
       -0.099136755 0.075099714 0.20732482 0.016460832
0001e0 6b 96 1e 3e 8d 0b 42 be 8e 9e d4 bd 4a a3 bb 3d
       0.15487067 -0.18949719 -0.103818044 0.09162004
0001f0 4b 5c 8e 3e d1 9e 46 be 5f de 7b bd 3d 53 1a 3c
       0.2780479 -0.19396521 -0.061491366 0.00941926
000200 ba ad 92 bd bc 4a cf 3d cb f6 aa bd 3f 01 8e 3c
       -0.07162042 0.10121676 -0.08347853 0.017334579
000210 b7 fe 5d 3e fc 91 2e 3d 06 02 82 3e ad 73 7e bd
       0.21679197 0.04261969 0.2539217 -0.062122036
000220 16 f5 a0 3d c9 7f e4 bd 95 49 bf 3b b2 c9 14 3e
       0.078592464 -0.111571856 0.005837629 0.14530066
000230 2e 44 dc 3d 5c 35 b7 bd 79 05 04 3e 88 36 44 be
       0.10755192 -0.08945724 0.12892713 -0.19161427
000240 68 64 0a bb 21 de 00 bd 78 b3 80 3d 1c 8b c3 3d
       -0.0021116976 -0.03146184 0.06284231 0.095480174
000250 5f 99 f3 bc 25 d7 a5 bd 28 89 c3 bd d8 6b ce bd
       -0.029736219 -0.08097676 -0.09547645 -0.10079163
000260 92 cf 3e 3d ea b4 85 3d dc a1 f6 3d b3 84 73 bb
       0.046584673 0.06528647 0.12042591 -0.0037157952
000270 36 42 a0 bc 7b b2 1b bc 6d da c4 3c 38 0e 41 3e
       -0.019562822 -0.009503002 0.024029935 0.1885308
000280 29 fa a2 3d d4 25 a1 3d 42 fa 7a bd 9f 63 8f 3d
       0.079578705 0.07868543 -0.06127382 0.07001423
000290 51 50 57 bd 06 2c 14 3e 6c 2b 2b 3d f5 35 b7 3d
       -0.05256683 0.14469919 0.041789457 0.08945838
0002a0 df 15 cd bb ce db cc bd 94 d8 9f 3b 32 04 07 3e
       -0.0062587108 -0.10002862 0.004878113 0.13185194
0002b0 ab 03 17 3e 1b 30 88 bd d7 58 9d 3c 2a af 43 bd
       0.14747493 -0.066498004 0.019207401 -0.04777447
0002c0 44 1e d6 3c c4 bc 9a 3c 22 48 d3 3d 36 b6 e1 bd
       0.026137479 0.018888839 0.103164926 -0.11021082
0002d0 79 6a b0 bc 0f ae 8b 3a b0 12 85 bd a2 c0 6b bd
       -0.021535145 0.0010656732 -0.06497705 -0.057556756
0002e0 58 1f d7 3d 4e ea f9 bc 98 d5 5b 3d 2f f8 c9 3d
       0.10504025 -0.030507233 0.053670496 0.098617904
0002f0 0c e2 8a bc ac 03 4b 3e 8d 42 ae 3d d0 75 a9 bd
       -0.01695349 0.1982562 0.08508787 -0.08274424
000300 aa 10 01 3e 4d 89 65 3d 9d 06 b5 3c 1c e5 2e 3d
       0.12604013 0.056039143 0.02209788 0.042698964
000310 67 56 8f bd 43 ac 13 3e c3 8b 86 3c 4f 2e 88 3d
       -0.06998902 0.14421181 0.016424065 0.06649458
000320 64 1b da bb 19 27 76 3d 15 82 c4 3d 86 fa 7e 3d
       -0.0066560972 0.06009588 0.09595124 0.062250637
000330 be d1 f2 3d d6 32 19 3d 77 96 9e bd 20 30 60 3e
       0.118564114 0.037401997 -0.07743543 0.21893358
000340 66 84 e7 3d 47 08 d1 3d 67 c7 e7 bd 82 05 ae 3b
       0.1130455 0.10206657 -0.1131733 0.005310715
000350 49 7b 67 3d d2 28 a1 3d c2 28 84 bd d6 57 a0 3d
       0.05651406 0.07869114 -0.064530864 0.078292534
000360 6b fc 0a bd b4 1f 76 3e cd 40 36 3d a6 94 0f 3d
       -0.03393213 0.24035531 0.044495393 0.03505387
000370 14 d8 ea bc 07 0f 93 bc 84 35 de 3d 94 2e 09 be
       -0.028667487 -0.017951502 0.10850051 -0.13396674
000380 a2 41 44 3e 81 45 ad 3c 39 e1 29 3e 3b 33 10 bd
       0.19165662 0.021151306 0.16589822 -0.035205107
000390 3b f7 72 bd 31 b0 79 3d 06 58 fc bd fc f4 c5 3d
       -0.05931781 0.060959045 -0.12321477 0.09665868
0003a0 02 f7 bd bc 46 44 23 be 2e 12 80 3d 11 b2 78 be
       -0.023189072 -0.15944013 0.062534675 -0.24286677
0003b0 d5 a0 39 be a9 31 37 3d 02 3d 96 bd e7 c3 25 3e
       -0.18127759 0.044725094 -0.07335855 0.16188012
0003c0 62 f9 c9 bd c3 6e 27 be 5e 95 4c 3e 46 50 53 3d
       -0.09862019 -0.16350846 0.19978854 0.051590227
0003d0 0c 98 e1 bd 89 0b 6e bd 14 be 0d 3d 1e fe 15 3d
       -0.11015329 -0.05811647 0.0346051 0.0366193
0003e0 d4 d2 5f 3e ea f0 c4 3d 5c c9 d8 3d a6 65 d5 bd
       0.21857768 0.09616263 0.10585281 -0.104197785
0003f0 e0 43 b6 bd 32 d4 d0 3a 99 e0 83 bd 4d f6 a6 bc
       -0.08899665 0.001593238 -0.06439323 -0.020381117

msg_layers.1.W_self.bias f4 [64]
000000 6f c0 1e 3d 4c 8d 04 be 4d c0 16 3d cc e4 7a bd
       0.038757738 -0.12944525 0.036804486 -0.061253354
000010 02 d2 b2 bd 08 89 5f 3c e1 90 9b bd 27 8a c0 3c
       -0.08731462 0.013643511 -0.07595993 0.023503376
000020 01 98 72 3c 86 d1 18 be f5 b2 8d bd e4 75 12 be
       0.014806748 -0.14923677 -0.06918899 -0.14302784
000030 ba f6 17 bd 84 6c 62 3c af 93 23 bd b3 e3 81 be
       -0.03710053 0.013819817 -0.039935764 -0.25369033
000040 b4 bd fb bd 5a 3c 30 bd 78 c8 4e 3c c8 ee c9 bd
       -0.122920424 -0.043026306 0.012621038 -0.09859997
000050 ba e4 2c 3e 10 b8 b0 3d 67 ad 20 be 8d 8a 78 3d
       0.16884127 0.08628857 -0.15691148 0.060679007
000060 0e 6d 53 be ba e4 40 be c2 4e 1f be 0f 97 0f 3d
       -0.2064707 -0.18837252 -0.15557387 0.03505617
000070 73 6b 28 3d 28 7e 05 be 63 78 18 be 88 ad 49 bd
       0.041118097 -0.13036406 -0.14889674 -0.049237758
000080 d9 0b 26 be d7 3c b8 3d 2e ce 52 be 50 1c 06 bc
       -0.16215457 0.08995979 -0.20586464 -0.008185461
000090 4e b3 b2 bd 7e 37 07 3c df e6 38 3e 21 23 3c 3d
       -0.08725606 0.008252976 0.1805682 0.04593194
0000a0 1b df 27 3d b9 4c e4 bd 9d 7d 96 3d 69 8f 18 be
       0.040984254 -0.11147446 0.073481776 -0.14898457
0000b0 0e 4d f3 bd d0 3c 4b bc 35 23 53 3e ef 82 82 bc
       -0.118799314 -0.012404636 0.20618899 -0.015931575
0000c0 95 d3 3b bd 10 48 a8 3b a8 4a 2a be 48 1a f4 3d
       -0.045856077 0.0051355436 -0.16630042 0.11919075
0000d0 53 59 a8 bd c5 82 ac bd b6 59 da bd 2b 27 d3 bc
       -0.08220162 -0.0842338 -0.10661642 -0.025775513
0000e0 dc d3 92 3d 38 dc 96 3d 24 5e 04 be 2d 65 e0 3c
       0.07169315 0.07366222 -0.12926537 0.027391994
0000f0 62 b0 a3 bd 2a 0d 2f bc c9 58 59 3c d7 03 b1 bd
       -0.07992627 -0.010684291 0.013265797 -0.086433105
