QuantLaxmi_Research/dtrn/results/checkpoints/fold4_NIFTY/dtrn_stage2.pt (torch, 232927 bytes, 37 tensors)

embed.embed.0.weight f4 [32, 2]
000000 79 c1 ce bd 12 7b c2 3e 88 8c 81 3f d3 85 2f bf
       -0.10095496 0.3798452 1.0121012 -0.68563575
000010 3d 03 cb be 8c ab 14 3f 5b 10 84 3d 81 55 2f bc
       -0.39650908 0.5807426 0.06448432 -0.010701538
000020 6e 24 cd be df 9c ca bd 8a 4b 9a be cc 47 ee 3d
       -0.40066856 -0.09893202 -0.30135757 0.11634788
000030 da e2 4f bf fa 90 29 bf 87 ef 38 bf 4b 6c c5 3e
       -0.81205523 -0.6623684 -0.7224049 0.38559183
000040 1b f7 08 be 6f d6 1c 3c 3f 31 eb 3e fe 1d 4e bf
       -0.13375513 0.009572609 0.4593601 -0.80514514
000050 f1 c6 18 3f ab 33 05 3f 40 89 53 3e e4 1c d3 bd
       0.5967856 0.52031964 0.20657825 -0.10308245
000060 d1 da ae be 15 ae ef 3e 40 5b 17 bf db 2f e4 3e
       -0.3415132 0.46812502 -0.5912361 0.4456776
000070 8d 84 1c 3e 2d 8b c9 be 5e cd f6 3d 49 7d 55 bd
       0.15284939 -0.39363995 0.120508894 -0.052121434
000080 90 d9 a5 be be 75 ab be 1b 8c 84 3e 0b b5 e8 3d
       -0.3239255 -0.33488268 0.25888142 0.11362656
000090 56 3c 81 be a3 f7 24 3e f3 c0 0d 3e 2c 48 7c be
       -0.25241345 0.16110091 0.13843136 -0.24636906
0000a0 82 ef 7a 3e c7 66 c0 3e 69 79 59 bc 48 7c 40 bd
       0.24505427 0.37578413 -0.013273575 -0.046993524
0000b0 3c eb c7 3e 09 86 3a bf 97 27 a3 be 43 33 10 bf
       0.39046657 -0.7286077 -0.31866142 -0.5632822
0000c0 f2 eb a8 3e 02 4a 1b 3e ee 8c b8 be 13 16 92 3e
       0.32992512 0.1516495 -0.3604502 0.28532466
0000d0 72 a9 d7 be 33 b5 18 3e 8d 4b 6f be a6 36 ea 3e
       -0.42121464 0.14912872 -0.23368664 0.45744818
0000e0 35 67 13 3f 4e cd 7a 3e 7f 38 4d bd dc 34 61 bf
       0.57579356 0.2449238 -0.050102707 -0.8797128
0000f0 75 8c 09 3d 49 53 61 bf b7 32 57 be d7 c0 ca 3e
       0.033581216 -0.8801771 -0.2101544 0.3960025

embed.embed.0.bias f4 [32]
000000 2d 84 58 3d 14 ff 59 bf 3b d2 18 bf 1f 57 f7 3d
       0.052860428 -0.85154843 -0.59695786 0.12077164
000010 f1 80 12 be e6 e1 42 be 39 03 15 bf 94 b9 c6 3e
       -0.14307 -0.19031486 -0.5820804 0.3881346
000020 74 4c b2 3e 96 aa 98 3e 72 96 b9 3d 55 26 bc 3e
       0.34823954 0.29817647 0.09061898 0.36747995
000030 42 a3 0e bf eb d4 ad bd cd d4 f4 3e 6a 3b 8e 3e
       -0.5571786 -0.084878765 0.47818604 0.27779704
000040 19 68 8a be 41 ed 1b bf f1 6f 4b be 17 3d 00 3f
       -0.27032545 -0.60908896 -0.19866921 0.50093216
000050 e9 74 20 bf 97 ab a1 3d ef bd 07 3f d9 2b 4a 3d
       -0.6267839 0.07894056 0.5302419 0.049358223
000060 b0 fb 2b bf b1 7a b4 be 85 f6 46 3e 3f 99 e5 be
       -0.6718092 -0.35249856 0.19429977 -0.4484348
000070 f3 99 3b bf e2 2a 48 bf da e5 1a bf af 0e 13 bf
       -0.7328178 -0.78190434 -0.60506976 -0.5744428

embed.embed.2.weight f4 [32, 32]
000000 36 54 c5 bd 13 c3 01 3f 06 13 0f 3e 88 32 02 be
       -0.096352026 0.50688285 0.139721 -0.12714589
000010 29 31 27 3d ad d7 41 3e 54 85 9e bd 25 62 ac 3d
       0.040818367 0.1892993 -0.07740274 0.08417157
000020 1e 23 1e 3d ff 58 53 3e af 0d b0 bd 31 9c 25 be
       0.03860771 0.20639418 -0.0859636 -0.16172864
000030 e2 cd 3b 3e 96 f3 12 3e 08 83 b4 bd bd ef 37 3d
       0.18340257 0.14350733 -0.08814055 0.044906367
000040 e6 12 23 3e 4c df 41 3e 06 dc 18 3e fa 55 c4 bd
       0.15925178 0.18932837 0.14927682 -0.09586711
000050 e3 41 ce bd f7 b9 21 be 2f ee 22 3e b0 06 99 3d
       -0.10071161 -0.15793596 0.15911172 0.07471979
000060 26 28 a2 3e 98 ff 97 3d 0a 5f fd 3d 26 5e a7 3d
       0.31671256 0.074217975 0.12371643 0.08172254
000070 e4 2f 4a 3e 21 5c 0f 3e ab ee 59 3b b6 7a 05 3e
       0.19744831 0.13999988 0.003325383 0.13035092
000080 27 58 1e bd e4 0d 0c 3f ee 06 93 3c c0 47 17 bd
       -0.038658287 0.54708695 0.01794764 -0.03693366
000090 30 b1 40 3d 65 ec 9e bd dd b2 fd bd 87 a3 60 3d
       0.04704398 -0.077599324 -0.12387631 0.05484345
0000a0 1c 0b 4e 3d 38 bc 4d 3e 78 c1 b7 3d 7b 9f 02 3e
       0.050303563 0.20091331 0.08972448 0.1275615
0000b0 ac 6a 3e 3b ff 14 22 3e a4 39 df 3d be 30 c4 3d
       0.002905528 0.15828322 0.10899666 0.09579609
0000c0 80 f4 c0 bd c7 3b 07 3e da 89 6d bd db e6 3f bd
       -0.09421635 0.13206397 -0.057992794 -0.04685102
0000d0 8c da 51 3c fd 51 7a ba 0a 64 92 3e 79 22 c9 3d
       0.012808453 -0.00095489604 0.2859195 0.09821028
0000e0 12 53 8d 3e b1 68 02 3e d4 1b 85 bd 5a d7 97 3d
       0.2760244 0.12735249 -0.064994484 0.07414122
0000f0 ca b3 27 3e 20 1f 1d be 80 76 ab bb be 16 1a bd
       0.16377178 -0.15343904 -0.005232632 -0.037619345
000100 fc 11 b9 bd 18 82 de 3e 13 92 4e 3e 05 0b 23 bd
       -0.09036633 0.4345863 0.2017291 -0.03980543
000110 77 33 80 3e ec ca aa bc 4c 93 d4 bd 45 8a 10 bd
       0.25039265 -0.020848714 -0.10379657 -0.035288114
000120 e2 53 21 be 1a 7c 85 3e 14 25 8b 3d 16 b8 5e bc
       -0.15754655 0.26071244 0.067941815 -0.013593694
000130 41 50 4f bc 45 a7 ec bd c4 a4 30 be d7 8a ab bd
       -0.012653411 -0.11555342 -0.17250353 -0.08376091
000140 b1 38 7d 3e e8 bf 57 bc ca 1d ad 3d 94 a3 b9 bd
       0.24728657 -0.013168313 0.084529474 -0.09064403
000150 d4 65 bd bc 50 d1 54 be 63 7d 0b 3e 1d 44 5a 3e
       -0.023119844 -0.20782971 0.1362205 0.21315046
000160 6f c2 d6 3d 43 36 70 3d 90 2f 2b bd fd 0b c6 3c
       0.10486304 0.058645498 -0.041793406 0.024175638
000170 3a e7 82 3e 68 ca 52 bd 35 dd 2c bd d1 32 3a bc
       0.25567037 -0.05146256 -0.042203147 -0.011364655
000180 36 2f 10 3b 9f 55 83 be c2 c0 4a be 96 2b e3 bd
       0.0022000796 -0.2565126 -0.19800094 -0.11092298
000190 b1 9c b5 be 10 c8 93 be de d5 f3 3d 74 13 5c be
       -0.3547111 -0.28863573 0.11906026 -0.21491796
0001a0 42 69 9d bd 47 7d 26 be a0 1d 0d 3e 9d f8 11 3d
       -0.07686092 -0.16258727 0.13780832 0.035637487
0001b0 a1 7b 56 be 13 96 5d bd 8b 99 20 be 0a 73 14 bd
       -0.20945598 -0.0540982 -0.15683572 -0.036242522
0001c0 2c f8 7b bd 6e 04 5c be 4e d1 b6 3d 0c 01 90 3d
       -0.061515972 -0.21486065 0.089266405 0.0703145
0001d0 81 b9 f7 3d 0f 4c b6 3d 09 1b d3 3d e0 c4 3d be
       0.12095929 0.08901226 0.10307891 -0.18532133
0001e0 25 da b2 3d 1e 81 97 be 1f d9 b8 bd a4 fd 29 be
       0.08733014 -0.29590696 -0.090257876 -0.16600662
0001f0 da c5 ca bd 65 7a 1f 3d 7f e2 07 be 93 bd 89 be
       -0.099010184 0.038935084 -0.13269995 -0.26902446
000200 02 7a fb bc b4 45 ef 3d a7 9e 8b bd db 22 0f be
       -0.030697826 0.11683217 -0.0681737 -0.1397814
000210 86 2e a2 bd 73 dc 4c 3e c9 e4 8a 3d 68 69 4b bd
       -0.0791903 0.2000597 0.067819186 -0.04966107
000220 fe b4 aa bd 03 38 62 3d c3 13 03 3d a3 60 18 be
       -0.08335303 0.0552292 0.032001268 -0.14880614
000230 1e 7f 1e 3c 58 88 29 3e 68 c2 5d bd ae 9e ad bd
       0.009673862 0.16555917 -0.05414048 -0.084775314
000240 9c d1 4f 3e 13 f2 c6 3c 36 bf 80 3d 2a 93 e1 bd
       0.20294803 0.024285352 0.062864706 -0.110143974
000250 d3 0c 4b 3e 39 fb 93 3d 45 2a 41 3e 06 54 0d be
       0.19829111 0.07225651 0.18863781 -0.13801584
000260 bc 7d bb 3d ae c7 98 bd 06 20 6f bd 8a 01 62 3d
       0.09154841 -0.07459961 -0.05838015 0.05517725
000270 da 4f a8 3c f7 6e 1d 3e e5 07 15 3e 71 20 e2 3d
       0.020545889 0.15374361 0.14553793 0.11041344
000280 10 a6 03 3e 27 65 0d bf 21 3f 88 be 77 88 e5 3c
       0.12856317 -0.5523247 -0.26610664 0.028019173
000290 6e c2 81 be dc d5 77 3d 69 9f 1c 3e bd 03 ad 3d
       -0.2534365 0.060506687 0.15295185 0.08447979
0002a0 eb f8 26 3c f7 5d 1c be 70 92 26 bb 9e 86 ee bd
       0.010191183 -0.1527022 -0.0025416873 -0.1164677
0002b0 bc d6 c2 3c 3d c9 de 3b 47 e7 17 3d c1 f3 fa bd
       0.023784034 0.006798892 0.037085798 -0.122535236
0002c0 21 4e 5d be 15 96 3d be 2a a3 fe bd 6a 5b 2d 3c
       -0.21611835 -0.18514283 -0.12433465 0.010580877
0002d0 8b 47 81 be 50 a7 a5 3c 45 f2 6e be 69 7b 17 3d
       -0.25249895 0.020221382 -0.23334606 0.036982927
0002e0 9d 14 89 be 28 c5 50 be 1e b2 31 3d b0 41 6f bd
       -0.2677354 -0.20387709 0.043382756 -0.058412254
0002f0 07 3c 6c be c9 fa ee bc 27 36 01 be 8d 2b d3 bd
       -0.23069774 -0.029172318 -0.12618314 -0.10311041
000300 92 c7 6c 3e a2 16 1e be 07 7c 12 be 4c 5a 1f 3e
       0.23123005 -0.15438321 -0.14305125 0.1556179
000310 28 9a e3 3b 4b a9 fa bd c1 39 7e 3d f8 1d 08 bd
       0.006945867 -0.12239321 0.062066797 -0.033231705
000320 0a bf 6c 3d 16 b7 03 bd d8 af 38 bd 92 a5 7d bc
       0.057799377 -0.032157026 -0.045089573 -0.01548137
000330 e8 15 02 bd ce 5c d8 bd 36 31 1b 3d 9b 6f 28 bc
       -0.031759173 -0.10564576 0.037888728 -0.010280515
000340 06 b9 85 bd 79 91 49 be a1 3d 3d 3e 6f 5b 4b 3e
       -0.06529431 -0.196844 0.18480541 0.19859098
000350 15 2e 4a bd 87 7c 0e 3e 1c 88 28 bd 2c b6 36 bb
       -0.049360353 0.13914691 -0.04114543 -0.002787958
000360 72 d4 fc bd 4e 20 9a bd 4c 63 f2 3b f4 b7 3c 3e
       -0.12345208 -0.07525693 0.007397091 0.18429548
000370 0d 5c c6 3d 4c 88 52 bc e4 f5 00 be 51 48 fd 3d
       0.09685526 -0.0128498785 -0.125938 0.12367309
000380 3c c3 e7 3c c9 cf 8e 3e 16 66 1d 3e 18 cc 3d be
       0.028291337 0.27892902 0.15370974 -0.18534887
000390 15 0b 44 bd 24 0c 70 3d ae a1 32 be 9c 76 03 3e
       -0.04786213 0.05860533 -0.17444488 0.12838215
0003a0 3c bf dc bd 08 55 9c bd 95 15 8e bd 4b e6 db 3d
       -0.107786626 -0.07633406 -0.0693771 0.10737284
0003b0 dc 5a 88 3e 81 bd 00 3e 2d 6d ba bc f8 05 ff bb
       0.2663182 0.1257229 -0.022757137 -0.007782694
0003c0 f9 37 0c be 3e a2 45 bd 81 fc 0e 3c 42 03 2b be
       -0.13693227 -0.04825043 0.008727194 -0.16700462
0003d0 7e 2e 9f 3d 35 1e 79 3d 4e 7d ad bb 54 c4 98 3d
       0.077725396 0.060819823 -0.0052944785 0.074593216
0003e0 59 0c 14 3e 28 46 4f 3e 29 cb 82 3d 4a 51 82 3e
       0.14457835 0.20241606 0.06386406 0.25452644
0003f0 43 a6 0f bd ce f0 3d 3e 3e f6 83 3d 04 57 cb 3c
       -0.03507067 0.18548891 0.06443451 0.024821766

embed.embed.2.bias f4 [32]
000000 8f 47 01 be 25 e6 e1 bd b0 17 43 bd c1 c7 d8 bd
       -0.12624954 -0.11030225 -0.047630012 -0.10584975
000010 fd 7f 5e bd 36 d2 de bc 41 ab 40 3e d6 a6 09 3e
       -0.054321278 -0.027199846 0.18815328 0.13442549
000020 a6 dd 88 bd c6 6e 41 be 57 67 2f 3d bd a4 9a bc
       -0.06682901 -0.18889913 0.042823162 -0.018877381
000030 35 e1 87 3d 35 83 2f 3e d1 0e 96 3d 34 20 43 3e
       0.06634752 0.17139895 0.07327045 0.19055253
000040 61 cf 8a 3d 12 f1 a8 ba f1 41 3f be 43 99 37 3e
       0.06777836 -0.0012889227 -0.18677498 0.17929558
000050 e2 21 66 3e 25 e8 9f bd 3f a8 ae bc d2 9e e0 3d
       0.22473863 -0.0780795 -0.02132046 0.109677926
000060 f2 f7 30 be d7 fc fb bd 27 6e 24 3d 0e a3 2c b9
       -0.17282084 -0.12304085 0.040144112 -0.00016463941
000070 39 90 b3 bc 77 c4 0b 3e 66 20 01 3a 2d 95 52 bd
       -0.021919357 0.13649164 0.0004925787 -0.051411796

input_proj.weight f4 [64, 32]
000000 97 1c 80 be 7e 0f 59 bd a1 0f ec bc ac f4 8f 3e
       -0.25021812 -0.05299329 -0.028816046 0.28116357
000010 3f 41 f2 3d d1 6e 06 be 8c 2a 18 3e 59 9b 3e be
       0.11828851 -0.1312821 0.1485998 -0.18613948
000020 4e ed 88 3d 3c 7c 1a 3e 3b 45 0b 3d 39 77 ee 3d
       0.06685887 0.15086454 0.03400157 0.11643834
000030 bf 9c d2 bd 04 b7 c9 3d 05 32 8d 3e 36 24 56 be
       -0.10283803 0.098493606 0.27577224 -0.20912251
000040 47 3f 5f 3e a6 9a 60 3e ec 00 20 be 62 e5 32 bd
       0.21801482 0.21933994 -0.15625352 -0.043675788
000050 55 54 ab bd 7c 53 a1 bb 5d c3 de 3d 79 00 2a 3e
       -0.083656944 -0.004923282 0.10877106 0.16601743
000060 c7 ab eb 3d 4f cb 9a 3d de e3 ea 3d 5e fa 94 3d
       0.11507373 0.07558309 0.114692435 0.07274316
000070 08 dd 67 3d 45 a0 10 be d9 e3 33 be d5 49 28 3d
       0.056607276 -0.14123638 -0.17567386 0.041086037
000080 52 94 2c be a8 8c a7 be 71 07 03 3e 6a e4 94 3e
       -0.16853455 -0.327245 0.12795807 0.29080516
000090 2a 03 36 be 99 6d 21 3e 62 fc 2c be ba 74 b3 be
       -0.17774644 0.15764464 -0.16893151 -0.35049993
0000a0 44 f4 6e 3d 0e c1 50 be 39 0d e3 be 4e 41 8e 3d
       0.05833842 -0.20386145 -0.44346026 0.0694605
0000b0 d0 8d d8 bd d2 b0 db 3d 58 61 89 3e b1 67 72 be
       -0.105739236 0.10727085 0.2683208 -0.23672368
0000c0 0d 8b 4e 3e 46 f2 9e bd 5e c4 cd bd 11 e6 79 be
       0.20170231 -0.07761054 -0.1004722 -0.2440417
0000d0 f4 f3 8c be 5a af 86 3d ec cc 31 3e 8d 2b 53 bd
       -0.2752987 0.065764144 0.17363328 -0.051555205
0000e0 e9 bf b1 bd 49 66 a5 3e 63 05 b5 be f3 39 58 3e
       -0.08679182 0.323046 -0.35355672 0.21115856
0000f0 6c da 97 be a9 ba 05 bd 84 8b 17 bd 8a eb 6b bd
       -0.2965883 -0.032648716 -0.036998287 -0.057597674
000100 47 a3 bc 3d 2f d5 d6 bd f1 b4 01 be 2b 47 89 3d
       0.0921083 -0.1048988 -0.1266668 0.06703027
000110 4d 49 fb 3c e7 8d f1 bd d4 b8 fb bd 32 ab e5 3d
       0.030674601 -0.11794644 -0.122911125 0.112142935
000120 3a ee af bd 42 47 d5 3d 40 57 f7 bd 31 2e 80 3d
       -0.0859036 0.10413982 -0.120771885 0.0625881
000130 64 08 5c be 4d 4e 9c 3d 40 86 af 3d be 5b 22 be
       -0.21487576 0.07632122 0.08570528 -0.1585531
000140 e7 36 48 3d f0 29 e2 3d 87 c8 0f 3d 33 0c 3d be
       0.048880484 0.11043155 0.035103347 -0.18461685
000150 f9 32 0e be 41 5c d2 bc 27 14 f0 3d c0 4d b8 3d
       -0.13886632 -0.025678756 0.11722594 0.08999205
000160 51 3a 26 3d 24 13 c4 3d 25 eb 5b bc 31 5e 79 3e
       0.04058296 0.09573963 -0.013422762 0.24352337
000170 bf 3e 8f 3d d0 97 f6 3d 91 af b1 bd d7 83 0b 3e
       0.0699439 0.12040675 -0.08676065 0.13624512
000180 f0 99 c6 bd e1 d4 14 bb b5 dd b1 3b 31 40 01 3e
       -0.0969733 -0.0022709894 0.005428041 0.12622143
000190 11 61 e5 3d 7b 78 66 3d 6c c6 d9 3d 33 7e e7 3d
       0.112001546 0.056267243 0.10633549 0.113033675
0001a0 9b 1f 29 3d 68 91 e2 3c f6 8b a9 3d e4 90 f9 3d
       0.041289907 0.027657226 0.082786486 0.12185839
0001b0 c0 a1 2d bd 99 9a 6e bd de 12 5e 3e e5 c1 6c bd
       -0.042390585 -0.058252905 0.21686885 -0.0578021
0001c0 6a 32 d1 3d a8 63 95 3d 07 90 d6 ba 68 22 b8 bd
       0.10214694 0.072943985 -0.0016369828 -0.089909375
0001d0 2d 86 d6 bd 32 73 21 3e 2f 86 c8 bc 41 ec 27 3e
       -0.10474811 0.157666 -0.024478046 0.16398717
0001e0 4a b3 60 bd e8 5f 95 bd 97 c0 2a be 90 86 4d 3e
       -0.054858483 -0.07293683 -0.1667503 0.20070863
0001f0 40 e1 09 bd 96 89 d0 3d cc fc 28 bd 82 4b 88 3d
       -0.03366208 0.101824924 -0.04125671 0.06655027
000200 c8 65 8f be db 2e 9f 3d 2f cb cf 3c 19 f1 97 bd
       -0.2800734 0.07772609 0.02536544 -0.074190326
000210 5d 75 c1 bd e0 3d 41 3e b9 6b c3 3d 11 d8 00 bd
       -0.094462134 0.1887126 0.09542031 -0.031456057
000220 c0 38 92 bd a8 45 4a bd 62 ea e4 bc 0c 47 40 3e
       -0.071397305 -0.049382836 -0.027943794 0.18777102
000230 38 6f 8d 3d 6f c4 00 bd 62 73 0e bd 20 cf 1e 3e
       0.06905979 -0.031437334 -0.034778006 0.155087
000240 b3 39 f0 3d c2 0b 96 bc d2 ba 41 bd 34 a6 3d bd
       0.11729755 -0.018316153 -0.047297306 -0.04630108
000250 d9 de 05 bd 56 5b 8f bd f5 8f 35 bc 8b 22 50 3e
       -0.032683227 -0.06999843 -0.011081685 0.20325677
000260 e7 5c 0e be 54 4e 9d bc 33 63 e9 3d 5d 60 5c be
       -0.13902627 -0.019202389 0.11395874 -0.21521135
000270 ef de 6c bd 49 0f 40 3e ac 6e 80 bd 63 42 21 3e
       -0.057829794 0.18755831 -0.06271109 0.15747981
000280 60 26 63 be 72 4f c8 3d c2 7d b5 3d b6 6c e6 3d
       -0.22182608 0.09780778 0.08861877 0.11251204
000290 27 4a a5 3d ea 7d f8 bd 40 1f b0 3d cb af 88 bc
       0.08070784 -0.12133391 0.085997105 -0.016685387
0002a0 76 7b da 3c e4 ad c7 bd f9 9d 52 3d 48 f4 49 3d
       0.026670199 -0.09749964 0.051420186 0.04930523
0002b0 f1 c9 5b 3d 19 cd 27 3d 74 99 26 3e 1a 73 f1 bc
       0.053659383 0.04096708 0.16269475 -0.02947383
0002c0 de 14 3a 3e f0 0c 02 be 29 e9 56 be b3 02 4a 3e
       0.18172023 -0.12700248 -0.20987381 0.19727592
0002d0 d8 24 eb bd dd 92 0a 3e 66 b3 9b 3b 06 1b 3c bd
       -0.11481637 0.13532586 0.0047516106 -0.04592421
0002e0 85 4c 99 3d ce 14 08 3c ef f9 4b bc 46 ee cf 3c
       0.07485298 0.0083057415 -0.0124497255 0.025382172
0002f0 e5 e1 47 bd ae 8f 1f 3e 1a 08 ba 3d 2e ef a0 3c
       -0.048799414 0.15582153 0.090835765 0.0196453
000300 75 ef 98 3d 89 d1 34 bd eb ac 9e bd 8c 18 d8 bd
       0.07467548 -0.04414514 -0.07747825 -0.10551557
000310 d6 03 1e be 57 84 e8 3c 56 4e 19 bd 0d d3 40 bd
       -0.15431151 0.028383417 -0.037428223 -0.047076274
000320 9d 4f 0f 3e f4 db 04 bd 6f dd 24 3d 32 ae f3 3b
       0.13995214 -0.032436326 0.040250238 0.007436537
000330 fc 69 59 3d 08 05 85 3e 95 77 29 3e e8 f9 cf 3d
       0.05307959 0.259804 0.16549523 0.10155088
000340 01 82 81 bc 15 77 c9 bb 81 0c 37 3e b6 a1 46 bd
       -0.015809061 -0.006148229 0.17875864 -0.048494063
000350 20 d5 92 3d 91 d0 04 be 5c 05 9d 3d 17 85 52 3d
       0.071695566 -0.12970187 0.07667038 0.051396456
000360 ac e1 38 3c 98 25 18 be 00 6e 43 3e 7b a5 48 bd
       0.011284273 -0.14858091 0.1908493 -0.04898594
000370 cc 82 2f 3d 66 44 4e 3e 9f 50 c8 bb 3c 87 e9 3d
       0.042849347 0.2014328 -0.0061131264 0.11402747
000380 7e c4 48 3e 20 84 86 3e 3b a4 e1 bd 49 86 9e 3d
       0.19606206 0.26272678 -0.110176526 0.077404566
000390 25 76 14 3d ca 96 03 be 92 8b 95 bd 36 a3 0e 3e
       0.036245484 -0.1285049 -0.073020115 0.13929448
0003a0 a0 fe 10 3e f1 ad 44 3e 51 e0 64 3e 2c 35 6e bd
       0.14159632 0.19206978 0.22351195 -0.058156177
0003b0 29 b0 0d 3e 95 7d 59 bd 9a a2 e7 bd 71 d0 9c bd
       0.13836731 -0.05309828 -0.11310311 -0.076569445
0003c0 a5 73 66 3d 7e 5f 58 be 51 b6 3b be d9 a5 9c 3c
       0.05626263 -0.21130177 -0.18331267 0.019122051
0003d0 f3 18 c5 3d 51 88 28 bd 55 f3 37 bd 42 de 40 be
       0.09623899 -0.041145626 -0.044909794 -0.18834785
0003e0 d4 b3 81 3e b9 c6 39 be 86 81 61 be 12 c3 47 3d
       0.2533251 -0.18142213 -0.22022066 0.048770018
0003f0 db 4a 82 3d 44 f9 d2 3c d7 de 82 bc 7d 84 11 bd
       0.06361934 0.025753625 -0.015975399 -0.03552674

input_proj.bias f4 [64]
000000 5c e8 20 3d 5d c0 aa be b0 7c a1 3d 22 98 ed 3d
       0.039284095 -0.33349887 0.078851104 0.11601283
000010 f1 83 e2 3d 7f f2 f8 bd 86 a7 6e 3d bc 48 1f be
       0.11060322 -0.121556275 0.05826523 -0.1555509
000020 5f 95 45 bd f9 b2 63 3d 81 20 98 bd c1 1b 08 3e
       -0.048238155 0.055590604 -0.07428075 0.13291837
000030 7c 6c 25 3e 65 e8 49 be b7 d2 cd 3d 7e 52 80 3d
       0.16154665 -0.19717558 0.10049956 0.06265734
000040 37 91 44 3e ee c1 88 3e d9 1d 74 bc 5a 47 c2 bd
       0.1919602 0.26710457 -0.014899694 -0.094862655
000050 33 8d c8 3d ad f4 a7 3c a4 4b da 3c b5 1e 03 be
       0.097925566 0.020502413 0.026647396 -0.12804683
000060 8b 80 48 3d e7 7d 15 3e 93 87 00 be 60 9f 29 be
       0.048950713 0.14598809 -0.12551717 -0.16564703
000070 91 0a 8f bd f5 cf 39 3e a0 61 a5 bd 3b 4d a4 3d
       -0.06984437 0.18145736 -0.08075261 0.08022543
000080 11 d2 ca 36 ac 88 a2 bd ae 19 90 3b 1f f5 8e be
       6.044524e-06 -0.07936224 0.0043975925 -0.27921388
000090 6d 98 dc bc 18 64 c0 3d 96 e9 2e be 83 b8 da bd
       -0.026928151 0.09394091 -0.17081293 -0.10679724
0000a0 16 b8 9e bc f5 b1 c6 bd eb 4b ae bd 3a 75 26 be
       -0.019374888 -0.09701911 -0.08510574 -0.16255656
0000b0 f9 ec 88 bd aa 5e 0d 3e 61 44 67 3c a8 a6 bb 3b
       -0.06685824 0.13805643 0.014115424 0.005726654
0000c0 5c 4c e9 bd 91 2c 6b 3c 1d c4 17 3e 73 2c dc 3d
       -0.113915175 0.014353887 0.14820905 0.107506655
0000d0 31 11 60 3d d4 72 bb ba 8d 81 e5 3c b4 65 18 be
       0.054703895 -0.0014301189 0.028015876 -0.14882547
0000e0 35 9f c3 bd d5 7c bf 3d 27 cb 0a 3e b5 76 e6 bd
       -0.09551851 0.09349982 0.13554059 -0.1125311
0000f0 55 7c 44 3d c5 61 95 bd 21 1e e6 3c a9 9b 7f bc
       0.047970135 -0.07294039 0.028090538 -0.015601077

msg_layers.0.W_self.weight f4 [64, 64]
000000 79 20 0a bd 45 47 29 be 0f 26 d1 bd fa 1f 38 be
       -0.033722375 -0.16531093 -0.10212337 -0.17980948
000010 bd a7 02 bd 8b 12 48 be 20 cc f1 3d 4c 25 45 be
       -0.03189825 -0.19538324 0.11806512 -0.19252509
000020 80 f4 32 3e 90 dd ce bd 26 d4 df bd 45 37 3f 3e
       0.17476082 -0.101008534 -0.10929136 0.18673427
000030 7b 66 e1 bd 6e 6c b4 bd 84 83 13 3e 3a 92 36 be
       -0.11005875 -0.08809744 0.14405638 -0.17829219
000040 e8 ee 17 3e 93 b0 17 3e bd a3 b3 3d 71 aa 8d bb
       0.14837229 0.14813451 0.08771465 -0.0043232967
000050 fd c6 fc ba 4c dd a7 bd 59 f5 1e 3e 61 aa 3b 3e
       -0.0019285377 -0.08196506 0.1552328 0.18326713
000060 b2 13 7d be 5e d4 a5 bd 74 3c 23 be d4 00 04 be
       -0.24714544 -0.080971465 -0.1594103 -0.12890941
000070 c0 e7 15 bc 50 68 01 3e 19 21 d3 bd 9b eb ce 3d
       -0.009149492 0.12637448 -0.10309047 0.10103532
000080 0e 67 27 3e d2 11 a0 bd 3d 63 21 be 68 8d b0 ba
       0.16347906 -0.07815899 -0.15760513 -0.0013469877
000090 fd 3b ed 3d e7 ec 81 3c 14 8e a8 bc df 16 39 3c
       0.115837075 0.015860034 -0.02057556 0.011296957
0000a0 d4 7e 80 3e 76 0d 88 bc 0c 81 55 3a 8f eb 31 be
       0.25096762 -0.016607981 0.00081445347 -0.17375015
0000b0 16 d7 ad 3c 4b 13 5c ba d6 c3 d5 3d 2b 8f d8 3d
       0.021220725 -0.0008395209 0.10437743 0.10574182
0000c0 10 97 19 be 3f 3b de 3c a9 4a fa 3d ac 94 c0 3a
       -0.14999032 0.02712786 0.122212715 0.0014692745
0000d0 6b ea b7 bd 52 4f b0 3d bd 31 8e bd b2 33 02 be
       -0.089802586 0.08608879 -0.069430806 -0.12715033
0000e0 0b 47 90 bc e0 05 3a 3d c0 df 15 bd 8f ff bd bd
       -0.017612 0.04541576 -0.036590338 -0.092772596
0000f0 28 4c 01 3e 14 f2 e8 bd 49 27 8c bd f2 03 ba bd
       0.12626708 -0.11374298 -0.068434305 -0.09082784
000100 d2 43 13 be 02 df 40 3e e5 b5 97 3d bf 73 4f bd
       -0.1438134 0.1883507 0.074077405 -0.050647493
000110 64 5b 68 3d 27 ed 9d 3d 52 f3 80 bd 73 14 70 3e
       0.056727782 0.07711249 -0.0629641 0.23445301
000120 d0 54 10 3e 76 73 cd bc bd 50 c7 3d 14 48 cb bd
       0.14094853 -0.02507947 0.097321965 -0.09925857
000130 1a f3 f7 bd e0 48 67 3e d7 56 eb 3d 53 e7 4c be
       -0.12106915 0.22586393 0.11491173 -0.20010118
000140 35 5f 22 be bc d2 7b bd 39 8d b0 bd be 35 db bc
       -0.15856631 -0.06148027 -0.08620686 -0.026759025
000150 51 b3 04 3e 8d 1b fd ba 88 a6 2f bd 55 f9 35 3e
       0.12959029 -0.0019310579 -0.042883426 0.17770894
000160 a1 4b 52 3e e2 ad 4b be 77 8a a9 bd 65 20 02 3e
       0.20536663 -0.1989055 -0.08278363 0.1270767
000170 c3 ff fc bc d0 b4 0f be 66 79 81 3e cd e2 3c be
       -0.030883675 -0.14033818 0.25287932 -0.18445893
000180 05 69 aa 3d c1 ff 97 3d 5b 2b 4e bd c2 fb dd 3d
       0.08320812 0.07421828 -0.050334316 0.108390346
000190 88 8f c3 bc 44 ed 19 3d 92 95 2a 3e 31 2e 09 3d
       -0.023872152 0.03757979 0.16658619 0.033491317
0001a0 0b 6d 13 bd 5d 13 f9 3d 53 3d fc 3c 72 71 4d 3e
       -0.035992663 0.121618964 0.03079096 0.20062807
0001b0 2c af 06 bd c4 11 69 3d 2d 45 13 bd cd 4d 80 3d
       -0.0328819 0.05690171 -0.035954643 0.06264839
0001c0 43 4c c6 ba d2 d7 51 3e d7 04 12 be 66 3d 82 bd
       -0.0015128929 0.20492485 -0.14259659 -0.06359367
0001d0 94 15 f0 bd 89 4b e8 3d e4 e1 e2 3d 03 c1 af 3d
       -0.11722866 0.11342532 0.110782415 0.08581736
0001e0 1d 60 7d 3e 27 62 50 bb d3 4b 4f bd 97 39 06 3e
       0.24743696 -0.0031796785 -0.05060942 0.13107906
0001f0 d0 31 12 be 45 4e b5 3d ba 3d 77 be ee 4b f8 3d
       -0.14276814 0.08852819 -0.2414464 0.121238574
000200 cb ba 58 3e 77 38 4d 3e 73 18 12 3e e6 82 62 3e
       0.21165006 0.20041071 0.14267139 0.22120246
000210 8a 55 0d 3e bc f8 06 3e b4 28 69 be cd 0f 4c bd
       0.13802162 0.13180822 -0.22769433 -0.049819756
000220 f7 80 35 bd 08 ec d6 3d 91 14 05 3e e0 95 3e be
       -0.044312444 0.10494238 0.12996127 -0.1861186
000230 80 73 e2 3d b3 f9 51 3e c2 1c f4 bd 3f 34 a6 3d
       0.11057186 0.20505409 -0.119195476 0.08115434
000240 84 e5 c2 bd f7 42 3b be ad ab c1 bd b4 d5 04 3e
       -0.09516433 -0.18287264 -0.09456573 0.12972146
000250 61 52 47 3e 11 cf 04 3e cb e0 37 bd b7 ec 4f bd
       0.19465019 0.12969615 -0.044892114 -0.05076286
000260 83 a2 1b 3e ed 16 c2 3d 67 86 17 3e 70 04 b7 3c
       0.15198712 0.09477029 0.14797364 0.022340983
000270 fc 8b 2f 3e a0 9c 04 be ac 1b 9f bd b7 af 49 be
       0.17143244 -0.12950373 -0.0776895 -0.19695936
000280 77 c8 6b be 0d ce bc bd 22 52 7c 3e da dc 2b ba
       -0.2302569 -0.092189886 0.24640706 -0.0006556042
000290 e1 02 09 be a7 af e1 3c 43 23 83 3d 62 4e 59 3c
       -0.13380004 0.027549578 0.0640321 0.013263317
0002a0 a0 da f8 bd b0 5a a4 bd fc 8a 39 bd 01 2a a3 bd
       -0.121510744 -0.0802511 -0.04529856 -0.07966996
0002b0 bf 3a 24 be 41 a6 0a be 42 49 bd bc d1 89 ed 3c
       -0.16038035 -0.13539983 -0.023106221 0.02899638
0002c0 14 31 1b 3e 92 e1 d2 3d 44 3f b9 bd ed f1 ab bd
       0.1515544 0.102969304 -0.0904527 -0.08395753
0002d0 21 4a 75 bd 32 f2 19 3e 39 49 3d be 6b af 21 bb
       -0.059885148 0.15033796 -0.18484963 -0.0024671208
0002e0 13 bb a7 3d 1a 6f 71 3c ff dc 24 bc dc f9 a1 bd
       0.081899785 0.014735961 -0.010062455 -0.07908985
0002f0 3e d0 7e be 4f 04 19 bd 74 e6 26 3e db e3 18 be
       -0.24884126 -0.037357625 0.16298848 -0.1493067
000300 4b 32 a5 3d 5b d6 17 3a de d1 ab bc 30 7c 49 bd
       0.08066233 0.00057921343 -0.020974096 -0.0491907
000310 26 36 e0 3d 9e c9 01 be c2 03 90 3d a5 cb ef bd
       0.10947828 -0.12674567 0.07031967 -0.11708764
000320 19 27 e9 bc 4a 2e e6 3d 14 01 d9 bd 81 38 81 bd
       -0.028461026 0.11239298 -0.10595909 -0.063096054
000330 29 b0 2b 3e 34 65 9e 3d 0e 70 92 bc 1b 4e db 3d
       0.16766419 0.07734147 -0.017875697 0.10708257
000340 57 50 be bc b6 ed fa 3d 37 b0 29 bc 31 60 32 3d
       -0.023231668 0.12252371 -0.010356954 0.043548767
000350 e2 3e 38 bd 52 ea 09 bd 09 bf a9 3d c1 c0 1f 3d
       -0.044981845 -0.03367073 0.0828839 0.039002184
000360 91 28 c8 3d d5 c5 32 3e df 78 a3 bd 55 91 ad bc
       0.097733624 0.1745828 -0.07982039 -0.021187464
000370 75 1a ee bc 85 8b 27 3e fe 66 10 be 51 94 10 3e
       -0.02906535 0.16361816 -0.14101788 0.14119078
000380 fb 3b 9d 3d cc 37 87 3d 38 68 09 3e 42 7f 18 3c
       0.07677456 0.06602439 0.13418663 0.009307684
000390 d1 c6 bf bc 87 23 f1 bd 90 12 6c bd b8 9f 1f be
       -0.023410233 -0.117743544 -0.05763489 -0.15588272
0003a0 e5 88 31 3d 38 4c b4 bd ee 50 ff 3c 64 23 39 bd
       0.043343443 -0.088036 0.03116652 -0.045199767
0003b0 d3 b8 4a bc 2d 3c 32 ba 57 8c da bc 20 32 19 bd
       -0.012373167 -0.0006799128 -0.026678247 -0.03740132
0003c0 f7 7f c5 bd 8a d4 dc bc cf 88 81 3d 22 4f 95 3c
       -0.09643548 -0.026956815 0.06324922 0.01822621
0003d0 b3 e1 60 bd 4f 6b d7 bc f2 7b 85 ba b4 1a bd bc
       -0.054902744 -0.026296286 -0.0010184033 -0.023084022
0003e0 e2 12 1b be 17 47 3c bd 0a 46 22 3d f5 0b 2d bd
       -0.15143922 -0.045966234 0.039617576 -0.04224773
0003f0 47 75 12 3d 2d bb 62 3d 80 28 b7 3d 57 70 9b 3d
       0.035756376 0.055354286 0.08943272 0.075897865

msg_layers.0.W_self.bias f4 [64]
000000 12 43 50 bd 11 7f 99 3c d0 95 08 bc fe f2 9c 3c
       -0.050845213 0.018737348 -0.008336499 0.019158836
000010 5a eb 00 bd 19 4f a3 bd 80 44 56 bc 41 1f 3d bd
       -0.03147445 -0.07974071 -0.013077855 -0.046172384
000020 d5 48 a8 3d eb 13 d5 bd 04 e2 c0 3b a2 96 9f bc
       0.082170166 -0.1040419 0.005886318 -0.019481007
000030 42 33 86 bc 8d 00 12 be e3 ba 2e 3b e6 c8 a0 3d
       -0.016381864 -0.14258023 0.0026661686 0.07850818
000040 ab d4 3c 3d 01 b8 9d 3e 9a d1 1a 3e fd 9c 24 bc
       0.046101253 0.30804446 0.15119019 -0.010047195
000050 96 9c d8 3d e1 c5 85 bd fd ab 16 3e e2 8c 33 3e
       0.105767414 -0.06531883 0.14714046 0.17534211
000060 3b 61 9a bd 87 4d 40 bd af 6c 8b bd 16 a9 da 3d
       -0.075380765 -0.046948936 -0.06807839 0.10676782
000070 67 b4 ca bd 00 56 18 be 2f 2e 90 bd 34 a4 62 3d
       -0.0989769 -0.14876556 -0.07040059 0.055332378
000080 96 8a 1d be f2 88 2d bb 65 9d bd 3b 28 ff d0 3d
       -0.15384898 -0.002647933 0.005786585 0.10204917
000090 8d 02 fd 3c 07 6e a6 bd a6 79 99 bd bf 74 84 bd
       0.030885005 -0.08126455 -0.07493906 -0.0646758
0000a0 e1 12 2d 3e 3a 9d 7e bd 61 9d 39 3d 19 ff 86 3d
       0.16901733 -0.06216166 0.045316104 0.06591625
0000b0 96 c5 c5 3d d8 98 64 3e a3 3d 12 3c dc a5 22 3e
       0.09656827 0.2232393 0.008925828 0.15883583
0000c0 2f 04 ba bc 07 14 5d bd 24 8c 10 be ee 4e c9 3d
       -0.022707073 -0.053974178 -0.1411596 0.09829508
0000d0 b7 f9 b1 bd 5d 69 a2 3d 5c 08 3b 3d 77 57 1a bd
       -0.086902075 0.07930253 0.04566227 -0.03768107
0000e0 39 91 dd 3c 7f 31 ea 3d c5 96 ee 3d 0c 2b a8 3b
       0.027046787 0.11435222 0.11649851 0.0051320847
0000f0 d5 40 b3 bd 8c a6 8a bd 64 1c 22 be 8f ea 4b bd
       -0.087526 -0.067700475 -0.15831143 -0.04978424

msg_layers.0.W_msg.weight f4 [64, 64]
000000 1a 00 05 3e fb a3 45 3e 26 73 1e 3d ea e4 b0 3d
       0.1298832 0.19300835 0.038684033 0.08637412
000010 11 82 45 3e 58 65 aa bd 04 99 d6 3c 34 a1 da bd
       0.19287898 -0.08320111 0.02619601 -0.10675278
000020 9b ba e2 bc a2 9a 65 3d 48 04 58 3e be da 75 bd
       -0.027676871 0.056055672 0.21095383 -0.060023062
000030 9b 46 1a 3e 14 dd c7 bd 7e 3d 23 bd a0 6d 99 3e
       0.15065996 -0.09758964 -0.039853565 0.2996645
000040 bf 72 4c 3e a3 b0 b9 3d f1 a9 d9 bc 03 68 13 3e
       0.19965647 0.09066894 -0.026570292 0.14395146
000050 d2 49 98 3d 08 1f 92 bd 20 53 47 3d b6 da 16 3c
       0.07435955 -0.07134825 0.04866326 0.009207418
000060 fb 39 e8 bd 5a c1 89 3e 03 30 05 3e d2 37 bb bd
       -0.11339184 0.26905328 0.13006596 -0.09141506
000070 52 f9 13 3e 85 9d 4e 3c 4e c2 70 bd e2 3a d5 bd
       0.14450577 0.012610798 -0.058779053 -0.10411622
000080 f0 14 05 3c c7 eb e9 bd 08 55 e3 3c 5f 81 1b 3d
       0.008122668 -0.11421924 0.027750507 0.037965175
000090 6b 45 aa bc de cc 08 bb d9 1a 3a be 16 08 45 3d
       -0.020785054 -0.0020874063 -0.18174304 0.048103414
0000a0 fa 73 d6 b9 cc 2c 8e bd 11 de 8a bd d1 43 ab bd
       -0.0004090367 -0.06942138 -0.06780637 -0.08362544
0000b0 30 a2 4a 3d 1e b5 c8 bb 27 8d 84 bd 4e 73 ad bd
       0.04947108 -0.0061251065 -0.06472235 -0.08469258
0000c0 ed 43 6f bc 04 a7 b0 bd 05 5b 7a 3d c4 37 40 3c
       -0.014603597 -0.08625606 0.06112196 0.011732046
0000d0 ec ef bf bb 01 af 30 3d 60 62 16 be 89 45 a3 bd
       -0.0058574583 0.043135647 -0.14685965 -0.07972247
0000e0 26 a0 a9 bc c9 2f fb 3d d5 13 ad bd da 5e 71 3d
       -0.020706248 0.12264974 -0.08451048 0.058928348
0000f0 de 4c e6 3b 27 58 01 3d ec 44 a0 3d cd ce 13 bc
       0.0070282063 0.03157821 0.07825646 -0.009021473
000100 f0 d8 ed bb c4 5f c8 3c 81 4d e0 bd 65 cd 3d be
       -0.007258527 0.024459727 -0.10952283 -0.18535383
000110 0d 7e ce bd 86 d6 a1 3d 1c 3b 0c bd 84 0c 93 bd
       -0.10082636 0.07902245 -0.03423606 -0.071801215
000120 3b ea 01 3e 0c 68 dc bd 5f e3 12 3d 56 19 ff 3d
       0.12687008 -0.10762033 0.03586137 0.12456004
000130 aa 3a b4 bb 24 2a cb 3d a5 b9 38 bd 77 cc d5 bd
       -0.0055001574 0.09920147 -0.04509892 -0.10439389
000140 63 9e ed bc 44 66 5f bd 49 9f 95 bd 6b 6f fe bd
       -0.029006189 -0.054540887 -0.07305772 -0.12423595
000150 ee 3d 60 bd 53 46 08 3d 54 4e fd 3c 95 8a ce bd
       -0.05474656 0.03327019 0.030921139 -0.10085026
000160 04 e7 0b bd c5 c3 1f 3d 25 af 1f 3d 25 da a5 3d
       -0.03415586 0.03900506 0.03898539 0.080982484
000170 96 b8 3f 3d 8a 01 76 bd 27 a5 c5 bd a5 95 70 3d
       0.046806894 -0.06006006 -0.09650641 0.058736462
000180 e6 5d cd bd a3 8c 4d 3c d8 a6 30 bb ac 5b 26 be
       -0.10027675 0.012545737 -0.0026954915 -0.16245908
000190 71 c5 c9 bd 2c 76 5a bd 7c 5e 91 bc d1 86 dd 3c
       -0.09852112 -0.053335354 -0.017745249 0.027041825
0001a0 e4 32 14 be c7 fd 0d bb b3 a0 86 3c 79 bf 9a 3c
       -0.14472538 -0.0021666156 0.01643405 0.01889013
0001b0 37 73 bf bc c9 a8 f4 bd 8b d9 03 bd 03 be 48 be
       -0.023370368 -0.11946256 -0.032189887 -0.19603734
0001c0 ae f1 01 bc dd 4e bc bd d0 62 0f bd a6 a4 92 3c
       -0.007931156 -0.091947295 -0.035006344 0.017900776
0001d0 98 72 22 3c 4f 15 e1 bc 35 fb 28 3d 8d 31 b3 bd
       0.009915017 -0.027475981 0.041255195 -0.087496854
0001e0 15 db 1d bd 6e 72 10 3e 85 98 19 bd 62 0b 0e bd
       -0.03853901 0.14106151 -0.03749897 -0.034678824
0001f0 56 b5 31 3d 2f de d7 3d 6c d9 4a 3d 29 1d b7 3c
       0.043385826 0.10540425 0.049523756 0.022352772
000200 56 d7 6e 3d 03 7a 91 bd 77 d5 0f 3a 19 d0 e6 3c
       0.05831083 -0.0710335 0.0005486826 0.0281754
000210 1a 6a 23 3e de fc bf 3c f4 50 5c bd 7e ee fd bd
       0.15958443 0.023436006 -0.05378814 -0.123990044
000220 47 7a 70 bd ee f1 96 bc 4c 7c b7 3d 9c d6 ba 3d
       -0.058710363 -0.018425908 0.089592546 0.09122965
000230 20 fa b9 3d 4f 42 76 bb 11 45 00 bd 18 49 4b 3e
       0.09080911 -0.0037576144 -0.031315867 0.19852102
000240 1d d9 0c 3e 12 ab 02 3e 9f 6e 2d bd 17 49 4e 3c
       0.13754697 0.1276057 -0.042341825 0.012590668
000250 98 98 fb 3c 56 3f 73 3d 58 48 bf bc 68 9e 92 bd
       0.03071241 0.059386574 -0.023349926 -0.0715912
000260 a3 e3 03 be 42 9b 3a 3e f6 43 c4 3d 4c 52 de bd
       -0.12879805 0.18223289 0.09583275 -0.10855541
000270 1a 81 ef 3d 5c ae 4c 3d ca 8a 8d 3d 31 aa c5 bc
       0.11694546 0.04997097 0.069112375 -0.024129005
000280 44 95 95 bd ea c2 dd bd 35 4d 23 bd fe a6 05 bd
       -0.07303861 -0.108281925 -0.039868552 -0.03262996
000290 f7 84 fa bc 1a 4e 2f bd 0a 79 f9 3b 3f 22 8f 3b
       -0.03058098 -0.042799093 0.007613306 0.004368096
0002a0 2d 04 54 3d 82 82 52 bd 46 fd c2 bd d9 0b bc bd
       0.051761795 -0.051393993 -0.09520964 -0.09181947
0002b0 4d 37 b3 bd b3 07 f5 bc 64 b4 d8 3d c0 b6 c5 bc
       -0.08750782 -0.029910898 0.10581282 -0.024134994
0002c0 74 c3 c4 3d e5 f2 df bd d3 76 6b bd fb f8 02 3e
       0.09607592 -0.10935 -0.057486366 0.12790291
0002d0 65 7b 3a 3d 95 a5 97 b9 48 a8 e5 3d 59 a6 91 bd
       0.045527834 -0.00028924333 0.11213738 -0.071118064
0002e0 60 44 c5 3d d1 2c 10 3d f9 79 eb 3d aa e3 ec bd
       0.09632182 0.03519899 0.11497874 -0.11566861
0002f0 9a 9f bd 3d 07 1c 72 3d 67 07 85 3b c7 90 c4 bc
       0.09258957 0.05910876 0.0040597203 -0.023994816
000300 5d 2f 09 bd 30 c1 52 3c cb 6f 87 bd bb 18 2d 3e
       -0.033492435 0.012863442 -0.0661312 0.16903965
000310 d6 c2 e8 3d b7 b1 a7 bd 86 fd 80 bd f2 93 b1 bd
       0.11365287 -0.08188193 -0.06298356 -0.086707965
000320 58 87 0a bd 7e 53 3f 3e ec 7d b0 bd 19 78 b0 bd
       -0.03382048 0.18684193 -0.08617768 -0.08616657
000330 35 4d 79 3d a1 fd 6b 3d 58 f5 30 bd ec bd be b4
       0.060864646 0.057614926 -0.043202728 -3.5528444e-07
000340 1a 22 37 bd 0c 90 de 3d 3b 67 4f 3d 94 b2 a5 3d
       -0.044710256 0.108673185 0.050635558 0.08090702
000350 47 83 9b 3c f8 87 a3 3d f5 d2 bf 3d de 87 ff bd
       0.018983496 0.07984918 0.09366409 -0.124770865
000360 1c 0d 4f 3e 41 8d f4 3d 7e 6e c0 3d 86 f0 39 3e
       0.20219845 0.119410045 0.09396075 0.18158159
000370 74 03 25 3e f4 2c e5 bd 64 ef 15 be 01 bf a9 3c
       0.16114599 -0.11190215 -0.14642102 0.02072096
000380 0d 15 2c be 18 d3 ac 3d ca a6 1c 3e 8d c2 6f bd
       -0.16804905 0.084387004 0.15298 -0.058535147
000390 bb ea 3b be 86 07 58 3d d6 c4 c6 3d 24 a6 23 bd
       -0.18351261 0.05274155 0.09705512 -0.039953366
0003a0 18 a1 6a 3d 16 62 cd 3d 57 bc 35 bd 4d 4f 8f 3d
       0.057282537 0.10028474 -0.044369068 0.06997547
0003b0 54 69 29 3d 88 0c 36 be 00 ab 03 be 69 c5 d3 3c
       0.041360214 -0.17778218 -0.128582 0.025850968
0003c0 ba 6f 0d 3e 6e 9a 06 3d 6a 3e 8d 3d 73 eb bb 3d
       0.13812152 0.03286212 0.0689667 0.09175768
0003d0 0d 0e 16 be c9 a2 96 bc 00 22 01 be 2e 10 4d bd
       -0.14653797 -0.018388169 -0.12610626 -0.05006426
0003e0 b3 bf b4 bd d0 27 16 be 6a 8c e5 bd 8b f3 d9 bd
       -0.08825626 -0.14663625 -0.112084225 -0.10642155
0003f0 82 7f 1f be d5 48 1a 3e 94 ed 0d 3e 53 3c 87 bd
       -0.15575984 0.15066846 0.1386016 -0.06603303

msg_layers.0.W_msg.bias f4 [64]
000000 ad eb 52 bc 6e e1 d0 3d 71 1d 3c 3c 05 e9 e4 bc
       -0.012873572 0.10199247 0.011481629 -0.027943144
000010 43 ab d5 3d 47 c7 e4 3d 13 d2 a7 bd 3a 97 38 be
       0.10433056 0.11170822 -0.08194365 -0.18026438
000020 f4 0d 1a bd 95 23 b0 3d 7c 4a 2d bd 95 45 2a be
       -0.037610963 0.08600537 -0.042307362 -0.16628106
000030 61 73 3a bc 7c 9e d5 3d 80 da d0 3d 10 ea 9a bd
       -0.011380048 0.10430619 0.101979256 -0.07564175
000040 d2 2c 2f be ee 65 09 be 44 ae 78 bc 23 3f 67 bc
       -0.17106941 -0.1341779 -0.015178267 -0.014114174
000050 0e 3b a7 3d 61 46 e0 bd a7 55 e1 bc 1e ec 0b be
       0.08165561 -0.10950924 -0.027506663 -0.1366429
000060 b2 52 37 be 8c 8c c6 bd 49 a1 32 bd 0c b9 30 bd
       -0.1790264 -0.09694776 -0.043610845 -0.043145224
000070 3f 07 6e 3b 55 05 b5 3d 3b b8 96 bd c0 1c 9a bb
       0.0036320237 0.08838908 -0.07359358 -0.0047031343
000080 a9 34 3b bd 8c 01 24 3e 28 9b 18 be 39 07 ac bd
       -0.045704518 0.16016215 -0.14902937 -0.08399815
000090 c8 46 5e 3d eb 07 97 3d f5 c8 8b bc 14 7b a1 bc
       0.05426672 0.07374557 -0.017063597 -0.019712009
0000a0 f0 dc 8f 3d d8 6b 00 3e 78 25 ff bb 1a 8c fa 3c
       0.07024562 0.12541139 -0.007786449 0.030584384
0000b0 e6 af 97 bd f3 4e f0 bd 28 a8 c1 bc 53 73 da 3d
       -0.07406597 -0.11733808 -0.023639753 0.106665276
0000c0 9c 6f da bd d9 e4 eb bd a6 68 b6 3c 2f bc 49 be
       -0.10665819 -0.115182586 0.022266697 -0.19700693
0000d0 44 ff d4 bd 4e ca d8 bc 95 07 46 3d 23 78 17 be
       -0.104002506 -0.026463654 0.048347075 -0.14791922
0000e0 7f 20 c4 bd 73 20 dd bd f7 0b 6d 3e f7 df e0 3d
       -0.09576511 -0.10797205 0.23149095 0.10980218
0000f0 29 eb 2f 3e d7 aa 9e bc 39 73 8f 3c af a0 90 3d
       0.1717955 -0.019368572 0.017510997 0.07061898

msg_layers.0.norm.weight f4 [64]
000000 6f fd 69 3f 5f 97 9c 3f 88 e4 74 3f 45 23 7c 3f
       0.91402334 1.2233695 0.9566121 0.9849132
000010 22 4d 5c 3f c5 ed 57 3f a0 d4 31 3f 4a 8a 69 3f
       0.86055195 0.8434718 0.69465065 0.9122664
000020 c0 f1 4e 3f ac c0 6f 3f 5b 3e 88 3f b2 d0 8e 3f
       0.8083763 0.9365337 1.0644029 1.1157439
000030 21 aa 7e 3f e0 8e 95 3f 83 93 71 3f f6 45 94 3f
       0.99478346 1.1684227 0.9436571 1.158385
000040 81 f6 87 3f 00 c7 96 3f 18 01 62 3f 74 15 68 3f
       1.0622102 1.177948 0.8828292 0.90657735
000050 61 32 84 3f cd 8d 7b 3f f6 b7 8d 3f fd a7 85 3f
       1.0327874 0.98263246 1.1071765 1.0441891
000060 89 ec 6a 3f 77 6f 90 3f 43 88 4a 3f 02 3c 87 3f
       0.91767174 1.1284016 0.7911417 1.0565188
000070 b1 68 83 3f af d9 5a 3f 21 f8 6d 3f dc c7 7e 3f
       1.0266324 0.8548841 0.9295674 0.9952371
000080 96 bb 88 3f 7e ed 83 3f 38 e3 82 3f 21 69 8d 3f
       1.0682247 1.0306852 1.0225592 1.1047708
000090 76 6b 7c 3f 10 36 52 3f e3 d6 7f 3f 36 75 69 3f
       0.9860147 0.8211374 0.99937266 0.91194475
0000a0 21 c8 73 3f 49 fb 8c 3f 9f 59 64 3f ce eb 7e 3f
       0.9522725 1.1014186 0.8919925 0.9957856
0000b0 88 f5 5c 3f 67 b3 91 3f fd 33 82 3f e8 72 76 3f
       0.8631215 1.1382874 1.0172116 0.96269083
0000c0 35 e8 5e 3f 30 35 71 3f 5d 2f 82 3f d5 b6 80 3f
       0.8707307 0.9422178 1.0170704 1.0055796
0000d0 a4 c2 7d 3f 7d 80 8a 3f 24 98 87 3f 84 dd 7d 3f
       0.99125123 1.0820462 1.0593305 0.9916613
0000e0 ef 77 71 3f ce 8e 82 3f 81 62 7e 3f 64 e0 48 3f
       0.9432363 1.019983 0.99369055 0.7846739
0000f0 6a 19 83 3f 65 8c 61 3f 4e cc 58 3f a8 4c 80 3f
       1.0242131 0.8810485 0.84686744 1.0023394

msg_layers.0.norm.bias f4 [64]
000000 cb 99 38 bd 41 c6 0f be 31 c5 25 bd 3d df 05 bc
       -0.045068543 -0.14040472 -0.04047126 -0.0081709
000010 42 85 11 3e a7 49 cc 3d 3b 39 95 3d 8b 54 6c 3d
       0.1421099 0.099749856 0.072863065 0.057697814
000020 50 8a 0f 3e e9 02 62 3d 45 22 e2 bd d7 4a 6b bd
       0.14017606 0.055178557 -0.11041693 -0.05744442
000030 2b 2d fc bc be 32 a0 3c c8 53 bd 3d e2 d2 22 3d
       -0.030783257 0.019555446 0.09244496 0.039751895
000040 b7 76 d1 3c 2f e2 50 bd e3 e0 0f bc 47 3f 32 3d
       0.025569303 -0.050996955 -0.0087816445 0.043517377
000050 a0 0f 5b bd 4a 0d 18 3c 3e b1 0f bd 4f d2 34 bd
       -0.053481698 0.009280512 -0.03508114 -0.04414588
000060 b6 86 9d bd 58 86 d9 bb 7e b1 39 3e ec 06 79 3b
       -0.0769171 -0.0066383295 0.18134114 0.003799851
000070 5d 58 1b bc f6 e1 21 bd 2e a6 13 3d 98 71 f4 bc
       -0.009481517 -0.039522134 0.036047153 -0.029839322
000080 c4 13 aa bd 55 dc 2a 3c 82 40 14 3e fb 35 05 be
       -0.08304551 0.010428508 0.14477733 -0.13008873
000090 b4 0b ed 3c 06 79 73 bd 6e 38 f5 bc 1f bc f0 bc
       0.028936245 -0.05944159 -0.029934134 -0.029386578
0000a0 13 4f e0 3c af e5 48 bc 51 85 ee 3c 85 81 56 bd
       0.027381456 -0.012261792 0.029116305 -0.052369613
0000b0 d4 bd 38 3d 4f ff 4d 3c 1b 43 40 bd 8f e5 69 3d
       0.04510291 0.012573077 -0.046938997 0.05710369
0000c0 af 6f 34 3c 82 e8 bf 3c c9 b3 ea 3c 03 da ef bc
       0.011012956 0.023426298 0.028650181 -0.02927876
0000d0 c8 5e bc bc 0b 81 a0 bd 8f d6 70 bd 9a 0b 1f bd
       -0.022994414 -0.07837113 -0.05879837 -0.038829423
0000e0 82 6d 62 3d 26 8d 5b bc d0 a8 43 bd 40 9f f7 ba
       0.055280216 -0.013400352 -0.047768414 -0.0018892065
0000f0 19 5e 12 3e 6e 24 a4 3d b9 13 f5 bb 15 9e 4a bd
       0.14293708 0.08014761 -0.0074791578 -0.049467165

msg_layers.1.W_self.weight f4 [64, 64]
000000 fb 4e 8d bd e1 ce f4 3d 11 6b 84 3d 12 c0 2d 3e
       -0.0689983 0.119535215 0.06465734 0.169678
000010 5a 58 17 3e 20 43 15 3d 45 eb 3d 3d 0d 58 de 3d
       0.14779797 0.03644097 0.04636695 0.10856638
000020 91 a2 0d be 35 39 3a 3e 5f 12 16 3e 3d bf db bd
       -0.13831545 0.18185885 0.14655446 -0.10729835
000030 28 3d 78 3d 37 c7 13 3e 50 46 12 3d d2 05 0d 3c
       0.0606052 0.14431463 0.035711586 0.008607345
000040 eb 37 be bc dc ed 53 bd 8c af 06 3e 17 c4 d4 3d
       -0.023220023 -0.051740512 0.13152903 0.10388964
000050 97 7a d2 3d f3 21 3d 3e f6 db 2c 3d e1 79 e9 3d
       0.102772884 0.18469982 0.04220196 0.114002
000060 b2 4d 9c 3d de f9 db bd 3a d7 35 3e 56 98 3e 3e
       0.07632007 -0.10741018 0.17757884 0.18612799
000070 66 7c 17 3e ac 39 e4 3d 91 7c 7f 3d f2 1e 43 bd
       0.14793548 0.111438125 0.062374655 -0.047636934
000080 3b e4 e0 bc 7c 6c ab 3d e9 b7 2b 3d 58 10 f5 3d
       -0.027452579 0.08370301 0.041923437 0.11966008
000090 d6 64 24 be a3 d8 6a bd e3 af 85 bd cc 30 5c 3b
       -0.16054091 -0.057335507 -0.06527688 0.003359842
0000a0 fc b6 50 be e7 4f 95 3c 5d 8f 11 3e 9f 6d a6 3d
       -0.20382303 0.018226577 0.14214845 0.08126377
0000b0 83 11 f7 3c 46 e4 4d bd df 97 fe 3d 5b ae ca 3b
       0.030159717 -0.050266527 0.12431311 0.0061853356
0000c0 84 68 b8 bc a5 1a 36 be ee 5b 4a 3c 2a 40 df 3c
       -0.022510774 -0.17783602 0.012351019 0.027252275
0000d0 e8 0c 0e be d2 d3 0b be df c0 4e be d8 88 44 bd
       -0.13872111 -0.13655022 -0.20190762 -0.047982067
0000e0 7d 0e 16 bd fd 57 65 be b8 d6 91 bd 74 4d f6 3d
       -0.03663491 -0.22396846 -0.071210325 0.12026492
0000f0 44 b3 ad 3c 6a 21 04 3d 62 9d 9c 3d 99 e4 78 be
       0.021203645 0.03225843 0.07647206 -0.24305953
000100 26 af 04 be 62 f0 fd bd 6f cb f2 bd 7d 8b 8c 3d
       -0.12957439 -0.12399365 -0.11855208 0.06862543
000110 46 10 1c 3c 66 35 b3 3b ec 58 11 3a c5 4b e3 3d
       0.009525364 0.005469012 0.00055445614 0.11098436
000120 b9 42 2b 3e 0a 10 6d 3d 6f 0f dd 3d d7 fa ab bd
       0.16724671 0.057876624 0.10793959 -0.08397453
000130 9b 26 64 3d ca 0b 44 3d 7c 10 94 3e 15 aa 8f bd
       0.05570088 0.047862805 0.28918827 -0.070148624
000140 49 47 0d be 85 58 af bd b5 0f f2 ba b5 a2 b7 bd
       -0.13796724 -0.08561806 -0.0018467816 -0.08966581
000150 85 7c 27 bd b4 c3 c4 bd c8 d8 e4 3d ad 5a 92 3c
       -0.040890235 -0.0960764 0.1117416 0.017865503
000160 ac 8c b4 3c 5a 76 04 3c b5 22 01 3d 7e 7b 12 bd
       0.022039734 0.008084858 0.03152724 -0.035762303
000170 e2 83 5d 3c 7d 05 92 3d d3 3a 88 3d 6f 44 81 be
       0.013520213 0.07129953 0.06651845 -0.25247523
000180 33 4b b6 3c 16 14 b5 3d 0a 1c ff bd 8c 28 20 3e
       0.022252655 0.08841722 -0.1245652 0.15640467
000190 e2 96 08 bd 4e 6b 7b 3d 46 bb dd 3d 2c 28 04 bd
       -0.033347018 0.06138163 0.10826735 -0.032264873
0001a0 c6 17 5d bd a2 e4 72 3d cf b2 8f 3d 3a 74 4a bd
       -0.05397775 0.059300072 0.07016527 -0.04942725
0001b0 0f ec 11 3c 40 7a 8c bd 2b 7a 5b 3d 3b 76 3b 3d
       0.008906378 -0.06859255 0.053583305 0.04576705
0001c0 61 3c 00 be f0 4f 42 3e 67 78 dc bd e9 fd 7d bd
       -0.12523033 0.18975806 -0.107651524 -0.062009726
0001d0 3c 73 ba bd b4 12 ac 3d 62 1e 51 3e aa 3a 75 3c
       -0.091040105 0.08402005 0.20421746 0.0149676
0001e0 61 54 0b 3e 3d 04 44 be d6 7d cd bd c9 e4 b6 3d
       0.13606407 -0.19142242 -0.10033767 0.08930356
0001f0 75 4e 8c 3e 45 f3 36 be 07 04 80 bd 94 0e 8e 3c
       0.27403608 -0.17866237 -0.06250768 0.017340936
000200 1c 8a 9e bd 9a 1f b9 3d a8 85 b8 bd 82 da a8 3c
       -0.07741186 0.09039231 -0.09009868 0.020612005
000210 da d7 62 3e 89 ab 5e 3d 76 55 82 3e fc 9b a1 bd
       0.22152653 0.054362807 0.25455827 -0.0789108
000220 9b c1 99 3d d8 17 d4 bd 33 4e dd b9 e2 8c 18 3e
       0.075076304 -0.1035611 -0.00042210668 0.14897493
000230 6d 55 e4 3d ec 7d b5 bd d9 90 cf 3d ae f8 31 be
       0.11149106 -0.08861908 0.101350494 -0.1738002
000240 dc ad 81 3c b5 74 0b bd 9e 36 96 3d 3c e4 e7 3d
       0.015829973 -0.034046847 0.07334636 0.11322829
000250 5a 00 d8 bc 39 ca 89 bd bf ba c5 bd 03 1a d7 bd
       -0.026367355 -0.06728024 -0.096547596 -0.10503008
000260 b5 75 54 3d f5 f2 b4 3d 19 c1 f2 3d 7f f7 0e 3c
       0.051870067 0.08835403 0.11853237 0.008726
000270 81 99 32 bc 05 66 1b bd f4 de a3 3b bb 64 40 3e
       -0.010900856 -0.03793909 0.0050009433 0.18788426
000280 6f 33 88 3d f4 17 a5 3d ce 01 47 bd 66 b8 63 3d
       0.06650435 0.08061209 -0.048585705 0.055595778
000290 a8 05 60 bd 76 6d 05 3e 07 d0 10 3d 50 a7 aa 3d
       -0.054692894 0.13030037 0.03535464 0.083326936
0002a0 64 2e 0c bd 35 dd dd bd 77 38 2f 3c 3b b2 e9 3d
       -0.03422393 -0.108332075 0.010694615 0.11410948
0002b0 d5 01 08 3e 1c cc 67 bd 72 23 d8 3c 43 c8 f6 bc
       0.13281949 -0.05659114 0.02638409 -0.03012479
0002c0 4d f5 d3 3c a3 2f 87 3c f3 55 fb 3d 26 88 e2 bd
       0.025873804 0.016502207 0.12272253 -0.110611245
0002d0 d9 b6 1d bc d7 d2 7a bc 8f 09 a3 bd b9 8b 93 bd
       -0.009626114 -0.015309057 -0.079608075 -0.07204384
0002e0 8d ad e5 3d 3c 0a 4f bd 0f 25 ae 3c a3 21 af 3d
       0.11214743 -0.05054687 0.021257905 0.085513376
0002f0 b2 b5 1f bd 1a 06 62 3e 76 73 9d 3d 35 50 ac bd
       -0.038991638 0.2207264 0.07688038 -0.08413736
000300 c7 2a fe 3d 42 a7 5b 3d cc 85 c3 3c 55 0d 41 3d
       0.12410503 0.053626306 0.02386751 0.047131855
000310 9b 65 89 bd 40 e2 19 3e 1f 4b 93 3c de 1b 81 3d
       -0.06708833 0.15027714 0.017980156 0.06304143
000320 93 82 1b bc 18 7b 7c 3d 61 d4 c6 3d ef 1e 5e 3d
       -0.009491581 0.06164083 0.09708477 0.05422872
000330 cc f5 f4 3d 77 92 0e 3d 2c c7 96 bd ff 82 61 3e
       0.119609445 0.03480765 -0.07362208 0.22022627
000340 9a ae ea 3d 69 25 d1 3d 05 b0 df bd 81 b2 f8 3b
       0.11459084 0.102122135 -0.10922245 0.0075896387
000350 6f db 76 3d f0 de 9d 3d ea ae 8e bd 9d a9 a0 3d
       0.060267862 0.077085376 -0.06966956 0.07844851
000360 e9 60 07 bd 5c 16 78 3e f0 ac 3c 3d 13 41 16 3d
       -0.033051405 0.2422728 0.046063364 0.036683153
000370 8a 88 df bc 75 62 57 bc df 94 d5 3d 5c 3a 0c be
       -0.027286787 -0.013146033 0.104287855 -0.13694137
000380 78 29 3d 3e 30 4c a5 3c cf c2 2c 3e c8 a6 10 bd
       0.1847285 0.02017793 0.16871189 -0.035315305
000390 72 75 7b bd 14 bb 70 3d 0d e9 01 be 5e 8f c4 3d
       -0.0613913 0.05877216 -0.12686558 0.095976576
0003a0 b8 73 d1 bc d5 50 25 be d4 25 89 3d 0d af 78 be
       -0.025567874 -0.16144116 0.06696668 -0.24285527
0003b0 00 29 39 be 29 5d 40 3d a1 8e a8 bd 23 9d 29 3e
       -0.18082047 0.046963844 -0.08230329 0.16563849
0003c0 35 c9 bd bd ed e4 2d be 20 c8 3c 3e 78 1e 4d 3d
       -0.09266893 -0.1698186 0.18435717 0.050077885
0003d0 ef 08 df bd 69 b8 77 bd 0c 72 ff 3c cd 0c 1d 3d
       -0.10890376 -0.0604786 0.031182311 0.038342286
0003e0 9f 1d 5f 3e 43 28 be 3d 41 00 e0 3d f0 a1 d5 bd
       0.21788643 0.09285023 0.109375484 -0.10431278
0003f0 13 53 ad bd be 7d ed 3b d6 bf 79 bd 9a 4e b9 bc
       -0.08463111 0.0072476557 -0.060973965 -0.022620488

msg_layers.1.W_self.bias f4 [64]
000000 7e 48 eb 3c 8d c9 02 be f4 d8 45 3d 54 3b 80 bd
       0.02872109 -0.12772198 0.048302606 -0.06261316
000010 2c 00 9a bd eb 9b a2 3c 13 c4 92 bd fe cf b6 3c
       -0.07519564 0.019849738 -0.071663044 0.022315975
000020 dd 5f 06 3d c2 8a 13 be e2 fd b6 bd 08 b2 0c be
       0.032806266 -0.144084 -0.08935143 -0.13739789
000030 40 a6 2c bd 4a 58 77 3c 14 db 25 bd 4b 39 7b be
       -0.042150736 0.015096733 -0.040492132 -0.24533574
000040 d1 f3 f8 bd 87 76 15 bd 7d 2c 3f 3c ac 76 aa bd
       -0.12155879 -0.03648999 0.011668322 -0.08323416
000050 80 7c 29 3e 2b 3f b5 3d 0b 49 1d be 49 41 8c 3d
       0.16551399 0.08849939 -0.15359895 0.0684839
000060 35 f7 56 be af b7 2a be f4 b3 25 be 9b 9f 38 3d
       -0.2099274 -0.16671632 -0.16181928 0.045074087
000070 79 8b 10 3d 84 98 03 be ff ca 19 be ea 87 39 bd
       0.03528926 -0.12851149 -0.15018843 -0.045295633
000080 77 03 21 be d0 57 bc 3d 94 ac 3c be ce 59 a4 3b
       -0.15723978 0.091964364 -0.18425208 0.0050155884
000090 07 e7 ca bd 9f db 66 3b 11 02 35 3e 96 92 21 3d
       -0.09907346 0.003522612 0.1767657 0.039446436
0000a0 3d dd 5a 3d 89 65 cf bd 6e 29 b0 3d ab 91 10 be
       0.053433646 -0.10126788 0.08601652 -0.14118068
0000b0 37 b1 f4 bd 1d 48 07 bc 52 8e 54 3e da 02 bb bc
       -0.119478635 -0.008256939 0.20757416 -0.022828508
0000c0 86 31 2e bd 98 c8 51 3b 9a 0a 26 be 43 62 f7 3d
       -0.042527698 0.0032010432 -0.16214982 0.12079289
0000d0 d6 04 b7 bd 94 75 ab bd e2 22 cb bd 48 fb e6 bc
       -0.08936469 -0.083720356 -0.09918763 -0.028195992
0000e0 d3 30 97 3d 1f 6b a4 3d 6b 67 00 be 96 45 21 3d
       0.07382359 0.08028244 -0.12539451 0.039373003
0000f0 22 b5 83 bd 44 98 52 bc 83 3b 8e 3c 8e 4e 98 bd
       -0.06431033 -0.012853686 0.017362362 -0.07436858
