QuantLaxmi_Research/dtrn/results/checkpoints/fold4_NIFTY/dtrn_stage1.pt (torch, 232927 bytes, 37 tensors)

embed.embed.0.weight f4 [32, 2]
0	0xbd8b6e81	-0.06808186
1	0x3ec924af	0.392858
2	0x3f8412cb	1.0318235
3	0xbf3c9d25	-0.73677284
4	0xbee1c495	-0.44095293
5	0x3f22bc44	0.6356852
6	0x3d879418	0.066200435
7	0xbd8589e0	-0.06520438
8	0xbee9872c	-0.4561094
9	0xbd32c7dc	-0.043647632
10	0xbeb3507d	-0.35022345
11	0x3e2f2e14	0.17107421
12	0xbf43fffe	-0.7656249
13	0xbf1eb9ff	-0.6200256
14	0xbf431343	-0.76201266
15	0x3edfc560	0.43705273
16	0xbde34603	-0.11097338
17	0xbd2d05de	-0.042241924
18	0x3edb05bc	0.42777812
19	0xbf4a503b	-0.7902867
20	0x3f18637e	0.59526813
21	0x3f016af5	0.5055383
22	0x3e6551ec	0.22394532
23	0xbe1a4c5b	-0.1506819
24	0xbec651b9	-0.38734224
25	0x3f05b249	0.52225167
26	0xbf2239d2	-0.63369477
27	0x3efdcb91	0.4956937
28	0x3e1d0357	0.15333305
29	0xbee43a5e	-0.4457578
30	0x3dd322ea	0.10309394
31	0xbcbfbb15	-0.023404637
32	0xbebf27fb	-0.3733519
33	0xbe8da229	-0.2766278
34	0x3e80af58	0.25133777
35	0x3e25a594	0.16176444
36	0xbe96f5cc	-0.29484403
37	0x3e5b456c	0.21413201
38	0x3e214522	0.15749028
39	0xbe99c280	-0.30031204
40	0x3e83a38b	0.2571071
41	0x3edab062	0.42712694
42	0xbcc1b3a2	-0.023645226
43	0xbd872021	-0.06597925
44	0x3ebb8de3	0.36631688
45	0xbf4423b5	-0.76616985
46	0xbeba47a3	-0.3638278
47	0xbf038ce1	-0.5138684
48	0x3ea6a1f3	0.32545432
49	0x3e465f4e	0.19372293
50	0xbed0e637	-0.4080064
51	0x3eadd3fa	0.33950788
52	0xbeea1b27	-0.4572384
53	0x3e4450e2	0.1917148
54	0xbe896811	-0.2683721
55	0x3f02a639	0.51034886
56	0x3f11dc65	0.5697692
57	0x3e93e821	0.28888038
58	0xbd4cdf24	-0.05001749
59	0xbf6f45dd	-0.9346598
60	0x3d411d9f	0.04714739
61	0xbf6e9ea8	-0.9321084
62	0xbe7fa9c7	-0.24967109
63	0x3ee55be1	0.4479666

embed.embed.0.bias f4 [32]
0	0x3d4446c1	0.04791904
1	0xbf64afc9	-0.89330727
2	0xbf0b1bcc	-0.5433929
3	0x3d86af89	0.065764494
4	0xbdc8aa12	-0.09798063
5	0xbe17369e	-0.14766929
6	0xbf101421	-0.56280714
7	0x3ed93177	0.4242055
8	0x3e9752e1	0.2955542
9	0x3e9dc5d2	0.30814987
10	0x3da334f3	0.07969084
11	0x3eae2547	0.34012815
12	0xbf01bd68	-0.50679636
13	0xbd3bd364	-0.045855895
14	0x3edd953c	0.4327792
15	0x3e9aa54e	0.30204242
16	0xbe660ca7	-0.22465764
17	0xbf106715	-0.5640729
18	0xbe20c31c	-0.15699428
19	0x3ee3d043	0.4449483
20	0xbf13659c	-0.5757692
21	0x3d8b2953	0.06794991
22	0x3f02a134	0.51027226
23	0x3db858a9	0.090012856
24	0xbf21f546	-0.6326488
25	0xbe9dd7f7	-0.3082883
26	0x3e6427c4	0.22280794
27	0xbecdffd9	-0.4023426
28	0xbf30ad81	-0.69014746
29	0xbf567e3d	-0.83786374
30	0xbf2770bb	-0.6540639
31	0xbf07ad38	-0.52998686

embed.embed.2.weight f4 [32, 32]
0	0xbd454254	-0.04815896
1	0x3ef59fd7	0.4797351
2	0x3e38a9df	0.1803355
3	0xbdd1e342	-0.10248424
4	0x3c851d13	0.016249215
5	0x3e6f3037	0.23358236
6	0xbde649fb	-0.112445794
7	0x3e055bac	0.13023251
8	0x3d9f2c6c	0.07772145
9	0x3e1d565b	0.15364973
10	0xbd3f3ca8	-0.046688706
11	0xbe09ea43	-0.1346827
12	0x3e56dc37	0.20982443
13	0x3e4a1426	0.19734249
14	0xbdcdd042	-0.10049488
15	0x3d9fe5c3	0.078074954
16	0x3df51645	0.11967138
17	0x3e19c742	0.15017417
18	0x3e4cfcf4	0.20018369
19	0xbd91a1ed	-0.07110963
20	0xbe0cbaa4	-0.13743073
21	0xbe1c302d	-0.15252753
22	0x3def4e58	0.11684865
23	0x3ce484c9	0.027895348
24	0x3e8def8a	0.27721816
25	0x3de60675	0.112317
26	0x3e2d8dba	0.16948596
27	0x3e009c1b	0.1255955
28	0x3e21de3d	0.15807433
29	0x3ddd12ab	0.10794576
30	0xbcf83675	-0.030299405
31	0x3ddfd3f0	0.10929096
32	0x3a826167	0.0009947241
33	0x3f04dc63	0.51898783
34	0x3d2536d7	0.040335502
35	0xbc8951a0	-0.016762555
36	0x3cce8855	0.025211493
37	0xbd8cbc22	-0.06871821
38	0xbe1befea	-0.15228239
39	0x3dbc372a	0.09190209
40	0x3da7c149	0.08191163
41	0x3e230f19	0.15923728
42	0x3dfa7996	0.12230222
43	0x3e16f712	0.14742687
44	0x3bab5d33	0.005229616
45	0x3e4ffc15	0.20311005
46	0x3decd7e2	0.11564614
47	0x3df5d31e	0.12003158
48	0xbe005a03	-0.12534337
49	0x3dc9068a	0.098157
50	0xbcfb6688	-0.03068854
51	0xbcdeaa7f	-0.027180908
52	0xbca468cc	-0.020069502
53	0x3c883d3e	0.016630765
54	0x3e8452bd	0.25844374
55	0x3d5b1895	0.05349024
56	0x3e771f27	0.24132977
57	0x3e0d25fa	0.13784018
58	0xbce52f4e	-0.027976658
59	0x3dd17d46	0.10228972
60	0x3e053487	0.13008319
61	0xbe3828bc	-0.17984289
62	0xbd032850	-0.032020867
63	0xbd668009	-0.056274448
64	0xbd444349	-0.04791573
65	0x3ec5d772	0.38640934
66	0x3e3f6098	0.18689191
67	0xbaa70d6a	-0.0012745087
68	0x3e5bc343	0.21461205
69	0xbd33f3c7	-0.043933656
70	0xbe194a6e	-0.14969799
71	0x3c85293b	0.016255012
72	0xbddbbcfe	-0.10729407
73	0x3e6361ec	0.22205323
74	0x3db5e6ff	0.0888195
75	0x3cbf1313	0.023324525
76	0xbd2526d8	-0.040320247
77	0xbd8d8fe1	-0.06912208
78	0xbe12cd22	-0.14336064
79	0xbd30b321	-0.04313958
80	0x3e4e4d1e	0.20146605
81	0xbd891d95	-0.066950954
82	0x3d91e969	0.071245976
83	0xbd4f8337	-0.050662246
84	0xbd9d635d	-0.07684968
85	0xbe286f1b	-0.16448633
86	0x3e12f1f4	0.1435011
87	0x3e397f6b	0.18115012
88	0x3d4ff448	0.050770074
89	0x3d13c8bc	0.036080107
90	0x3c3159ff	0.010824679
91	0x3c741277	0.0148969805
92	0x3e50f1de	0.20404765
93	0xbdcae837	-0.09907573
94	0xbdb64b95	-0.08901135
95	0xbd5776bf	-0.05260348
96	0xbd319908	-0.043358833
97	0xbe8b949f	-0.27261826
98	0xbe6d61f4	-0.23181897
99	0xbe06ae24	-0.13152367
100	0xbeaf5f6a	-0.34252483
101	0xbea39821	-0.31952003
102	0x3e13da6e	0.14438793
103	0xbe81db35	-0.25362554
104	0xbddadfdf	-0.10687231
105	0xbe00485a	-0.125276
106	0x3dcdc75c	0.100477904
107	0x3c7c2571	0.015389786
108	0xbe6f273b	-0.23354809
109	0xbddcf997	-0.10789793
110	0xbe185535	-0.14876254
111	0xbd7c2577	-0.061559167
112	0xbd03ed51	-0.032208744
113	0xbe41fa87	-0.18943225
114	0x3d4fa957	0.050698604
115	0x3d659fdc	0.056060657
116	0x3e0a21fa	0.13489524
117	0x3db9fb0c	0.090810865
118	0x3e077d3d	0.13231368
119	0xbe17b116	-0.14813647
120	0x3de2e7d3	0.11079373
121	0xbea744ea	-0.32669765
122	0xbe03670e	-0.12832281
123	0xbe4ebc58	-0.20189035
124	0xbdb5bb73	-0.08873644
125	0x3d7002de	0.058596484
126	0xbddf541e	-0.10904716
127	0xbe84d8e5	-0.25946727
128	0x3cb7a9a1	0.022419753
129	0x3db6b209	0.08920676
130	0xbcf0e20d	-0.029404664
131	0xbddbe515	-0.10737053
132	0xbdf64b07	-0.12026029
133	0x3e5e33a1	0.21699382
134	0x3cd87d6e	0.026426997
135	0xbad0dde6	-0.0015935272
136	0xbd272148	-0.040803224
137	0xbb9dc1be	-0.0048143556
138	0x3da4701b	0.08029195
139	0xbdea0b79	-0.114279695
140	0x3c84e9a3	0.016224688
141	0x3e5fde59	0.21862163
142	0xbd348b33	-0.044078063
143	0xbd394b9a	-0.045238115
144	0x3e1e6667	0.15468751
145	0xbc96fa14	-0.018429793
146	0x3deab4b1	0.114602454
147	0xbda35c8e	-0.07976638
148	0x3e248277	0.16065393
149	0x3dbd9c76	0.09258358
150	0x3e136f1b	0.14397852
151	0xbe44393a	-0.19162455
152	0x3d477bec	0.048702165
153	0xbd63375d	-0.05547272
154	0xbc371535	-0.01117449
155	0x3dd317a7	0.10307246
156	0xbca62163	-0.020279592
157	0x3df1cd00	0.11806679
158	0x3ddd0514	0.10791984
159	0x3daa1b69	0.08306009
160	0x3da219c8	0.07915074
161	0xbf03f951	-0.515523
162	0xbe8f82be	-0.28029436
163	0x392962ae	0.00016153857
164	0xbe62218b	-0.22083108
165	0x3d800443	0.06250813
166	0x3e41e5eb	0.18935363
167	0x3d236d44	0.039899126
168	0xbcedc543	-0.029024726
169	0xbdde31b7	-0.10849326
170	0xbd322032	-0.043487735
171	0xbe1429ff	-0.14469145
172	0x3d0217bd	0.03176092
173	0xbd3d4724	-0.046210423
174	0x3ca65c4c	0.020307682
175	0xbe1f1d4a	-0.15538517
176	0xbe3494a6	-0.1763483
177	0xbe1328ff	-0.14371108
178	0xbe1278d6	-0.14303908
179	0xbc929aec	-0.017896138
180	0xbe592a73	-0.212076
181	0xbc0e68b7	-0.008691958
182	0xbe568b90	-0.20951676
183	0x3dad0a80	0.08449268
184	0xbe66fb17	-0.2255672
185	0xbe505848	-0.20346177
186	0xba6255d2	-0.0008634004
187	0xbda6956b	-0.08133968
188	0xbe4188db	-0.18899862
189	0x3bb85d39	0.0056263474
190	0xbdbaa521	-0.09113527
191	0xbd99fb89	-0.0751868
192	0x3e34d663	0.17659907
193	0xbdfe69e0	-0.12422538
194	0xbe389e0e	-0.18029043
195	0x3e077c42	0.13230994
196	0x3d0e00b0	0.034668624
197	0xbe216608	-0.15761578
198	0x3ddfef6e	0.109343395
199	0xbdba6c18	-0.091026485
200	0x3bac8a46	0.005265507
201	0x3c8ed934	0.017437555
202	0xbda84adb	-0.082174025
203	0xbd38232d	-0.04495542
204	0xbd5f3ac2	-0.054499395
205	0xbe25c7a4	-0.16189438
206	0x3d3ca836	0.046058856
207	0xbd560a4c	-0.052255914
208	0xbc74e16b	-0.014946322
209	0xbe0f187f	-0.13974188
210	0x3e115992	0.14194325
211	0x3e30cd36	0.17265782
212	0xba0c4c52	-0.0005351949
213	0x3e07eb6a	0.13273397
214	0xbb0a182e	-0.002107154
215	0x3d39cd87	0.04536202
216	0xbd87b103	-0.06625559
217	0xbddcd271	-0.10782326
218	0xbd504c8c	-0.05085425
219	0x3e12fc4b	0.14354055
220	0x3e17f30a	0.14838806
221	0x3cd0066b	0.025393685
222	0xbdabf02e	-0.0839542
223	0x3e15763f	0.14595889
224	0x3da4c1c5	0.08044771
225	0x3e932487	0.28738806
226	0x3e3c11b4	0.18366128
227	0xbe263946	-0.16232786
228	0xbd897188	-0.067111075
229	0x3d9d33aa	0.0767587
230	0xbe4f202f	-0.20227121
231	0x3e2d90c9	0.16949762
232	0xbd9a996d	-0.07548795
233	0xbde8e693	-0.113721035
234	0xbce4ad9a	-0.02791481
235	0x3e05caf9	0.13065709
236	0x3e8f0948	0.2793677
237	0x3e3b1f00	0.18273544
238	0xbcd57ccd	-0.026060486
239	0x3ca3b053	0.019981539
240	0xbe2de971	-0.16983582
241	0xbd9f9a3b	-0.07793089
242	0x3d24ac09	0.040203128
243	0xbe16e5d4	-0.1473611
244	0x3d69a177	0.05703875
245	0x3d7f7021	0.062362794
246	0xbd065214	-0.03279312
247	0x3d1698e0	0.036766887
248	0x3dedd334	0.116125494
249	0x3e6485fe	0.22316739
250	0x3dd5150f	0.10404407
251	0x3e93a3e6	0.28835982
252	0xbd4d6c2c	-0.05015199
253	0x3e24d409	0.1609651
254	0x3d1a1f1d	0.03762733
255	0x3c11131b	0.008854653

embed.embed.2.bias f4 [32]
0	0xbdb4eb17	-0.08833902
1	0xbda4d35c	-0.08048126
2	0xb97d6779	-0.00024166507
3	0xbe09fbb1	-0.13474919
4	0xbc3c71ca	-0.011501739
5	0xbd852865	-0.06501845
6	0x3e0d9cfe	0.13829419
7	0x3e29b232	0.16571882
8	0xbdda7558	-0.10666913
9	0xbe11e548	-0.1424762
10	0x3d49c952	0.04926426
11	0xbd660991	-0.056161467
12	0x3c38b082	0.0112725515
13	0x3df6f274	0.12057963
14	0x3d28b645	0.04118945
15	0x3e1f33da	0.15547124
16	0x3d0d8c62	0.034557708
17	0x3d20a5ca	0.03922061
18	0xbe1f0b7f	-0.15531729
19	0x3e0154ee	0.12630054
20	0x3e3397ca	0.17538372
21	0xbd7d23b9	-0.061801646
22	0x3d054089	0.03253225
23	0x3d8bbaa0	0.06822705
24	0xbe086868	-0.13321078
25	0xbdba343f	-0.090919964
26	0x3d58559d	0.052816022
27	0x3d24534c	0.0401185
28	0x3c9e0899	0.019291209
29	0x3dde43ac	0.10852751
30	0xbc03d958	-0.008047424
31	0xbdcee244	-0.101017505

input_proj.weight f4 [64, 32]
0	0xbe8ed089	-0.27893475
1	0xbcf86bdf	-0.030324874
2	0xbd4ade58	-0.04952845
3	0x3e89615d	0.26832095
4	0x3dd17aab	0.10228475
5	0xbe03f30a	-0.12885681
6	0x3e35e255	0.1776212
7	0xbe2299a0	-0.15878916
8	0x3db48f2b	0.088163696
9	0x3e1c5d38	0.15269935
10	0x3d852a71	0.06502236
11	0x3dd882af	0.10571801
12	0xbda6a321	-0.08136583
13	0x3e00702b	0.12542789
14	0x3e92fb45	0.28707328
15	0xbe405d57	-0.18785606
16	0x3e613af1	0.2199514
17	0x3e499fb2	0.19689825
18	0xbe3b2e42	-0.18279365
19	0xbc8a15d3	-0.01685611
20	0xbd664553	-0.056218456
21	0xbca6b50d	-0.020350004
22	0x3d9f98a2	0.07792784
23	0x3e4c56db	0.19955008
24	0x3db9220e	0.090396985
25	0x3d4ae358	0.04953322
26	0x3e156011	0.14587428
27	0x3d4999f7	0.049219098
28	0x3d4862a3	0.048922192
29	0xbde86446	-0.11347251
30	0xbe51ae1d	-0.20476575
31	0x3d8baea9	0.06820423
32	0xbe204000	-0.15649414
33	0xbeb36149	-0.3503516
34	0x3e1c0daa	0.15239587
35	0x3ea61e19	0.32444838
36	0xbe1f8b28	-0.15580428
37	0x3e146b65	0.14494093
38	0xbe4585a6	-0.19289264
39	0xbec4d01c	-0.38440025
40	0x3d5bff05	0.053710002
41	0xbe384c28	-0.17997801
42	0xbef03e71	-0.4692264
43	0x3df7fee2	0.12109162
44	0xbe03eca1	-0.12883236
45	0x3db221b5	0.08697835
46	0x3e8c3be0	0.2738943
47	0xbe871b7d	-0.2638816
48	0x3e7f7029	0.2494513
49	0xbd5a63e4	-0.05331792
50	0xbdc28a3e	-0.09499024
51	0xbe87df78	-0.2653768
52	0xbe99f90d	-0.30072823
53	0x3da6652f	0.08124768
54	0x3e4b5308	0.19855893
55	0xbd8f8db9	-0.07009453
56	0xbd877723	-0.066145204
57	0x3eb1d8c8	0.34735703
58	0xbec2f983	-0.38080987
59	0x3e7289de	0.23685405
60	0xbe8cd3e5	-0.27505413
61	0xbd3b131f	-0.045672532
62	0xbd845c6f	-0.06462943
63	0xbd98ccff	-0.07460975
64	0x3d692870	0.05692333
65	0xbda46424	-0.08026913
66	0xbe288daf	-0.16460298
67	0x3d022ab9	0.031779025
68	0xbbe8c5b9	-0.0071036485
69	0xbdb4de43	-0.088314556
70	0xbda8285f	-0.08210825
71	0x3e1b559e	0.15169379
72	0xbd70cb74	-0.058787778
73	0x3d99a8d9	0.07502908
74	0xbdaade55	-0.08343188
75	0x3d01f9a9	0.031732235
76	0xbe378038	-0.17920005
77	0x3de8ea25	0.113727845
78	0x3de60fb5	0.11233465
79	0xbe015172	-0.12628725
80	0x3d03fa0a	0.032220878
81	0x3d97eb50	0.07417929
82	0x3c25823f	0.010101854
83	0xbe171660	-0.14754629
84	0xbdd0da64	-0.10197905
85	0xbd000020	-0.03125012
86	0x3d9a334a	0.07529314
87	0x3e079d34	0.13243562
88	0x3b4f71eb	0.0031653594
89	0x3d73d5c7	0.059530046
90	0x3cc70582	0.024294619
91	0x3e55ac59	0.20866527
92	0x3d0546cf	0.03253823
93	0x3e1da485	0.1539479
94	0xbdc4c830	-0.09608495
95	0x3e2ff90e	0.1718485
96	0xbdd99f9e	-0.10626148
97	0x3c911164	0.017708488
98	0x3cd433f9	0.025903689
99	0x3e316e36	0.17327198
100	0x3de2f04b	0.110809885
101	0x3d29891f	0.041390534
102	0x3dd43ce8	0.103631794
103	0x3d8e61f3	0.06952276
104	0x3d95e168	0.073183835
105	0x3d403e97	0.04693469
106	0x3d94315e	0.072359785
107	0x3e24709c	0.16058582
108	0xbd276c89	-0.04087499
109	0xbd386061	-0.04501379
110	0x3e71cdf4	0.23613721
111	0xbd9914bd	-0.07474659
112	0x3e1b585a	0.15170422
113	0x3d8a3868	0.0674904
114	0xbd26463f	-0.040594336
115	0xbdaa4f62	-0.08315922
116	0xbde9473e	-0.113905415
117	0x3e29ec53	0.16594057
118	0xbc930120	-0.017944872
119	0x3e2853e6	0.16438255
120	0xbd405517	-0.046956148
121	0xbd886c30	-0.0666126
122	0xbe47092d	-0.19437094
123	0x3e53138c	0.20612925
124	0xbd0761a9	-0.03305212
125	0x3e06ca21	0.13163044
126	0xbdb0d311	-0.08634008
127	0x3da87bc1	0.08226729
128	0xbe82cbf1	-0.2554622
129	0x3d7cd9a2	0.06173099
130	0x3d8c7ccf	0.06859743
131	0xbcb4e28a	-0.022080678
132	0xbd7e14fd	-0.062031735
133	0x3e1ce27f	0.15320776
134	0x3d790b3a	0.060801722
135	0xbdaaf32f	-0.08347165
136	0xbda5490a	-0.08070572
137	0xbc13e9c7	-0.009027905
138	0xbd8870d5	-0.06662146
139	0x3e6b0dc2	0.22954467
140	0x3d0a311d	0.033738244
141	0xbd6f326d	-0.0583977
142	0xbd2a6fca	-0.041610517
143	0x3de7ffe4	0.11328104
144	0x3e2cc28b	0.16871087
145	0x3c5cd940	0.013479531
146	0xbda4db80	-0.08049679
147	0xbda1b1ba	-0.07895227
148	0xbd9276d7	-0.07151573
149	0xbd9d3eb6	-0.07677977
150	0x3cd6e77e	0.026233431
151	0x3e311ae2	0.17295411
152	0xbdd0c2d6	-0.10193412
153	0x3c9d1773	0.01917622
154	0x3d8b7002	0.06808473
155	0xbe363a1e	-0.17795607
156	0xbccd05ab	-0.025027117
157	0x3e3937f2	0.18087748
158	0xbdfa71fc	-0.12228772
159	0x3e07d205	0.1326371
160	0xbe58e590	-0.21181321
161	0x3d8588df	0.06520247
162	0x3ded1c4a	0.11577661
163	0x3e29c075	0.16577323
164	0x3dde8511	0.10865224
165	0xbe000319	-0.12501182
166	0x3d65aa4b	0.056070607
167	0xbd8b3eff	-0.06799125
168	0x3c839381	0.016061546
169	0xbd862fe8	-0.06552106
170	0x3c8f9ef8	0.017531857
171	0x3db2d9e7	0.08732968
172	0x3cc2600c	0.02372744
173	0x3c74f781	0.014951588
174	0x3e31bbb8	0.17356765
175	0xbd86313c	-0.065523595
176	0x3e61251a	0.2198681
177	0xbdc6e987	-0.097125106
178	0xbe5a1c15	-0.21299775
179	0x3e2d2714	0.16909438
180	0xbe17adcd	-0.14812393
181	0x3e1a7cd9	0.15086688
182	0x3d136ec9	0.035994325
183	0xbd7f7a90	-0.062372744
184	0x3dc07f0e	0.09399234
185	0x3d23928f	0.03993469
186	0xbd42e4c5	-0.047581453
187	0x3d6f956e	0.058492117
188	0xbca95c4c	-0.020673893
189	0x3e10924c	0.14118308
190	0x3d48f4e0	0.049061656
191	0xbb4930a8	-0.0030699167
192	0x3dfd4a8e	0.12367736
193	0xbd33e837	-0.04392263
194	0xbd047399	-0.032336805
195	0xbd7dc1cb	-0.061952394
196	0xbdd392ad	-0.103307106
197	0xbc3a7350	-0.011380032
198	0xbdb7b7c0	-0.089705944
199	0xbdc8df64	-0.098082334
200	0x3dc6f7e0	0.09715247
201	0x3c146170	0.009056434
202	0xbc364ef2	-0.0111272205
203	0x3c600883	0.013673904
204	0x3b1cbac6	0.0023915037
205	0x3e58b381	0.21162225
206	0x3dfd31b0	0.12362993
207	0x3d52ffe8	0.051513582
208	0xbb656c85	-0.003500731
209	0x3d1b7dc9	0.037961755
210	0x3e4cb8cd	0.19992371
211	0xbdcb1478	-0.099160135
212	0x3ca55972	0.020184252
213	0xbe2cbc34	-0.16868669
214	0x3e04fdca	0.12987438
215	0x3b27382f	0.0025515666
216	0x3d6f591e	0.0584346
217	0xbdc5b110	-0.096529126
218	0x3e11bde6	0.14232597
219	0xbab74101	-0.0013981165
220	0x3db3d397	0.08780592
221	0x3e24720d	0.16059132
222	0x3bdfdd45	0.0068317973
223	0x3d82f835	0.06394998
224	0x3e4f79a1	0.20261241
225	0x3e68bd0f	0.2272837
226	0xbdc1c1c5	-0.09460787
227	0x3df9f2cc	0.12204513
228	0x3d727897	0.059197035
229	0xbdf9bee9	-0.12194616
230	0xbdcc1d29	-0.09966499
231	0x3dc695b8	0.09696525
232	0x3e020e3d	0.12700744
233	0x3e5fd9d8	0.21860445
234	0x3e460f8e	0.19341871
235	0xbccb2e22	-0.024802271
236	0x3dea433a	0.11438604
237	0xbda31f2a	-0.079649284
238	0xbdd19634	-0.10233727
239	0xbdde36ee	-0.10850321
240	0x3d9c8621	0.076427706
241	0xbe37128d	-0.1787817
242	0xbe19ff11	-0.15038706
243	0xbbac66bb	-0.00526127
244	0x3d87bd7b	0.066279374
245	0xbcd4909e	-0.025947865
246	0xbc922bcd	-0.017843151
247	0xbe4b180a	-0.19833389
248	0x3e869243	0.26283464
249	0xbe1eadbf	-0.15495966
250	0xbe79d37c	-0.24397081
251	0x3da3298b	0.07966908
252	0x3db486d2	0.088147774
253	0x3b4ba763	0.0031075112
254	0xbd34bfb8	-0.04412815
255	0xbd63f9ca	-0.05565814

input_proj.bias f4 [64]
0	0x3d908008	0.0705567
1	0xbeb84476	-0.35989732
2	0x3de9ddf5	0.11419288
3	0x3dd0ba72	0.101918116
4	0x3d902234	0.07037774
5	0xbe2183e5	-0.1577297
6	0x3bd499ad	0.006488046
7	0xbe3ed9c8	-0.18637764
8	0xbcbcb328	-0.023034647
9	0x3ca98a9d	0.020695979
10	0xbdc1c568	-0.094614804
11	0x3e1734d1	0.14766242
12	0x3e197c3d	0.149888
13	0xbe55cf81	-0.20879938
14	0x3dd138d9	0.10215921
15	0x3ce361ef	0.02775666
16	0x3e29ae54	0.16570407
17	0x3e922169	0.28541115
18	0xbd787698	-0.060659975
19	0xbe114c88	-0.1418935
20	0x3df3f3bd	0.11911724
21	0xbc1ecd8e	-0.009692563
22	0x3d52a51d	0.051426996
23	0xbde75a8e	-0.11296569
24	0x3c8fa316	0.01753382
25	0x3dd14ff8	0.10220331
26	0xbe2f61fa	-0.17127219
27	0xbe583812	-0.21115139
28	0xbde04391	-0.10950387
29	0x3e15dfab	0.14636104
30	0xbdd1a83c	-0.10237166
31	0x3dbc31b6	0.09189169
32	0x3d0cbbcd	0.03435879
33	0xbd73221e	-0.05935871
34	0xbd49819a	-0.049195863
35	0xbe8ca23d	-0.27467528
36	0x3a2f6a02	0.00066915166
37	0x3e0c0f4b	0.13677709
38	0xbe09df5c	-0.13464111
39	0xbdfe529a	-0.12418099
40	0x3c5351b7	0.0128979
41	0xbd8139c3	-0.06309845
42	0xbe0c03e4	-0.13673359
43	0xbe2da1fa	-0.1695632
44	0xbccc2017	-0.024917645
45	0x3e12327a	0.14277068
46	0x3ccf8638	0.025332555
47	0xbd11c988	-0.035592586
48	0xbe0bf267	-0.13666688
49	0xb92b529d	-0.00016338607
50	0x3e199882	0.14999583
51	0x3da21103	0.07913401
52	0x3d410c4d	0.04713087
53	0x3c69783a	0.014249856
54	0x3d8b699c	0.06807253
55	0xbe212c19	-0.15739478
56	0xbdab2b6d	-0.08357892
57	0x3e0a4b48	0.1350528
58	0x3e3ae4ea	0.18251386
59	0xbe177d11	-0.14793803
60	0x3d5c94eb	0.053852957
61	0xbe020fd4	-0.1270135
62	0x3bd8aa85	0.0066121244
63	0x3cd03e01	0.02542019

msg_layers.0.W_self.weight f4 [64, 64]
0	0xbd3347f3	-0.043769788
1	0xbe389c7c	-0.18028444
2	0xbdb2b5fe	-0.087261185
3	0xbe46524f	-0.19367336
4	0xbd2a0490	-0.041508257
5	0xbe4df869	-0.20114292
6	0x3deee413	0.116645955
7	0xbe45e1d2	-0.19324425
8	0x3e3332ed	0.17499895
9	0xbdd48bd4	-0.103782326
10	0xbe0245e4	-0.12721974
11	0x3e4580df	0.19287442
12	0xbde1ea2c	-0.11030993
13	0xbdcd4450	-0.10022795
14	0x3e28da68	0.16489565
15	0xbe3ece9f	-0.18633507
16	0x3e13388a	0.14377037
17	0x3e254c6f	0.16142438
18	0x3dcec72d	0.100965835
19	0xbcb8c3da	-0.022554327
20	0xbb848a91	-0.0040448387
21	0xbdc31313	-0.095251225
22	0x3e2651f2	0.16242197
23	0x3e341426	0.17585811
24	0xbe80974f	-0.2511544
25	0xbdb298ca	-0.087205485
26	0xbe38ac34	-0.1803444
27	0xbe13eba8	-0.14445364
28	0xbcd02fc1	-0.025413396
29	0x3e0a584d	0.13510247
30	0xbdc45209	-0.095859595
31	0x3dcf4b1b	0.10121747
32	0x3e3ae797	0.18252407
33	0xbd86158d	-0.06547079
34	0xbe321fce	-0.17394945
35	0xbbb27318	-0.005445849
36	0x3e07eb5e	0.13273379
37	0x3d215fa7	0.03939786
38	0xbcae123b	-0.021248927
39	0x3be335ca	0.0069339024
40	0x3e81fe4f	0.25389335
41	0xbc55aa35	-0.013041069
42	0xbce6328e	-0.028100278
43	0xbe3a02ca	-0.18165126
44	0x3d000613	0.031255793
45	0x3ca28566	0.019839
46	0x3df4d2cc	0.11954269
47	0x3dbfdd27	0.09368353
48	0xbe2cee24	-0.16887718
49	0x3cbc79a5	0.023007223
50	0x3e027baf	0.12742494
51	0xbbb2a26f	-0.0054514925
52	0xbdd540f1	-0.10412777
53	0x3da1acca	0.07894285
54	0xbd4259c7	-0.0474489
55	0xbe043e85	-0.12914474
56	0xbba4dc16	-0.005031119
57	0x3d6949ab	0.05695502
58	0xbcbe6503	-0.023241526
59	0xbddfb5fb	-0.10923382
60	0x3e00a661	0.12563469
61	0xbe0eca9a	-0.13944474
62	0xbda7333c	-0.08164069
63	0xbd94c6aa	-0.07264455
64	0xbdf25227	-0.118320756
65	0x3e2c09d8	0.1680063
66	0x3d872f49	0.06600816
67	0xbc8b5571	-0.017008515
68	0x3db9dcac	0.09075293
69	0x3cf42511	0.02980283
70	0xbcb50a6a	-0.022099692
71	0x3e3f759c	0.18697208
72	0x3dbe1a0d	0.092823125
73	0x3bb54a49	0.005532537
74	0x3dc26726	0.0949233
75	0xbd5f68ba	-0.054543234
76	0xbdaf3e7c	-0.0855684
77	0x3e4ba09b	0.19885485
78	0x3da7749e	0.0817654
79	0xbe2e4d4c	-0.17021674
80	0xbde67998	-0.11253661
81	0xbd1a02e3	-0.03760041
82	0xbda13745	-0.0787187
83	0x3c8b842f	0.017030803
84	0x3dad4539	0.08460469
85	0x3cf5c710	0.030002147
86	0x3bb2ff34	0.0054625515
87	0x3e06ab7c	0.13151354
88	0x3e7bb98a	0.24582496
89	0xbe2d2218	-0.16907537
90	0xbd23ee4a	-0.040022172
91	0x3e1801d1	0.14844443
92	0x3c732bbd	0.014841971
93	0xbdc43089	-0.0957957
94	0x3e526a50	0.20548368
95	0xbe0e4182	-0.13892177
96	0x3d305872	0.043053098
97	0x3ce3c7c0	0.02780521
98	0xbbb966d1	-0.0056580086
99	0x3d79c4e3	0.06097878
100	0xbd83543b	-0.0641255
101	0xbbf5eb33	-0.0075048446
102	0x3e109398	0.14118803
103	0xbc3ca1d3	-0.011513191
104	0x3c40c822	0.011766465
105	0x3d9ecc49	0.07753808
106	0x3d9a3093	0.07528796
107	0x3e4bb9f8	0.1989516
108	0x3aebcf06	0.0017990775
109	0x3d032504	0.032017723
110	0xbd6b9379	-0.057513688
111	0x3cab17a8	0.020885304
112	0x3d2c548c	0.042072818
113	0x3e22a1e6	0.15882072
114	0xbdc3b527	-0.095560364
115	0xbcdeb30b	-0.027184984
116	0xbda2ca92	-0.079487935
117	0x3daec24c	0.08533153
118	0x3d877673	0.06614389
119	0x3d24c19e	0.04022371
120	0x3e4d7dc2	0.20067504
121	0x3c45297e	0.012033818
122	0xbd8a1c19	-0.067436405
123	0x3e1f2ca3	0.15544371
124	0xbdc5dac0	-0.09660864
125	0x3e09576f	0.1341226
126	0xbe4824cc	-0.19545287
127	0x3dba331d	0.0909178
128	0x3e6aab96	0.22917017
129	0x3e2ce2f0	0.16883445
130	0x3e0e1ff6	0.1387938
131	0x3e7fa0fb	0.24963753
132	0x3e285575	0.1643885
133	0x3dd974f9	0.10618014
134	0xbe512a4e	-0.20426294
135	0xbdab4516	-0.083627865
136	0xbdac2ddd	-0.08407185
137	0x3e0ba046	0.13635358
138	0x3dda29eb	0.106525265
139	0xbe1d0e78	-0.1533755
140	0x3e122473	0.14271717
141	0x3e33565d	0.17513414
142	0xbdf2735b	-0.118384086
143	0x3dd8d5e0	0.105876684
144	0xbd8be190	-0.06830132
145	0xbe166d05	-0.14690025
146	0xbd95b321	-0.07309557
147	0x3e1e742e	0.15474007
148	0x3e3d2eb8	0.18474853
149	0x3e1d85c9	0.15383066
150	0xbcad7d2c	-0.02117785
151	0xbdb086d5	-0.08619467
152	0x3e3a6d8b	0.1820585
153	0x3df7cd0a	0.12099655
154	0x3e23317d	0.15936847
155	0x3d1e26c2	0.03861118
156	0x3e49ba9c	0.19700092
157	0xbdcab006	-0.09896855
158	0xbde83282	-0.113377586
159	0xbe3276a3	-0.17428069
160	0xbe77f973	-0.24216251
161	0xbdf5dd5a	-0.1200511
162	0x3e8a4d76	0.27012223
163	0xbd05a5db	-0.032628875
164	0xbe2309e5	-0.15921743
165	0x3c053330	0.00812988
166	0x3d1b3fe6	0.037902735
167	0x3ccfadf9	0.025351511
168	0xbdc6a8e1	-0.0970018
169	0xbddcb4d6	-0.10776679
170	0xbd08d031	-0.03340167
171	0xbdd6199f	-0.104541056
172	0xbe2ba3db	-0.16761725
173	0xbe00c5c1	-0.12575437
174	0x3a2c84cb	0.0006581067
175	0x3d192c3e	0.03739571
176	0x3e3d6b04	0.18497854
177	0x3d8f97d0	0.07011378
178	0xbd68f795	-0.056876738
179	0xbd6cb448	-0.057789117
180	0xbd82c1f4	-0.0638465
181	0x3e056f3a	0.13030711
182	0xbe5221c8	-0.20520699
183	0xbd04e069	-0.032440577
184	0x3d3a0aef	0.045420583
185	0x3b77b1cc	0.0037795184
186	0xbbae693f	-0.005322605
187	0xbdc9d644	-0.09855321
188	0xbe75dcd2	-0.24010018
189	0xbc9d8263	-0.019227212
190	0x3e455c12	0.19273403
191	0xbe2ed029	-0.17071594
192	0x3e09b1a7	0.13446675
193	0x3cf22c16	0.029562037
194	0xbd4f61ea	-0.050630488
195	0xbafdcd27	-0.0019363508
196	0x3de5ccd3	0.11220708
197	0xbd955259	-0.07291097
198	0x3d6dfa99	0.058100317
199	0xbdbd8978	-0.09254736
200	0xbba2da7a	-0.004969892
201	0x3ddffebd	0.10937259
202	0xbd9f055f	-0.07764696
203	0xbde10939	-0.10988087
204	0x3e243a81	0.16037942
205	0x3dcb33c2	0.099219814
206	0xbd9bbd4f	-0.07604467
207	0x3dec5877	0.11540311
208	0xbd25d907	-0.040490177
209	0x3db37db9	0.08764214
210	0xbd2feb7d	-0.04294919
211	0x3d810f9e	0.06301807
212	0x3a027a9d	0.0004977377
213	0xbca1c623	-0.0197478
214	0x3cc6039a	0.02417164
215	0x3d8ef559	0.0698039
216	0x3dbd9be8	0.092582524
217	0x3e36b8b0	0.1784389
218	0xbd11b35c	-0.03557144
219	0x3c9ecb39	0.019384013
220	0xbcd4abb6	-0.025960784
221	0x3e0519b9	0.12998094
222	0xbe01c319	-0.1267208
223	0x3de1763d	0.1100888
224	0x3cb8463f	0.022494433
225	0x3d97f109	0.07419021
226	0x3e0be92e	0.1366317
227	0x3d481c92	0.04885537
228	0xbd32d02d	-0.043655563
229	0xbde9692b	-0.11397012
230	0xbd5ffc93	-0.054684233
231	0xbdc204c6	-0.09473567
232	0xbc3ff7ab	-0.0117167635
233	0xbd9c14d5	-0.07621161
234	0x3cecb62f	0.028895466
235	0xbd5eacb5	-0.054363925
236	0xbd90d97b	-0.07072731
237	0xbd2292e9	-0.039690886
238	0xbd1ca0d0	-0.0382393
239	0x3ba3c28d	0.0049975575
240	0xbdeefa0a	-0.11668785
241	0x3bfd50c2	0.0077305743
242	0x3d1bad10	0.038006842
243	0x3c6ef66d	0.01458512
244	0xbdb8dd6a	-0.090266064
245	0x3c0b5345	0.00850374
246	0xbd1a0b31	-0.03760833
247	0xbad6fd7d	-0.001640245
248	0xbe027d7a	-0.12743178
249	0xbdcbbdd8	-0.09948319
250	0x3ca1f3f0	0.019769639
251	0xbdae5959	-0.085131355
252	0xbb3fe561	-0.0029281008
253	0x3d4cb59e	0.04997789
254	0x3db2a015	0.087219395
255	0x3d48679f	0.048926946

msg_layers.0.W_self.bias f4 [64]
0	0xbd14aae7	-0.036295798
1	0x3d2ba798	0.041907877
2	0x3cc5d67a	0.024150122
3	0xbb11f8f2	-0.0022273627
4	0xbd3634a7	-0.044483807
5	0xbdc7a927	-0.0974906
6	0xbccdb8ae	-0.025112476
7	0xbdae9bdc	-0.085258216
8	0x3dc5a544	0.096506625
9	0xbdd411ad	-0.10354934
10	0xbc51c029	-0.012802162
11	0xbbea55ce	-0.007151342
12	0xbacc0015	-0.0015563989
13	0xbe079208	-0.132393
14	0x3c8a26d6	0.016864222
15	0x3d226063	0.039642703
16	0x3c446cd1	0.0119888345
17	0x3ea9265a	0.33037072
18	0x3ddb32ea	0.107030705
19	0xbd7b5b69	-0.061366472
20	0x3dcdf891	0.10057176
21	0xbdcb58d7	-0.09929054
22	0x3e29f430	0.16597056
23	0x3e3ea067	0.18615876
24	0xbdea9d74	-0.11455813
25	0xbdda6d08	-0.10665327
26	0xbdcfde8b	-0.101498686
27	0x3da5a7da	0.08088656
28	0xbd9a038b	-0.07520207
29	0xbde46b65	-0.111532964
30	0xbdd43ebf	-0.1036353
31	0x3d9373b9	0.07199807
32	0xbdfa185e	-0.12211679
33	0xbc6f41dc	-0.014603104
34	0xbd3ce104	-0.04611303
35	0x3da58e98	0.08083838
36	0x3ce7e572	0.02830765
37	0xbd198579	-0.037480805
38	0xbd2caefb	-0.042159062
39	0xbcedb6c2	-0.02901781
40	0x3e5ed1da	0.2175974
41	0xbcd3159e	-0.025767144
42	0x3c09e69e	0.0084168
43	0x3dc3f339	0.095678754
44	0x3daa17a3	0.083052896
45	0x3e373f70	0.17895293
46	0x3cf57b30	0.029965967
47	0x3dd764d8	0.10517281
48	0xbd5e197e	-0.05422353
49	0xbd524fd3	-0.051345658
50	0xbe0b4c2d	-0.13603278
51	0x3de7a20b	0.11310204
52	0xbe092575	-0.13393195
53	0x3d3b0321	0.04565728
54	0x3da2f630	0.07957113
55	0xbd5cbe13	-0.053892206
56	0x3beb7729	0.007185836
57	0x3e2c7611	0.16841914
58	0x3e2c0fc7	0.16802894
59	0x3c988ade	0.018620905
60	0xbd94c4ee	-0.07264124
61	0xbdf8d2c8	-0.12149578
62	0xbe0a038e	-0.13477919
63	0xbc1a427b	-0.009415264

msg_layers.0.W_msg.weight f4 [64, 64]
0	0x3e1d99be	0.15390679
1	0x3e278ad6	0.16361555
2	0x3d6ae5fc	0.057348236
3	0x3de0c27a	0.109745935
4	0x3e5fde45	0.21862133
5	0xbdb84647	-0.08997779
6	0x3d3e2849	0.046425138
7	0xbe082981	-0.13297082
8	0xbd5cfa8e	-0.053949885
9	0x3da7ae2e	0.08187519
10	0x3e3f12f8	0.1865958
11	0xbd106834	-0.035255626
12	0x3e34be5d	0.17650743
13	0xbe01981c	-0.12655681
14	0xbd5ccadb	-0.053904396
15	0x3ea6a114	0.32544768
16	0x3e62eb7a	0.2216014
17	0x3df48dbc	0.11941096
18	0x388128be	6.158788e-05
19	0x3e2bce8c	0.1677801
20	0x3d83222b	0.064030014
21	0xbd3eebc3	-0.04661156
22	0x3d771d43	0.06033064
23	0xbc9b1ba5	-0.01893408
24	0xbdb352b4	-0.08756009
25	0x3e972b95	0.29525438
26	0x3dfa8cfb	0.12233921
27	0xbd9984c0	-0.07496023
28	0x3e2c83ae	0.16847107
29	0x3d20f9d3	0.03930075
30	0xbdacb6e5	-0.08433322
31	0xbdd21914	-0.102586895
32	0x3aa33259	0.0012450918
33	0xbe0ee4e7	-0.13954507
34	0x3d4483cd	0.047977258
35	0x3c8386ff	0.016055582
36	0xbd381c7a	-0.044949032
37	0xbc0ee22d	-0.008720917
38	0xbe563420	-0.20918322
39	0x3d8b5552	0.06803383
40	0x3cc0f66d	0.023555005
41	0xbdc6d80c	-0.097091764
42	0xbd967811	-0.073471196
43	0xbde2abe5	-0.110679425
44	0x3d13a40f	0.03604513
45	0xbbf78eb4	-0.0075548533
46	0xbd0974cc	-0.03355865
47	0xbd99cc8b	-0.075097166
48	0x3c14f955	0.0090926485
49	0xbde31d36	-0.11089556
50	0x3db4e9fb	0.08833691
51	0x3d1d9bf6	0.038478814
52	0xbc940c1a	-0.018072177
53	0x3d43a885	0.047768135
54	0xbe2905f7	-0.16506182
55	0xbdd767ec	-0.105178684
56	0xbd2e79c5	-0.042596597
57	0x3de954f8	0.1139316
58	0xbd94de2c	-0.072689384
59	0x3cfc8a06	0.030827533
60	0xbc5cbd34	-0.013472844
61	0x3d056aa7	0.032572415
62	0x3dd127ec	0.102126926
63	0xbcff8ddb	-0.031195572
64	0xbb29f3c1	-0.0025932642
65	0x3d02a8fe	0.031899445
66	0xbe04c586	-0.12965974
67	0xbe37cfd6	-0.17950377
68	0xbdaf3acd	-0.08556137
69	0x3db1553d	0.08658836
70	0xbced98fd	-0.029003615
71	0xbda2331a	-0.07919903
72	0x3df3fb50	0.119131684
73	0xbdd17276	-0.1022691
74	0x3d3bd3c1	0.04585624
75	0x3df1a4d3	0.11799016
76	0xbb25d1b0	-0.0025301985
77	0x3ddb3977	0.1070432
78	0xbd6f28f3	-0.05838866
79	0xbdbd4927	-0.09242468
80	0xbc674ea7	-0.014117873
81	0xbd7cdabb	-0.061732035
82	0xbda49f2d	-0.08038173
83	0xbdd516ac	-0.10404715
84	0xbd9c9b95	-0.076468624
85	0x3d5e7d58	0.054318756
86	0x3caff265	0.021477887
87	0xbdd8197c	-0.10551736
88	0xbcc85843	-0.024456149
89	0x3d40cd19	0.047070596
90	0x3d8572c5	0.06516031
91	0x3dd794ed	0.10526452
92	0x3d930fa7	0.0718072
93	0xbd83ad1d	-0.06429503
94	0xbde04913	-0.10951438
95	0x3d779b8f	0.060451087
96	0xbdfb859f	-0.122813456
97	0xbc33a8b2	-0.010965513
98	0x3ccd6897	0.025074286
99	0xbe234f57	-0.15948234
100	0xbdee1641	-0.11625338
101	0xbdac4259	-0.08411092
102	0xbc834d65	-0.016028116
103	0x3c9ef61e	0.019404467
104	0xbe160ff7	-0.14654528
105	0xbc6ac49f	-0.014329105
106	0x3d3e26d5	0.04642375
107	0x3cc414a8	0.02393563
108	0xbd0ff5f8	-0.035146683
109	0xbe0876bd	-0.13326545
110	0xbd12da6d	-0.03585284
111	0xbe497823	-0.19674735
112	0x3c02010e	0.007934822
113	0xbde0bbe4	-0.10973337
114	0xbd0decfe	-0.03464984
115	0x3cf6902f	0.030098049
116	0x3cf4c6b9	0.029879915
117	0xbcad4477	-0.02115081
118	0x3c8eb61d	0.017420823
119	0xbdb9e1ea	-0.09076293
120	0xbd85079d	-0.06495593
121	0x3dfa967e	0.12235735
122	0xbd8d9439	-0.06913037
123	0xbcabb7f4	-0.02096174
124	0x3d4779ad	0.048700023
125	0x3e0ab7d3	0.13546686
126	0x3d862da6	0.065516755
127	0xbab11627	-0.001351063
128	0x3d7d8a9a	0.06189976
129	0xbdc1a665	-0.09455565
130	0xbb9e5a12	-0.0048325146
131	0x3d2e1113	0.042496752
132	0x3e3e4b8e	0.1858351
133	0x3b98793b	0.0046531237
134	0xbcaee162	-0.021347705
135	0xbe1a5378	-0.15070903
136	0xbdb08294	-0.08618656
137	0x3bc45a28	0.005992193
138	0x3d8c8fe4	0.068633825
139	0x3de61a69	0.11235506
140	0x3dea5936	0.11442797
141	0xbce26cd1	-0.027639778
142	0xbd1ef233	-0.038805198
143	0x3e65317e	0.22382161
144	0x3e2bb924	0.16769844
145	0x3e1ab9d6	0.15109953
146	0xbc76db80	-0.015066981
147	0x3d22c791	0.039741103
148	0x3b1c9c3f	0.002389684
149	0x3db38846	0.087662265
150	0xbbc53876	-0.0060186936
151	0xbdca3378	-0.09873098
152	0xbdd3e1e6	-0.10345821
153	0x3e53f8b1	0.20700337
154	0x3dde5585	0.10856155
155	0xbd92367d	-0.07139299
156	0x3e167d8a	0.14696327
157	0x3d989a5a	0.07451315
158	0x3d45cb6d	0.048289705
159	0xba509454	-0.0007956673
160	0xbdca8a07	-0.09889608
161	0xbe0d12ba	-0.13776675
162	0xbbf2b96d	-0.0074073584
163	0xbd6fadc1	-0.058515314
164	0xbd65cb4e	-0.05610209
165	0xbd93e2d1	-0.07220996
166	0xbc8a4089	-0.016876476
167	0x3c618506	0.013764625
168	0x3d9637f4	0.07334891
169	0xbda61b05	-0.08110622
170	0xbda4ee07	-0.080532126
171	0xbde9fdef	-0.11425387
172	0xbdd5e260	-0.10443568
173	0xbcf9b2cc	-0.030480765
174	0x3e0633de	0.13105723
175	0xbc8b6077	-0.017013771
176	0x3def4991	0.116839536
177	0xbe059b95	-0.13047631
178	0xbd00c079	-0.031433556
179	0x3e1e8b91	0.15482928
180	0x3d5e7d71	0.05431885
181	0xbc4dd7d6	-0.012563666
182	0x3da8e23b	0.08246275
183	0xbdcb1d6f	-0.099177234
184	0x3d8b3cce	0.06798707
185	0x3c1c2313	0.009529847
186	0x3dd8847e	0.10572146
187	0xbe08b2f4	-0.13349515
188	0x3dc554d4	0.0963532
189	0x3da72747	0.081617884
190	0x3ce9c54b	0.02853646
191	0xbd5f165d	-0.054464687
192	0xbd392b9b	-0.0452076
193	0x3d3d9d72	0.04629273
194	0xbd92a8ca	-0.071611
195	0x3e124501	0.14284135
196	0x3da098f6	0.07841675
197	0xbd5aaf47	-0.053389814
198	0xbdd22153	-0.10260262
199	0xbd416bf2	-0.047222085
200	0x38d6fbef	0.000102512415
201	0x3e1d0de3	0.15337329
202	0xbd6bf238	-0.057604045
203	0xbdfba888	-0.12288004
204	0x3ccd0bd0	0.025030047
205	0x3dbe522c	0.09293017
206	0xbcf92b89	-0.030416267
207	0xbd10d04d	-0.0353549
208	0xbdb21365	-0.086951055
209	0x3d99da86	0.07512383
210	0x3cb502e6	0.022096109
211	0x3d3815a8	0.044942528
212	0x3d615bc8	0.05501917
213	0x3d3778ee	0.044793062
214	0x3d8868b1	0.06660593
215	0xbdb1f24a	-0.08688791
216	0x3e2b5d07	0.16734706
217	0x3dad0d4c	0.08449802
218	0x3d9860f5	0.07440368
219	0x3e1e8058	0.15478647
220	0x3df90779	0.121596284
221	0xbe1a3412	-0.15058926
222	0xbde211a7	-0.11038523
223	0xbb4da75a	-0.0031380267
224	0xbe0cbf82	-0.1374493
225	0x3dfdcc45	0.12392477
226	0x3de691e7	0.112582974
227	0xbc9f3be0	-0.01943773
228	0xbe17cb31	-0.14823605
229	0x3db01b98	0.08599013
230	0x3e061370	0.13093352
231	0xbd409318	-0.04701528
232	0x3cac1d31	0.021010013
233	0x3e0d8060	0.13818502
234	0xbd82da58	-0.06389302
235	0x3dc90ca2	0.09816863
236	0x3d545e34	0.05184765
237	0xbe2bb3ff	-0.16767882
238	0xbe1cb766	-0.15304336
239	0x3d00ac2c	0.031414196
240	0x3dd07e95	0.101803936
241	0x3d8a3a2f	0.06749379
242	0x3cf8f60f	0.030390767
243	0x3d5d5e99	0.054045293
244	0xbe1c8868	-0.1528641
245	0xbc369ad3	-0.011145311
246	0xbdb59d73	-0.08867922
247	0xbc131b57	-0.008978686
248	0xbd4546d4	-0.04816325
249	0xbe0b159c	-0.13582462
250	0xbddd36d4	-0.10801473
251	0xbdaf76e7	-0.08567601
252	0xbe2037a7	-0.1564623
253	0x3df68d41	0.12038661
254	0x3dceafa7	0.10092097
255	0xbd047651	-0.032339398

msg_layers.0.W_msg.bias f4 [64]
0	0x3c7a24e0	0.015267581
1	0x3dc38982	0.09547712
2	0x3d10be88	0.035337955
3	0xbd78953b	-0.060689192
4	0x3dec153b	0.11527487
5	0x3dcc64a3	0.099801324
6	0xbd64a7c3	-0.055824053
7	0xbe330528	-0.17482436
8	0xbd891e12	-0.066951886
9	0x3dc06ca2	0.0939572
10	0xbd95acbf	-0.07308339
11	0xbe2a6aba	-0.16642275
12	0xbc400483	-0.011719826
13	0x3deb5482	0.11490728
14	0x3de2a713	0.11067023
15	0xbdebe425	-0.115181245
16	0xbe3d712e	-0.18500206
17	0xbe08874c	-0.13332862
18	0xbd31c9df	-0.04340541
19	0xbcb449f4	-0.02200792
20	0x3d63acec	0.055584833
21	0xbe18991e	-0.1490216
22	0xba977bb0	-0.0011557247
23	0xbe190d76	-0.14946541
24	0xbe39367e	-0.18087193
25	0xbe089149	-0.13336672
26	0xbd7c37fd	-0.061576832
27	0xbda3d927	-0.08000403
28	0x3cbeefb2	0.023307655
29	0x3ddcca04	0.10780719
30	0xbdcc60a7	-0.099793725
31	0x3b12ed47	0.002241926
32	0xbd288e85	-0.041151542
33	0x3e34563c	0.17611021
34	0xbe4840f1	-0.19556023
35	0xbdb88147	-0.09009033
36	0x3d27ab3e	0.040934794
37	0x3ddc0f60	0.1074512
38	0x3c018836	0.00790601
39	0xbc87b438	-0.016565427
40	0x3da5bbaa	0.08092435
41	0x3e2676d7	0.16256271
42	0xbc8ecca0	-0.017431557
43	0x3d806a10	0.0627023
44	0xbd851265	-0.06497649
45	0xbe260bd0	-0.16215444
46	0xbd088467	-0.033329394
47	0x3da8a190	0.082339406
48	0xbe05a21e	-0.13050124
49	0xbe175203	-0.14777379
50	0x3ccf00a1	0.025268855
51	0xbe58a7ed	-0.21157809
52	0xbde504ff	-0.111825936
53	0xbd3063a9	-0.043063793
54	0x3d6bb181	0.057542328
55	0xbe25fec0	-0.1621046
56	0xbe037e58	-0.12841165
57	0xbdcfc72d	-0.10145412
58	0x3e7f8411	0.24952723
59	0x3e12092f	0.14261316
60	0x3e36b762	0.17843392
61	0xbccd5392	-0.025064263
62	0xbc0148f5	-0.0078909295
63	0x3d8b9565	0.06815604

msg_layers.0.norm.weight f4 [64]
0	0x3f70b245	0.9402202
1	0x3fa020eb	1.2510046
2	0x3f74c9eb	0.956206
3	0x3f80e764	1.0070615
4	0x3f59de3e	0.8510474
5	0x3f5f751e	0.8728808
6	0x3f3125aa	0.69198096
7	0x3f717fcc	0.9433563
8	0x3f4fe9cc	0.8121612
9	0x3f76871c	0.9629991
10	0x3f8d47c6	1.1037529
11	0x3f90c102	1.1308901
12	0x3f824989	1.0178691
13	0x3f928874	1.1447892
14	0x3f7050b4	0.93873143
15	0x3f905dd6	1.1278636
16	0x3f8229f5	1.0169054
17	0x3f9aa288	1.2080851
18	0x3f6b0262	0.9180051
19	0x3f63840e	0.88873374
20	0x3f86c312	1.0528281
21	0x3f7b9370	0.98271847
22	0x3f914476	1.1349018
23	0x3f884849	1.064706
24	0x3f71b845	0.944218
25	0x3f8bfd1e	1.093662
26	0x3f56ce08	0.8390813
27	0x3f89546c	1.0728889
28	0x3f83fcf8	1.0311575
29	0x3f5fab1c	0.8737047
30	0x3f779b59	0.96721417
31	0x3f821118	1.0161467
32	0x3f83155d	1.0240895
33	0x3f81ba4d	1.013498
34	0x3f791fcd	0.9731415
35	0x3f8ccc2e	1.0999811
36	0x3f7880eb	0.97071713
37	0x3f483746	0.7820934
38	0x3f739516	0.9514936
39	0x3f73ddfb	0.9526059
40	0x3f7e0e6e	0.9924077
41	0x3f885a4f	1.065256
42	0x3f682e9e	0.9069613
43	0x3f7e4429	0.99322754
44	0x3f5e83ea	0.86920035
45	0x3f8c135a	1.0943406
46	0x3f867520	1.0504494
47	0x3f6f39c0	0.93447495
48	0x3f6be46a	0.9214541
49	0x3f6e3487	0.930489
50	0x3f7fbf12	0.99900925
51	0x3f82a619	1.0206939
52	0x3f784f3a	0.9699589
53	0x3f8709e6	1.0549896
54	0x3f84b583	1.0367893
55	0x3f810e5f	1.0082511
56	0x3f72ac1b	0.9479386
57	0x3f8814a3	1.0631298
58	0x3f7b6cef	0.98213094
59	0x3f4257fc	0.75915504
60	0x3f82fb88	1.0233011
61	0x3f5da3ef	0.8657827
62	0x3f5176dc	0.8182199
63	0x3f79d429	0.97589356

msg_layers.0.norm.bias f4 [64]
0	0xbcbb62c7	-0.02287425
1	0xbe2d9212	-0.16950253
2	0xbb66240e	-0.0035116705
3	0xbd573415	-0.052539904
4	0x3ddbe3f1	0.10736836
5	0x3d812e06	0.063076064
6	0x3d94bbf8	0.07262415
7	0x3c8a9f54	0.016921677
8	0x3e0be8b9	0.13662995
9	0x3cce0222	0.025147501
10	0xbe1ce0b5	-0.15320094
11	0xbd29aebd	-0.04142641
12	0xbd1daf94	-0.038497522
13	0x3d042be9	0.03226844
14	0x3de0d269	0.109776326
15	0xbbbed4c0	-0.0058237016
16	0xbc180462	-0.009278389
17	0xbcfc22b7	-0.030778272
18	0xbd71fd13	-0.05907924
19	0xbc0f5f3f	-0.008750736
20	0xbd94051d	-0.07227538
21	0xbcd8bed7	-0.026458187
22	0xbc887fb4	-0.016662456
23	0xbcfe6c02	-0.031057362
24	0xbdeaf5da	-0.11472674
25	0xbd822da9	-0.06356365
26	0x3e0695c9	0.13143076
27	0xbd383e9b	-0.04498158
28	0xbd4dd747	-0.050254133
29	0xbca9142e	-0.020639505
30	0xbc36eaab	-0.011164348
31	0xbc180bba	-0.00928014
32	0xbd31e58d	-0.043431807
33	0x3cb2c4db	0.021822384
34	0x3dbaab08	0.09114653
35	0xbe1278bb	-0.14303868
36	0x3d60aaf8	0.05485055
37	0xbbafecfe	-0.005368828
38	0x3c99ad1b	0.018759301
39	0xbd8f7690	-0.07005036
40	0x3d8c68a7	0.06855898
41	0x3cfef66c	0.031123362
42	0xbccb7a94	-0.024838723
43	0xbbb11536	-0.00540414
44	0x3d1138c0	0.03545451
45	0xbcf4f22f	-0.029900638
46	0xbd20fe51	-0.039305035
47	0xbaeac761	-0.0017912203
48	0xbcdffe69	-0.027342992
49	0x3c49a958	0.012308441
50	0x3ceb6891	0.028736385
51	0xbcba54f8	-0.022745594
52	0xbd39d675	-0.045370538
53	0xbda946c9	-0.08265454
54	0xbc16e637	-0.009210161
55	0xbd8b5efa	-0.06805225
56	0x3cbc5d88	0.022993818
57	0x3cef72c0	0.029229522
58	0x3b20fa54	0.002456327
59	0x3cda7906	0.026669037
60	0x3e1bec96	0.15226969
61	0x3cb63676	0.022242766
62	0x3d09bb7a	0.033626057
63	0x3afb4c7c	0.0019172574

msg_layers.1.W_self.weight f4 [64, 64]
0	0xbd9104d2	-0.070809975
1	0x3e1b323c	0.15155882
2	0x3d805ec0	0.06268072
3	0x3e0daa2f	0.13834451
4	0x3df32ffd	0.118743874
5	0x3be513c3	0.006990881
6	0x3cb9a129	0.022659855
7	0x3e119019	0.14215125
8	0xbdd5672c	-0.10420069
9	0x3e25110f	0.16119789
10	0x3e2c6bf8	0.16838062
11	0xbdfb3acb	-0.12267073
12	0x3d31c315	0.043398935
13	0x3e30f258	0.17279947
14	0x3d2c095d	0.042001117
15	0xbd04a77b	-0.032386284
16	0xbd64d8d6	-0.055870853
17	0xbd9e8f1d	-0.077421404
18	0x3e088607	0.13332377
19	0x3d9f3bab	0.07775053
20	0x3db32dd8	0.087489784
21	0x3e081520	0.13289309
22	0x3d4ab4be	0.049488775
23	0x3db62558	0.088938415
24	0x3dc2e4d6	0.09516303
25	0xbe0fb1af	-0.14032625
26	0x3e217ab4	0.15769464
27	0x3e107b86	0.1410962
28	0x3e0560b3	0.13025169
29	0x3dec666b	0.11542972
30	0x3dc1c37a	0.09461112
31	0xbd5796df	-0.052634116
32	0x3be5af29	0.007009406
33	0x3de79450	0.11307585
34	0xbb869a8e	-0.00410778
35	0x3e1d4fdd	0.15362497
36	0xbe01bae7	-0.12668954
37	0xbcd1a37d	-0.025590653
38	0xbcb6a72d	-0.022296512
39	0x3d1501dd	0.03637873
40	0xbe3d7244	-0.1850062
41	0x3d827a72	0.06371011
42	0x3e0801fe	0.1328201
43	0x3dbd623c	0.09247252
44	0x3d82e4ad	0.06391273
45	0xbdbc61ab	-0.09198316
46	0x3dd1cfaf	0.102446906
47	0xbcfbeb15	-0.030751744
48	0x3c18bdde	0.009322612
49	0xbe17ec07	-0.14836131
50	0xbcad9c62	-0.021192733
51	0x3c7afff5	0.015319814
52	0xbe0af702	-0.13570789
53	0xbdcec152	-0.10095467
54	0xbe2c4434	-0.16822892
55	0xbc6895e1	-0.01419589
56	0xbd776252	-0.0603965
57	0xbe473595	-0.19454034
58	0xbd843fde	-0.06457494
59	0x3e0f5a70	0.13999343
60	0x3cae15fe	0.021250721
61	0xbaa9229a	-0.0012903989
62	0x3dbd69bf	0.09248685
63	0xbe545955	-0.20737202
64	0xbdf83e9d	-0.121213175
65	0xbe01a0e8	-0.12659037
66	0xbde57cf0	-0.112054706
67	0x3db6d2d1	0.08926929
68	0x3c937bcf	0.018003372
69	0xbba95af6	-0.005168314
70	0x3ccf9792	0.025340829
71	0x3dc2421e	0.09485267
72	0x3e0b9a40	0.1363306
73	0x3d992f51	0.07479728
74	0x3dedd7e9	0.11613447
75	0xbd54858c	-0.051885173
76	0x3dc36570	0.09540832
77	0x3cf3a8f0	0.029743642
78	0x3e8226a4	0.25420105
79	0xbd4f656b	-0.05063383
80	0xbe02848c	-0.12745875
81	0xbd768e04	-0.06019403
82	0x3c8a8105	0.016907224
83	0xbda124c3	-0.0786834
84	0xbd2ede06	-0.042692207
85	0xbd85c6e0	-0.06532073
86	0x3df533fa	0.11972804
87	0x3d0855cc	0.033284947
88	0x3d16191b	0.036645036
89	0x3d000361	0.031253222
90	0x3d445064	0.04792823
91	0xbaf7e6ea	-0.0018913422
92	0x3c8706a8	0.016482666
93	0x3d8e0e53	0.06936326
94	0x3d31f4e2	0.04344643
95	0xbe7c082a	-0.2461249
96	0x3c453dfc	0.012038704
97	0x3d6e9eb4	0.05825682
98	0xbdc38a73	-0.095478915
99	0x3e19b3f5	0.15010054
100	0xbda0bd0f	-0.0784856
101	0x3d1a28e1	0.03763664
102	0x3dba8bd1	0.09108699
103	0xbd1eea4b	-0.038797658
104	0xbd48c9c3	-0.04902054
105	0x3d1330fe	0.035935394
106	0x3db5596e	0.08854948
107	0xbd39d0a6	-0.045365
108	0xbc04f3d6	-0.008114776
109	0xbd5f4398	-0.05450782
110	0x3d9958b6	0.074876234
111	0x3d39ddc0	0.045377493
112	0xbdc6733a	-0.096899465
113	0x3e1eb657	0.15499245
114	0xbd7c5485	-0.06160404
115	0xbd22e1a2	-0.03976596
116	0xbdba6408	-0.09101111
117	0x3d832db5	0.06405202
118	0x3e2fd959	0.17172755
119	0x3be16ac9	0.006879185
120	0x3e139b49	0.14414705
121	0xbe3c0c76	-0.18364128
122	0xbdb0b97a	-0.08629127
123	0x3dcece85	0.10097984
124	0x3e7a0347	0.24415313
125	0xbe1d01d5	-0.1533273
126	0xbd1957f9	-0.037437413
127	0xbcb1b6e3	-0.021693652
128	0xbdbaee12	-0.091274396
129	0x3db6d7a6	0.089278504
130	0xbd94a277	-0.0725755
131	0x3cf36a50	0.02971378
132	0x3e76e205	0.24109657
133	0x3db059b0	0.086108565
134	0x3e8ad3f7	0.2711484
135	0xbda494d1	-0.08036197
136	0x3d75e372	0.060031362
137	0xbda5e3db	-0.081001006
138	0xbb1bd699	-0.0023779033
139	0x3e013e2f	0.12621377
140	0x3df71b45	0.12065748
141	0xbd73f962	-0.059564
142	0x3d9c7b26	0.07640676
143	0xbe388016	-0.18017611
144	0x3c89a9f5	0.016804675
145	0xbd637f4e	-0.05554133
146	0x3dac61c2	0.08417083
147	0x3e0df2e2	0.13862184
148	0xbcfdb10b	-0.03096821
149	0xbd81c7e2	-0.06336953
150	0xbe01fd36	-0.12694249
151	0xbe03423f	-0.1281824
152	0x3d7a013b	0.06103633
153	0x3db4705e	0.08810495
154	0x3e085e69	0.13317265
155	0xbc05bc99	-0.008162641
156	0xbb235f75	-0.0024928723
157	0xbd6138ab	-0.054985683
158	0xbb367b7b	-0.0027844596
159	0x3e27d680	0.16390419
160	0x3d8960d2	0.0670792
161	0x3dda5f6f	0.10662734
162	0xbd7875e8	-0.06065932
163	0x3d67a3c7	0.056552675
164	0xbd319895	-0.043358404
165	0x3dff89ce	0.12477456
166	0x3d486fca	0.048934735
167	0x3daa1ab4	0.083058745
168	0xbd4dd235	-0.050249297
169	0xbdd2774d	-0.10276661
170	0x3ca0a392	0.019609246
171	0x3ddc0586	0.10743241
172	0x3e0cf4d3	0.13765268
173	0xbd89d7c6	-0.06730609
174	0x3c5d8f4f	0.013522937
175	0xbd29025c	-0.041262016
176	0x3d1ee1cc	0.038789555
177	0x3b5d6406	0.0033781542
178	0x3e07ed32	0.13274077
179	0xbdf1f08b	-0.11813458
180	0xbbd498e7	-0.006487954
181	0xbb19a024	-0.0023441399
182	0xbdaa7548	-0.08323151
183	0xbd9972b0	-0.07492578
184	0x3dc0cf9a	0.09414597
185	0xbd7eea9e	-0.062235467
186	0xbb7e979b	-0.0038847688
187	0x3da6d790	0.08146584
188	0xbd6e6765	-0.058204073
189	0x3e6e3232	0.23261335
190	0x3db684f4	0.089120775
191	0xbd920f8e	-0.07131873
192	0x3dbe2ad7	0.09285515
193	0x3d9ba670	0.07600105
194	0x3d75b980	0.05999136
195	0x3d74824d	0.059694577
196	0xbd19e1c6	-0.03756883
197	0x3e4268ff	0.18985365
198	0x3d87ac48	0.06624657
199	0x3da90f4e	0.08254872
200	0xbbf2af69	-0.0074061644
201	0x3dbfc8ad	0.09364448
202	0x3df80deb	0.1211203
203	0x3b41f649	0.002959626
204	0x3e1c063b	0.15236752
205	0x3d7d2918	0.06180677
206	0xbd8f128b	-0.06985959
207	0x3e513cdd	0.20433374
208	0x3dbb34e3	0.09140947
209	0x3d91c7f7	0.071182184
210	0xbda93c24	-0.08263424
211	0x3cb2ba3a	0.021817315
212	0x3db8ed50	0.09029639
213	0x3dc5b68e	0.0965396
214	0xbdf3ead0	-0.11910021
215	0x3d46e18b	0.04855494
216	0xba5a4716	-0.00083266327
217	0x3e726a1c	0.2367329
218	0x3dbc4678	0.09193128
219	0x3cc3257e	0.023821589
220	0x3cbc7edf	0.023009716
221	0xbc0ff0f6	-0.008785477
222	0x3dffe2c4	0.12494424
223	0xbe34f4dc	-0.17671531
224	0x3e46d4e8	0.19417155
225	0x3d3f7066	0.04673805
226	0x3e12df26	0.14342937
227	0xbc33d120	-0.010975152
228	0xbd3a5e67	-0.045500185
229	0x3d9ca6b7	0.07648986
230	0xbddb826b	-0.10718235
231	0x3df99199	0.12185974
232	0xbd9e5236	-0.07730524
233	0xbe0eedb1	-0.1395786
234	0x3db5caa7	0.088765435
235	0xbe6a6d72	-0.22893313
236	0xbe2dfcd3	-0.16990976
237	0x3ced6dfe	0.028983112
238	0xbdd01b66	-0.10161476
239	0x3e20b62a	0.1569449
240	0xbd7b27d6	-0.061317287
241	0xbe2f6094	-0.17126685
242	0x3e342b3c	0.17594618
243	0x3cc6533d	0.024209613
244	0xbe052855	-0.13003667
245	0xbd2813b6	-0.041034423
246	0x3d29048a	0.041264094
247	0x3d65d9ca	0.056115903
248	0x3e4b9a1b	0.19883005
249	0x3d3991d9	0.045305107
250	0x3dcfc0e4	0.10144213
251	0xbdab6723	-0.08369281
252	0xbdb58ea6	-0.08865099
253	0x3cf3614a	0.029709477
254	0xbca02388	-0.019548193
255	0xbbf86ada	-0.007581097

msg_layers.1.W_self.bias f4 [64]
0	0xbb92670d	-0.004467851
1	0xbe0ed832	-0.1394966
2	0x3d54ad6d	0.051923204
3	0xbdaead40	-0.085291386
4	0xbcd5ff8d	-0.026122833
5	0xbc25e2ec	-0.010124903
6	0xbd1e2488	-0.038609058
7	0xbc5986a1	-0.013276727
8	0x3d3addfe	0.045621864
9	0xbe252470	-0.16127181
10	0xbdd22d04	-0.10262492
11	0xbdf14e9d	-0.117825724
12	0xbc7b77bc	-0.015348371
13	0x3c00bfc0	0.007858217
14	0xbc3e3ecc	-0.011611652
15	0xbe4c028c	-0.19922847
16	0xbe00a123	-0.12561469
17	0xbbc577f1	-0.006026261
18	0x3ca7355d	0.020411188
19	0xbd0e31ef	-0.03471559
20	0x3e1406e4	0.14455754
21	0x3d7aaab9	0.06119797
22	0xbe091601	-0.133873
23	0x3daa0e63	0.08303525
24	0xbe54e9f7	-0.20792376
25	0xbe1ce36d	-0.15321131
26	0xbe07d037	-0.13263021
27	0x3caa39bc	0.020779483
28	0xbbb677ee	-0.005568496
29	0xbdd1d2bb	-0.10245272
30	0xbe3164c6	-0.17323598
31	0xbd48bd11	-0.049008433
32	0xbe036de3	-0.12834887
33	0x3d7d3071	0.061813775
34	0xbe277ea9	-0.16356911
35	0x3c772528	0.015084542
36	0xbdd98db5	-0.106227316
37	0x3c9c1a79	0.019055592
38	0x3e4f3224	0.20233971
39	0xb937e306	-0.00017536813
40	0x3db032d2	0.08603443
41	0xbdd4ff1c	-0.10400221
42	0x3d95ef78	0.07321066
43	0xbe0280aa	-0.12744394
44	0xbdfb3b67	-0.122671895
45	0xbb608ffb	-0.0034265507
46	0x3e5bc61a	0.21462288
47	0xbc3ce082	-0.011528136
48	0xbd0a3c3b	-0.033748847
49	0x3c4d83df	0.012543648
50	0xbe066d24	-0.13127571
51	0x3e0bd84f	0.13656734
52	0xbd160cc9	-0.036633287
53	0xbd8b7903	-0.068101905
54	0xbdee99c9	-0.11650426
55	0x3b882071	0.004154258
56	0x3d44d46f	0.048054155
57	0x3dfa3ceb	0.122186504
58	0xbe03b2a4	-0.12861115
59	0x3da1e1bf	0.07904386
60	0xbda06624	-0.07831982
61	0x3c90028c	0.01757934
62	0x3cff0989	0.031132476
63	0xbd7745ca	-0.06036929
