QuantLaxmi_Research/dtrn/results/checkpoints/fold3_BANKNIFTY/dtrn_stage1.pt (torch, 232927 bytes, 37 tensors)

embed.embed.0.weight f4 [32, 2]
0.0012208812 0.07686334 0.3454987 -0.70776826 0.7176283 -0.11374211 0.016565666 0.2549048
-0.4041008 0.00424073 0.13986126 -0.4918756 -0.70668864 0.5803266 -0.55070925 -0.31905022
-0.07383683 -0.70186317 0.67234904 -0.111458085 0.6567218 -0.14661907 0.38047385 0.29446483
-0.43713352 -0.53998685 0.12575485 -0.4542187 0.16067612 -0.56250554 0.82369846 -0.074338496
-0.30591854 -0.10460516 0.49583638 -0.47119 -0.0032535244 -0.5360374 0.59695166 0.44240716
0.59894305 0.38481593 0.21174131 0.5469216 -0.7210247 -0.28212184 0.6206517 0.20861071
-0.454248 0.6333985 -0.6569811 -0.0056138816 -0.5373532 -0.48974386 0.66482913 -0.21822615
0.28089455 0.106967606 -0.5474211 -0.11227616 0.6563162 0.6281183 -0.5272228 -0.381742
00000000: fa05 a03a 876a 9d3d 35e5 b03e 4d30 35bf
00000010: 7db6 373f a0f1 e8bd b8b4 873c e282 823e
00000020: 4de6 cebe d2f5 8a3b ca37 0f3e 1ed7 fbbe
00000030: 8ce9 34bf 4990 143f 48fb 0cbf 8d5a a3be
00000040: c437 97bd 4ead 33bf 111f 2c3f 2344 e4bd
00000050: eb1e 283f 4f23 16be 78cd c23e 18c4 963e
00000060: f7cf dfbe 943c 0abf e1c5 003e 5a8f e8be
00000070: 4888 243e 5d00 10bf e7dd 523f c83e 98bd
00000080: 5ba1 9cbe 3b3b d6bd 44de fd3e d13f f1be
00000090: 1539 55bb bf39 09bf d3d1 183f 3183 e23e
000000a0: 5554 193f 9806 c53e b7d2 583e 0e03 0c3f
000000b0: 1395 38bf 4672 90be 08e3 1e3f 0c9e 553e
000000c0: 3293 e8be 6726 223f ea2f 28bf a7f4 b7bb
000000d0: fb8f 09bf b5bf fabe 3e32 2a3f ad76 5fbe
000000e0: 69d1 8f3e d511 db3d ca23 0cbf 0bf1 e5bd
000000f0: 5704 283f 5ccc 203f 13f8 06bf b073 c3be

embed.embed.0.bias f4 [32]
-0.04006726 0.03546473 -0.3326565 0.5143373 0.56717944 0.3099522 0.106380746 -0.21812513
0.5909125 0.24817738 0.5797579 -0.46651712 -0.13886079 0.24261487 -0.67534935 -0.46951246
0.29505023 0.63339 -0.5604746 0.62574834 0.35171196 -0.057995815 -0.69366187 0.4033479
-0.54010034 -0.11956527 -0.5602689 -0.22011083 -0.0805247 -0.09972032 0.49862164 -0.6509902
00000000: 911d 24bd 7743 113d f451 aabe 9cab 033f
00000010: ac32 113f 0eb2 9e3e 26de d93d 325c 5fbe
00000020: 0b46 173f 3622 7e3e 046b 143f 55db eebe
00000030: 8631 0ebe 0870 783e b2e3 2cbf f063 f0be
00000040: d310 973e d925 223f 437b 0fbf 0b31 203f
00000050: 9713 b43e 058d 6dbd d393 31bf 9e83 ce3e
00000060: 0444 0abf a3de f4bd c86d 0fbf bc64 61be
00000070: 22ea a4bd 2b3a ccbd 564b ff3e 4ba7 26bf

embed.embed.2.weight f4 [32, 32]
0.111961864 -0.05646259 -0.1495349 0.13539185 0.13463187 0.026931817 -0.04788429 0.07170708
0.17840233 -0.006966327 0.14343953 0.017520942 -0.07021243 0.027532523 -0.125012 -0.16834302
0.13846005 0.26835966 0.09287721 0.14801897 -0.13692148 -0.035877813 0.07971841 -0.13166337
-0.272426 0.033784393 -0.09103421 0.048759293 -0.03401081 -0.17526971 -0.031792056 -0.19236842
0.040526114 0.093342245 -0.0022639616 0.117589705 0.08051985 -0.08043589 0.017151639 -0.13216178
-0.10580876 -0.17506559 -0.00017683132 -0.035376452 0.11398674 0.15128186 -0.10734886 0.025362527
-0.12260844 -0.03635278 0.09105887 -0.11393123 -0.05868804 -0.0158608 -0.10009172 -0.036839124
-0.17716102 -0.026959635 -0.119494356 -0.091973156 -0.06305441 -0.08262457 -0.1125251 0.031822424
-0.102844775 0.21537691 0.18456106 0.051352836 -0.08801109 0.10211507 0.049098562 -0.09080926
-0.08630691 -0.08112596 0.13787042 -0.1626658 -0.045474954 0.17557918 0.01781663 0.062393397
-0.17176807 0.10376526 -0.10414919 -0.035712086 -0.043276135 -0.025185911 -0.030549217 -0.008566679
0.07172737 0.113118865 0.15319541 0.15945782 -0.11756191 0.15907869 -0.082831234 -0.10374619
-0.09420231 0.03524099 0.11862637 -0.09269384 0.12255694 -0.118887514 0.07974969 0.16219072
0.17255266 -0.22365923 -0.1291199 -0.1009836 0.18768503 -0.13721012 0.07811255 -0.13541761
-0.05934056 -0.075369336 -0.091326736 -0.059061367 -0.17113405 0.0071720877 0.19685633 -0.08772771
-0.10672795 0.08760551 0.12302072 0.14414729 -0.12274256 0.24804878 0.009152258 0.103596024
0.0841453 -0.07064434 0.15024382 0.15115876 -0.075705834 -0.05172407 -0.14595585 0.08818796
-0.037227597 -0.06779007 0.049486183 0.027329996 0.09470281 -0.045185406 -0.15243366 0.16491446
-0.061223373 0.159112 0.10860313 0.090231866 -0.110490285 0.08032189 -0.14999384 -0.12813832
-0.08882824 0.030709008 -0.09033029 0.12139648 0.10336563 -0.05529651 -0.09834995 0.035835214
0.15080214 -0.17045811 -0.075608715 0.032327373 -0.088253126 0.10556057 -0.07442183 0.15790066
0.1680576 0.04381008 -0.14944449 0.028965697 0.02428868 -0.1229704 0.07547874 0.0117590595
0.102499425 0.050481793 -0.11152709 0.08926527 -0.112137824 -0.007404055 -0.0006525301 -0.08056171
0.10027506 -0.063907 0.13374184 0.12964462 -0.03712724 -0.08481281 0.09769703 0.0011443455
0.12885268 -0.1663426 -0.16121545 -0.05434226 -0.086554125 0.060886145 -0.044477724 0.12250679
-0.068843804 0.17516358 0.029658247 0.17005494 -0.1942444 -0.108592205 0.10078382 0.013665775
-0.14750354 0.18082832 0.09042155 0.10820502 -0.00957604 0.058414765 -0.13644639 -0.15564488
-0.050462216 0.052282263 0.03057824 -0.013616203 0.139862 -0.059352867 0.18683338 0.03246524
-0.12578383 -0.069406964 -0.074675374 -0.0913015 -0.056950845 0.09622355 0.12391815 -0.13050592
-0.085175 -0.20416544 0.05220206 -0.19984905 -0.057839897 0.028744513 -0.10046693 -0.06432691
0.17088029 -0.12068036 -0.045139957 0.0047237626 -0.05919195 -0.15495579 -0.015781544 -0.1791953
0.052541528 0.040339414 -0.09075058 -0.062171333 0.10389068 0.20715219 -0.09768004 0.16630036
00000000: 434c e53d 5145 67bd ad1f 19be 29a4 0a3e
00000010: f0dc 093e 1da0 dc3c 5122 44bd 29db 923d
00000020: 1aaf 363e c945 e4bb d0e1 123e 1488 8f3c
00000030: 89cb 8fbd e38b e13c 2503 00be 1d62 2cbe
00000040: 79c8 0d3e 7066 893e 6836 be3d 4992 173e
00000050: 2535 0cbe 9df4 12bd 6843 a33d c3d2 06be
00000060: 6c7b 8bbe 8161 0a3d 2570 babd d3b7 473d
00000070: eb4e 0bbd e779 33be 6338 02bd 3afc 44be
00000080: b6fe 253d 382a bf3d f95e 14bb dfd2 f03d
00000090: 97e7 a43d 92bb a4bd 9881 8c3c 6b55 07be
000000a0: 43b2 d8bd 6544 33be cc6b 39b9 e6e6 10bd
000000b0: e171 e93d a2e9 1a3e b8d9 dbbd 13c5 cf3c
000000c0: 221a fbbd a7e6 14bd 137d ba3d c754 e9bd
000000d0: df62 70bd 82ee 81bc e3fc ccbd 9fe4 16bd
000000e0: b369 35be 74da dcbc 75b9 f4bd 6c5c bcbd
000000f0: ac22 81bd 1237 a9bd 8f73 e6bd 3b58 023d
00000100: 48a0 d2bd c48b 5c3e 93fd 3c3e 5a57 523d
00000110: 293f b4bd b521 d13d 931b 493d 35fa b9bd
00000120: adc1 b0bd 5e25 a6bd e72d 0d3e dd91 26be
00000130: f243 3abd 07cb 333e 2ef4 913c 3890 7f3d
00000140: f8e3 2fbe e182 d43d 2c4c d5bd d646 12bd
00000150: 5142 31bd af52 cebc 5a42 fabc 425b 0cbc
00000160: cde5 923d ddaa e73d 42df 1c3e e948 233e
00000170: 4cc4 f0bd 86e5 223e 6ca3 a9bd e278 d4bd
00000180: 24ed c0bd db58 103d 62f2 f23d 45d6 bdbd
00000190: 22ff fa3d 4c7b f3bd ce53 a33d 5315 263e
000001a0: a5b1 303e ed06 65be 0238 04be 7dd0 cebd
000001b0: 8130 403e cf80 0cbe 79f9 9f3d eaaa 0abe
000001c0: 160f 73bd 3d5b 9abd 8309 bbbd 55ea 71bd
000001d0: c43d 2fbe d503 eb3b b594 493e 96aa b3bd
000001e0: 2f94 dabd 856a b33d 4af2 fb3d 599b 133e
000001f0: 7460 fbbd 8000 7e3e 5af3 153c 272a d43d
00000200: 5f54 ac3d fbad 90bd 84d9 193e 5dc9 1a3e
00000210: a90b 9bbd 9edc 53bd 7375 15be e49b b43d
00000220: f77b 18bd 85d5 8abd 06b2 4a3d 28e3 df3c
00000230: 8cf3 c13d 5514 39bd 9217 1cbe 56df 283e
00000240: 5cc5 7abd 42ee 223e 516b de3d 7ccb b83d
00000250: bb48 e2bd ce7f a43d fc97 19be b136 03be
00000260: 95eb b5bd 7591 fb3c 16ff b8bd b89e f83d
00000270: 5cb1 d33d 987e 62bd b36b c9bd f2c7 123d
00000280: e06b 1a3e 928c 2ebe bed8 9abd b569 043d
00000290: 0ebe b4bd 2430 d83d 796a 98bd b6b0 213e
000002a0: 4b17 2c3e 3372 333d fa07 19be 7849 ed3c
000002b0: 0ef9 c63c e8d7 fbbd 9994 9a3d 12a9 403c
000002c0: 38eb d13d ffc5 4e3d 5168 e4bd b6d0 b63d
000002d0: 84a8 e5bd b79d f2bb 8e0e 2bba 8afd a4bd
000002e0: 035d cd3d ace1 82bd 9ff3 083e 8fc1 043e
000002f0: bc12 18bd 57b2 adbd 6115 c83d ddfd 953a
00000300: f5f1 033e b755 2abe aa15 25be fd95 5ebd
00000310: 4a43 b1bd c063 793d 462e 36bd d7e4 fa3d
00000320: fbfd 8cbd 155e 333e daf5 f23c e222 2e3e
00000330: 01e8 46be 9765 debd bf67 ce3d 6ae6 5f3c
00000340: 2b0b 17be 0f2b 393e ef2e b93d 989a dd3d
00000350: d3e4 1cbc 5244 6f3d 9ab8 0bbe 5f61 1fbe
00000360: 78b1 4ebd ed25 563d 387f fa3c 7f16 5fbc
00000370: fc37 0f3e fe1b 73bd 4051 3f3e 46fa 043d
00000380: 7acd 00be 3d25 8ebd 67ef 98bd 48fc babd
00000390: 4a45 69bd da10 c53d cdc8 fd3d 58a3 05be
000003a0: 3b70 aebd bf10 51be d4d1 553d 3ba5 4cbe
000003b0: 87e9 6cbd 9d79 eb3c 9bc1 cdbd d4bd 83bd
000003c0: 3efb 2e3e 4427 f7bd ade4 38bd cbc9 9a3b
000003d0: 4273 72bd bbac 1ebe 4c48 81bc f97e 37be
000003e0: c935 573d f13a 253d 71db b9bd 5ea7 7ebd
000003f0: a3c4 d43d b41f 543e 790c c8bd a44a 2a3e

embed.embed.2.bias f4 [32]
-0.051897135 0.15761875 0.07915164 0.12795891 0.13675538 0.08164917 0.1824429 0.15728118
0.11294265 -0.0852224 -0.097062826 -0.10324336 0.057868436 0.04068772 0.14151472 0.044623986
0.068150945 0.13344187 -0.06936539 0.12509596 0.050240833 -0.14108017 0.13889539 0.118317805
0.1398609 0.06718106 -0.12215666 0.10219876 -0.07882949 -0.13852382 0.08005921 -0.117298506
00000000: 1792 54bd cf66 213e 411a a23d a907 033e
00000010: 9a09 0c3e ae37 a73d 50d2 3a3e 510e 213e
00000020: 7a4e e73d 1589 aebd e0c8 c6bd 4171 d3bd
00000030: 7407 6d3d 2ba8 263d 3ce9 103e a4c7 363d
00000040: b992 8b3d fca4 083e 710f 8ebd 2819 003e
00000050: 55c9 4d3d 5277 10be 983a 0e3e 9b50 f23d
00000060: b237 0f3e 3996 893d 452d fabd 954d d13d
00000070: 5b71 a1bd 30d9 0dbe 15f6 a33d 333a f0bd

input_proj.weight f4 [64, 32]
-0.2497527 -0.10001913 -0.055434596 -0.09048255 -0.092076324 -0.12882605 -0.2021023 0.09026294
0.11394041 -0.15170367 0.051360603 0.21017523 0.039631795 -0.12500072 0.1344099 0.09555235
0.10828609 -0.1251506 -0.12031356 -0.1084684 0.12081927 0.09905583 0.10889664 0.07948075
-0.10864854 -0.2380084 0.20575571 -0.037444733 -0.16465789 -0.09503396 -0.2519789 -0.068059884
-0.066304624 0.032642584 0.10096224 0.10817312 -0.058171317 -0.030404149 -0.17075339 0.14506896
0.079120874 -0.024440546 0.042370275 -0.028444232 0.124564126 -0.08219133 -0.10701215 0.15411411
-0.015806753 0.1860975 -0.065764405 -0.11472006 0.13730995 0.13368946 0.034648173 -0.0465951
0.0053102616 -0.13190772 -0.0859556 -0.08505923 -0.11912316 -0.066463664 0.057506632 0.08263057
0.07640658 -0.02361485 0.16610105 -0.16598468 0.037586093 -0.094027966 0.027188253 -0.19062905
0.029445456 -0.1415165 0.18566209 -0.074982546 -0.036874924 0.13893712 -0.025198769 0.20477794
0.16343023 -0.10464276 -0.014927896 0.13262618 0.039364077 0.075715706 -0.0026912785 0.050931014
-0.0010797599 -0.05196597 -0.06271073 -0.008275842 -0.076196514 0.00663685 0.053510018 -0.13609843
-0.0122835925 -0.1417555 -0.14094728 -0.037177492 -0.10421244 -0.1540283 0.0011123578 -0.14874241
-0.106481366 -0.04499651 0.0030154684 0.028909754 0.079817146 -0.0049521476 0.09767949 0.07791491
-0.08992467 0.0047417004 -0.056355197 0.21383859 -0.18471666 -0.040055398 -0.13546033 0.071180545
0.10198136 -0.13496557 -0.13270473 -0.10401718 0.13616303 -0.13588375 0.17360543 0.09906892
-0.05091638 -0.11936421 -0.14471696 0.130012 -0.14077727 -0.040927757 -0.014421083 0.0802799
0.13523322 0.1238844 0.17630315 -0.03508482 -0.13248877 0.07609782 -0.1805886 0.037100054
-0.0145928 -0.013690631 0.037393134 0.062744565 0.03846218 -0.00865768 -0.047302257 -0.08949231
-0.14062664 0.06461946 -0.07659499 0.099057026 -0.11009802 0.18049878 -0.08150885 -0.14365634
0.18301089 0.22313415 0.10873836 -0.09847952 -0.02419312 -0.14713469 -0.1181107 -0.13206139
0.14161497 0.16821915 0.10590046 0.062406033 0.061901 -0.047705013 0.03695336 0.14195408
0.0013444192 0.09672448 -0.07231348 0.14612305 -0.04304019 -0.08010559 0.04265404 0.048077855
0.17001258 0.04039548 0.15348841 -0.09746593 -0.0198726 0.14513808 0.05038358 -0.1449608
-0.008478802 -0.006672751 0.053405292 0.1027235 0.14459683 0.1264604 -0.16296856 -0.17713355
-0.1390878 0.089292854 0.09468883 0.05687046 0.08045475 0.052582633 0.02327503 -0.020324403
-0.04834649 -0.059254084 -0.100315295 -0.0932468 0.0965047 0.023535755 -0.116780415 0.08718252
-0.13397 0.15079881 -0.18337674 -0.03364023 0.16919675 0.17811306 -0.14508803 -0.025631778
0.06645278 -0.16444951 0.11674211 -0.039828297 0.06885534 -0.021103939 0.13805886 -0.043033816
-0.05061646 0.18448247 -0.14106248 0.08446948 0.0394284 0.0364353 -0.07768381 0.12011976
0.09626184 0.004031334 -0.056334678 0.15176934 -0.11612298 -0.09163265 -0.1559646 -0.0849268
-0.15217148 -0.16841933 0.13778074 -0.08970156 0.1715013 -0.124495715 0.10685602 0.11547718
00000000: 2cbf 7fbe d4d6 ccbd 630f 63bd ea4e b9bd
00000010: 8392 bcbd faea 03be e8f3 4ebe c7db b83d
00000020: 9759 e93d 3558 1bbe 7f5f 523d 2d38 573e
00000030: f354 223d 3000 00be c0a2 093e f3b0 c33d
00000040: 19c5 dd3d 7b27 00be f566 f6bd ae24 debd
00000050: 1870 f73d c8dd ca3d 3405 df3d cec6 a23d
00000060: 2083 debd 79b8 73be a0b1 523e a65f 19bd
00000070: 149c 28be 2aa1 c2bd 6103 81be fb62 8bbd
00000080: b8ca 87bd 3bb4 053d 4ac5 ce3d de89 dd3d
00000090: 0c45 6ebd 1f12 f9bc fad9 2ebe f58c 143e
000000a0: 200a a23d 8a37 c8bc 748c 2d3d e103 e9bc
000000b0: 7a1b ff3d ee53 a8bd 3029 dbbd 17d0 1d3e
000000c0: 2a7d 81bc 5890 3e3e 7daf 86bd 5af2 eabd
000000d0: fb9a 0c3e e4e5 083e 3eeb 0d3d 81da 3ebd
000000e0: b401 ae3b d112 07be 7d09 b0bd 8933 aebd
000000f0: d8f6 f3bd 1a1e 88bd 138c 6b3d 373a a93d
00000100: 0e7b 9c3d ee73 c1bc 6516 2a3e e3f7 29be
00000110: e0f3 193d bc91 c0bd e6b9 de3c 4334 43be
00000120: 9937 f13c b4e9 10be 341e 3e3e 7390 99bd
00000130: 290a 17bd 8845 0e3e a66d cebc 4fb1 513e
00000140: 415a 273e f14e d6bd 2294 74bc 28cf 073e
00000150: 3a3c 213d d610 9b3d 2960 30bb 0a9d 503d
00000160: bb86 8dba 45da 54bd 7c6e 80bd 6697 07bc
00000170: eb0c 9cbd ef79 d93b 522d 5b3d 635d 0bbe
00000180: 1f41 49bc 5b28 11be 7c54 10be 6d47 18bd
00000190: 556d d5bd 98b9 1dbe 89cc 913a ee4f 18be
000001a0: e712 dabd 434e 38bd 2a9f 453b 26d4 ec3c
000001b0: 2c77 a33d a045 a2bb 2f0c c83d da91 9f3d
000001c0: 6d2a b8bd 4460 9b3b b5d4 66bd 81f8 5a3e
000001d0: 5d26 3dbe 2111 24bd 1db6 0abe 1bc7 913d
000001e0: 9adb d03d 6a34 0abe c0e3 07be f606 d5bd
000001f0: 526e 0b3e 1c25 0bbe 9fc5 313e a5e4 ca3d
00000200: b28d 50bd 3975 f4bd af30 14be de21 053e
00000210: eb27 10be dda3 27bd 6846 6cbc ca69 a43d
00000220: 947a 0a3e 1bb7 fd3d d088 343e 1ab5 0fbd
00000230: 23ab 07be 2dd9 9b3d 38ec 38be 3af6 173d
00000240: a416 6fbc ab4e 60bc 8b29 193d 3980 803d
00000250: 858a 1d3d f1d8 0dbc 03c0 41bd bf47 b7bd
00000260: 6e00 10be 3557 843d d6dd 9cbd 69de ca3d
00000270: 127b e1bd acd4 383e 1dee a6bd a61a 13be
00000280: 3567 3b3e 477d 643e 38b2 de3d a1af c9bd
00000290: a630 c6bc 7aaa 16be 06e4 f1bd 1a3b 07be
000002a0: 8403 113e a441 2c3e 57e2 d83d 789d 7f3d
000002b0: e78b 7d3d 5566 43bd 685c 173d 695c 113e
000002c0: 3937 b03a 7c17 c63d 1719 94bd 48a1 153e
000002d0: e94a 30bd 660e a4bd 01b6 2e3d 49ed 443d
000002e0: c717 2e3e bb75 253d 112c 1d3e 389c c7bd
000002f0: ddcb a2bc 149f 143e 035f 4e3d 9b70 14be
00000300: acea 0abc 18a7 dabb 82bf 5a3d b360 d23d
00000310: 3111 143e d67e 013e 3be1 26be 7f62 35be
00000320: 086d 0ebe 2cdf b63d 38ec c13d 00f1 683d
00000330: 76c5 a43d e360 573d 47ab be3c 5d7f a6bc
00000340: f806 46bd 69b4 72bd 1b72 cdbd 2ef8 bebd
00000350: 42a4 c53d 0ece c03c 922a efbd c08c b23d
00000360: 6f2f 09be 016b 1a3e 1dc7 3bbe 56ca 09bd
00000370: ea41 2d3e 4563 363e f591 14be bcf9 d1bc
00000380: 6518 883d 7465 28be 7d16 ef3d ff22 23bd
00000390: 0704 8d3d 2be2 acbc 4d5f 0d3e 3a44 30bd
000003a0: 3553 4fbd f9e8 3c3e af72 10be 56fe ac3d
000003b0: ad7f 213d 2e3d 153d b018 9fbd 5901 f63d
000003c0: ed24 c53d 4819 843b 31bf 66bd 6c69 1b3e
000003d0: e3d1 edbd e6a9 bbbd 2fb5 1fbe 1aee adbd
000003e0: d7d2 1bbe 1e76 2cbe 6516 0d3e 74b5 b7bd
000003f0: 099e 2f3e 9cf7 febd 54d7 da3d 4d7f ec3d

input_proj.bias f4 [64]
-0.1418098 -0.14104323 0.10216764 0.024221966 0.18855661 0.07187112 0.12570558 0.108152814
-0.14114846 -0.16222392 0.05824272 0.044864252 0.10625234 -0.10548388 -0.085630745 0.12817822
-0.04189012 -0.13701388 0.20642069 -0.10468304 -0.043447383 -0.010549039 0.13117386 -0.06814454
0.021679712 -0.069067225 0.048667397 0.037107244 0.03149515 -0.017607566 -0.034158282 0.08578291
-0.15379004 -0.05723157 -0.04784623 0.14273682 0.11526514 0.16835396 0.017932132 -0.013804709
0.079153895 0.039670102 0.05671185 -0.0015239097 0.0012193681 -0.15224051 -0.018587256 0.17192084
0.19472806 0.19249444 -0.02436769 -0.021980595 0.09245003 0.12479979 -0.019289972 0.11456598
0.075620115 0.05182315 -0.1544813 0.08087219 0.07749149 0.015486284 0.18073 0.057871163
00000000: 9736 11be a36d 10be 453d d13d 256d c63c
00000010: fc14 413e 2a31 933d f7b8 003e 397f dd3d
00000020: 3989 10be 071e 26be eb8f 6e3d 94c3 373d
00000030: d49a d93d ef07 d8bd 2c5f afbd 2741 033e
00000040: f994 2bbd 5e4d 0cbe f25f 533e 1064 d6bd
00000050: e2f5 31bd e0d5 2cbc 7152 063e 5d8f 8bbd
00000060: a799 b13c 1e73 8dbd 7757 473d c4fd 173d
00000070: 0f01 013d be3d 90bc 8ee9 0bbd f3ae af3d
00000080: 237b 1dbe a76b 6abd 69fa 43bd 9a29 123e
00000090: 2110 ec3d fb64 2c3e 68e6 923c 252d 62bc
000000a0: 701b a23d 1e7d 223d af4a 683d edbd c7ba
000000b0: 34d3 9f3a f0e4 1bbe 4d44 98bc 040c 303e
000000c0: cb66 473e 431d 453e c09e c7bc a610 b4bc
000000d0: 7156 bd3d 0897 ff3d 0106 9ebc 92a1 ea3d
000000e0: b8de 9a3d 8344 543d 5930 1ebe 52a0 a53d
000000f0: dcb3 9e3d 2fba 7d3c 4911 393e 500a 6d3d

msg_layers.0.W_self.weight f4 [64, 64]
0.097313106 -0.055453822 0.022300048 -0.068197906 -0.07235994 0.046938226 -0.008117559 -0.023173679
0.16074711 -0.070078656 0.008655329 0.03291709 -0.08126205 0.145924 0.016784176 0.0071760276
-0.10474535 -0.0829064 -0.080204695 0.02288817 0.0029956563 -0.091931865 -0.0068444344 0.03976476
0.081436396 0.05781325 0.10300148 0.12264303 0.08188442 -0.06353745 0.096663184 0.1390696
0.07199573 -0.16337071 0.07365278 -0.04478509 0.12161116 0.11109649 -0.035536908 -0.09060717
-0.055891003 0.09708861 -0.04969316 -0.096045814 0.023377245 -0.11306886 0.06907645 -0.03671624
-0.12829039 -0.015867343 -0.028598592 0.04872168 0.04696174 -0.021390408 -0.08097179 -0.1305673
0.08143541 -0.034380585 0.0682771 -0.08732371 0.06809925 0.06900538 0.032226082 0.08140413
0.10773541 -0.037657958 0.07370574 -0.0013567635 -0.05394972 0.040385634 0.05293248 0.03470637
0.0034840403 -0.055392317 0.05780137 -0.08821818 -0.106307946 -0.034064714 0.013292658 -0.041288376
0.07844925 0.08104002 -0.106099404 -0.03007572 0.11250746 -0.08156285 -0.12472268 0.075624526
0.0502907 0.013770205 0.05931125 0.06883436 -0.02989685 -0.08324597 0.048440985 -0.009069138
0.08724906 0.023274308 0.060008515 -0.022539154 -0.015095712 -0.040344834 0.051726907 -0.039268013
0.005246895 -0.036963977 -0.043593857 0.11103547 0.027431924 0.05833161 -0.06744285 0.0072929636
0.05724235 0.06602124 0.097774036 0.13706836 0.04091177 -0.046592154 -0.011139712 -0.120155446
0.052909713 -0.0961467 0.11982639 -0.06624775 0.025504094 -0.04602597 -0.10225166 0.077409886
0.025068514 -0.012283728 -0.09367839 -0.116420105 -0.10469304 -0.08720432 -0.018077912 0.050223347
-0.041075766 -0.09783297 0.048353136 0.0671013 -0.121647626 -0.19260189 0.08976238 -0.0068391063
0.02098838 -0.14633244 -0.049768344 0.0008704263 0.09056849 -0.066184506 0.020171905 0.080698386
0.004382523 -0.03276151 -0.069217786 -0.0991236 0.02561176 0.041518725 0.039191846 -0.18936788
-0.07081193 0.1356267 -0.05014236 -0.060562875 0.038926452 0.088201046 0.004518053 0.100519136
-0.10665264 -0.084119044 0.090868354 0.014949804 0.026363192 0.090404786 0.07148048 0.015590771
-0.012458159 0.12359648 0.031044248 -0.1232067 -0.055199344 -0.086221 -0.10304664 -0.05550241
-0.14402169 -0.031599708 -0.01978035 0.09293721 -0.11498714 -0.0877896 -0.085969836 0.002244148
-0.026133085 0.010856843 0.039593477 -0.13582483 -0.03708718 -0.0033707274 0.022674829 0.009293183
-0.11352811 0.010786699 -0.14200409 -0.048368096 -0.109278485 -0.1238303 0.113531 0.08650407
0.016983269 0.05735708 0.043029703 0.020373166 -0.013748315 0.10859928 -0.06803807 -0.0235614
-0.020667102 0.06934388 0.06320975 -0.06902223 0.025279451 -0.13523449 0.021659462 -0.023907732
0.014447115 0.086088926 -0.037388153 -0.06537999 0.06166008 -0.023821693 -0.01096375 0.088181674
0.03887419 -0.004354424 0.10087111 -0.036350038 0.00513787 -0.040988017 -0.02457265 -0.059526104
0.06315099 0.084674746 -0.077978015 0.039965123 -0.109778605 0.10258058 0.042224333 -0.12099658
0.039833926 0.09749992 0.04667489 0.036848187 -0.05482797 -0.031249708 0.07626988 0.12781908
00000000: 184c c73d 8c23 63bd 97ae b63c 58ab 8bbd
00000010: 7331 94bd 4c42 403d 83ff 04bc bad6 bdbc
00000020: e49a 243e 6685 8fbd 15cf 0d3c 12d4 063d
00000030: b86c a6bd 1a6d 153e f87e 893c e224 eb3b
00000040: bb84 d6bd d5ca a9bd 5c42 a4bd f97f bb3c
00000050: c652 443b c646 bcbd 4747 e0bb 5fe0 223d
00000060: 20c8 a63d 96cd 6c3d 71f2 d23d 452c fb3d
00000070: 05b3 a73d ec1f 82bd 59f7 c53d 4368 0e3e
00000080: 7f72 933d a74a 27be 45d7 963d 9270 37bd
00000090: 460f f93d 8e86 e33d 268f 11bd 4090 b9bd
000000a0: f7ed 64bd 65d6 c63d 0e8b 4bbd abb3 c4bd
000000b0: a381 bf3c a590 e7bd f477 8d3d c563 16bd
000000c0: 8e5e 03be 3bfc 81bc 9847 eabc 6290 473d
000000d0: f45a 403d f03a afbc 8ad4 a5bd 6fb3 05be
000000e0: 9cc7 a63d a8d2 0cbd ddd4 8b3d c6d6 b2bd
000000f0: 9f77 8b3d b152 8d3d 7fff 033d 35b7 a63d
00000100: 62a4 dc3d 3b3f 1abd 09f3 963d 6ed5 b1ba
00000110: 62fa 5cbd 686b 253d bacf 583d 4428 0e3d
00000120: 7f54 643b 0ee3 62bd 21c1 6c3d bcab b4bd
00000130: fbb7 d9bd 7187 0bbd 73c9 593c 001e 29bd
00000140: 00aa a03d 4ff8 a53d a54a d9bd 5b61 f6bc
00000150: 506a e63d 6c0a a7bd 9b6e ffbd 08e1 9a3d
00000160: 9ffd 4d3d 6d9c 613c 5af0 723d 07f9 8c3d
00000170: 3dea f4bc dd7c aabd 0e6a 463d b996 14bc
00000180: a3af b23d c3a9 be3c 7dcb 753d 08a4 b8bc
00000190: 0154 77bc a040 25bd 98df 533d 7fd7 20bd
000001a0: 25ee ab3b 8a67 17bd 798f 32bd 9166 e33d
000001b0: eab8 e03c 20ed 6e3d 7a1f 8abd d0f9 ee3b
000001c0: f476 6a3d 2536 873d c13d c83d a65b 0c3e
000001d0: 1a93 273d 6ad7 3ebd 5783 36bc 0f14 f6bd
000001e0: dbb7 583d 90e8 c4bd 8a67 f53d e6ac 87bd
000001f0: f6ed d03c ba85 3cbd 5169 d1bd 1389 9e3d
00000200: 7c5c cd3c b141 49bc 75da bfbd aa6d eebd
00000210: 4e69 d6bd 2e98 b2bd 2118 94bc ffb6 4d3d
00000220: 103f 28bd a75c c8bd f00d 463d 686c 893d
00000230: 6422 f9bd 6e39 45be 57d5 b73d 951a e0bb
00000240: d3ef ab3c 2cd8 15be e4d9 4bbd 522d 643a
00000250: f97b b93d be8b 87bd 8d3f a53c 3245 a53d
00000260: 449b 8f3b ef30 06bd 0ec2 8dbd 5001 cbbd
00000270: c1cf d13c 8a0f 2a3d a187 203d a7e9 41be
00000280: d805 91bd bae1 0a3e 1362 4dbd c710 78bd
00000290: 5871 1f3d c0a2 b43d 2d0c 943b fadc cd3d
000002a0: b36c dabd 9b46 acbd 3019 ba3d 06f0 743c
000002b0: 9ff7 d73c 2526 b93d 5c64 923d 6f70 7f3c
000002c0: 4e1d 4cbc 2720 fd3d 8250 fe3c cb53 fcbd
000002d0: b518 62bd a394 b0bd 1e0a d3bd 7f56 63bd
000002e0: 6c7a 13be b26e 01bd 670a a2bc dd55 be3d
000002f0: 617e ebbd 09cb b3bd f410 b0bd 8e12 133b
00000300: 0d15 d6bc e6e0 313c c52c 223d aa15 0bbe
00000310: bae8 17bd 6ce7 5cbb 90c0 b93c 6f42 183c
00000320: 6d81 e8bd b2ba 303c 8569 11be a01d 46bd
00000330: 66cd dfbd be9a fdbd f182 e83d 0c29 b13d
00000340: 7f20 8b3c 42ef 6a3d ea3f 303d a0e5 a63c
00000350: 9d40 61bc 4d69 de3d 8b57 8bbd d603 c1bc
00000360: 0e4e a9bc 2a04 8e3d 1d74 813d 875b 8dbd
00000370: da16 cf3c e97a 0abe 2f6f b13c 26da c3bc
00000380: 98b3 6c3c 644f b03d 5224 19bd f2e5 85bd
00000390: 488f 7c3d b625 c3bc 4da1 33bc 9898 b43d
000003a0: 8b3a 1f3d 8eaf 8ebb 8395 ce3d c7e3 14bd
000003b0: 945b a83b 0de3 27bd 954c c9bc a5d1 73bd
000003c0: 4e55 813d f469 ad3d f0b2 9fbd 78b2 233d
000003d0: 9bd3 e0bd c415 d23d 6cf3 2c3d 0ecd f7bd
000003e0: e628 233d 0aae c73d 2b2e 3f3d 20ee 163d
000003f0: 4b93 60bd 63ff ffbc 6233 9c3d 01e3 023e

msg_layers.0.W_self.bias f4 [64]
-0.17543896 0.0682456 -0.08482904 0.02760442 0.10572783 0.13724187 0.09931941 -0.03169743
-0.026476702 -0.08388221 -0.04590108 -0.05653641 -0.022779137 0.08609422 -0.0027826035 -0.021040918
0.076725565 -0.14060353 -0.012001098 -0.08126867 0.04057874 0.07134995 -0.10766959 -0.057030365
-0.09410527 0.015353002 0.09028384 0.097321585 0.005721682 0.049307916 -0.026780197 0.09858007
-0.019634668 -0.0882747 0.035337444 -0.026826423 0.042320076 0.041017644 0.10488806 0.11972283
0.12876785 0.028457357 -0.03738965 0.006715279 -0.099005766 0.12309442 -0.08981879 -0.015202339
0.12482559 0.06220872 0.03106732 -0.14040853 0.03183728 0.13743137 -0.0922929 0.015452785
0.07312405 -0.13396509 0.043677617 0.048338335 0.0075515695 0.082524545 0.030120432 0.049113695
00000000: 45a6 33be 59c4 8b3d d9ba adbd aa22 e23c
00000010: d587 d83d 2289 0c3e fa67 cb3d 2ad5 01bd
00000020: abe5 d8bc 70ca abbd c502 3cbd b992 67bd
00000030: 509b babc 2b52 b03d 575c 36bb 015e acbc
00000040: 4b22 9d3d 5ffa 0fbe 41a0 44bc 3070 a6bd
00000050: e535 263d ec1f 923d e081 dcbd ac98 69bd
00000060: 44ba c0bd 288b 7b3c bce6 b83d 8a50 c73d
00000070: f37c bb3b 19f7 493d 2562 dbbc 59e4 c93d
00000080: e2d8 a0bc 5ec9 b4bd ffbd 103d 16c3 dbbc
00000090: d157 2d3d 1e02 283d 8dcf d63d 3e31 f53d
000000a0: b8db 033e 671f e93c e425 19bd d80b dc3b
000000b0: 89c3 cabd ed18 fc3d eaf2 b7bd 3b13 79bc
000000c0: 8fa4 ff3d 92ce 7e3d e480 fe3c 41c7 0fbe
000000d0: cf67 023d cfba 0c3e 0f04 bdbd ae2d 7d3c
000000e0: 10c2 953d 252e 09be 4de7 323d 6bfe 453d
000000f0: 2873 f73b a102 a93d 20bf f63c 712b 493d

msg_layers.0.W_msg.weight f4 [64, 64]
0.08306026 -0.0107585285 0.11760642 0.018800605 0.18747625 0.10344032 0.005170922 0.056098394
0.011465273 -0.062728815 0.1196085 -0.03484681 -0.03856364 -0.10050174 0.019428907 0.08546827
0.13975903 -0.12786502 0.038989197 -0.08328334 -0.151599 -0.024902795 -0.07279023 0.10221984
-0.09895002 -0.0478001 -0.031839404 -0.13993633 -0.008808096 -0.008710967 0.0984713 0.04133056
-0.018458558 -0.109299876 -0.084071085 0.034107946 -0.06532626 0.07666328 0.018393254 0.0010165066
-0.09029115 -0.104862355 0.042995155 0.1449264 -0.10275503 0.124244 -0.04917279 0.10311638
0.09834615 0.0628916 -0.02311915 -0.018172419 0.003578578 0.018690601 -0.067158565 -0.10396697
-0.071014315 0.034254592 -0.09758147 -0.033568375 -0.113483444 -0.110695906 0.074169785 -0.06008659
0.08103586 -0.06523839 -0.10033902 0.102247104 -0.013214189 -0.08164099 0.09037096 0.038616095
-0.080675654 -0.098751694 0.040557627 0.025256103 0.011687187 -0.091176316 -0.096741006 0.06751809
-0.086218774 0.016587703 0.055148102 -0.102725595 -0.11092866 0.02868575 0.018129472 0.016574236
-0.028672945 0.13999487 0.10555007 -0.103281066 0.09857216 -0.035908613 -0.10226212 -0.091108
0.046746474 -0.093165666 -0.054146722 -0.11889151 -0.11122027 0.018839251 -0.07606062 -0.107538216
0.074528486 0.042039625 -0.058407277 -0.00046513087 0.05190396 -0.07105656 -0.030591588 0.10740791
-0.05283665 -0.0066178427 -0.09351151 0.08206355 0.028557165 -0.02927977 -0.059119225 0.03171877
0.006411278 0.10411386 0.07219262 0.124645755 0.007112961 0.06855719 -0.1296142 0.058621265
0.046521973 0.016207665 -0.09348911 0.08677278 0.05866708 -0.056286238 -0.026529022 -0.060946237
-0.050064478 -0.016181326 -0.13300312 0.03239126 -0.08997592 0.1485423 -0.05139072 0.006872292
0.07354016 0.167371 -0.16546862 -0.07603213 0.012675158 0.08955158 0.06125518 -0.044999097
0.05541939 -0.07485201 -0.122510195 -0.05874321 0.00048452555 -0.032621488 0.011113186 0.08133654
0.086484015 -0.094464384 0.080320254 -0.040230826 -0.09693199 -0.04474289 -0.1779111 0.04706373
-0.15045018 0.019690702 0.03407528 -0.01384481 -0.064744666 0.046277888 -0.072537445 -0.07339945
-0.07206141 -0.13968995 -0.020038018 0.060646314 0.0058240048 -0.031804115 0.08302618 -0.037918642
0.031901143 -0.07639513 0.025025483 0.071822286 0.049801964 -0.09124842 -0.124538116 0.101928264
0.042986304 0.021967815 0.058725312 0.0031118852 0.036485367 -0.027151033 0.10214659 -0.121904984
0.07946423 -0.0040749586 -0.11390879 0.036543805 0.02467357 0.0015710621 0.14477453 -0.066887066
-0.101715155 0.047951203 0.050692055 0.109262265 0.12890723 0.04725051 0.092230015 -0.10561146
-0.0998837 0.009551848 -0.042284574 0.016833069 -0.04443904 0.054014314 0.119584456 -0.004763986
-0.08130533 0.02637573 -0.110718705 0.055601716 0.055411957 -0.049727697 -0.12798059 0.09298379
-0.13465819 0.14131248 -6.405758e-05 -0.09715555 -0.09540794 0.051242918 -0.051422186 0.099832304
0.10234082 -0.09142181 -0.032581892 0.09273979 0.05879707 -0.03937252 0.20299493 0.088831566
0.0784995 0.104561284 0.050943222 -0.07692595 0.03629668 -0.028243117 0.008360361 0.04952493
00000000: 7f1b aa3d 8a44 30bc a2db f03d ba03 9a3c
00000010: c6f9 3f3e 85d8 d33d d670 a93b 6ec7 653d
00000020: d7d8 3b3c f777 80bd 4df5 f43d 87bb 0ebd
00000030: e8f4 1dbd dbd3 cdbd 5f29 9f3c fd09 af3d
00000040: fe1c 0f3e 0cef 02be 23b3 1f3d 7590 aabd
00000050: c53c 1bbe f200 ccbc 0b13 95bd a358 d13d
00000060: 4fa6 cabd 0aca 43bd 096a 02bd 784b 0fbe
00000070: d54f 10bc 72b8 0ebc 52ab c93d 3c4a 293d
00000080: 6736 97bc 9dd8 dfbd 762d acbd c6b4 0b3d
00000090: c6c9 85bd a301 9d3d 73ad 963c 4d3c 853a
000000a0: 91ea b8bd 13c2 d6bd b01b 303d 9667 143e
000000b0: 3b71 d2bd a373 fe3d 6869 49bd ae2e d33d
000000c0: b569 c93d 50cd 803d 5f64 bdbc 53de 94bc
000000d0: 9386 6a3b 081d 993c 6e8a 89bd a3ec d4bd
000000e0: f46f 91bd 8b4e 0c3d cbd8 c7bd fe7e 09bd
000000f0: 026a e8bd 89b4 e2bd 54e6 973d 5b1d 76bd
00000100: 21f6 a53d b49b 85bd 8b7e cdbd ee66 d13d
00000110: 5380 58bc 6433 a7bd 6914 b93d e92b 1e3d
00000120: 4739 a5bd 543e cabd c11f 263d e3e5 ce3c
00000130: 9d7b 3f3c a6ba babd 2620 c6bd ed46 8a3d
00000140: 7893 b0bd efe2 873c fae2 613d cc61 d2bd
00000150: 912e e3bd 61fe ea3c 4284 943c b1c6 873c
00000160: 86e3 eabc d15a 0f3e a32a d83d 0685 d3bd
00000170: 33e0 c93d e914 13bd cd6e d1bd d596 babd
00000180: 3b79 3f3d a4cd bebd f4c8 5dbd 647d f3bd
00000190: 74c7 e3bd c654 9a3c acc5 9bbd ff3c dcbd
000001a0: 64a2 983d be31 2c3d 783c 6fbd cfdc f3b9
000001b0: 3f99 543d 1a86 91bd 369b fabc aef8 db3d
000001c0: 3e6b 58bd 7dda d8bb f682 bfbd ef10 a83d
000001d0: b7f0 e93c 21dc efbc 0027 72bd 8aeb 013d
000001e0: b315 d23b a639 d53d b9d9 933d 4646 ff3d
000001f0: d713 e93b b667 8c3d 96b9 04be da1c 703d
00000200: d38d 3e3d f0c5 843c 3877 bfbd edb5 b13d
00000210: e44c 703d 668c 66bd 6453 d9bc c3a2 79bd
00000220: 6910 4dbd b38e 84bc f831 08be b3ac 043d
00000230: 4c45 b8bd 791b 183e 137f 52bd f730 e13b
00000240: 399c 963d 4e63 2b3e 9b70 29be bcb6 9bbd
00000250: 77ab 4f3c d266 b73d b6e6 7a3d f950 38bd
00000260: 71ff 623d 034c 99bd a0e6 fabd b89c 70bd
00000270: eb07 fe39 1c9e 05bd 1514 363c c693 a63d
00000280: 881e b13d 8b76 c1bd f27e a43d 14c9 24bd
00000290: 4784 c6bd 5244 37bd 542e 36be e6c5 403d
000002a0: 9d0f 1abe 654e a13c 8592 0b3d 58d5 62bc
000002b0: da98 84bd e28d 3d3d 838e 94bd 7352 96bd
000002c0: ef94 93bd e20a 0fbe c526 a4bc 4568 783d
000002d0: 4bd7 be3b 0845 02bd a109 aa3d 9450 1bbd
000002e0: c6aa 023d 0d75 9cbd 3e02 cd3c 9017 933d
000002f0: 25fd 4b3d 74e0 babd d70d ffbd c4bf d03d
00000300: 6812 303d d9f5 b33c f489 703d c5f0 4b3b
00000310: ae71 153d d86b debc 3b32 d13d 52a9 f9bd
00000320: 24be a23d 3b87 85bb 0349 e9bd f5ae 153d
00000330: 3a20 ca3c 19ec cd3a c63f 143e 16fc 88bd
00000340: 0950 d0bd 7b68 443d 79a2 4f3d e5c4 df3d
00000350: 4200 043e c089 413d 17e3 bc3d d24a d8bd
00000360: d38f ccbd 5b7f 1c3c 9732 2dbd 81e5 893c
00000370: b605 36bd 1d3e 5d3d b2e8 f43d 361b 9cbb
00000380: 6983 a6bd ea11 d83c 7dc0 e2bd a0be 633d
00000390: a6f7 623d 45af 4bbd 580d 03be 496e be3d
000003a0: d6e3 09be 38b4 103e a756 86b8 7df9 c6bd
000003b0: 3d65 c3bd 18e4 513d 12a0 52bd e174 cc3d
000003c0: 1098 d13d 5c3b bbbd 9774 05bd 5cee bd3d
000003d0: 32d5 703d 1445 21bd e7dd 4f3e 53ed b53d
000003e0: 59c4 a03d 3a24 d63d d7a9 503d 5a8b 9dbd
000003f0: d4ab 143d 1c5e e7bc e5f9 083c a7da 4a3d

msg_layers.0.W_msg.bias f4 [64]
0.08297992 0.108439595 -0.10582169 0.029011384 0.010370899 0.056454144 0.034266677 0.004040071
0.025915591 -0.08698984 0.016961487 0.10265315 -0.12301105 -0.05237287 0.028311118 0.10410371
0.05586349 -0.06550723 -0.07455635 0.108369574 0.09659702 0.11529893 0.0734775 0.014152029
-0.09532966 -0.08493823 0.035356946 -0.057574615 -0.07543397 0.049662508 -0.092693925 -0.119522035
0.09911281 -0.013834245 0.14855646 -0.0033532844 0.12808019 -0.066065416 -0.01754121 -0.047246344
0.027592594 0.011251169 0.010723591 -0.032376103 0.06111564 0.020051436 -0.10866236 0.10419929
0.076017566 -0.119827844 0.08633031 0.0046751103 -0.00037910623 0.07228074 0.13072401 -0.037761938
-0.020925038 -0.012866751 0.08171709 0.096226506 0.018750953 0.13681938 0.099579066 -0.04980149
00000000: 60f1 a93d 9415 de3d 0bb9 d8bd 48a9 ed3c
00000010: b4ea 293c 763c 673d 375b 0c3d 9262 843b
00000020: ef4c d43c bb27 b2bd d1f2 8a3c d13b d23d
00000030: 38ed fbbd ef84 56bd b8ec e73c 5334 d53d
00000040: 1dd1 643d a828 86bd 00b1 98bd def0 dd3d
00000050: a9d4 c53d d821 ec3d 5f7b 963d e9dd 673c
00000060: 323c c3bd 18f4 adbd 72d2 103d 5cd3 6bbd
00000070: 207d 9abd ea6a 4b3d 50d6 bdbd f8c7 f4bd
00000080: a8fb ca3d 07a9 62bc 2f1f 183e c7c2 5bbb
00000090: 7427 033e 4e4d 87bd 95b2 8fbc 6285 41bd
000000a0: dd09 e23c d356 383c 00b2 2f3c ce9c 04bd
000000b0: 6554 7a3d e942 a43c 5f8a debd 7066 d53d
000000c0: 19af 9b3d 4d68 f5bd f2cd b03d ab31 993b
000000d0: c7c2 c6b9 ed07 943d 84dc 053e 43ac 1abd
000000e0: fc6a abbc 11cf 52bc 4a5b a73d 6712 c53d
000000f0: 999b 993c 611a 0c3e 1cf0 cb3d a6fc 4bbd

msg_layers.0.norm.weight f4 [64]
1.049072 0.9633018 0.98282063 0.9452378 1.1247085 1.037527 0.9785651 1.0099587
1.0193202 1.1331017 0.9346488 0.94535375 1.06025 1.0266982 1.0736564 0.9721531
1.0262214 0.9878526 1.13928 1.0041435 0.9944016 0.97486573 1.0076963 0.89243066
0.9668535 0.9497722 1.005596 0.9950797 0.9613245 1.0105027 0.9496378 0.9633355
0.9682938 0.9062597 1.0195123 0.95011467 0.99697167 0.90349877 1.0344613 0.97574055
0.9487326 0.9613578 0.95440257 1.0104833 0.99499786 1.0272257 0.9884759 0.94950235
1.0010796 1.0196589 0.9921357 1.0559548 1.025629 0.973811 0.9616347 0.92129624
1.0080584 0.9916445 1.0500996 1.0175818 1.0857514 0.97342074 0.89963436 0.99307895
00000000: fe47 863f f29a 763f 229a 7b3f 1bfb 713f
00000010: 73f6 8f3f afcd 843f 3e83 7a3f 5446 813f
00000020: 1679 823f 7a09 913f 2545 6f3f b402 723f
00000030: 46b6 873f d96a 833f 936d 893f 07df 783f
00000040: 395b 833f e8e3 7c3f edd3 913f c687 803f
00000050: 1a91 7e3f cd90 793f 31fc 803f 5676 643f
00000060: b683 773f 4524 733f 5fb7 803f 8bbd 7e3f
00000070: 5d19 763f 2758 813f 761b 733f 289d 763f
00000080: 1ae2 773f a300 683f 617f 823f b73a 733f
00000090: 8939 7f3f b24b 673f 3a69 843f 22ca 793f
000000a0: 24e0 723f 8b1b 763f ba53 743f 8457 813f
000000b0: 2eb8 7e3f 227c 833f c20c 7d3f 9612 733f
000000c0: 6023 803f 2f84 823f 9bfc 7d3f 8729 873f
000000d0: d047 833f ad4b 793f b12d 763f 12da 6b3f
000000e0: 0f08 813f 6adc 7d3f aa69 863f 1f40 823f
000000f0: e7f9 8a3f 1a32 793f 704e 663f 6c3a 7e3f

msg_layers.0.norm.bias f4 [64]
-0.096173435 -0.032530945 0.033230685 0.0047117276 0.09750346 0.045881134 0.021884663 -0.05135515
-0.025626007 -0.10583483 0.05664227 0.012467834 0.0077200527 -0.04217969 -0.07865222 0.0141087845
0.010102852 -0.018696228 0.07607932 0.019119054 -0.025819344 -0.010002323 0.014329783 0.015426244
0.01203439 0.02810435 0.057026397 -0.017396552 0.026632767 0.011444071 0.028482992 0.052744534
-0.0076720156 -0.0039848574 -0.010682612 0.017881414 -0.038174152 0.013478542 0.05685154 0.01610343
0.037136782 -0.03429249 0.060043238 0.014135154 0.011518222 0.04987711 0.003267506 0.010516268
0.041723456 0.04774537 -0.021009238 -0.0626524 -0.053746592 0.026862567 -0.0188364 0.030705135
-0.013702181 -0.041754905 -0.053036835 -0.0022988443 -0.026136903 -0.010986972 -3.237192e-05 0.061196472
00000000: 94f6 c4bd 2b3f 05bd e61c 083d d664 9a3b
00000010: e5af c73d dbed 3b3d 7747 b33c c759 52bd
00000020: a2ed d1bc eebf d8bd ba01 683d e345 4c3c
00000030: 7ff8 fc3b 9cc4 2cbd 6a14 a1bd 8828 673c
00000040: 6f86 253c d528 99bc 79cf 9b3d 909f 9c3c
00000050: 1783 d3bc c9e0 23bc 77c7 6a3c 5bbe 7c3c
00000060: e42b 453c 183b e63c 8394 693d 3783 8ebc
00000070: f62c da3c ea7f 3b3c 2a55 e93c a70a 583d
00000080: 8865 fbbb 6893 82bb 1f06 2fbc 0b7c 923c
00000090: 805c 1cbd 1ad5 5c3c 29dd 683d 57eb 833c
000000a0: bd1c 183d 4876 0cbd e6ef 753d 2297 673c
000000b0: edb6 3c3c f14b 4c3d a723 563b 6d4c 2c3c
000000c0: 37e6 2a3d a690 433d 911b acbc e74f 80bd
000000d0: 6325 5cbd e30e dc3c cb4e 9abc 5689 fb3c
000000e0: 1d7f 60bc 3107 2bbd 273d 59bd 35a8 16bb
000000f0: 0f1d d6bc b302 34bc 16c7 07b8 27a9 7a3d

msg_layers.1.W_self.weight f4 [64, 64]
0.13308933 -0.08956993 0.06372657 0.039794456 0.00080887025 -0.009323054 0.13070224 0.027601535
-0.095521286 0.009302143 -0.15786552 0.0075622587 -0.031345863 0.15477447 -0.06358379 0.043611426
-0.17065987 0.10786216 -0.036355607 -0.097346894 0.09222919 -0.09093629 -0.06522616 0.034221355
0.11014676 -0.010810265 -0.08007397 -0.004132112 -0.123854615 0.10767801 0.015592737 0.037098102
-0.04459693 0.13197985 -0.043146003 0.044889413 0.036714137 -0.040575083 0.019081179 0.013333238
0.053992793 0.15335557 0.013142944 -0.14585923 0.04671516 -0.1823253 0.04148434 0.12297934
-0.10059908 0.0804211 0.023377547 -0.050863136 0.15611817 0.089386605 0.011927745 -0.031195866
-0.0670207 0.15890771 -0.012830105 0.10120313 -0.042785913 -0.00056528073 -0.0047615166 0.10454647
0.060441725 0.030154558 0.08677219 -0.00784636 -0.037512116 -0.07066023 0.09744658 -0.04629562
0.021484818 0.15157586 0.03419434 -0.046761025 0.08835763 0.08917331 0.07904241 0.027185285
0.029230596 -0.07450889 -0.14153758 0.11858781 0.10476491 -0.030564291 -0.05509345 -0.08768127
-0.07180636 0.060543217 0.097286195 -0.07047076 -0.101636186 0.05312438 0.09639788 0.10001703
0.016029006 0.030553453 -0.10055849 -0.0071500205 0.016636688 -0.012691834 0.09033804 0.06868091
-0.12414347 -0.0876156 -0.086077206 -0.044814583 0.09021726 -0.007532248 -0.112964 0.09677878
0.0961159 -0.029468784 0.08036675 -0.05127783 -0.03283983 -0.054038417 0.04907184 0.0115691265
0.09567291 0.09634116 -0.082735226 -0.026687095 -0.06217465 0.06450274 -0.10075381 0.07210642
-0.039863642 -0.053909637 0.015809627 0.039592464 -0.112992324 -0.11709687 0.055849906 -0.10265327
0.030542057 0.058278043 -0.098884284 -0.068177044 -0.078436114 0.08478935 -0.11504018 -0.08060626
-0.057781145 -0.050220195 0.017050354 -0.042530254 0.075136974 0.08019984 -0.032047026 0.09769659
-0.049780436 0.008035965 -0.061289668 0.005499311 -0.085539386 0.017860835 0.074568 0.06219335
0.11489229 0.10729843 0.026514433 -0.004923978 0.09065125 -0.07924621 0.019890793 -0.061783817
0.111540556 0.07987904 -0.07625451 -0.010387968 0.06974216 0.071068026 -0.0646791 0.089926854
-0.06771046 -0.10000961 -0.060575932 -0.03254646 0.078449056 -0.11854953 -0.08063418 -0.0071917195
0.07133511 0.007873091 0.09603409 -0.00494146 -0.040366787 -0.07293942 0.06458497 0.10684624
-0.08458925 -2.4103781e-05 -0.04603926 -0.19002672 0.056107644 0.09197274 0.17760275 -0.002660194
-0.057929844 -0.20291077 0.100215994 -0.05060617 0.035575207 -0.1538399 -0.08986503 -0.06421651
0.14834678 0.015565079 0.1351578 -0.19466731 0.075574234 0.16355275 0.06665455 0.016340122
0.020053586 0.07556495 0.103369445 0.012037685 0.09157805 0.10031577 -0.15477718 -0.043705333
-0.08618636 -0.015813095 0.09109438 -0.029459735 -0.082009904 0.15395261 0.20984513 -0.016121037
-0.033815127 0.09741203 0.10490238 0.12008759 0.024875302 -0.06325508 -0.069621645 0.05098479
0.1365548 -0.006857896 -0.08945879 -0.083490886 -0.0133866435 -0.009847635 -0.1076032 -0.05162488
0.049361415 -0.042865857 -0.041678775 0.12561256 -0.01004108 0.09987008 0.054621987 0.10712211
00000000: 9248 083e 7170 b7bd 1383 823d 83ff 223d
00000010: 5d0a 543a b9bf 18bc cfd6 053e 9d1c e23c
00000020: aaa0 c3bd 0468 183c 80a7 21be d3cc f73b
00000030: 8564 00bd 337d 1e3e 3838 82bd e5a1 323d
00000040: 76c1 2ebe d6e6 dc3d 9ee9 14bd cf5d c7bd
00000050: a8e2 bc3d ce3c babd 4b95 85bd b12b 0c3d
00000060: a094 e13d 8a1d 31bc d2fd a3bd ab66 87bb
00000070: 7da7 fdbd 4a86 dc3d ae78 7f3c 2ef4 173d
00000080: 45ab 36bd ba25 073e ddb9 30bd f6dd 373d
00000090: 9061 163d 0f32 26bd 2250 9c3c a773 5a3c
000000a0: 8c27 5d3d 3e09 1d3e 8155 573c 1f5c 15be
000000b0: 6558 3f3d 7cb3 3abe 7ceb 293d 98dc fb3d
000000c0: e406 cebd d1b3 a43d 4582 bf3c dd55 50bd
000000d0: 71dd 1f3e 5310 b73d 976c 433c 798e ffbc
000000e0: 2642 89bd b4b8 223e 5c35 52bc 9643 cf3d
000000f0: 4840 2fbd 592f 14ba 7f06 9cbb 761c d63d
00000100: be91 773d b106 f73c 9eb5 b13d 058e 00bc
00000110: 4ea6 19bd 50b6 90bd 1392 c73d 7aa0 3dbd
00000120: ee00 b03c b436 1b3e 5d0f 0c3d 7d88 3fbd
00000130: d8f4 b43d 7fa0 b63d fde0 a13d adb3 de3c
00000140: 0175 ef3c 1e98 98bd 3aef 10be 2ade f23d
00000150: fc8e d63d f761 fabc aba9 61bd 3d92 b3bd
00000160: 360f 93bd 2afc 773d fc3d c73d f952 90bd
00000170: a226 d0bd f398 593d 406c c53d bbd5 cc3d
00000180: 434f 833c 3c4b fa3c 9cf1 cdbd b84a eabb
00000190: aa49 883c 69f1 4fbc 2603 b93d 94a8 8c3d
000001a0: ee3e febd cf6f b3bd 3f49 b0bd 7f8f 37bd
000001b0: d4c3 b83d 13d1 f6bb ab59 e7bd f433 c63d
000001c0: 6ad8 c43d 8568 f1bc 5397 a43d b408 52bd
000001d0: 0f83 06bd 6357 5dbd 8eff 483d 6f8c 3d3c
000001e0: 29f0 c33d 844e c53d 1671 a9bd e59e dabc
000001f0: d9aa 7ebd 031a 843d 0358 cebd 88ac 933d
00000200: 0f48 23bd 5ad0 5cbd 3183 813c b52b 223d
00000210: 8568 e7bd 7cd0 efbd dfc2 643d e13b d2bd
00000220: 5633 fa3c f5b4 6e3d d883 cabd 68a0 8bbd
00000230: 1da3 a0bd 0aa6 ad3d 309a ebbd e514 a5bd
00000240: ecab 6cbd b1b3 4dbd 2fad 8b3c 3434 2ebd
00000250: 6ae1 993d d03f a43d be43 03bd 2615 c83d
00000260: 92e6 4bbd 48a9 033c e00a 7bbd 9033 b43b
00000270: 462f afbd e350 923c 1cb7 983d 74be 7e3d
00000280: a64c eb3d 47bf db3d cc34 d93c 5259 a1bb
00000290: 5da7 b93d d64b a2bd 04f2 a23c 0711 7dbd
000002a0: 606f e43d 9f97 a33d 532b 9cbd 4c32 2abc
000002b0: fad4 8e3d 1d8c 913d 7a76 84bd 922b b83d
000002c0: c8ab 8abd d7d1 ccbd 781e 78bd 704f 05bd
000002d0: e6a9 a03d 19ca f2bd 8823 a5bd 84a8 ebbb
000002e0: 2418 923d 23fe 003c 85ad c43d f9eb a1bb
000002f0: a557 25bd 4361 95bd 2045 843d 34d2 da3d
00000300: 213d adbd 7a32 cab7 aa93 3cbd 5d96 42be
00000310: 21d1 653d 345c bc3d 7fdd 353e a656 2ebb
00000320: d847 6dbd d7c7 4fbe 0b3e cd3d 6a48 4fbd
00000330: 4fb7 113d 3588 1dbe 280b b8bd f283 83bd
00000340: 38e8 173e ac04 7f3c ce66 0a3e de56 47be
00000350: aac6 9a3d 5f7a 273e 2e82 883d b8db 853c
00000360: 6b47 a43c ccc1 9a3d 5cb3 d33d b639 453c
00000370: 468d bb3d 5b72 cd3d e97d 1ebe 5d04 33bd
00000380: 7982 b0bd 778a 81bc b18f ba3d 8b55 f1bc
00000390: cff4 a7bd c1a5 1d3e a4e1 563e 4410 84bc
000003a0: bb81 0abd f57f c73d 0fd7 d63d 7bf0 f53d
000003b0: 4ac7 cb3c e18b 81bd cb95 8ebd 6dd5 503d
000003c0: 06d5 0b3e 34b8 e0bb 2c36 b7bd 45fd aabd
000003d0: a753 5bbc fa57 21bc 115f dcbd 9c74 53bd
000003e0: 322f 4a3d 1c94 2fbd 5db7 2abd 94a0 003e
000003f0: 5883 24bc af88 cc3d 4ebb 5f3d d662 db3d

msg_layers.1.W_self.bias f4 [64]
0.09376481 0.049752206 -0.0012398908 0.021819461 0.3083401 0.10789188 0.05881312 -0.06946234
0.00022962848 -0.09540156 -0.1481775 0.06540482 0.10340096 0.0015548165 -0.13539965 -0.058361717
0.039870963 -0.05422305 0.03190234 -0.00045793038 0.098442905 -0.13600256 -0.019534452 -0.12576087
0.07714626 0.116825804 0.09816593 0.05481494 -0.044216134 -0.041159313 0.09045207 -0.03496666
-0.03348974 -0.06462647 0.04910996 0.0708118 -0.07426711 0.10249226 0.009561745 -0.059579965
-0.03692865 -0.10352811 0.08581371 -0.029698163 -0.14532569 0.058350466 -0.0022838954 0.061637267
-0.045895904 0.05338023 0.10998693 0.07192062 -0.026286835 -0.10239581 -0.010448588 -0.099634744
-0.019107627 -0.05250451 -0.11839848 -0.17294742 -0.00439001 -0.12654789 0.0100221345 -0.06560476
00000000: c407 c03d f8c8 4b3d d583 a2ba babe b23c
00000010: c1de 9d3e 6bf6 dc3d 07e6 703d 4542 8ebd
00000020: 6dc8 7039 e561 c3bd d8bb 17be f6f2 853d
00000030: e2c3 d33d fcca cb3a 35a6 0abe b20c 6fbd
00000040: bc4f 233d fd18 5ebd 07ac 023d 6016 f0b9
00000050: 6f9c c93d 4144 0bbe b706 a0bc 75c7 00be
00000060: dcfe 9d3d 5e42 ef3d 380b c93d a185 603d
00000070: fa1b 35bd ab96 28bd ef3e b93d 3339 0fbd
00000080: 8a2c 09bd e25a 84bd 8727 493d c705 913d
00000090: 5b19 98bd 76e7 d13d dea8 1c3c 1f0a 74bd
000000a0: 7f42 17bd 8c06 d4bd 19bf af3d 9049 f3bc
000000b0: 42d0 14be e600 6f3d 68ad 15bb 5c77 7c3d
000000c0: 58fd 3bbd 3aa5 5a3d d440 e13d 1e4b 933d
000000d0: 7d57 d7bc e5b4 d1bd 8e30 2bbc 4d0d ccbd
000000e0: 9987 9cbc f80e 57bd e77a f2bd 2119 31be
000000f0: 13da 8fbb c595 01be e133 243c ca5b 86bd

msg_layers.1.W_msg.weight f4 [64, 64]
0.045395937 0.043328058 0.0944878 -0.084055275 -0.18845873 -0.009108156 -0.055911046 0.039308436
-0.0011980729 0.008083544 -0.0180677 0.07597973 -0.0069764005 0.07283994 0.09095517 -0.11888101
-0.022675607 -0.00964372 -0.006341978 0.026740083 -0.03830814 -0.06454355 -0.02336249 -0.00014479549
0.025001638 0.114777856 -0.09031608 0.044806745 -0.0803234 0.08866236 0.08580239 -0.12487611
-0.03961392 0.0709667 -0.037321296 0.12446793 -0.048982732 -0.12730055 -0.091294944 -0.07698944
-0.054072846 -0.087987125 0.015617664 -0.0067288415 0.061474413 -0.09543998 0.07960253 -0.03962844
0.030223737 0.073087215 0.11964785 -0.1038161 0.020122793 -0.013550664 0.07590427 0.00075230637
0.057748906 0.011418538 -0.08060019 -0.049240764 -0.027707424 0.1116829 0.012809222 -0.00846251
0.016418705 -0.12595788 0.034606677 -0.13023028 -0.080232866 0.13458067 0.02032181 0.068460725
0.072051704 0.010444402 -0.001568569 0.09494336 0.09235872 -0.030362058 0.010710055 -0.11698549
0.03333314 -0.03831177 0.0713005 -0.024967708 -0.027381144 0.006393169 -0.03157814 -0.086335935
0.030531136 0.025991978 -0.06298058 0.031483393 0.11962597 0.05746457 0.023054471 -0.10349106
-0.082369335 -0.0002763344 -0.13176832 0.04166733 -0.035310186 0.0341134 0.012259907 0.0052829855
0.076976165 -0.07253208 0.03232506 -0.10632432 0.05488502 -0.06677723 -0.022563705 0.09263667
-0.037882555 -0.046129324 0.004025138 0.12903932 0.099425934 -0.012290174 -0.0018885996 -0.111849345
0.12649672 -0.049452126 0.08194252 -0.13307698 0.021742757 -0.00091109786 0.058501545 -0.099412836
0.08312422 -0.008047694 0.070981584 -0.11225874 -0.091683745 -0.009187082 -0.12283741 -0.069705255
-0.032223698 -0.07077421 0.03737052 -0.06207899 0.026827952 -0.10584009 0.039036173 -0.058191128
-0.051098242 -0.012967703 -0.042081688 -0.09906915 0.0036653765 0.081958584 -0.018403053 0.045405585
-0.050036065 -0.087852485 0.030178074 -0.0798047 0.09918357 0.06588003 0.043102287 -0.01998865
0.09804317 0.0013928518 -0.005045397 0.08651115 0.113595314 0.15837254 -0.11812292 0.10943999
-0.08663798 0.08978485 0.016551659 0.08716603 0.06490176 -0.027880179 0.07289503 0.048973955
-0.09351519 -0.1081511 0.12366324 0.062871866 -0.06330005 0.05510045 0.060293023 -0.11497318
-0.026319673 -0.048592158 0.1230551 0.067221545 0.040328898 0.10881453 0.10086811 -0.11204913
0.2393019 0.24410853 -0.19433933 -0.06159415 -0.16560447 -0.02086365 -0.19395185 0.15959813
0.088098444 -0.025478767 -0.12045847 0.052327428 -0.025193295 0.018517438 0.1650884 -0.0052025584
-0.015093211 0.015174337 0.074300766 0.009051727 0.10322836 -0.06457286 -0.007419517 -0.07799644
0.13682963 -0.008413441 -0.1638584 0.10614815 -0.054053225 -0.13414654 0.008628728 -0.104917884
-0.11402773 -0.20817274 -0.009381233 -0.044154014 -0.10756939 -0.13819405 -0.16534531 0.1922446
-0.23762427 0.17612225 -0.05084917 -0.086573474 0.10927811 -0.07287094 -0.044608474 0.008149903
-0.12707321 -0.17148887 -0.006862048 0.028442563 0.10170926 -0.107455626 0.28689387 0.05202837
0.117903486 0.093072854 0.055146493 -0.0213264 0.07757951 0.054282736 0.13935022 -0.13304782
00000000: 17f1 393d c378 313d d282 c13d 2c25 acbd
00000010: 53fb 40be 603a 15bc fb02 65bd e201 213d
00000020: a808 9dba d770 043c b702 94bc 439b 9b3d
00000030: 4a9a e4bb 1b2d 953d b446 ba3d e377 f3bd
00000040: 32c2 b9bc b200 1ebc 5ed0 cfbb 050e db3c
00000050: ffe8 1cbd 692f 84bd b162 bfbc 3ed4 17b9
00000060: 3cd0 cc3c a710 eb3d a3f7 b8bd 4787 373d
00000070: 9880 a4bd 9d94 b53d 2ab9 af3d 0cbf ffbd
00000080: 3542 22bd fd56 913d 37de 18bd 0be9 fe3d
00000090: 1ea2 48bd 135b 02be d8f8 babd a4ac 9dbd
000000a0: 7d7b 5dbd 9832 b4bd 3be1 7f3c 9d7d dcbb
000000b0: 98cc 7b3d 0976 c3bd a706 a33d 6e51 22bd
000000c0: c597 f73c c0ae 953d ef09 f53d 899d d4bd
000000d0: 8ed8 a43c 9b03 5ebc b373 9b3d 6d36 453a
000000e0: 1e8a 6c3d d214 3b3c b611 a5bd afb0 49bd
000000f0: aefa e2bc 01ba e43d c5dd 513c 57a6 0abc
00000100: 8580 863c 1afb 00be bbbf 0d3d 165b 05be
00000110: 2151 a4bd 84cf 093e ed79 a63c 2335 8c3d
00000120: d88f 933d ff1e 2b3c 7198 cdba aa71 c23d
00000130: 9226 bd3d dab9 f8bc 3a79 2f3c 1796 efbd
00000140: 5588 083d cdec 1cbd ff05 923d 1489 ccbc
00000150: 6c4e e0bc ca7d d13b 1458 01bd e5d0 b0bd
00000160: 6f1c fa3c 21ed d43c f6fb 80bd bbf4 003d
00000170: 76fe f43d f85f 6b3d bbdc bc3c 1ff3 d3bd
00000180: 41b1 a8bd fae0 90b9 46ee 06be 5dab 2a3d
00000190: 6aa1 10bd 7eba 0b3d c7dd 483c e51c ad3b
000001a0: aea5 9d3d b38b 94bd 4867 043d 91c0 d9bd
000001b0: 1dcf 603d 80c2 88bd 85d7 b8bc 4bb8 bd3d
000001c0: bd2a 1bbd 1af2 3cbd 4ee5 833b e222 043e
000001d0: d39f cb3d ba5c 49bc e38a f7ba 4511 e5bd
000001e0: 5b88 013e 508e 4abd 7bd1 a73d 5545 08be
000001f0: de1d b23c bed6 6eba 519f 6f3d f598 cbbd
00000200: 083d aa3d 7ada 03bc cb5e 913d e9e7 e5bd
00000210: b0c4 bbbd 6a85 16bc 2e92 fbbd a1c1 8ebd
00000220: fffc 03bd 12f2 90bd d511 193d 8a46 7ebd
00000230: 4bc6 db3c b0c2 d8bd 65e4 1f3d d259 6ebd
00000240: 644c 51bd 7d76 54bc d95d 2cbd c4e4 cabd
00000250: d036 703b e7d9 a73d 00c2 96bc 35fb 393d
00000260: 9ef2 4cbd 01ec b3bd 0238 f73c a670 a3bd
00000270: c120 cb3d 1cec 863d 068c 303d 3dbf a3bc
00000280: dcca c83d 5a90 b63a dc53 a5bb c22c b13d
00000290: a9a4 e83d 692c 223e 6eea f1bd 1322 e03d
000002a0: 416f b1bd 1fe1 b73d 5897 873c 1b84 b23d
000002b0: 37eb 843d f964 e4bc fd49 953d ea98 483d
000002c0: e484 bfbd 537e ddbd 2743 fd3d f7c2 803d
000002d0: 75a3 81bd 02b1 613d d1f5 763d 0f77 ebbd
000002e0: 5b9c d7bc 9208 47bd 5004 fc3d 73ab 893d
000002f0: ea2f 253d 27da de3d f193 ce3d 047a e5bd
00000300: 8f0b 753e 96f7 793e e400 47be 264a 7cbd
00000310: 3894 29be 3fea aabc 509b 46be b16d 233e
00000320: f56c b43d d9b8 d0bc eeb2 f6bd 4955 563d
00000330: 2b62 cebc e2b1 973c ef0c 293e 397a aabb
00000340: 8449 77bc c89d 783c 002b 983d b24d 143c
00000350: 6469 d33d c73e 84bd 6b1f f3bb 99bc 9fbd
00000360: 111d 0c3e 87d8 09bc 7fca 27be 3464 d93d
00000370: ea66 5dbd b65d 09be 825f 0d3c 30df d6bd
00000380: 5f87 e9bd 3c2b 55be beb3 19bc d7da 34bd
00000390: 574d dcbd be82 0dbe 4850 29be c5db 443e
000003a0: c753 73be 6459 343e 3847 50bd 6f4d b1bd
000003b0: 34cd df3d 5c3d 95bd 60b7 36bd 2c87 053c
000003c0: 7b1f 02be c79a 2fbe 08db e0bb 6100 e93c
000003d0: f24c d03d b211 dcbd c1e3 923e b31b 553d
000003e0: 6277 f13d fb9c be3d 4ae1 613d b4b4 aebc
000003f0: 02e2 9e3d 9357 5e3d d3b1 0e3e b03d 08be
