QuantLaxmi_Research/dtrn/results/checkpoints/fold3_BANKNIFTY/dtrn_stage2.pt (torch, 232927 bytes, 37 tensors)

embed.embed.0.weight f4 [32, 2]
00000000: d78c 7f3c fd98 d73d 5d71 aa3e 85dd 3ebf
00000010: db4e 3b3f 4250 9bbd ed0f c53b 45ea a03e
00000020: 68be cbbe 414f 13bd cd7e e03d f95e 07bf
00000030: a29e 2ebf 833d 173f 506f 09bf 10b1 a5be
00000040: afbc bebd c2c7 3bbf e56b 233f fff7 ecbd
00000050: 6e7a 203f ae67 3fbe 3c03 b33e bea7 993e
00000060: fd5b d6be 7d8f 0abf ed81 af3d 22e9 f6be
00000070: 7f50 293e fd4d 15bf 9232 513f fb36 53bd
00000080: 87cd 96be 225a 07be 7f8f ef3e 897f 02bf
00000090: b128 9f3c d731 08bf a905 113f 5427 d83e
000000a0: 7f2e 1c3f b153 d53e 1c71 793e b2ee 143f
000000b0: eab8 31bf 3d06 8cbe 038b 213f 8212 773e
000000c0: d87e d9be 710d 293f 2d37 26bf f8ca 25bd
000000d0: 1407 10bf 4bbf 07bf 031d 233f 17de 5dbe
000000e0: b8c3 953e 4e30 073e 4c1e 09bf c503 13be
000000f0: 3e62 2e3f 8f6d 2b3f 34c6 fcbe fe1f d2be
0.015597544 0.10527227 0.33289614 -0.7455676 0.731672 -0.07583667 0.0060138614 0.31428733
-0.39793706 -0.035964254 0.10961685 -0.5287929 -0.68210804 0.59078234 -0.53685474 -0.3236165
-0.09313332 -0.7335168 0.6383651 -0.11570739 0.6268681 -0.18691894 0.34963405 0.3001079
-0.41867056 -0.54125196 0.08569703 -0.4822474 0.16534613 -0.58322126 0.8171779 -0.051566105
-0.2945368 -0.13217977 0.46789166 -0.50975853 0.019428583 -0.5320105 0.5664926 0.42217505
0.6100845 0.41665414 0.24359554 0.5817672 -0.6942278 -0.2734851 0.6310274 0.24128154
-0.42479587 0.66036135 -0.6492794 -0.04047677 -0.562608 -0.53026265 0.63716143 -0.21666752
0.29250884 0.1320202 -0.53561854 -0.14356907 0.68118656 0.6696405 -0.49369967 -0.41040033

embed.embed.0.bias f4 [32]
00000000: bb73 89bd 6898 813d 4b2f 94be ead2 0d3f
00000010: 8ade 013f 229d a63e 9e9b 093e 3170 52be
00000020: 564d 173f d27e 603e 9928 0b3f b99c ffbe
00000030: cf40 fdbd fbf8 923e d711 32bf 26bb d6be
00000040: f2cb 9e3e f112 1a3f aea7 16bf 3219 1a3f
00000050: 630e a83e 0dcd 5fbd a5e9 33bf 41a3 cc3e
00000060: 15ea 03bf 96b2 d0bd 4eb6 0dbf 1f9a 54be
00000070: bc90 d5bd 1310 9ebd 5a7d 033f fc49 31bf
-0.06711527 0.06327897 -0.28942332 0.55399954 0.5073019 0.32541758 0.1343827 -0.2055061
0.5910238 0.21923378 0.5435882 -0.49924257 -0.12365877 0.28705582 -0.6955847 -0.41939658
0.31014973 0.6018515 -0.5884961 0.60194695 0.32823476 -0.05463891 -0.7027839 0.39968303
-0.51529056 -0.101903126 -0.553563 -0.20761918 -0.104279965 -0.0771791 0.51363146 -0.69253516

embed.embed.2.weight f4 [32, 32]
00000000: b6ca ee3d 4882 28bd 137b 07be 16ab bd3d
00000010: 2633 c53d e718 09bc 3d20 98bd 62f0 f03d
00000020: 5f76 123e e93f 2cbd 817c d13d 6368 3c3d
00000030: 2724 cfbc 75d4 95bb 74eb a8bd 887b 15be
00000040: 2e23 d53d d99c 683e 7584 0a3e d91e d63d
00000050: abbb 37be 8540 98bd da1c 013e 38fd 30be
00000060: 42fd 66be 9155 8e3d cb3b 3cbd c7ad 8b3d
00000070: 8e23 25bd 8287 0dbe 2e16 9abd c615 17be
00000080: 990e 1c3d 3140 f03d 304f b53c ed95 df3d
00000090: b397 a03d 6132 9cbd 524e 323c 24d3 00be
000000a0: 4f5b d7bd ce0f 27be 4db3 f93a cd4e e5bc
000000b0: 7301 033e 07f1 1f3e 55dc d5bd dc59 4a3d
000000c0: 32f2 fbbd 7d36 02bd 8b17 c03d 722a fdbd
000000d0: 1f39 83bd e912 95bc f2df cbbd d915 2cbd
000000e0: 84e1 36be 0673 90bc 61ad f2bd ba53 84bd
000000f0: 7b32 2abd 9638 96bd 7997 f9bd f025 083d
00000100: 5a3b 0cbe 1b83 613e 90f1 183e f18c 8d3d
00000110: d020 5fbd bf4a 0c3e 14de 8c3d e3dc d3bd
00000120: f810 48bd c145 bbbd a43a 143e de4c 4cbe
00000130: f396 62bd 7735 573e 5724 82bc d9e5 dd3c
00000140: 8975 09be 8d81 f53d 85a3 06be 8b93 0cbd
00000150: b229 80bd 7821 77bd 9908 81bd 650c 84bc
00000160: b223 473d 3fb4 0e3e beb3 f93d c8d0 ff3d
00000170: df68 1ebe 5841 3d3e acd8 c6bd 69f8 0abe
00000180: 2bfe c7bd d17b 6f3d deeb fa3d 9a9f 9fbd
00000190: dae6 063e 42c4 dbbd f1dc 843d 1eff 0d3e
000001a0: 3a93 3a3e d8c8 4ebe fc61 e0bd 9b39 dabd
000001b0: ee20 293e d342 01be ad9b 823d cae0 0abe
000001c0: b010 5abd 3d81 6dbd 48d1 d8bd 16ce 26bd
000001d0: 61b3 1cbe ae6d 843c 2d14 383e 9fef 8cbd
000001e0: 68e3 fbbd 6c97 433d 2e83 da3d 5669 193e
000001f0: 152e e2bd c8d1 573e a9df d63c 7ca4 b43d
00000200: 8ad2 643d dc2f b3bd ea0d f03d 4554 453e
00000210: e5dc fdbc 99fd 63bc 0e2c d8bd 7ef9 4f3d
00000220: f776 3d3b 7a3a 2fbd ec8a b43d 0086 3fbc
00000230: 1ade 723d 8834 0dbc b232 49be a7d5 053e
00000240: 8d27 8abc 17ca 4e3e 8b7b 843d f21b 013e
00000250: 186a a7bd a9a6 803d 008e 46be 0f01 c6bd
00000260: c281 02be cb96 103d e960 09be bd30 af3d
00000270: 4c5e 9f3d 2c77 69bd 8c5b 88bd 2657 09bc
00000280: 9c11 113e 4b27 26be 137a a3bd cc10 803d
00000290: 6c72 64bd 8fc8 053e a948 3bbd 19da ff3d
000002a0: a6d8 473e 063c 973d f228 f5bd e426 1d3c
000002b0: 6830 0dbc 6a1a cdbd b039 2f3d 9c77 b53b
000002c0: d3a5 0a3e 1af6 a63d d488 12be 292e f23d
000002d0: 6e75 abbd bec0 91bb 1ab6 04bd 1c45 54bd
000002e0: 834e 923d aaff b4bd ae08 d13d 6768 fa3d
000002f0: 3010 0ebd 7b06 e6bd 516c 013e 1159 fbbc
00000300: 68a1 1d3e deb3 3fbe 173a 0dbe eb6f b7bd
00000310: 9f28 f0bd ec5f cf3c 2ae8 70bd b5a3 2e3e
00000320: 6e38 d0bd b6dd 073e 023f 3ebc 2415 4d3e
00000330: e1db 17be c231 13be e773 0b3e ad13 263d
00000340: 8f84 34be 940f 103e cef3 003e 6f36 8f3d
00000350: 855a 46bd f493 653d 80a7 c5bd 7907 48be
00000360: dea7 20bc db2e ba3d 555c 8e3d 3ae0 2a3c
00000370: c972 193e 53f0 a8bc 9294 183e 0468 8f3d
00000380: 3965 13be edef 1fbd df0b 9abd e008 8fbd
00000390: fafa 11bd d09e f63d df46 f13d 451f 1ebe
000003a0: a970 7ebd 28d8 33be 481a a03d 21c3 5dbe
000003b0: e5d6 9ebd 03d8 583d 4f42 febd b41c 89bd
000003c0: ec92 443e ffb1 c1bd 55c2 8cbd 9677 d53c
000003d0: aaca 27bd baf8 28be 7389 24bd 6d3b 20be
000003e0: fc9f e93c 8684 9a3c a837 ebbd a29c 78bd
000003f0: f54b d33d 3fb2 3e3e 2cad a5bd 99e3 113e
0.11659758 -0.04113987 -0.13230543 0.09261148 0.096288964 -0.008367754 -0.07428024 0.117645994
0.14302967 -0.042053137 0.10228825 0.04599799 -0.025285793 -0.004572446 -0.08248034 -0.14597905
0.104071006 0.22716083 0.13527091 0.104551025 -0.17942683 -0.07434181 0.12608662 -0.17284095
-0.22557548 0.06949914 -0.04595546 0.06820255 -0.04031711 -0.13821223 -0.07523762 -0.147544
0.03809986 0.117309935 0.022132486 0.10917268 0.07841434 -0.076267965 0.010882931 -0.12580544
-0.105154626 -0.16314623 0.0019050628 -0.027991677 0.12793522 0.15619288 -0.104424156 0.049402103
-0.123020545 -0.031790245 0.093794905 -0.123616114 -0.06407379 -0.018197494 -0.099548236 -0.042013023
-0.17859465 -0.017632972 -0.11849476 -0.06461282 -0.04155205 -0.07335012 -0.12187094 0.033239305
-0.13694516 0.22022669 0.14935899 0.06911648 -0.05447465 0.13700388 0.068782955 -0.10344865
-0.048844308 -0.09144164 0.14475495 -0.19951198 -0.055319738 0.21016489 -0.015886469 0.027087139
-0.13423742 0.119876005 -0.13148315 -0.034320395 -0.06257953 -0.060334653 -0.06300468 -0.016119191
0.048618026 0.13935946 0.12192486 0.12490994 -0.15469693 0.18481958 -0.09709296 -0.13571323
-0.097652756 0.05846769 0.12252019 -0.077941135 0.13174 -0.107307926 0.06487454 0.1386685
0.18220225 -0.20193803 -0.10956189 -0.106555186 0.16516468 -0.12623148 0.06377349 -0.13562313
-0.05323857 -0.05798458 -0.10586792 -0.040723883 -0.15302803 0.01616558 0.17976446 -0.068816416
-0.12299234 0.04775183 0.10669552 0.14981589 -0.11043946 0.21076119 0.026229696 0.088204354
0.05586485 -0.08749363 0.11721404 0.19270428 -0.03098912 -0.013915443 -0.10555278 0.050775044
0.002891002 -0.042780377 0.0881556 -0.011689663 0.059293844 -0.008618481 -0.19648245 0.13069783
-0.016864562 0.20194279 0.064688765 0.12608317 -0.08174533 0.06281788 -0.19390106 -0.09668171
-0.12744811 0.035300057 -0.13415875 0.08554218 0.077816576 -0.056998417 -0.06658086 -0.008382594
0.14166874 -0.16225927 -0.07982268 0.06253204 -0.055773184 0.13064788 -0.04572359 0.12492771
0.19516239 0.073844954 -0.119707 0.009591792 -0.008617498 -0.10014804 0.042779624 0.00553794
0.1353982 0.08152409 -0.14310008 0.118252106 -0.08372007 -0.0044480255 -0.032400228 -0.05182372
0.07143881 -0.088378266 0.10206734 0.122269444 -0.034683406 -0.11231705 0.12638976 -0.030682119
0.15393603 -0.18720958 -0.13791691 -0.089568935 -0.11726498 0.025314294 -0.05881516 0.17054637
-0.10167013 0.1326817 -0.011611702 0.20027596 -0.14829971 -0.1437445 0.13618432 0.040546108
-0.17628692 0.14068443 0.12593004 0.06992804 -0.04842617 0.056049302 -0.09651089 -0.195341
-0.009805648 0.09090968 0.06951205 0.010429436 0.14985193 -0.020622408 0.14900425 0.07002261
-0.14394082 -0.03904717 -0.075217955 -0.06984115 -0.03563974 0.1204201 0.11781096 -0.15441616
-0.06211916 -0.17562926 0.07817513 -0.21656467 -0.07755832 0.05294038 -0.12414991 -0.06694928
0.19196671 -0.09457778 -0.068730034 0.026058 -0.04096476 -0.16501132 -0.040170144 -0.15647669
0.02851867 0.01886202 -0.11485225 -0.06069625 0.10317222 0.18622683 -0.080896705 0.14246978

embed.embed.2.bias f4 [32]
00000000: 8818 c1bd 1728 1e3e bd68 d63d 9002 123e
00000010: bbb4 383e 834d e73d 9579 163e 3313 393e
00000020: 8be0 353e 4bf1 0ebe c1be f3bd 4130 83bd
00000030: dc29 0e3d f4b9 30bb be05 443e 1ca0 a43d
00000040: 6992 c63d ee60 203e 2b46 fcbd 4646 ee3d
00000050: c85b d83d 668f cbbd aba2 c63d 27a6 5e3d
00000060: c091 b43d 010a 2b3d e31c c8bd 9558 5c3d
00000070: 23b3 cebc aa85 26be 6271 2a3d e547 59bd
-0.09428507 0.1544498 0.10469196 0.1425879 0.18037693 0.11294081 0.14694817 0.1807373
0.17761438 -0.13959233 -0.11901618 -0.06405688 0.03470789 -0.0026966305 0.19142815 0.08038351
0.09695894 0.15661976 -0.12318071 0.11634497 0.10564381 -0.099394605 0.09698995 0.054357674
0.08816862 0.041757587 -0.09771135 0.053795416 -0.025231903 -0.16261926 0.041612037 -0.05304708

input_proj.weight f4 [64, 32]
00000000: 5ccf 53be c54e babd b8be 1dbc 87fb 0cbe
00000010: e74e 0ebd 32d2 a2bd 3afd 1abe 2fea bc3d
00000020: 820f 2a3e 3d43 16be 42cd d63d 6c2d 223e
00000030: f278 70bc 05de 9dbd 2898 2e3e a7f6 083e
00000040: eec4 193e b3f7 01be 118b c2bd 1dd2 88bd
00000050: da09 333e aeb0 ae3d a30a 4f3d e5ec a43d
00000060: 12a9 b3bd 437d 41be f6ee 1b3e 7608 8dbc
00000070: 01f4 3abe fc8d 46bd 0cd8 4dbe aaf0 b2bd
00000080: 2a92 c2bd d3b7 64bb 9bf9 9e3d 998a c13d
00000090: e6fa 7ebd 36dc 27bd 5391 3cbe 7e36 e53d
000000a0: ffc3 8a3d 7988 cdbc 58d7 fc3c 8eee 89bc
000000b0: 1f16 103e 6a0a b5bd e566 09be 105e 0c3e
000000c0: a70a 30bd ceeb 1d3e fe11 c1bd bba5 10be
000000d0: 8628 f43d 66d6 2a3e 4819 db3c 5320 3fbd
000000e0: 35f9 00bd 01fa 14be 4d7a 9cbd bdfa fdbd
000000f0: a319 a2bd aad6 5bbd 8e20 363d 0a5e ff3d
00000100: e64d 8d3d c7fe d7b9 0ce1 1c3e d7da 01be
00000110: 02b7 e73b 314b fbbd 6deb 913b a565 29be
00000120: 5a6c 073c 7b97 0bbe 093a 263e 6eb0 59bd
00000130: 3245 7cbc ebda ef3d 8e4f bebc 3e4b 4a3e
00000140: 6fd1 243e 0d44 9ebd 74ed 90bc e455 ff3d
00000150: d8a6 4c3c 9c5b 703d ef96 1f3d c8c3 473d
00000160: c2e6 c43b 6d25 92bd 31b1 1bbd 9e44 e63a
00000170: 0b76 b4bd 61b0 01bd 3ebe 053d 8dd6 17be
00000180: 180f d2bc 1bb7 eebd fbcd 24be e0bd 9c3b
00000190: 1eb4 08be 2b7c 36be 9d88 c7bc 2b37 fbbd
000001a0: d750 02be 9e8e e3bc 315e b0bc 93c4 573d
000001b0: b786 d53d 4834 c4bc 1fb2 ca3d b3ef 8c3d
000001c0: e1df c4bd fad5 e33c 302c 3bbd 5aba 4b3e
000001d0: fa38 63be 6b3f 79bd 98b9 cebd 678c 8c3d
000001e0: ac6f e73d 1009 20be b50b d9bd ef06 bebd
000001f0: b890 f93d acfc 35be 6726 1a3e 66a6 b33d
00000200: 9b3a a8bd 2f25 00be abea 32be fbdd 263e
00000210: 458d 39be 16be 96bd 515d 46bd 3abf 923d
00000220: 7d95 c03d 2094 0c3e 9a3b 0b3e 3f50 943b
00000230: b9c2 b8bd 21f1 373d 4531 53be 7e48 3c3c
00000240: ab23 3dbd 3898 8dbc f189 fc3c e3ef 043d
00000250: 47ff e6ba 30ee 20ba 6527 a7bb 591a 92bd
00000260: 2615 1dbe 1c1d d93c 78db 1dbd 0e6c aa3d
00000270: e83a c5bd 47fa 1c3e 1f11 f2bd 9e22 02be
00000280: 37bf 5d3e b892 843e 946b 103e 77cd 6fbd
00000290: bf3a 8cbc 27c0 0ebe f7a6 0bbe a468 c2bd
000002a0: 289f 1d3e f72f 253e 6510 cd3d 5a0b 743d
000002b0: 23af 743d 6e9f 7cbd 0738 9b3d 90f0 353e
000002c0: cb5a 193d eb6f 0b3e ee28 3cbd 9159 393e
000002d0: 366a aebd f8bc eabd 4be5 7c3d 9872 ae3c
000002e0: 097e 573e a634 393d 0767 2c3e 74eb 7dbd
000002f0: c16f 6bbd c075 d13d eb71 413d 01dc 39be
00000300: b881 e7bc ea3d 28bb 4eb4 253d 5e5d eb3d
00000310: e54f 063e b8dc fd3d 3d1a 2bbe c221 23be
00000320: c374 20be 8bb5 aa3d 2fe1 a53d bba1 953d
00000330: 495c b33d 90f1 1f3d c87b 363b 41ad 2fbd
00000340: c935 8cbd d74c 36bd 85c5 f4bd 4a72 ebbd
00000350: 78c0 c83d 0411 cd3c 854b cfbd fe38 e83d
00000360: c31a 19be 30fe 063e 1b95 2fbe 1dd2 32bd
00000370: f613 343e 0549 363e 8e76 1fbe 3eec b1bc
00000380: c239 f83d e213 02be 54cf 2c3e 7be7 65bd
00000390: 4df0 003e faa6 013d 8827 2f3e 694d 98bb
000003a0: be27 3e3c 75c9 2a3e 9c2d b6bd 3b1a d13c
000003b0: 41f7 6bbc 2512 7c3d 9ecf c7bc 83fb 2f3e
000003c0: d6c2 1a3e 1090 273d 0342 1cbd b3e5 4f3e
000003d0: 7059 a3bd c10f f4bd 5aad 57be bf85 d8bd
000003e0: 1d60 eebd ed2a e1bd 2cb6 c03d 7b89 60bd
000003f0: 2f39 0b3e eff9 04be 6f5b 1b3e a990 9b3d
-0.2068457 -0.09097055 -0.00962799 -0.13767825 -0.034743216 -0.07950248 -0.15135661 0.092243545
0.16607478 -0.14674087 0.104883686 0.1583764 -0.014677273 -0.077083625 0.1705023 0.1337534
0.15016529 -0.12692146 -0.09499181 -0.06680701 0.17484227 0.08529793 0.050547253 0.080529965
-0.08772482 -0.1889544 0.15227875 -0.017215949 -0.18257143 -0.04847525 -0.20101947 -0.08737309
-0.09500535 -0.0034899607 0.07762452 0.094502635 -0.062250994 -0.040981494 -0.18414812 0.11192034
0.067756645 -0.02508949 0.030864403 -0.016837385 0.14070939 -0.08839877 -0.13418157 0.13707757
-0.04297891 0.15421984 -0.0942726 -0.14125721 0.11921792 0.16683349 0.026745453 -0.046661686
-0.031487662 -0.14548494 -0.076405145 -0.1240134 -0.07915046 -0.053671516 0.04446464 0.124691084
0.068996236 -0.0004119782 0.15320224 -0.12681137 0.007071377 -0.12270201 0.004453114 -0.1654268
0.008265579 -0.13632004 0.16233076 -0.053146772 -0.015397357 0.11711677 -0.023231294 0.19755265
0.16095518 -0.077278234 -0.017691351 0.12467554 0.0124909505 0.058681116 0.0389623 0.048770696
0.006008954 -0.07136045 -0.03801078 0.0017568057 -0.088115774 -0.03166235 0.032652132 -0.14827938
-0.025641963 -0.11656018 -0.160942 0.004783377 -0.13349959 -0.17820804 -0.024357134 -0.12266382
-0.1272615 -0.027777966 -0.021529289 0.052677702 0.104260854 -0.02395071 0.09897255 0.068816565
-0.09613014 0.027811993 -0.045696437 0.19895306 -0.22189704 -0.060851496 -0.10093993 0.06862717
0.113005966 -0.15628457 -0.10597936 -0.09278666 0.12185806 -0.17772168 0.15053712 0.08771972
-0.08214303 -0.12514184 -0.17472331 0.16295616 -0.18120296 -0.07360475 -0.048428837 0.0716538
0.094035126 0.1372838 0.13596955 0.0045261676 -0.090215154 0.044907693 -0.20624264 0.011491893
-0.046176594 -0.017284498 0.030827494 0.032455336 -0.0017623686 -0.00061390083 -0.0051011317 -0.07133932
-0.15340099 0.026503138 -0.03853938 0.08321391 -0.09630376 0.15329848 -0.11819672 -0.12708518
0.21654974 0.25893188 0.14103538 -0.058545556 -0.017117856 -0.13940488 -0.13637911 -0.09492615
0.15392745 0.16131578 0.10012893 0.05958114 0.059737336 -0.06167548 0.07579046 0.17767549
0.037440103 0.13616912 -0.04593747 0.18100573 -0.08516352 -0.11461824 0.06174211 0.021294877
0.21044172 0.045216225 0.16836177 -0.061992124 -0.057479624 0.10227537 0.04722778 -0.18150331
-0.028260097 -0.002567167 0.040455155 0.11492418 0.13116415 0.123956144 -0.16709228 -0.15930846
-0.15669541 0.08335408 0.08099591 0.07306238 0.08757836 0.03904873 0.0027844775 -0.042889837
-0.06846196 -0.044506874 -0.11951736 -0.11496408 0.098023355 0.025032528 -0.10121826 0.113389954
-0.14951615 0.13182902 -0.17146723 -0.04365741 0.1758574 0.17801292 -0.15572569 -0.021719094
0.121203914 -0.12702897 0.16875964 -0.05612896 0.12591667 0.031653382 0.17104924 -0.0046479
0.011606155 0.16678412 -0.08895418 0.025525203 -0.014402212 0.06154074 -0.024390992 0.17185788
0.15113387 0.040908873 -0.03814889 0.20302467 -0.07976043 -0.11917067 -0.21062222 -0.10572385
-0.11639426 -0.109945156 0.094097465 -0.05481861 0.13596033 -0.12985967 0.15171598 0.07595951

input_proj.bias f4 [64]
00000000: 8918 bcbd d45f 1fbe bb7e a93d d95f 333b
00000010: 8402 193e 890d 9d3d eddf f23d b69b 263e
00000020: 1302 06be 8983 f5bd ff4e 103d 8e8b 003d
00000030: 115b 073e ec84 38bd 07e7 42bd 4cfd 103e
00000040: 7c28 90bd 2e7d a6bd 6a84 273e 0416 5ebd
00000050: df67 8ebd f344 353d 1b88 f33d 94f2 f6bd
00000060: 6627 9b3d 3826 02bd 5ad9 553c 4c07 a43d
00000070: 18f4 543c 656f 56bc 22cd 173c 7959 f53d
00000080: 4014 4bbe e2d5 8cbd d053 a3bc d08f 3c3e
00000090: 035c e93d 933b e83d 7537 28bd 8095 8a3c
000000a0: b332 323d d99b b73d 10fb 59b8 d773 69bc
000000b0: 0922 863c 5aad 33be b7d2 953c 894b 0d3e
000000c0: 77d7 3a3e 2fe8 273e 5734 fd3c 31a8 523b
000000d0: 2a7f 0c3e 8155 b93d 590a 47bd cb24 2d3e
000000e0: f670 d13d 7eff 903d 5cf0 1cbe 2bb6 ef3d
000000f0: 3d96 f63d 0c57 143c 2c34 1e3e 3064 9a3c
-0.09184367 -0.155639 0.08276125 0.0027370362 0.14942366 0.07668597 0.11859117 0.16270337
-0.13086729 -0.11987979 0.035231587 0.03138309 0.13218333 -0.04504864 -0.047583606 0.14159125
-0.07038972 -0.08129345 0.16359106 -0.054220214 -0.069534056 0.04425521 0.118911944 -0.12057987
0.07575874 -0.03177473 0.013052309 0.08009204 0.01299765 -0.013088082 0.009265216 0.11979956
-0.19831944 -0.068767324 -0.019937426 0.18414235 0.11394503 0.11339488 -0.041068513 0.01691699
0.04350538 0.089652725 -5.1970652e-05 -0.01424881 0.016373651 -0.17546597 0.018288953 0.13798346
0.18246256 0.16397165 0.030908747 0.0032143707 0.13720384 0.09049512 -0.048593853 0.16908567
0.10226624 0.07079981 -0.15326065 0.11704668 0.120403744 0.009053957 0.1544959 0.018846601

msg_layers.0.W_self.weight f4 [64, 64]
00000000: 111d 8b3d 406b bcbd 9670 863d 1aa1 b0bd
00000010: 531b 2cbd da57 c13d fa7b b83b a19c 963c
00000020: ee22 fc3d 4363 e7bd 48fe 8f3c d9dc 73bc
00000030: 1e0b 2dbd db52 da3d 57f7 94bc f16a 4a3d
00000040: 5490 0fbe db7e 50bd 0ddd 17bd a458 aebc
00000050: ac7c 12bd f186 a0bd cef4 863c cca0 503c
00000060: cb6f fb3d 936e 893d 9463 0a3e 4288 203e
00000070: 6195 c93d ecb6 0abd bced 0f3e 8f4b 273e
00000080: 062a 5a3d 3d82 54be 4b59 113d 3474 52bc
00000090: 776d 9c3d 8971 883d 12d1 b6bb f5c6 47bd
000000a0: 14fc c8bd db86 113e b194 3dbd 82f2 06be
000000b0: 8e95 893d 7926 1fbe 404c cb3c 9256 0b3b
000000c0: a983 b8bd 04b5 dc3c 9c11 90bd 389a 1b3c
000000d0: c98b 243d d92c 753c a645 04be 334d bebd
000000e0: a0af f93d dde8 8dbd e20d 033d 2a9c 9abd
000000f0: 7fbc d83d 6e1c 893d 4756 513d 777a 073e
00000100: 8cb6 ee3d f8da 17bd 60a6 933d fb9d 3f3c
00000110: 46fb 5ebd 38de 0a3d b23d 3d3d b0ce 623d
00000120: 32b1 a5bb ae33 45bd 337b 453d 08d7 98bd
00000130: 4934 e8bd aef3 c2bc f81f 783c b4e9 07bd
00000140: 2eec 993d 4363 ec3d a925 e5bd 18cf b6bc
00000150: 3161 d53d cd7d 72bd e839 0abe a6a3 0f3d
00000160: 1841 5a3d dbc4 6d3c 36e7 1f3d 3026 b23d
00000170: 4f37 32bd 01c7 b7bd 8e07 693d 6597 adbc
00000180: fc3c 9c3d ac3a 6a3c 7adb 933d 4e99 19bc
00000190: 1d4f c9bb 85ee 17bd 7315 093d d524 32bd
000001a0: 03d9 683c 3413 dcbc e0e0 5bbd dcb3 da3d
000001b0: 1b45 d83c fa6d 703d 7a20 41bd 95b6 25bb
000001c0: 13fc 713d c142 953d 6ca2 f23d 7934 063e
000001d0: 643c 973d 7847 7bbd da27 85bc 26ec fbbd
000001e0: 957a 9f3d 34e3 c0bd a121 f13d 0203 87bd
000001f0: 678f ed3c 2fcf a7bd d18d eabd cd37 a73d
00000200: 8e45 e13c 5483 07bc 68e4 c8bd 69b8 03be
00000210: 27a1 d9bd 74ca a8bd 8504 7cbc b75f c63c
00000220: 958b 10bd 5452 ddbd 4b8e 5a3d 4d99 653d
00000230: aece dcbd ef5f 50be bd4f ad3d 820a 30bc
00000240: 2d99 b13c 8e60 30be cd90 33bd c2ad 23bc
00000250: 6633 c73d 28df b1bd 8eae bf3c aea3 e33d
00000260: a794 5a3b 2935 c7bc 23c4 3ebd 2cce f7bd
00000270: cb70 0f3d f913 2c3d 3016 023d ffd5 2ebe
00000280: e0ba 69bd 26be 113e 46b4 81bd 76e6 86bd
00000290: 39aa e03c c04d a83d 72bc 883c eca4 e03d
000002a0: afbb e9bd e10c adbd 4f4b b83d 6181 7d3c
000002b0: 06d0 f43c af07 a83d aae9 553d 95a4 b33c
000002c0: 4d1c 8fbc 77bf f43d 9271 323c 98a7 efbd
000002d0: 102e a0bd 4f30 84bd 7079 c7bd b930 71bd
000002e0: d594 33be 1282 d1bc 0657 7ebc 1c41 c23d
000002f0: 222b f1bd d150 84bd c528 81bd bf79 9abb
00000300: 19dc 1dbd 9b5c 6ebc fd3f 913d d106 2ebe
00000310: e8f4 82bc 44f0 213c 9032 f03c afc4 d03c
00000320: 1c0f 16be 775a ccbb 5e31 05be d3d7 89bd
00000330: 9e76 b0bd 756c 08be 93f8 e23d 2b03 fb3d
00000340: ea95 90bc 1303 8a3d f515 6d3d 8bf8 d93b
00000350: 2368 22bd 1fe6 ee3d b837 35bd 2ac7 f8bc
00000360: 854e 7e3c 64ab 753d 3d8d 903d 1b34 dbbc
00000370: 66bd 3e3d 9cbf ddbd 643b 723d 4378 2dbc
00000380: b221 9ebc bdc1 653d dc91 3dbd b8cd fcbc
00000390: fa17 373d 4d8c 39bd e49a 10bc cd59 de3d
000003a0: 4bea d23c 0050 103d ea5a ce3d 67b5 76bd
000003b0: 3a3d c73c 6b35 95bd 3f8b 06bd 6590 35bd
000003c0: 2e87 c33d 6aaa db3d 6ffc a0bd cb50 4e3c
000003d0: 4427 ddbd f20a 003e 1cc0 3a3c 6b92 b0bd
000003e0: fedd aa3d 8d3d b23d c99f 6a3c 8f39 843d
000003f0: 1fa4 c4bc fbfc 5ebd f17e b33d d277 153e
0.06792653 -0.09200144 0.06564443 -0.08624478 -0.042018246 0.094405845 0.0056300135 0.018385233
0.1231135 -0.112982295 0.017577305 -0.014884197 -0.04224693 0.10660335 -0.018184347 0.049418394
-0.140199 -0.05090223 -0.037076045 -0.021282502 -0.035763428 -0.07838238 0.016474154 0.012733649
0.12277182 0.067105435 0.13514549 0.15676978 0.09842945 -0.033865854 0.14055532 0.16337417
0.053262733 -0.20752807 0.035485547 -0.012845088 0.07638066 0.0666228 -0.0055791223 -0.048773725
-0.09813705 0.142116 -0.04628438 -0.13178447 0.067179784 -0.1554202 0.024816632 0.0021261317
-0.09009487 0.026941784 -0.07034609 0.009497218 0.040172372 0.014964306 -0.12917194 -0.09292068
0.12191701 -0.06929181 0.03199566 -0.07549317 0.10582828 0.06694876 0.05110767 0.1323031
0.11655912 -0.03707406 0.07209468 0.01169538 -0.05443885 0.03390333 0.046201415 0.055372894
-0.0050565237 -0.04814499 0.048213195 -0.07462889 -0.113380976 -0.023797836 0.015144341 -0.03318186
0.07515751 0.1154237 -0.11188824 -0.022315547 0.104189284 -0.059202004 -0.13498652 0.035068177
0.053284734 0.014512266 0.03903886 0.0869869 -0.043509778 -0.08973504 0.05689197 -0.021190355
0.07628819 0.014296215 0.07219596 -0.00937493 -0.0061434642 -0.037092704 0.03346772 -0.043492157
0.014211896 -0.026864626 -0.053681254 0.10678837 0.02640014 0.05869863 -0.047150113 -0.002528583
0.059078287 0.07288123 0.11847386 0.13105954 0.073845655 -0.061347455 -0.016254354 -0.12300901
0.077870525 -0.094183356 0.11773992 -0.065923706 0.028999044 -0.08193814 -0.114528306 0.0816494
0.027498987 -0.008271057 -0.0980919 -0.12863316 -0.106264405 -0.0824174 -0.015381937 0.024215562
-0.035289366 -0.108067185 0.053358357 0.056054402 -0.107816085 -0.20349096 0.084624745 -0.010744693
0.021679485 -0.17224333 -0.043839265 -0.009990158 0.097266 -0.08685142 0.023398664 0.11115204
0.0033352764 -0.02431734 -0.04657377 -0.12099871 0.035019677 0.042011235 0.03175944 -0.1707382
-0.057062984 0.14232692 -0.063332126 -0.06586926 0.027424918 0.08217955 0.01669142 0.10968956
-0.11412751 -0.08449722 0.08998739 0.015472741 0.02988435 0.082045905 0.052224793 0.021929065
-0.01746955 0.119505815 0.010891335 -0.11701888 -0.07821286 -0.06454527 -0.09739959 -0.058884356
-0.17537244 -0.025574718 -0.015523678 0.09485075 -0.11775805 -0.06460727 -0.06306604 -0.0047142203
-0.03853998 -0.014548446 0.07092283 -0.16994788 -0.015985921 0.009883944 0.029320985 0.025484411
-0.14654201 -0.00623637 -0.13007113 -0.06730618 -0.086163744 -0.13322623 0.11082568 0.122564636
-0.01764961 0.067388676 0.057882268 0.006651943 -0.039650094 0.11664986 -0.04424259 -0.030368406
0.01552165 0.059977904 0.07058189 -0.026758244 0.046567343 -0.10827562 0.05913867 -0.010587755
-0.019303177 0.056092966 -0.04628168 -0.030859813 0.0447006 -0.045299817 -0.008825991 0.10856972
0.025746485 0.035232544 0.10075934 -0.060231593 0.024321187 -0.07285579 -0.03284764 -0.04432716
0.09547268 0.10725863 -0.07860648 0.012592505 -0.10798505 0.12504175 0.0113983415 -0.08621677
0.08343123 0.08703146 0.014320322 0.06456291 -0.02400404 -0.05444048 0.087644465 0.14596489

msg_layers.0.W_self.bias f4 [64]
00000000: 7743 11be c1ba 933d b979 b6bd 4813 743d
00000010: 4b3a 813d d523 223e 2196 c53d 811a 93bc
00000020: 8393 d03b e678 04bd 3f04 54bd 8649 b0bd
00000030: 66d3 9ebb 1fbc 1d3e 6804 0b3d f6af 55bd
00000040: 9f7d 873d b85c cebd 4fcf 5dbd 5a41 12bd
00000050: c87c 103d 93da 823d ae3b f5bd e36d b4bd
00000060: 6c02 eebc 585a b43c 8ca0 803d 1bf6 1e3e
00000070: d62d bdbc 19ee 8c3d befd 153d c9a0 f13d
00000080: 1161 44bd 63ed 0bbe 6fdc cd3b 057c be3c
00000090: e8a7 093d c25f 4abc dfb5 4e3d 0b13 143e
000000a0: cb90 ba3d 2b84 b83d d742 8abd 600c 75bc
000000b0: 772d 5abd 1964 ce3d fdfd 6cbd eefb 85bd
000000c0: 1ca7 233e 6d7d 6e3d 02f2 c53d 588f cebd
000000d0: a79f a03d 5bdb 053e 91d0 20be 531c 9b3d
000000e0: e355 e93d d14d c5bd 9ed4 633d d873 a23b
000000f0: 9162 593d 2cc5 f63c 480b 483d 8df2 203c
-0.14185892 0.07213355 -0.089099355 0.0595887 0.063099466 0.15833981 0.096477754 -0.017956974
0.006365241 -0.03234186 -0.051761862 -0.086077735 -0.004846978 0.15403794 0.03393975 -0.052169763
0.06615757 -0.100762784 -0.054152783 -0.035706855 0.03527525 0.06389346 -0.119742736 -0.08810022
-0.02905389 0.022015736 0.06280622 0.1552357 -0.023093145 0.06881351 0.03661894 0.117982455
-0.047944132 -0.13664775 0.0062823812 0.023252496 0.033607394 -0.012351932 0.050466415 0.1446039
0.09109648 0.09009584 -0.0675103 -0.014956564 -0.053266015 0.10077686 -0.05785941 -0.065421924
0.15981716 0.058225084 0.096653 -0.100859344 0.07842951 0.13071959 -0.15704562 0.07573762
0.11393335 -0.09633983 0.05562269 0.0049576573 0.053072516 0.030123316 0.048838884 0.009823454

msg_layers.0.W_msg.weight f4 [64, 64]
00000000: 52b5 a03d 6010 40bc b7e4 f73d 392f 973c
00000010: 8359 463e 61b3 c83d a869 273c b548 ac3d
00000020: 4620 9f3c ae25 53bd 1106 fc3d d3da c6bc
00000030: 640b 3dbd 13ab c8bd bfff f83c d710 b23d
00000040: a2ac 143e a738 0dbe ab8b 003d 0d14 a4bd
00000050: 6e7c 12be 7246 52bd f862 8bbd fde7 a63d
00000060: 8ce0 d1bd 0f24 37bd ae4e 40bd 5acf 0ebe
00000070: 58af aebb 96c2 52bb 9e61 c23d 0cb1 f73c
00000080: 77f3 f1bc e12b dabd ef10 aebd ec89 263d
00000090: d130 70bd 771d a93d f102 853c e14e 85bb
000000a0: 0429 acbd 904c d8bd b6bd 4c3d 2fe7 193e
000000b0: c18a d5bd 1f9b 033e 6457 09bd 0cad b43d
000000c0: 3c1a d13d 17b8 4f3d 80ab 063a b127 d3bc
000000d0: 9c65 a23c 5679 b23b 50d6 8abd fab8 c7bd
000000e0: ad80 92bd bbae ff3c 51d0 cdbd cde3 10bd
000000f0: 004d f4bd de8e 01be 8012 9e3d e727 90bd
00000100: cf6a 8e3d 669d a4bd 3e77 babd 9e15 bf3d
00000110: b2d2 43bb 1e72 a7bd a09b be3d 4945 f83c
00000120: d7e7 b7bd 4196 d5bd 3503 3c3d 7d91 043d
00000130: 9bff 0c3c e42e d1bd 6d20 c3bd 2e9c 703d
00000140: 1ea2 a2bd c52d acbc 6efa 9d3d e400 cebd
00000150: c123 f4bd 0e2d c83b e53a c43c edd2 053d
00000160: e89d 0abd 5194 0e3e 33f6 fc3d a671 f5bd
00000170: 1972 dd3d 7e17 08bd 5179 f0bd 8515 92bd
00000180: af87 023d ea0d dfbd 3863 58bd 713c e5bd
00000190: d27e dbbd 1dd7 c33c 41d3 99bd 4af9 e1bd
000001a0: 82b9 a13d 53cd e03c afe2 38bd 2d0f 383b
000001b0: 0f1f 473d 74a8 82bd 653d cfbc 251c e93d
000001c0: 039d 42bd 4b77 c2bb 4d01 dfbd d8d4 883d
000001d0: 6253 053d edff 65bc 2959 8fbd f2ff 163d
000001e0: 0587 37bc 1583 bd3d dfea 823d 49bc 023e
000001f0: c499 043b 6256 8b3d 4f73 ddbd be70 523d
00000200: 6eaa 0c3d 8c41 533b 7291 a1bd a773 a63d
00000210: 2336 a73d a68d 8cbd 798e cebb 9e0a 90bd
00000220: 3819 9dbd 8bb1 40bc 1920 e3bd f6a4 1e3d
00000230: 489e cdbd 0709 0a3e e707 96bd 7dde 833a
00000240: 28f8 b03d b323 223e 11dd 26be ad91 54bd
00000250: 1ad5 80bc c5f9 d03d ae85 a23d 3c21 ccbc
00000260: 1b4c 073d 9977 5bbd 5e61 fabd b266 99bd
00000270: 4077 c13c f6c1 8cbc f970 44bb 31d0 ac3d
00000280: a0dd d33d b53e ccbd d899 e53d df49 39bc
00000290: eb4f a9bd 1bd2 edbc 6fa4 23be 966f 033d
000002a0: 6358 0bbe 5d7b d73a bf3c 223d ca75 a23a
000002b0: efbf bbbd 4ba7 773d a6ff 91bd b2fc 72bd
000002c0: e693 4ebd d8a1 e8bd 8512 eabc a142 153d
000002d0: 725f a7bc d4fb f9bc 7337 773d 8c3e c8bc
000002e0: 527c 823c 10f5 b3bd ce37 a33b 9d69 8a3d
000002f0: dec2 153d c377 8dbd 0eb2 18be e5ad 9d3d
00000300: f8ed c93c eefe 76ba 23f7 a23d 61b2 a43b
00000310: 6497 8d3d 38ab 4cbd 20a0 093e dbaf e5bd
00000320: 5c6a 8c3d bf58 923c 2a71 a5bd 981b 4e3d
00000330: 070c 1f3b 0e4e 423c bad4 0a3e 23ea afbd
00000340: aeb6 a1bd 7b71 153d 6f3d fd3c a7ee 163e
00000350: 6f60 f93d dadb 793d 75b3 f03d c3c9 a8bd
00000360: 13d6 06be d827 2d3d 2c0d 79bd ef3f f0bb
00000370: 4382 a2bc de1c a43d 5774 cc3d bcf2 95bc
00000380: a658 8ebd cd86 f93c b180 95bd d3fc 813d
00000390: e623 a53d c823 cabc e4e5 e1bd 64d2 863d
000003a0: 5edf e3bd 87cf f63d 76ab 403c 28d4 92bd
000003b0: 0e01 0bbe dafc 993d d928 14bd 6f22 bd3d
000003c0: 251f 093e 06be c0bd 8a64 cfbc a009 893d
000003d0: 9bee fa3c 001d 5dbd f608 3b3e 2db9 e53d
000003e0: 17ab 423d f6d6 b53d 65fa 893c f5e6 b7bd
000003f0: f47d 4f3c 2df6 473a 9b2c 00bd dd83 e33c
0.07847084 -0.011722654 0.12104171 0.018455135 0.19370084 0.09799839 0.0102180615 0.08412305
0.019424569 -0.051549606 0.123058446 -0.024274265 -0.04615344 -0.09798255 0.030395387 0.08694618
0.14518979 -0.13791142 0.031383198 -0.08011637 -0.14305279 -0.051336713 -0.06805986 0.08149717
-0.10247907 -0.044712123 -0.046950035 -0.13946286 -0.005330961 -0.003215944 0.09491275 0.03023579
-0.029535038 -0.106529005 -0.084993236 0.040658876 -0.058640305 0.08257573 0.016236754 -0.004068241
-0.084062606 -0.10561478 0.04998561 0.15029596 -0.10426856 0.12852143 -0.033530608 0.088220686
0.10210082 0.05071267 0.000513725 -0.025775762 0.019823842 0.0054465933 -0.06779158 -0.09752078
-0.07153449 0.031211248 -0.10049499 -0.035373498 -0.11928749 -0.12652156 0.07718372 -0.07038861
0.06953966 -0.08037834 -0.09104775 0.09330295 -0.0029880223 -0.08176063 0.09307027 0.030306475
-0.08979767 -0.10429049 0.045901496 0.03236531 0.008605863 -0.10214022 -0.09527669 0.058742695
-0.07941078 -0.021017918 0.07713781 -0.100587636 -0.11920882 0.0061088866 0.023953864 0.032671858
-0.033841997 0.13923766 0.12351646 -0.11984567 0.10812778 -0.03322553 -0.11741889 -0.07133011
0.03186768 -0.10891326 -0.052828997 -0.11193169 -0.107175484 0.023906285 -0.075109966 -0.11033876
0.07896711 0.027441656 -0.045138057 0.0028085217 0.048613604 -0.06379786 -0.02529783 0.11382321
-0.04751302 -0.005934631 -0.1088892 0.06681222 0.032550223 -0.014038068 -0.06999428 0.036865182
-0.011201625 0.092535175 0.06392454 0.12767138 0.0020233253 0.068035856 -0.10813009 0.05137705
0.034342222 0.0032235114 -0.078890696 0.08127528 0.08164623 -0.06862955 -0.006303605 -0.07033275
-0.07670826 -0.01176108 -0.110901065 0.038731538 -0.100399554 0.13480006 -0.07325726 0.0010060814
0.08641082 0.1583393 -0.16295268 -0.05189674 -0.015726615 0.1020389 0.079356536 -0.024918191
0.033031564 -0.053580854 -0.122256026 -0.07490291 0.023616433 -0.017182332 -0.0029974564 0.08438147
0.10345006 -0.09972898 0.11210984 -0.011309116 -0.08267196 -0.02903085 -0.15980695 0.03208884
-0.13607936 0.0016439963 0.039608713 0.0012394723 -0.09167468 0.060462277 -0.07128839 -0.05932302
-0.050434016 -0.11358994 -0.028573284 0.036440495 -0.020431254 -0.030515589 0.060355615 -0.024443887
0.015928421 -0.08786976 0.0049810177 0.067584254 0.036562793 -0.06907608 -0.14911672 0.076991834
0.024649605 -0.0009422143 0.07957294 0.0050261472 0.06913641 -0.049967974 0.13439989 -0.112151824
0.06856224 0.017864583 -0.08078225 0.050319284 0.0024268643 0.01185943 0.13557711 -0.0858958
-0.078961715 0.036485177 0.030913083 0.14739476 0.121765964 0.061000682 0.11752979 -0.08241608
-0.131676 0.042274326 -0.060803577 -0.00733184 -0.019837504 0.080133185 0.099831276 -0.018304221
-0.06950502 0.030459786 -0.072999366 0.063470505 0.08063488 -0.024675265 -0.11030176 0.065830976
-0.11126588 0.120513014 0.0117596295 -0.07169372 -0.13574621 0.07518931 -0.036171768 0.09235083
0.13390787 -0.09411244 -0.025316495 0.06691289 0.030631354 -0.053982735 0.18265137 0.1121696
0.047526445 0.08878891 0.01684303 -0.089795984 0.012664307 0.00076279306 -0.03129254 0.027772838

msg_layers.0.W_msg.bias f4 [64]
00000000: b9bf b13d 9747 ed3d b82d a5bd 4575 4c3d
00000010: f019 f93b c1b0 523d c8ca aa3c 4efe d13c
00000020: a394 563d c46c 95bd acea d13c 5238 e83d
00000030: c95b d3bd 3177 93bc 5c00 593d b8e4 643d
00000040: 1690 c73d acfc 4fbd 8775 a9bd f5a5 093e
00000050: b80d d03d 74c4 f33d 25a4 703d 6c01 b73c
00000060: c02e 35bd 6734 f7bc f437 733d 895c 12bc
00000070: 62d9 b8bd 62b4 223d 4ba2 62bd b47d adbd
00000080: 774f 513d 7ba6 89bd 982e e13d f96a f4bb
00000090: 660d 113e a317 a4bd 8f8f 81bd 724d b0bb
000000a0: 6932 0a3d 804f 3dbb aa6b 0d3d bf30 4fbd
000000b0: 49a0 193d 5ab7 623d 54a5 8ebd 846f 723d
000000c0: 8526 083e 2536 c9bd 8bed fb3d fa8b 54bc
000000d0: 25f0 49bd c203 6c3d 6a7d b63d abac 96bc
000000e0: 618e 3d3c 8809 a83c ffdd 053e 3d98 923d
000000f0: e15b e73b 26e7 ed3d ff12 fe3d e24f b0bd
0.08679146 0.1158592 -0.08065361 0.049916524 0.007601969 0.051438097 0.020848647 0.025633957
0.052387845 -0.07296136 0.025624596 0.11338867 -0.10320241 -0.01800117 0.05297886 0.055882186
0.09744279 -0.050778076 -0.0827437 0.13442214 0.10158867 0.11902705 0.05875029 0.022339545
-0.044234037 -0.030176355 0.059379533 -0.008933195 -0.090258375 0.039722808 -0.055330556 -0.084712416
0.051101174 -0.06721207 0.10995215 -0.007459041 0.14165267 -0.08012321 -0.0632621 -0.005380326
0.03373948 -0.0028886497 0.034526505 -0.050583597 0.037506375 0.05535064 -0.069651276 0.05918838
0.13295944 -0.098247804 0.12301167 -0.012972826 -0.049301285 0.05762077 0.089106396 -0.018392881
0.01156959 0.020512357 0.13072966 0.071579434 0.0070605134 0.11616354 0.12405967 -0.086089864

msg_layers.0.norm.weight f4 [64]
00000000: 03e6 7f3f 161c 743f 9a0a 7a3f 209f 6f3f
00000010: 43a6 8c3f 9a94 853f 71a1 733f 9d61 763f
00000020: 20e2 7d3f 9b5e 8c3f 2ff2 753f cff9 773f
00000030: d044 853f 99ed 793f 86ae 853f 09b4 783f
00000040: 772d 863f 945d 723f 641d 8d3f 2730 7f3f
00000050: 0a7b 863f 9242 733f ea91 7d3f ec4d 653f
00000060: 83e8 7e3f cd8e 7c3f 5ac5 7c3f 4484 7b3f
00000070: 9d0c 7d3f a2b6 813f 9a67 783f d0c4 7d3f
00000080: 2321 813f 1cdc 753f a5bc 813f a5a3 7b3f
00000090: c40d 7f3f 7c09 763f ee80 7e3f 14b4 7b3f
000000a0: ecc0 713f d4b5 7d3f 6836 783f 4404 833f
000000b0: f859 813f c7c6 843f 8227 783f 9a88 763f
000000c0: 2f22 853f 2554 823f 306a 753f 3f4f 843f
000000d0: e0f6 7a3f 897c 7c3f ab26 833f 03e0 7c3f
000000e0: 0afc 853f 45f0 743f 2908 863f 5fab 813f
000000f0: 75c7 8e3f 74b7 7e3f 0762 5c3f 2fbf 773f
0.99960345 0.95355356 0.97672427 0.9360218 1.0988239 1.0435975 0.95168215 0.96242696
0.99173164 1.0966371 0.9607267 0.9686555 1.0411625 0.9762817 1.0443885 0.9714971
1.0482625 0.9467404 1.1024594 0.9968285 1.0506299 0.95023453 0.9905077 0.89572024
0.99573535 0.98655397 0.98738635 0.98248696 0.9884737 1.013386 0.97033083 0.9912844
1.0088238 0.96038985 1.0135695 0.98296577 0.9963038 0.9610822 0.9941548 0.9832165
0.94435 0.9910557 0.9695802 1.0235677 1.0105581 1.0373162 0.96935284 0.9630219
1.0401057 1.0181929 0.95865154 1.0336684 0.9803295 0.98627526 1.0246176 0.98779315
1.0467541 0.9567912 1.047124 1.0130423 1.115462 0.9949868 0.8608708 0.967761

msg_layers.0.norm.bias f4 [64]
00000000: beab 39bd a366 abbc 6913 ea3c f783 333d
00000010: 7c22 533d 1d05 a63d b4f8 a03c 755c cf3b
00000020: 0aac 4e3a df65 79bd e056 4b3d e864 67bc
00000030: 8788 173d 2919 b63c 6630 28bd c4ad 46bc
00000040: cc73 03bc 750b 963c 6108 083d bf43 8d3d
00000050: 1964 93bd 28c0 98bc e827 e63b 762d 81bc
00000060: f3c0 993d ecce 443c a1ab e63c dd3a 213d
00000070: 8402 4ebb 311a 013d c56f ae3d b0d5 a33d
00000080: 2ef1 27bd 1d18 60bd 57b9 05bd 427a 8b3d
00000090: 305a 39bd aa27 4ebd 6d00 f139 5ca1 313d
000000a0: 1162 fc3a dda4 cb3c 6369 033d 55df 1ebc
000000b0: 6cba 8f3d a480 ed3c ca61 203d 62e5 05bd
000000c0: 3e87 ad3d 63e2 473d 990b 2e3d b664 22bd
000000d0: 68e9 33bb 3bac c33c c5a6 abbd 06d7 ae3d
000000e0: 9d21 e03c 2ef6 b7bb 97b5 46bd 31a9 3abd
000000f0: 674e b23c c47d 66bd 1139 ea3c 2a8e d43c
-0.0453298 -0.020922964 0.028573709 0.043827023 0.05154656 0.08106444 0.01964984 0.0063281604
0.0007883912 -0.060888167 0.049643397 -0.014123179 0.036995437 0.022228794 -0.04106178 -0.01212639
-0.008023214 0.01831601 0.033211116 0.06897687 -0.071968265 -0.018646315 0.0070238 -0.015768748
0.07507505 0.012012225 0.02815801 0.039362777 -0.0031434605 0.03151912 0.08517412 0.07999742
-0.04100149 -0.054710496 -0.032647457 0.06810428 -0.045252025 -0.050330795 0.0004596742 0.043366775
0.00192553 0.024858886 0.032082926 -0.009696801 0.07017979 0.028992005 0.03915576 -0.03268946
0.08473061 0.048799884 0.04249153 -0.039646827 -0.0027452353 0.023885837 -0.08381418 0.08537106
0.027359778 -0.0056140637 -0.04851302 -0.04557151 0.0217659 -0.056272283 0.028591665 0.025946695

msg_layers.1.W_self.weight f4 [64, 64]
00000000: 6059 833d 88a6 1abe 7689 ee3d 25fb 993d
00000010: fe0a 5e3d f7fe 433d ea9c ee3d 0533 0ebd
00000020: bf4a 1dbe 0ae5 33bd 332d 1bbe b891 48bd
00000030: d7fd 103c 35b3 c73d 52aa eebd eb96 af3d
00000040: b4cb 37be 6a6e 2f3d e165 783c 5a21 04be
00000050: 599e 1a3d bd7f 6cbd 416e a6bc 7b84 c33c
00000060: 6aad 193e ecea 1cbd e352 89bc 57fc 16bc
00000070: 006c c9bd 1b33 123e d4e9 393d 5558 d83d
00000080: 26b6 b4bd bc11 943d d651 d1bd ae78 bd3d
00000090: 3468 8fbc 42ac babd 1e35 8f3d 80a1 633d
000000a0: 4de6 ce3c d037 223e 397a 253d 02b6 39be
000000b0: f699 6f3d 7b4d 60be e758 25bc 898a 133e
000000c0: 6a27 0ebd 7854 073e adbd 6ebc db07 e5bd
000000d0: 7b1d 9c3d bb53 123e aa96 40bd c443 cf3c
000000e0: a1b3 cbbc d4e5 cb3d 9969 88bd b7e0 0b3e
000000f0: b6b6 b4bc 99ae 4abd d98c 35bd a2bd 1d3e
00000100: 747b 9a3d ae22 3f3d a901 593d cedd 17bd
00000110: 7951 9abd 2e81 e1bd e4d6 dc3d d9c9 60bd
00000120: 70dd 143d 90d8 263e 96c6 4b3c 0d7a d0bc
00000130: 3dbc c93d 322e d03d 0ec9 df3d abe6 58bc
00000140: c5f2 0c3d 10a1 5ebd 8610 2fbe fb1a 013e
00000150: 75d4 103e 87f0 97bc 8e4f 28bd bbc1 adbd
00000160: 5b63 a8bd 3d66 863d ac38 ac3d ee51 9ebd
00000170: 39d9 fdbd 2f1a 413d ec49 a63d 5ec1 cc3d
00000180: 5ad3 5f3c 24f6 513d f7f1 8cbd 1464 32bd
00000190: e07d fd3c c35a 213c 0910 c13d 6dd6 7d3d
000001a0: dde4 d5bd b3ee d3bd 01ab d5bd c4bf 44bd
000001b0: 4355 a53d 02ca 4c3a 7a86 dabd 8947 f93d
000001c0: 2293 a73d bb0d 82bd bf5b a93d 0480 0cbd
000001d0: d35b d1bc 50d3 7bbd 3061 983d a8c3 08bd
000001e0: 8ba3 903d 3e19 eb3d b47c 29bd a296 d8bc
000001f0: d406 9cbd 5202 b13d a210 a6bd 1dbb 793d
00000200: 47cc 2cbc eca6 91bb 555f babc d614 cc3c
00000210: ad50 15be 35cc 22be 85a2 ac3d 8d94 82bd
00000220: 77bd a73d 8e81 df3d 2037 c5bd 7bd7 93bc
00000230: 1133 fdbd fe6b e33d df8d a0bd 315c 01be
00000240: c05f 5cbd 3e13 09bd f7f3 fabc b33f ab3a
00000250: 3c6a ff3d 3602 523d 6d5b 7ebd 1c45 e13d
00000260: 6bb5 aebd 1d01 633d d2df d1bd 87e1 bbba
00000270: 708d aabd f85e 94bc 838e 563d eb91 8e3c
00000280: 074a 283e 7195 1e3e 3f96 863d 96b4 53bd
00000290: 1eff 103e 6530 d1bc d579 d5bb eb35 e7bd
000002a0: 031b 033e 3d9a 8e3d a9d2 91bd 6c77 a6b9
000002b0: 2145 633d 4931 eb3d 489d a3bc 41be c03d
000002c0: 8763 edbd 27c9 16be ee8c 9fbc 5fc6 803c
000002d0: 248d c13d ed00 23be d19e e7bc 2db4 79bd
000002e0: 0307 af3c bb76 6a3d 8764 113e f7cc 34bd
000002f0: 0310 5ebd e33c d3bc 4ca0 e03d d932 6a3d
00000300: a108 e4bd f3b6 9abc a353 aebc 7f24 35be
00000310: c9a8 a53d 42ec e23d 9118 1b3e 1aa7 d4bc
00000320: 5454 a0bd dfff 62be 34e6 1a3e 5461 90bd
00000330: 84b3 433d 0a54 33be 13ed dfbd 5675 32bd
00000340: 6b99 1b3e 8f76 2938 de64 1c3e d153 59be
00000350: d91e 6a3d 7085 2d3e 08a7 dd3d af8e e83c
00000360: 426c 3d3d 7de0 633d 2f6f 003e 4e63 11bc
00000370: 5900 0d3e ec35 063e c21d 1abe b4ef ddbc
00000380: 2139 e9bd 7ab5 15bd 2b75 a03d 0ade 59bc
00000390: cc45 cebd f975 0a3e 7f17 703e b6ca 9dbb
000003a0: 1eb9 50bd 922b c03d e573 113e 4a60 e23d
000003b0: 9219 093d 1754 adbd 9d78 b5bd 8fe8 af3d
000003c0: 3e09 1e3e ca0c 483c 1681 d2bd da0e d3bd
000003d0: dcda 44bd 751a 2b3c ba32 01be 0bb4 01bd
000003e0: 92b4 8a3d 6dc8 71bd 6dd8 7abd b53e 1b3e
000003f0: 0f40 71bb ad03 a03d 7b20 613d 1ff1 fb3d
0.06413531 -0.15102589 0.11647312 0.07518605 0.0542097 0.047850575 0.11651023 -0.034716625
-0.15360545 -0.0439196 -0.15153961 -0.048967093 0.008849583 0.09750978 -0.1165358 0.08573707
-0.179488 0.04282991 0.015161009 -0.12903348 0.03774867 -0.05773901 -0.020316245 0.023866883
0.15007558 -0.038309976 -0.016763156 -0.009215436 -0.098350525 0.14277308 0.04538901 0.10563723
-0.088238046 0.07229945 -0.10220687 0.092515334 -0.017505743 -0.09114887 0.06992553 0.05557394
0.0252563 0.15841603 0.040399764 -0.18135837 0.058496438 -0.21904556 -0.010091997 0.14408316
-0.034705557 0.13215816 -0.014571589 -0.11183139 0.076228105 0.14289753 -0.047018684 0.025300868
-0.024865927 0.099559456 -0.06660766 0.1365994 -0.02205978 -0.049482916 -0.044323776 0.1540437
0.07543078 0.046663933 0.0529801 -0.037076764 -0.07535071 -0.11010967 0.10783175 -0.054879997
0.03634399 0.1629355 0.012437483 -0.025448823 0.09850357 0.10165061 0.1092702 -0.013238589
0.03441121 -0.05435282 -0.17096147 0.12607948 0.14143546 -0.01854731 -0.041091494 -0.08484217
-0.082220756 0.06562469 0.08409247 -0.077304706 -0.123949476 0.04714411 0.08119568 0.09997819
0.01366123 0.05126013 -0.06882089 -0.043552473 0.030943811 0.009848299 0.094268866 0.06197207
-0.10444043 -0.10348263 -0.10433007 -0.048034444 0.08072903 0.0007812084 -0.106701806 0.121718474
0.0818236 -0.06350275 0.08269452 -0.034301773 -0.02555648 -0.06148082 0.07440412 -0.033389717
0.07062443 0.11479424 -0.04137869 -0.026439015 -0.0761849 0.08643021 -0.08108641 0.06096946
-0.01054675 -0.0044449475 -0.022750536 0.02491228 -0.14581557 -0.15898211 0.08429436 -0.0637599
0.081904344 0.109133825 -0.09629655 -0.018047085 -0.12363256 0.11104582 -0.0783956 -0.12632824
-0.05380225 -0.033465616 -0.03063391 0.0013065248 0.124714345 0.05127164 -0.06209891 0.1099951
-0.085306965 0.055420984 -0.102477685 -0.001433418 -0.08327758 -0.01811169 0.052382004 0.017403563
0.16434489 0.15486695 0.06571626 -0.051685892 0.1415982 -0.025535772 -0.0065147677 -0.11289581
0.12803273 0.06963012 -0.07120258 -0.00031750964 0.05548585 0.1148401 -0.019972458 0.09411288
-0.11591249 -0.14725171 -0.01947638 0.01571959 0.094507486 -0.15918322 -0.028273972 -0.060962845
0.021365648 0.057242136 0.14198504 -0.044140782 -0.05421449 -0.025785869 0.10968074 0.0571774
-0.11134458 -0.018886065 -0.021280115 -0.17689703 0.08088834 0.11080219 0.1514609 -0.025958586
-0.07828584 -0.2216792 0.15126878 -0.07049814 0.04777862 -0.17512527 -0.1093389 -0.04356893
0.15195243 4.0403156e-05 0.15272853 -0.2122338 0.057158325 0.16945434 0.10822874 0.02838835
0.04624582 0.05563401 0.12542413 -0.008873774 0.13769664 0.13106507 -0.15050414 -0.027091838
-0.113878496 -0.036550023 0.07834848 -0.013297567 -0.100719064 0.13521565 0.23446463 -0.004815425
-0.05095779 0.093833104 0.14204367 0.11053522 0.03347165 -0.084633045 -0.08860896 0.08589279
0.15433213 0.01221008 -0.102785274 -0.10305567 -0.048060283 0.01044332 -0.12617007 -0.031665843
0.06772722 -0.05902903 -0.061241556 0.1516064 -0.0036811864 0.07813201 0.054962616 0.123018496

msg_layers.1.W_self.bias f4 [64]
00000000: 3800 1b3e 969a 053d 0c5c 63bd 4571 203d
00000010: 5b2c 863e 2de5 ff3d 2cb4 6f3d dfb3 b5bc
00000020: ec66 d2bc cd5d 12be 8fbd 2ebe 8089 593d
00000030: 547f 133e f661 3ebd c814 19be 7807 9fbd
00000040: 5bcd 2e3d c6dd 64bb 7d51 a5bc a718 453d
00000050: cfb0 833d 139f 06be 4011 52bb a1e7 30be
00000060: f9c7 093e 1fe6 0a3e ff65 a93d 5780 003e
00000070: 4524 39bd 27c1 1abd 0b12 113e d184 21bd
00000080: e313 39bc 189f 88bd 0756 0b3d f107 373d
00000090: efcf 89bd b9ce 883d 660f 3c3d 59b1 05bd
000000a0: eb6e 8abb b9d1 0cbe fe5a 8e3d 9289 3bbd
000000b0: bb10 9fbd 8007 7c3d 139f 263d 0371 853c
000000c0: 8582 0cbd 97cc c23d bdfa bb3d 18d4 dc3d
000000d0: 09a8 ce3c 1125 0bbe 9648 173c 28c5 02be
000000e0: f501 fe3c 376b bb3a 5333 8ebd 464a 38be
000000f0: 9350 2f3d b6c3 24be 167a 5e3d 4959 d5bd
0.15136802 0.032618128 -0.055507705 0.039170522 0.26205716 0.12494884 0.058521435 -0.022180496
-0.025683843 -0.14293595 -0.17064498 0.053109646 0.1440404 -0.04648014 -0.14949334 -0.077650964
0.04267631 -0.0034922226 -0.020180458 0.048119213 0.06430208 -0.1314662 -0.0032053739 -0.1727586
0.1345519 0.13564347 0.08271407 0.12548958 -0.045200605 -0.03778186 0.14167039 -0.039433304
-0.011296245 -0.0667097 0.03401759 0.044685308 -0.06729113 0.06680054 0.045913123 -0.032639835
-0.0042246482 -0.13751878 0.06950949 -0.045785494 -0.07766863 0.06153059 0.04067905 0.01628924
-0.03430416 0.09511679 0.09178684 0.10782641 0.02522661 -0.13588358 0.009233614 -0.12770522
0.031006793 0.001429892 -0.06943383 -0.17997083 0.04280145 -0.16090283 0.05431565 -0.104174204

msg_layers.1.W_msg.weight f4 [64, 64]
00000000: 2f36 673c b34e 863c 4069 d23d fcb1 a6bd
00000010: 5a14 61be 68ab dcbc d4dd 02bd da96 883d
00000020: 6fe8 a53b 3ce1 703d 8dcd d3bc d4e2 ac3d
00000030: 382d 05bc 79ef af3d 17e3 cf3d 1b11 27be
00000040: 1191 993b 29c3 32bd deff 11bd 0467 a73d
00000050: 0451 853c c608 5bbd badf 92bb f0cc e6bc
00000060: c17b fe3c 6413 303e 3ee1 86bd e7c4 353d
00000070: f19f debd 0a35 d23d 2beb bb3d d4a4 cabd
00000080: b561 90bd 6baf e13c eeb9 96bd 80ee be3d
00000090: 2d44 acbb c141 cebd a6d5 dfbd 4064 9fbd
000000a0: 3f0d 0dbd 6f89 f4bd 18aa 483c 679d 0abc
000000b0: 0edb ee3c 3cab 85bd eae8 f23d 3e86 c1bd
000000c0: aad8 8c3d 95a3 343d 7354 343e 7d29 04be
000000d0: f96c 35bc 6f02 8abd e2e6 303d 3158 823d
000000e0: e825 183d 23cd 61bb 034f 71bd 9a8d c2bd
000000f0: 78b9 66bd 3db4 873d 3882 51bc 85c3 8abd
00000100: 6471 33bc 7426 16be 5671 863d 6d80 0dbe
00000110: 3b29 b3bd 556a f23d 6802 173d b5a1 8a3d
00000120: 7cf7 873d ef5a 393d 194a 743c 84a9 d93d
00000130: 89eb 983d 8a26 18bd 6a6b 083c b007 0ebe
00000140: 8e7e 703d b008 42bd 7f89 4c3d 777f 6d3c
00000150: af6f e53b 8021 9d3c 850a 80bc d5ee d4bd
00000160: 16bd 8a3c 4fc5 883d 91ef 75bd fc5d 833c
00000170: 3062 de3d 1e94 943d 1baf c23b 00ad aabd
00000180: 35f2 c8bd 38f7 92bc ceaa 0ebe 8744 ad3c
00000190: 8007 fdbb bbd3 793d 337e b23c a48b 49bc
000001a0: f6e9 c23d b81f c3bd 4705 343d e0da c3bd
000001b0: 6ff4 053d 86b7 26bd 0fc3 653c b353 563d
000001c0: d4f7 1bbc e130 8abd d0d2 a83c dfc5 df3d
000001d0: a5fc 9e3d eda0 22bd 4cab c0bc 0884 a4bd
000001e0: 96df d83d 0ff8 8bbd e375 b03d ea68 10be
000001f0: 3758 89b9 600e 72ba 694f 073d 8273 0bbe
00000200: 0a36 b83d 593b e03b b853 8d3d 3f62 b6bd
00000210: 3ddb bbbd 3ffc 013c cb2e fdbd edc4 a3bd
00000220: a957 ecbc 0eaf a0bd 6cc3 013d 54a2 abbd
00000230: 176c 503d fd00 d2bd 4656 1f3d 465f e5bc
00000240: 0974 9abd 7d01 153c 1194 dabc ba42 00be
00000250: a159 7cbc 0d3e 8b3d 8051 e9bc 51f5 733d
00000260: 4c91 f6bc f731 f4bd cc76 bc3c 2c3d 84bd
00000270: c9eb cc3d df0d 6f3d 3830 733d 3b60 07bd
00000280: 484d f43d 229a 993c dda0 90bc b100 d13d
00000290: 73d7 d83d 6daf 063e 034f ddbd d836 003e
000002a0: b05c cfbd ba93 e13d 84bf aa3c a5fc 833d
000002b0: 8707 b23d 6122 4ebd 3389 6e3d 0e65 b83d
000002c0: 1ddc febd 9223 b9bd 7696 e23d dc54 aa3d
000002d0: d8ad 38bd 6b3c 793d 25e6 963d a54c fcbd
000002e0: ac1f 94bb 7ba4 1cbd d823 f73d 2050 873d
000002f0: 9775 6f3d c408 d93d 98c4 d93d 47b0 98bd
00000300: 5335 843e b18b 823e 504d 2ebe f1b1 47bd
00000310: 5fb7 11be 17f8 bebb 9954 57be f39f 1f3e
00000320: 227f b53d e5a1 16bd 0805 debd 87b7 4d3d
00000330: 74fe acbc 0383 01bc bd22 053e 366a 9e3c
00000340: 8695 0ebd 30ae 413d 559b c73d f8a6 65bc
00000350: 0e39 a83d 9543 9bbd 6614 0ebc 34df 87bd
00000360: 07b7 063e a207 14bd 4964 26be 9132 c53d
00000370: 0801 19bd 1211 e1bd 2710 a5bb 99ce 03be
00000380: 87c6 abbd f02e 47be 8e92 c2bb cd76 78bc
00000390: 06c4 e3bd 5550 1ebe ebbf 12be 39e8 423e
000003a0: 3c53 7bbe 41a9 513e f02b dbbc 89a6 b7bd
000003b0: 5e5b 0b3e c9c3 bcbd 8380 89bd 0458 1f3d
000003c0: f357 18be 3d5d 13be 6ea8 bfbc 2b2c 543d
000003d0: cfa4 f73d 10db c8bd a765 983e e3a4 e03c
000003e0: 4f59 033e 272c ac3d 1b44 cc3c cd09 62bc
000003f0: 0858 cd3d 898e 883d e87d 063e a5ee b9bd
0.0141120395 0.016394949 0.10273981 -0.081394166 -0.2198042 -0.026937202 -0.031949833 0.06669398
0.0050631086 0.05880855 -0.02585485 0.084417015 -0.008128457 0.08590598 0.10150736 -0.16315119
0.0046864827 -0.04364315 -0.035644405 0.081739455 0.016273983 -0.053475164 -0.0044822367 -0.028173894
0.03106487 0.17194897 -0.0658593 0.044377234 -0.1087035 0.10264023 0.09175714 -0.0989472
-0.07049886 0.027549466 -0.07359682 0.09322834 -0.0052571506 -0.10071135 -0.10929422 -0.07782793
-0.03443646 -0.11940276 0.012247585 -0.008460379 0.029157188 -0.06526801 0.11860831 -0.09449433
0.06877263 0.044101316 0.1761034 -0.12906452 -0.011073344 -0.067387454 0.043188937 0.063644774
0.037145525 -0.0034454546 -0.058913242 -0.094996646 -0.05632922 0.066261746 -0.012787394 -0.06775574
-0.010952327 -0.14663106 0.06564586 -0.13818522 -0.087480985 0.118366875 0.03686753 0.067691244
0.06639001 0.045252737 0.014910244 0.10628036 0.074668 -0.03714613 0.008326391 -0.1387012
0.058714442 -0.047371566 0.049935814 0.014495722 0.007001839 0.019181013 -0.015630016 -0.10397116
0.016935866 0.06678259 -0.06004292 0.016036026 0.108585715 0.072548136 0.0059412844 -0.083337784
-0.09811822 -0.017940149 -0.13932344 0.02115084 -0.0077218413 0.060992938 0.021788692 -0.012301359
0.09517281 -0.09527534 0.043950345 -0.095632315 0.032703813 -0.040702365 0.014023556 0.052325916
-0.009519536 -0.06747604 0.020608336 0.10926413 0.07763032 -0.039704252 -0.02351918 -0.080329955
0.10589521 -0.06834423 0.08616235 -0.14102522 -0.000261964 -0.00092337094 0.033034716 -0.13618281
0.08994682 0.0068430123 0.06900734 -0.08905458 -0.09172676 0.007933675 -0.12362441 -0.07996545
-0.028850393 -0.07845889 0.03168051 -0.08380571 0.050884333 -0.10254095 0.038900636 -0.027999531
-0.07541663 0.009094593 -0.026681932 -0.12525454 -0.015402229 0.067989446 -0.028481245 0.059560124
-0.03009858 -0.119235925 0.023005866 -0.0645698 0.1000591 0.058362838 0.059372157 -0.033050757
0.11928803 0.018750254 -0.01765483 0.1020521 0.10587969 0.13152857 -0.10806086 0.12520921
-0.101251006 0.11014505 0.020843275 0.064446725 0.08692842 -0.050325755 0.058236312 0.0900365
-0.12444327 -0.090399876 0.110638544 0.08316967 -0.045087665 0.060848635 0.07368115 -0.12319306
-0.004520377 -0.0382428 0.120673835 0.066070795 0.05846175 0.10597375 0.106332004 -0.07455497
0.25821933 0.254972 -0.1702168 -0.048753683 -0.14230107 -0.0058279145 -0.21028365 0.1558836
0.08862139 -0.03677549 -0.108408034 0.050223853 -0.021117426 -0.007904771 0.13001533 0.019337755
-0.034810565 0.04728526 0.09746424 -0.014016859 0.08214007 -0.075812496 -0.008671856 -0.066343695
0.13155757 -0.03614009 -0.16249193 0.096287854 -0.0373545 -0.10989584 -0.005037326 -0.1287178
-0.083874755 -0.19451499 -0.005937881 -0.015165043 -0.11121373 -0.15460332 -0.14331023 0.19033898
-0.2454347 0.20474721 -0.02675435 -0.08967311 0.13609073 -0.092170306 -0.06713965 0.038902298
-0.148773 -0.14391036 -0.023395743 0.051799934 0.120919816 -0.09807408 0.29765055 0.027422374
0.12827037 0.08406859 0.024934819 -0.013796282 0.10026556 0.066678114 0.13133967 -0.09078721
