QuantLaxmi_Research/dtrn/results/checkpoints/fold2_BANKNIFTY/dtrn_stage1.pt (torch, 232927 bytes, 37 tensors)

embed.embed.0.weight f4 [32, 2]
0	0x3f58e4ae	0.8472394
1	0xbe7031f0	-0.2345655
2	0x3f1e07cb	0.6173064
3	0x3f182e81	0.5944596
4	0xbf50dd91	-0.81588084
5	0x3e440cf7	0.1914557
6	0x3f0b0e87	0.5431904
7	0x3e4a31e3	0.19745593
8	0x3eae1155	0.33997598
9	0x3e23b32b	0.15986316
10	0xbf56b66f	-0.8387212
11	0xbed7e66f	-0.42167994
12	0x3e967a68	0.29390264
13	0xbd869df2	-0.065730944
14	0xbe61502a	-0.22003236
15	0x3e4a1feb	0.19738738
16	0xbf23ff7e	-0.64061725
17	0x3ec4dacd	0.38448182
18	0xbd9c7f47	-0.07641464
19	0x3e9b9636	0.3038804
20	0x3f4693fc	0.77569556
21	0xbf383f90	-0.7197199
22	0x3f37b95f	0.7176723
23	0xbcda27e2	-0.026630346
24	0x3e8295a8	0.25504804
25	0x3ef38c43	0.4756795
26	0x3ed15d6e	0.40891594
27	0xbf10ba1a	-0.5653397
28	0xbd939926	-0.07206945
29	0x3e4ea8bb	0.20181553
30	0xbf17660d	-0.5914009
31	0xbd46fee4	-0.048582926
32	0xbf14d814	-0.5814221
33	0x3e04b977	0.12961374
34	0xbf227dc5	-0.6347316
35	0x3eb990ff	0.36243436
36	0x3f406a70	0.7516241
37	0xbf3303bf	-0.6992759
38	0xbf70c367	-0.9404816
39	0xbf0d75a2	-0.5525762
40	0xbdd66fe9	-0.10470564
41	0x3f026e3c	0.50949454
42	0xbf36bd73	-0.71382827
43	0xbea6177d	-0.32439795
44	0x3e4962f1	0.1966665
45	0x3d33eef8	0.04392907
46	0xbf2028cf	-0.6256227
47	0x3e95fd31	0.29294732
48	0xbedb0f7f	-0.4278526
49	0xbf0d515a	-0.5520226
50	0x3eaa91fc	0.33314502
51	0x3bb786b9	0.005600777
52	0xbe29245d	-0.16517778
53	0x3c97e99e	0.018544015
54	0x3f01496b	0.5050265
55	0xbf1d271a	-0.6138779
56	0xbdb57a0e	-0.08861171
57	0xbe35c393	-0.17750387
58	0x3e7f660d	0.24941273
59	0x3e16a6fc	0.14712137
60	0xbf6b9d68	-0.9203706
61	0x3dc543a2	0.096320406
62	0xbf3bf0ba	-0.73414195
63	0x3eeedf1c	0.46654594

embed.embed.0.bias f4 [32]
0	0xbe921baa	-0.2853673
1	0xbe987da0	-0.29783344
2	0xbe854739	-0.260309
3	0xbeec00a3	-0.46094236
4	0xbe946b12	-0.28987938
5	0x3efdb86f	0.49554774
6	0x3e0b17b4	0.13583261
7	0x3f031c24	0.51214814
8	0xbdbd8e80	-0.09255695
9	0xbe61bbf3	-0.22044353
10	0x3eadedfc	0.3397063
11	0xbe72e582	-0.23720363
12	0x3d1b480f	0.037910517
13	0x3c156296	0.009117743
14	0xbe1af71d	-0.15133329
15	0x3e79a77d	0.24380298
16	0xbe210b8e	-0.15727064
17	0xbebaa3ab	-0.36452994
18	0x3f098b37	0.5372805
19	0x3ee1e760	0.44121838
20	0x3e18f3af	0.14936708
21	0x3d115050	0.035476983
22	0xbdc8a4be	-0.09797047
23	0xbec6b019	-0.38806227
24	0x3ef6cf0c	0.4820484
25	0xbc50304f	-0.01270683
26	0xbc99a2f5	-0.018754462
27	0x3e1d2c12	0.15348843
28	0x3e67e5de	0.22646281
29	0xbe73575c	-0.23763794
30	0xbe5da1b0	-0.2164371
31	0xbe8ceb3e	-0.27523226

embed.embed.2.weight f4 [32, 32]
0	0x3ea823a8	0.32839704
1	0x3d8b2f39	0.067961164
2	0x3e5e1e9a	0.21691361
3	0x3e0e4989	0.13895239
4	0xbd53647b	-0.051609498
5	0xbcd831ca	-0.026390929
6	0x3e2d8553	0.1694539
7	0xbe1158f6	-0.14194092
8	0x3d779c04	0.060451522
9	0xbe1d2e79	-0.15349759
10	0x3e8de5c3	0.27714357
11	0x3ead42c0	0.3383999
12	0xbe38cd9c	-0.18047184
13	0x3e0a9e30	0.13536906
14	0x3e1e7143	0.15472893
15	0xbd8f24b5	-0.06989423
16	0x3e3fb339	0.18720712
17	0x3dac2dd0	0.084071755
18	0x3e283b10	0.1642878
19	0x3eb49914	0.3527304
20	0xbd8fba26	-0.07017927
21	0x3d43c56b	0.047795694
22	0x3e0f0aba	0.13968936
23	0xbc7c280d	-0.015390408
24	0xbc0d9a26	-0.008642709
25	0x3d88c350	0.06677878
26	0xbd4d9001	-0.05018616
27	0x3ec9ad69	0.39390114
28	0x3bbbd731	0.00573244
29	0x3e078ff1	0.13238503
30	0x3e4740cf	0.19458316
31	0x3df073bd	0.11740825
32	0xbe79dc73	-0.24400501
33	0xbe2c706e	-0.16839764
34	0xbea9c6ee	-0.33159584
35	0xbe04ad2a	-0.12956682
36	0x3d8a9600	0.067668915
37	0xbdae58f6	-0.08513062
38	0x3df6f2a9	0.120580025
39	0x3e08ad83	0.1334744
40	0xbd08de74	-0.033415273
41	0xbe02c0b4	-0.12768823
42	0xbe152dd6	-0.14568266
43	0xbe6bf22c	-0.230416
44	0xbdb282aa	-0.087163284
45	0xbcdc9e1c	-0.026930861
46	0xbd87e492	-0.06635393
47	0xbc953c09	-0.018217104
48	0xbe94e474	-0.29080546
49	0xbe7b9e3f	-0.24572085
50	0xbe017912	-0.12643841
51	0xbe47992b	-0.19492023
52	0x3d4d47bc	0.05011724
53	0xbe000734	-0.12502748
54	0x3d904334	0.07044068
55	0xbea0f351	-0.31435636
56	0x3e504e47	0.2034236
57	0xbdb52448	-0.08844811
58	0x3df43441	0.11924029
59	0xbd307afb	-0.043086033
60	0xbd055dc9	-0.032560144
61	0x3dd965f6	0.10615151
62	0xbe65371c	-0.22384304
63	0xbe841d7a	-0.2580374
64	0x3ee68d24	0.45029557
65	0xbcade2c6	-0.021226298
66	0x3e4f1893	0.20224218
67	0x3de98577	0.114024095
68	0x3e3ff6ec	0.18746537
69	0x3e740c10	0.23832726
70	0xbb2180a0	-0.0024643317
71	0x3c96ddba	0.018416274
72	0xbdb6ae5c	-0.08919975
73	0x3dc6a5e6	0.09699611
74	0x3e3db19b	0.18524782
75	0x3ec4c55c	0.38431823
76	0x3dc04530	0.093881965
77	0x3d6da3e6	0.058017634
78	0x3e364811	0.17800929
79	0x3d4b1a64	0.049585715
80	0x3e57ff76	0.21093544
81	0x3cfad22b	0.030617794
82	0x3e779536	0.24178013
83	0x3d0aae6c	0.033857748
84	0x3d808080	0.062745094
85	0x3b7b4709	0.00383419
86	0x3d042932	0.03226585
87	0x3e10f8bd	0.14157386
88	0x3df65875	0.120285906
89	0xbcf4d2c1	-0.029885652
90	0xbe2a7a12	-0.16648129
91	0x3eb38498	0.35062099
92	0xbce92d32	-0.028463934
93	0x3dd60db2	0.10451831
94	0x3e8c9e69	0.27464607
95	0x3d27d900	0.04097843
96	0x3e0d9511	0.13826396
97	0x3df8e97e	0.1215391
98	0xbc52ea6a	-0.0128732715
99	0x3ce20252	0.027588997
100	0x3e00c4d3	0.12575082
101	0xbd785f54	-0.060637787
102	0x3e4ffbb5	0.20310862
103	0x3d126293	0.03573854
104	0xbc99ffde	-0.018798765
105	0xbdc92bb5	-0.098227896
106	0x3ea6f8b9	0.32611635
107	0x3cea64d3	0.02861253
108	0x3dfd2a91	0.123616345
109	0x3e17176c	0.14755028
110	0x3d9a8460	0.0754478
111	0x3d6d5417	0.057941522
112	0x3e62291e	0.22085997
113	0xbdd99be6	-0.106254384
114	0x3df529f0	0.119708896
115	0x3dad4ea7	0.08462267
116	0xbd97a1da	-0.074039176
117	0x3d8538f0	0.065050006
118	0xbe3349d6	-0.17508635
119	0xbc7a47fb	-0.015275951
120	0x3d9c8e47	0.07644325
121	0x3e5d8e1d	0.21636243
122	0x3d893d45	0.06701139
123	0x3d873c1b	0.06603261
124	0x3e4c539f	0.19953774
125	0xbcc283b8	-0.023744449
126	0x3d2758a3	0.040856015
127	0x3dac1e5f	0.0840423
128	0x3e75f5c9	0.24019541
129	0xbd0042ed	-0.031313825
130	0x3e220d67	0.15825425
131	0x3e9f847a	0.3115576
132	0x3e052c02	0.13005069
133	0x3d744457	0.059635486
134	0xbd94d691	-0.07267488
135	0x3da0914b	0.078402124
136	0xbd0a5e6b	-0.03378145
137	0x3e3b22ef	0.18275045
138	0x3e38c7ff	0.18045042
139	0x3e6710ef	0.22565053
140	0x3e53add5	0.2067178
141	0x3ba0b7a5	0.0049047046
142	0x3d5317c4	0.051536337
143	0xbd3adbd1	-0.04561979
144	0x3d0c8b80	0.034312725
145	0x3e5b4db3	0.21416359
146	0x3d7c4957	0.06159338
147	0xbe834e48	-0.2564566
148	0x3c878787	0.016544117
149	0xbe2a32b8	-0.1662091
150	0xbd6b05b0	-0.05737847
151	0x3e286780	0.16445732
152	0xbea660e7	-0.32495806
153	0x3d3fa49e	0.04678785
154	0x3d046a66	0.032328032
155	0x3e6294d2	0.22127083
156	0xbc367be7	-0.011137939
157	0x3d04449e	0.032292
158	0x3d7d505c	0.061844215
159	0x3dc4990c	0.09599504
160	0x3d0fff20	0.035155416
161	0xbd51d306	-0.05122664
162	0xbd829512	-0.06376089
163	0x3cbb92c3	0.02289713
164	0x3e19ccec	0.15019578
165	0x3e3cdc42	0.18443397
166	0x3dc00bd6	0.093772575
167	0xbdc7b9dc	-0.09752247
168	0x3b40362b	0.0029329162
169	0xbe139575	-0.14412482
170	0x3da2ffce	0.07958947
171	0xbd367b72	-0.04455132
172	0xbd7a09aa	-0.061044373
173	0xbd51d7ae	-0.05123108
174	0x3dfa42dc	0.12219784
175	0xbdab5509	-0.083658285
176	0x3db2d9d5	0.087329544
177	0xbe12c059	-0.14331187
178	0x3e4349e8	0.19071162
179	0x3e703470	0.23457503
180	0xbe0c96e8	-0.13729441
181	0x3e3dda9a	0.18540421
182	0xbe4da674	-0.20083028
183	0xbca05f3c	-0.019576661
184	0x3e049a3d	0.12949462
185	0xbd52cec4	-0.05146672
186	0x3daac8e9	0.08339102
187	0x3e8d8064	0.27637017
188	0x3da0d20f	0.078525655
189	0x3cfdbadc	0.03097289
190	0xbc825c06	-0.01591302
191	0xbe4da673	-0.20083027
192	0xbee2c94f	-0.4429421
193	0x3e0296d3	0.12752847
194	0xbe84308d	-0.2581829
195	0xbe5b1020	-0.2139287
196	0xbe6e9ccb	-0.23302
197	0xbe0c55f6	-0.13704666
198	0xbe219e38	-0.15783012
199	0xbdad40c8	-0.08459622
200	0xbe4b931a	-0.19880334
201	0xbc218a5f	-0.00985965
202	0xbee04f72	-0.43810612
203	0xbea30dbe	-0.31846422
204	0xbe16e06a	-0.14734045
205	0xbe86e036	-0.26342934
206	0x3d761dde	0.060087077
207	0xbe1616d9	-0.14657153
208	0xbe042593	-0.12904958
209	0xbebd1af7	-0.36934635
210	0xbe68c2a9	-0.22730507
211	0xbed1c701	-0.4097214
212	0x3e02781b	0.12741129
213	0xbdf61301	-0.120153435
214	0xbe1afb5d	-0.1513495
215	0xbca6416f	-0.020294873
216	0xbd35aab7	-0.04435226
217	0xbcc27457	-0.023737116
218	0xbcbebb88	-0.023282781
219	0xbea132af	-0.3148398
220	0x3e2a56bd	0.1663465
221	0xbdd4a74c	-0.10383472
222	0xbe8a90aa	-0.27063495
223	0xbe4625f2	-0.19350412
224	0x3dbcbc5c	0.09215614
225	0xbe0e392f	-0.13889001
226	0xbe51d333	-0.20490722
227	0xbc101031	-0.008792923
228	0x3dc8fde6	0.09814052
229	0xbde0eed7	-0.10983055
230	0xbd7952fd	-0.06087016
231	0xbd7ac2fb	-0.061221104
232	0x3da42b1c	0.08016035
233	0xbd842e0d	-0.06454096
234	0x3dd2c10f	0.10290729
235	0x3e592ecd	0.2120926
236	0xbbd987f4	-0.0066385213
237	0xbd87cdaa	-0.06631024
238	0xbbfb5831	-0.0076704253
239	0xbe124712	-0.14284924
240	0x3d13939e	0.03602945
241	0xbe4bb65b	-0.19893782
242	0x3d33fee8	0.04394427
243	0xbdc473e9	-0.095924206
244	0xbd8e964d	-0.06962261
245	0xbe0045d1	-0.12526633
246	0xbda4aeaa	-0.08041127
247	0x3d43d7eb	0.047813337
248	0x3df29939	0.11845631
249	0xbcaf487d	-0.02139687
250	0x3cbf38c9	0.023342507
251	0x3b4a8444	0.003090159
252	0xbdedabd6	-0.11605041
253	0xbdaf23e4	-0.085517675
254	0xbdf967d8	-0.1217801
255	0x3deb7619	0.11497135

embed.embed.2.bias f4 [32]
0	0x3dc6452d	0.09681163
1	0xbe134404	-0.14381415
2	0xbe230ade	-0.15922114
3	0xbdd22ff5	-0.10263053
4	0xbe0bd2eb	-0.13654678
5	0x3e2cbbc5	0.16868503
6	0x3e2445f0	0.16042304
7	0x3c9c59e1	0.019085826
8	0x3d71d0a6	0.059036873
9	0x3e0fecc1	0.14055158
10	0xbe3677da	-0.17819157
11	0xbd80dc65	-0.06292037
12	0x3d1bdd3f	0.038052794
13	0xbd83b4d9	-0.06430978
14	0x3da5a22a	0.08087571
15	0xbde550db	-0.111970626
16	0x3dc1c269	0.09460909
17	0x3d93372c	0.071882576
18	0xbe0032f2	-0.12519434
19	0x3cffbc18	0.03121762
20	0xbdedd36f	-0.116125934
21	0x3d52ab54	0.051432922
22	0x3d4fb06b	0.050705355
23	0xbd9ea5a0	-0.07746434
24	0x3dc62f6b	0.09677013
25	0xbc9e980c	-0.019359611
26	0x3e3abd35	0.18236239
27	0xbd8d7f2a	-0.0690902
28	0x3bd8c70e	0.006615526
29	0x3e0b62a0	0.13611841
30	0x3dba53bc	0.09098002
31	0xbd2f6982	-0.04282523

input_proj.weight f4 [64, 32]
0	0x3e17026c	0.14747018
1	0xbe1f3cda	-0.15550557
2	0x3e0a390a	0.13498321
3	0xbcf4abc8	-0.029867068
4	0x3cb43b76	0.02200101
5	0xbe4498c8	-0.19198906
6	0xbcce8d5a	-0.025213886
7	0xbd7aa9a2	-0.06119693
8	0x3d4be5af	0.04977959
9	0x3d7cc73e	0.06171345
10	0x3e01ba45	0.12668712
11	0x3e21bb6f	0.15794156
12	0x39f10917	0.00045973875
13	0x3e08007c	0.13281435
14	0xbd4266e7	-0.047461417
15	0x3e04509a	0.12921372
16	0xbe24086a	-0.16018835
17	0xbd55f0b1	-0.052231494
18	0xbd1dc668	-0.038519293
19	0x3dccde3b	0.100033246
20	0x3d91f3c7	0.07126575
21	0x3e37c028	0.17944396
22	0x3dbb0e3c	0.09133574
23	0x3e3f7f1f	0.18700837
24	0x3da632ba	0.08115144
25	0xba08005c	-0.0005188042
26	0xbde6720b	-0.11252221
27	0x3e496c82	0.19670299
28	0x3d088303	0.033328068
29	0xbd4fd1b3	-0.050737094
30	0x3d23d065	0.039993662
31	0x3de68375	0.11255542
32	0x3e2cd49c	0.16877979
33	0x3cdb3165	0.026756952
34	0x3b4cbad5	0.003123929
35	0x3e1fc585	0.15602691
36	0x3e0a2172	0.13489321
37	0x3df15d0e	0.11785327
38	0xbea9d15a	-0.33167535
39	0x3ded84e4	0.115976125
40	0x3e804ab6	0.25057
41	0x3e0df0f4	0.13861448
42	0x3e1d1927	0.15341626
43	0x3e2385e7	0.15969048
44	0x3e002541	0.12514211
45	0x3d6f6e1c	0.058454618
46	0x3e228a6b	0.15873115
47	0xbe64a41e	-0.2232823
48	0x3cd5c4b2	0.026094768
49	0xbc0fb9b3	-0.0087723015
50	0x3df4cf05	0.11953548
51	0xbb79cc10	-0.0038116015
52	0x3b08a6b6	0.002085132
53	0xbd4ca278	-0.04995963
54	0x3cb86064	0.0225069
55	0x3d839be1	0.06426216
56	0xbe355cf3	-0.17711239
57	0x3dc5f8bd	0.09666584
58	0xbe0d277d	-0.13784595
59	0xbd2ed9a2	-0.04268802
60	0xbe5a05d2	-0.21291283
61	0x3e31ee86	0.17376146
62	0x3d839c18	0.06426257
63	0xbd044837	-0.032295432
64	0x3e2f2e9b	0.17107622
65	0xbcf6749e	-0.030084904
66	0xbe06f7b0	-0.13180423
67	0xbbfb45ea	-0.0076682465
68	0xbdfaf422	-0.12253596
69	0xbd02f595	-0.031972487
70	0xbd0cb314	-0.03435047
71	0xbcd64e68	-0.026160434
72	0x3d694f32	0.056960292
73	0xbdc86e71	-0.0978669
74	0x3e044eab	0.12920634
75	0xbe299167	-0.16559373
76	0xbe1a9eec	-0.15099686
77	0xbd238304	-0.039919868
78	0x3d3ea96b	0.04654829
79	0xbd2e50d1	-0.04255754
80	0xbe3b22b4	-0.18274957
81	0x3e14f189	0.14545263
82	0x3e03dc04	0.12876898
83	0xbd877b9b	-0.06615373
84	0xbd295e3e	-0.041349642
85	0x3d59a5fc	0.05313681
86	0x3e24336d	0.16035242
87	0xbd5044e7	-0.05084696
88	0xbe1982b3	-0.14991264
89	0x3e1e208e	0.15442106
90	0x3bcdf188	0.0062848963
91	0x3e3f52ff	0.18684004
92	0xbe0c8f95	-0.13726647
93	0xbda5a3be	-0.08087872
94	0x3db73e09	0.08947379
95	0xbda647b0	-0.08119142
96	0xbe029fef	-0.12756322
97	0xbde7f894	-0.113267094
98	0xbe503907	-0.20334254
99	0xbe4e4798	-0.20144498
100	0x3d67bbce	0.05657559
101	0xbd6b9dae	-0.057523422
102	0x3e7fa92b	0.24966876
103	0x3dc72615	0.097240604
104	0x3ddddc95	0.10833088
105	0x3db712c1	0.08939124
106	0x3b1073d2	0.002204169
107	0xbe7e6871	-0.24844529
108	0x3db16c52	0.086632386
109	0xbdaa3c0d	-0.08312235
110	0x3dbed136	0.093172476
111	0xbce7d27b	-0.028298607
112	0x3d4be337	0.049777236
113	0x3bf979c9	0.007613395
114	0x3b5d8053	0.003379841
115	0xbcd1e87c	-0.025623553
116	0x3cf52e11	0.029929193
117	0x3d8e1992	0.06938471
118	0x3c3a0601	0.0113539705
119	0xbd52a237	-0.05142423
120	0x3c915121	0.01773888
121	0x3de1db2e	0.11028133
122	0xbd7001be	-0.05859541
123	0xbbc8256e	-0.0061079776
124	0x3e14b7ae	0.14523193
125	0xbdf69a76	-0.1204118
126	0x3c605903	0.013693097
127	0x3e1fae03	0.15593724
128	0xbdc4d494	-0.096108586
129	0x3d10c854	0.035347298
130	0xbdd3a31b	-0.10333844
131	0x3dc447ce	0.09584008
132	0x3e249340	0.16071796
133	0x3e0c4f30	0.13702083
134	0x3dead9eb	0.11467346
135	0x3d8724ad	0.06598792
136	0x3e2b006b	0.16699378
137	0x3d3d49cc	0.046212956
138	0x3d363f29	0.044493828
139	0x3c10de16	0.008842012
140	0x3e2ef9ff	0.17087553
141	0xbe276a97	-0.16349255
142	0xbe1adf19	-0.15124168
143	0xbd4fac25	-0.05070128
144	0x3e01279f	0.1261277
145	0x3d5cee5a	0.053938247
146	0xbd371d9f	-0.044705983
147	0x3d416bf5	0.047222096
148	0x3dda95de	0.10673116
149	0xbe24c3fe	-0.1609039
150	0x3da42178	0.08014196
151	0x3dadbca7	0.08483248
152	0xbe0ac3ff	-0.13551329
153	0x3e36725a	0.17817059
154	0xbd89e3a1	-0.0673287
155	0xbd9cf2b6	-0.07663481
156	0x3e0f8474	0.1401537
157	0xbd9c01c8	-0.07617527
158	0xbd0dd800	-0.03462982
159	0xbdeb7299	-0.11496467
160	0xbe60d248	-0.21955216
161	0x3ccc9761	0.024974527
162	0xbe831c55	-0.25607553
163	0x3d913862	0.07090832
164	0xbe59d0c3	-0.21271043
165	0x3dd0781c	0.10179159
166	0x3ed64469	0.41849068
167	0x3dcfbf48	0.10143906
168	0xbdeb2b12	-0.114828244
169	0xbe8f9c48	-0.2804892
170	0xbe0214c2	-0.12703231
171	0xbe725afd	-0.23667522
172	0x3cc793e0	0.024362504
173	0x3bcb0068	0.006195117
174	0xbdbf6775	-0.09345905
175	0xbcc791e4	-0.024361558
176	0xbab551c1	-0.0013833569
177	0xbd5fa0ac	-0.054596588
178	0x3dbcb8b5	0.092149176
179	0x3d9c5064	0.07632521
180	0xbe5ddfc4	-0.21667391
181	0xbc95b96d	-0.018276894
182	0x3cb1c477	0.021700127
183	0xbd3db4fa	-0.04631517
184	0x3e960d4a	0.29307014
185	0xbda1b4cc	-0.078958124
186	0x3e973eab	0.2954
187	0xbdf0db57	-0.11760586
188	0x3e5fe62c	0.21865147
189	0xbd6962e8	-0.05697909
190	0xbdba55d2	-0.090984
191	0xbe4a00e2	-0.197269
192	0xbcd69d1d	-0.026197964
193	0x3d1e7a50	0.038690865
194	0x3e0aa2c7	0.13538657
195	0x3dc7064d	0.09717999
196	0x3d07ed9c	0.033185586
197	0xbd33e505	-0.043919582
198	0x3e17d0f6	0.14825806
199	0x3b0e4cb7	0.0021713206
200	0xbd085fe3	-0.03329457
201	0xbdb016e2	-0.085981146
202	0x3dff2e3d	0.12459991
203	0xbd81f538	-0.063456
204	0xbe085ac5	-0.13315876
205	0xbe15fe93	-0.14647894
206	0x3d41395e	0.04717385
207	0xbe05489a	-0.13015977
208	0x3de00ddd	0.10940144
209	0x3e16deb7	0.14733396
210	0xbd0264a4	-0.03183426
211	0xbe258358	-0.16163385
212	0x3dbfab04	0.093587905
213	0x3de1238c	0.10993108
214	0xbd22e9b9	-0.039773677
215	0xbe0ddc8a	-0.1385366
216	0xbc0b869a	-0.008515978
217	0xbe1d0b45	-0.1533633
218	0x3d8ba54b	0.068186365
219	0xbd1c2838	-0.038124293
220	0x3b91f7a1	0.0044545685
221	0xbd54f791	-0.05199391
222	0x3d3e1cac	0.046414062
223	0x3d4b686b	0.049660128
224	0x3d7b3462	0.061329253
225	0xbe07a893	-0.132479
226	0xbce6e261	-0.028184118
227	0xbdccecb5	-0.10006086
228	0x3ce20a23	0.027592724
229	0xbe1811de	-0.14850566
230	0x3e349979	0.1763667
231	0xbd372657	-0.044714298
232	0xbca25fc0	-0.019821048
233	0xbdb56394	-0.08856884
234	0xbc0a8214	-0.008453865
235	0x3e0a3c7f	0.1349964
236	0xbdad0081	-0.08447362
237	0xbe12ef84	-0.1434918
238	0x3e4ced8d	0.20012493
239	0x3d8870e5	0.06662158
240	0xbda84e5a	-0.082180694
241	0xbe10da75	-0.14145835
242	0x3de2c451	0.11072601
243	0xbd972d3c	-0.07381675
244	0xbdb6f939	-0.08934254
245	0xbd2c3895	-0.04204615
246	0x3d4f2297	0.050570097
247	0x3c56ec78	0.013117902
248	0x3e0c4fad	0.13702269
249	0xbcd88f0a	-0.026435394
250	0xbc4f201c	-0.012641933
251	0xbe01a654	-0.12661105
252	0x3dd7a3f0	0.105293155
253	0xbe0e9632	-0.13924482
254	0xbd911735	-0.070845045
255	0x3d97fc7d	0.07421205

input_proj.bias f4 [64]
0	0xbd52ff6e	-0.051513128
1	0xbd70f780	-0.058829784
2	0x3dbac8ca	0.09120329
3	0x3d3b5f19	0.04574499
4	0xbd88f897	-0.0668804
5	0x3e6268e3	0.22110324
6	0x3d27bc4f	0.04095107
7	0xbd7b86b9	-0.06140778
8	0xbd4f8512	-0.050664015
9	0xbe054f76	-0.13018593
10	0xbcef9860	-0.029247463
11	0xbd7e5343	-0.062091123
12	0x3dff0c3d	0.12453506
13	0xbdf25566	-0.11832695
14	0x3cf6974f	0.030101446
15	0xbe428998	-0.189978
16	0x3c96c2f8	0.018403515
17	0xbc1860f1	-0.009300456
18	0xbe1c39a3	-0.15256362
19	0xbd67c6b7	-0.056585994
20	0xbd80d769	-0.06291086
21	0xbd15e312	-0.036593504
22	0x3d808390	0.062750936
23	0xbe064a4e	-0.13114282
24	0xbde4ee0b	-0.111782156
25	0x3df49a3f	0.119434826
26	0x3d6eff85	0.05834915
27	0xbe8029a8	-0.2503178
28	0xbd0fe47e	-0.035130017
29	0xbe160c61	-0.1465316
30	0xbe10bf6c	-0.14135522
31	0xbde0acc3	-0.10970452
32	0x3df24092	0.11828722
33	0x3d0424cc	0.032261655
34	0x3ccc4d3a	0.024939168
35	0x3d5de0e0	0.054169536
36	0x3dba2703	0.09089472
37	0xbe30bbc3	-0.17259125
38	0xbe2ecd9d	-0.17070623
39	0xbdfaa94b	-0.12239321
40	0xbd53ac5d	-0.05167805
41	0x3c0b266b	0.008493046
42	0xbdc3d24e	-0.09561597
43	0xbe0b57be	-0.1360769
44	0x3e141657	0.14461647
45	0xbdcde607	-0.1005364
46	0xbcee8487	-0.029115928
47	0xbbee693a	-0.0072757276
48	0x3dd6bcfc	0.10485265
49	0x3d616058	0.05502352
50	0xbb07219f	-0.0020619405
51	0xbd82dc38	-0.0638966
52	0xbe02e894	-0.12784034
53	0xbdd97f96	-0.10620038
54	0xbda602fc	-0.08106038
55	0xbcde5746	-0.027141225
56	0xbdf64eda	-0.120267585
57	0xbd441003	-0.047866832
58	0x3e18fbf9	0.1493987
59	0x3df682d6	0.12036674
60	0x3dd0bf28	0.1019271
61	0x3cc3af97	0.023887439
62	0xbd42c3a5	-0.047549862
63	0xbd1f2b7f	-0.03885984

msg_layers.0.W_self.weight f4 [64, 64]
0	0x3d6ae220	0.057344556
1	0xbdea647e	-0.114449486
2	0xbd4c344a	-0.049854554
3	0x3d99e026	0.07513456
4	0xbdb76d5f	-0.08956408
5	0x3cb15128	0.021645144
6	0xbdc6029f	-0.09668469
7	0xbd5639d8	-0.052301258
8	0x3d78b9fb	0.06072424
9	0x3d7fa864	0.06241645
10	0x3d9f74b8	0.07785934
11	0xbd4b4a0a	-0.049631156
12	0x3cca3430	0.024683088
13	0x3ad781b2	0.001644185
14	0x3da62a5f	0.081135504
15	0xbcb867b2	-0.022510383
16	0xbd17cabe	-0.037058584
17	0x3dc66490	0.096871495
18	0xbd5f4def	-0.054517683
19	0xbd88b123	-0.06674411
20	0x3cea5f47	0.028609885
21	0x3d213fc4	0.039367452
22	0x3dce6d4b	0.1007944
23	0xbd7e3372	-0.06206078
24	0xbc9735c3	-0.018458253
25	0xbd5275e2	-0.051381953
26	0x3d96e293	0.07367434
27	0x3e00e403	0.1258698
28	0xbce0abbf	-0.027425645
29	0xbcc1e7d9	-0.023670124
30	0xbdbb5651	-0.09147323
31	0x3c9a9356	0.018869083
32	0xbd85e58b	-0.065379225
33	0xbd03b406	-0.032154106
34	0x3d6cfb29	0.057856712
35	0x3d870f61	0.0659473
36	0xbb9d9d79	-0.004810032
37	0x3d81713f	0.06320428
38	0xbd100b9e	-0.03516733
39	0x3dcfcfbb	0.10147043
40	0x3db4a377	0.08820241
41	0x3d5022a8	0.0508143
42	0xbd7139b7	-0.05889293
43	0xbd9d5e27	-0.07683974
44	0x3d476bf1	0.048686925
45	0xbe007e74	-0.12548238
46	0xbc80d3e1	-0.015726032
47	0x3c84cb84	0.016210325
48	0x3df733c9	0.12070424
49	0xbd69d698	-0.05708942
50	0x3b9fde6b	0.004878809
51	0xbcf9ece1	-0.03050846
52	0xbd31de9b	-0.043425184
53	0x3db3b9b0	0.087756515
54	0xbd98e955	-0.074663796
55	0xbdd7852e	-0.10523449
56	0xbcaecdaa	-0.021338303
57	0x3d768df4	0.06019397
58	0x3b80efa7	0.003934819
59	0xbda8eecd	-0.08248673
60	0xbe001f03	-0.1251183
61	0xbdf10cb0	-0.11769998
62	0x3dbd61d5	0.092471756
63	0x3e092dda	0.13396397
64	0xbdac8480	-0.0842371
65	0x3b0e5bdf	0.002172224
66	0x3cf26ceb	0.029592952
67	0x3c63b75e	0.013898699
68	0xbdb0bde7	-0.08629971
69	0x3d7e905f	0.0621494
70	0x3d241b4e	0.040065102
71	0x3db41820	0.08793664
72	0xbcd9b37b	-0.02657484
73	0x3cac3992	0.021023545
74	0xbd1e296f	-0.038613733
75	0x3dfa0045	0.12207083
76	0x3c950f93	0.018195903
77	0xbd837e34	-0.06420556
78	0xbadc88c8	-0.0016825432
79	0xbd92d72e	-0.071699485
80	0x3db51154	0.08841196
81	0xbdf61dc8	-0.12017399
82	0xbce55d9c	-0.027998738
83	0x3d8ab3a1	0.06772543
84	0xbca845ce	-0.020541098
85	0xbcbb9ee8	-0.02290292
86	0x3c351ae4	0.0110537745
87	0x3d9ecced	0.0775393
88	0xbcb3f054	-0.021965183
89	0xbd8e09f0	-0.06935489
90	0x3ca89246	0.020577561
91	0xbd56950f	-0.052388247
92	0x3d73450d	0.059392024
93	0xbe056d19	-0.13029899
94	0x3deb3175	0.114840426
95	0xbc6f436f	-0.01460348
96	0x3dcf79d8	0.10130662
97	0xbd1250e5	-0.03572168
98	0xbd8b75e1	-0.06809593
99	0x3b53f328	0.0032340977
100	0x3df679f9	0.12034983
101	0xbe519915	-0.20468552
102	0x3d07fe67	0.0332016
103	0xbcaf3318	-0.021386668
104	0xbc997ceb	-0.018736323
105	0x3d301ca7	0.042996075
106	0x3d1b9c08	0.0379906
107	0x3c95b072	0.018272612
108	0xbd03734d	-0.03209238
109	0xbe10fb07	-0.1415826
110	0x3d98b56f	0.07456481
111	0xbda0f536	-0.0785927
112	0x3e139831	0.14413525
113	0x3cac95ac	0.021067463
114	0xbca0acff	-0.019613741
115	0xbdeb1309	-0.1147824
116	0x3d323338	0.043505877
117	0x3d2a14ce	0.041523747
118	0x3d831d39	0.06402058
119	0x3d6627b4	0.056190208
120	0x3ba674bf	0.005079835
121	0x3d90bcad	0.07067237
122	0xbdc78abd	-0.09743259
123	0xbe024cc6	-0.12724599
124	0x3c2ea655	0.010659774
125	0xbd07d7b7	-0.033164706
126	0xbd01ae51	-0.03166038
127	0x3d235067	0.0398716
128	0x3e116606	0.14199075
129	0x3de56c89	0.11202342
130	0xbd0df2a3	-0.034655225
131	0xbd757750	-0.05992824
132	0x3dd236d2	0.102643624
133	0xbb2d950f	-0.002648655
134	0xbe073578	-0.1320399
135	0xbdb16a15	-0.08662812
136	0x3dd6dab0	0.1049093
137	0xbd048521	-0.032353524
138	0xbc89b11a	-0.016808081
139	0x3dc36c77	0.095421724
140	0xbc5c5a70	-0.013449296
141	0xbcccfc35	-0.025022605
142	0x3deb9a3c	0.11504027
143	0x3e1dc6da	0.15407887
144	0xbd255ee8	-0.040373713
145	0x3ca35215	0.0199366
146	0x3e274f1d	0.16338773
147	0xbd60dcfb	-0.054898243
148	0x3cff399b	0.031155398
149	0x3e3962e7	0.18104135
150	0xbd9a7a3a	-0.07542844
151	0x3d9840da	0.074342445
152	0x3d84fe60	0.06493831
153	0xbd22d66b	-0.039755266
154	0xbdf5c6be	-0.12000798
155	0x3d8304d6	0.06397407
156	0xbcbd4c97	-0.02310781
157	0xbdcb6c5c	-0.09932777
158	0x3dc36b4f	0.09541952
159	0x385b8d05	5.2345003e-05
160	0x3da8dc84	0.08245185
161	0xbdded414	-0.108802944
162	0xbe21ecb5	-0.15812953
163	0xbdcad9c0	-0.09904814
164	0xbd186244	-0.03720309
165	0xbc7662d1	-0.015038208
166	0xbd215bf4	-0.039394334
167	0xbd7119ef	-0.058862623
168	0xbe0b2920	-0.13589907
169	0x3c13b034	0.009014178
170	0x3dcb5254	0.09927812
171	0x3d3d3dbe	0.04620146
172	0xbd8b83f6	-0.06812279
173	0x3da3f1e4	0.08005121
174	0xbb98eb13	-0.004666695
175	0x3d55c3ce	0.052188687
176	0x3cce969b	0.025218299
177	0xbdca878b	-0.09889134
178	0x3d0b8c73	0.03406949
179	0x3c2881e0	0.010284871
180	0xbbfc4608	-0.007698778
181	0x3dc8828a	0.09790523
182	0x3e21e455	0.15809758
183	0xbdf29b4a	-0.11846025
184	0xbc2ca051	-0.010536269
185	0xbd86db66	-0.06584816
186	0x3d09f6c7	0.03368261
187	0x3d34b80f	0.044120844
188	0xbde9d1b2	-0.11416949
189	0xbd110f78	-0.035415143
190	0xbd6edc9e	-0.058315866
191	0x3c2a838c	0.01040734
192	0xbb26ae22	-0.002543338
193	0x3d982480	0.07428837
194	0x3e0ac472	0.135515
195	0x3d0c40c1	0.03424144
196	0xbd561084	-0.052261844
197	0x3c7a049f	0.015259891
198	0x3d08b1eb	0.0333728
199	0xbd0efa0d	-0.034906436
200	0x3e099000	0.13433838
201	0xbcef955f	-0.02924603
202	0xbcd4a5bc	-0.025957935
203	0xbc63227c	-0.013863202
204	0xbd84f3b9	-0.06491799
205	0x3ce29534	0.027659036
206	0xbdcfceb6	-0.10146849
207	0xbd26588d	-0.040611792
208	0xbd898a3c	-0.06715819
209	0x3a1061d3	0.0005507741
210	0xbd30de0d	-0.043180514
211	0xbc10c701	-0.008836509
212	0xbe28c29a	-0.16480485
213	0x3caa7736	0.020808797
214	0x3d267710	0.04064089
215	0xbdaeb381	-0.085303314
216	0xbcbd7d0d	-0.023130918
217	0xbd712458	-0.05887255
218	0xbd77b54e	-0.06047564
219	0xbe2720e7	-0.16321145
220	0xbdce99cc	-0.10087928
221	0xbdf0b795	-0.117537655
222	0x3d9acc28	0.07558471
223	0x3d7dcf30	0.061965168
224	0xbdb74c48	-0.08950096
225	0xbcb5fac9	-0.02221431
226	0xbdb813a3	-0.089881204
227	0xbdfb1abd	-0.12260959
228	0x3c35ec1a	0.011103654
229	0xbe01104d	-0.12603875
230	0xbe3b1948	-0.18271363
231	0xbd4cc530	-0.04999274
232	0x3c84af5a	0.016196895
233	0xbe0db322	-0.13837865
234	0xbbe63c13	-0.0070262044
235	0x3d0093bb	0.031390887
236	0xbd180d82	-0.037122257
237	0xbb2d8572	-0.0026477245
238	0xbbc875d8	-0.0061175637
239	0x3d97d39d	0.07413409
240	0xbdd6546c	-0.10465321
241	0xbe136e68	-0.14397585
242	0xbde382de	-0.11108945
243	0x3d105c84	0.03524448
244	0xbda8d648	-0.08243996
245	0xbca35ad6	-0.019940775
246	0x3dd5bf13	0.10436835
247	0xbd79211b	-0.060822587
248	0xbd4518aa	-0.048119225
249	0x3dd76793	0.10517802
250	0x3d00af16	0.031416975
251	0x3de7d1cd	0.11319313
252	0x3d0aec72	0.033916898
253	0x3e62e1c7	0.2215644
254	0xbdc441b7	-0.095828466
255	0x3d7c5659	0.061605785

msg_layers.0.W_self.bias f4 [64]
0	0x3dcc9e1b	0.09991094
1	0x3e1fe8e3	0.15616183
2	0xbd1d2bfb	-0.03837202
3	0x3e24a9b2	0.16080359
4	0x3d82d052	0.0638739
5	0x3dbec3f5	0.093147196
6	0x3d37d3dc	0.04487978
7	0xbdd95ddc	-0.106136054
8	0x3e0f27a5	0.13979967
9	0xbd0cb472	-0.034351774
10	0x3e0dd45b	0.13850538
11	0x3da90dc4	0.08254579
12	0x3d28ff47	0.041259076
13	0x3a2cae8e	0.000658729
14	0xbe1989cc	-0.14993972
15	0xbe507cc4	-0.20360094
16	0x3c51a8b4	0.01279657
17	0xbd358a19	-0.044321153
18	0xbd8f1657	-0.06986683
19	0x3d450333	0.048098754
20	0x3d62e968	0.055398375
21	0x3d449ba6	0.048
22	0x3d12f7f4	0.035880998
23	0x3d191145	0.037369985
24	0x3cef8319	0.029237317
25	0x3dc5d8ee	0.09660517
26	0xbdf53bbe	-0.119742855
27	0xbe4311d4	-0.1904977
28	0x3e2bc0d1	0.16772772
29	0x3cb17413	0.021661794
30	0xbe0ff70f	-0.14059089
31	0x3c128db1	0.008944915
32	0xbdb43b48	-0.088003695
33	0x3c873df0	0.016509026
34	0x3c2bee0c	0.0104937665
35	0x3d7eaf06	0.062178634
36	0xbdace95a	-0.08442946
37	0x3cd41cc1	0.025892617
38	0xbd1a7e35	-0.037718017
39	0xbe0822f0	-0.13294578
40	0x3d92fff9	0.07177729
41	0xbe2e76f5	-0.17037566
42	0x3dbc2b86	0.09187989
43	0x3d7c2c6a	0.061565794
44	0x3dbcf571	0.09226502
45	0xbd785c78	-0.06063506
46	0xbe12635a	-0.14295712
47	0x3cdf77ec	0.027278863
48	0xbdb2db83	-0.08733275
49	0xbdb4e6c1	-0.08833075
50	0x3dfe3b2f	0.12413632
51	0x3dbdc458	0.09265965
52	0x3d4e628b	0.050386947
53	0x3d9cebcf	0.076621644
54	0xbe305940	-0.17221546
55	0x3c1d1b70	0.009589061
56	0x3c630005	0.013854985
57	0xbe0f051c	-0.13966793
58	0x3ddc5452	0.1075827
59	0xbc500f4c	-0.01269896
60	0xb96283c8	-0.00021602132
61	0xbcb5e19b	-0.022202304
62	0xbe07c0d5	-0.13257153
63	0xbe16b280	-0.1471653

msg_layers.0.W_msg.weight f4 [64, 64]
0	0xbdc545b9	-0.09632439
1	0xbe1a0b28	-0.15043318
2	0x3de0f6c4	0.10984567
3	0x3e2ece5a	0.17070904
4	0xbd22acbe	-0.03971552
5	0x3dc6754d	0.09690342
6	0x3d8c03b0	0.06836641
7	0x3de260e1	0.110536344
8	0xbdadb112	-0.08481039
9	0x3d492902	0.049111374
10	0xbd822550	-0.06354773
11	0xbdb05ee1	-0.08611847
12	0x3e3ee243	0.18641
13	0xbd9abf4a	-0.07556017
14	0xbdd6453e	-0.10462426
15	0xbe220ffb	-0.15826409
16	0x3e3b10b0	0.18268085
17	0xbd8b12f0	-0.067907214
18	0xbe0495b4	-0.12947732
19	0xbddce3e9	-0.10785658
20	0x3e32e092	0.1746848
21	0xbe2cfc2a	-0.16893068
22	0xbd9a6c9b	-0.07540246
23	0xbd40191c	-0.046898946
24	0xbc9de174	-0.019272543
25	0x3d5ca242	0.05386568
26	0xbd90290e	-0.070390806
27	0xbe19816d	-0.14990778
28	0x3df3be66	0.1190155
29	0x3d664df7	0.056226697
30	0xbe188989	-0.14896215
31	0x3deb4661	0.11488033
32	0x3d7d25bf	0.061803576
33	0x3dd11392	0.10208811
34	0x3dfd88db	0.12379619
35	0xbd370082	-0.04467822
36	0x3c0551b1	0.0081371525
37	0xbe0d68ec	-0.13809556
38	0xbddceee8	-0.10787755
39	0xbe05d250	-0.13068509
40	0x3dd969b5	0.10615865
41	0x3c3e1fd8	0.011604272
42	0x3c96c048	0.018402234
43	0xbdaef6af	-0.08543145
44	0x3e343bd2	0.17600945
45	0xbd919be3	-0.07109811
46	0x3cbf0b5c	0.023320846
47	0xbdc8e1ce	-0.09808694
48	0x3cf8f17c	0.030388586
49	0xbca28ce2	-0.019842569
50	0x3d4bc2c5	0.049746294
51	0xbddd321f	-0.108005755
52	0x3de565bf	0.11201047
53	0xbd1aad29	-0.037762795
54	0xbd2d4e29	-0.042310867
55	0x3dfda184	0.12384322
56	0x3d5682c0	0.052370787
57	0xbe1e68a5	-0.15469606
58	0xbd8d4418	-0.068977535
59	0xb8faf36f	-0.00011966272
60	0xbb6e25b9	-0.0036338402
61	0xbd3439cf	-0.044000443
62	0x3d05b622	0.0326444
63	0xbe06583f	-0.131196
64	0xbe2f7675	-0.17135032
65	0xbe53b979	-0.20676221
66	0x3dc9b10f	0.09848224
67	0x3e6f82e5	0.23389776
68	0x3d72b193	0.05925138
69	0x3e213e16	0.1574634
70	0x3de7fb1c	0.11327192
71	0x3db0fe63	0.086422704
72	0xbe993384	-0.29922116
73	0xbd87c4f0	-0.0662936
74	0xbe2f317a	-0.17108718
75	0x3dca774b	0.098860346
76	0x3ce0c75f	0.027438818
77	0xbe73dfee	-0.23815891
78	0x3dbe30a6	0.09286623
79	0xbd8f69a4	-0.07002571
80	0x3e1cb00c	0.15301532
81	0xbd7cbb32	-0.06170196
82	0x3d5d9e86	0.054106258
83	0xbe605ea1	-0.21911098
84	0x3dd5e271	0.10443581
85	0xbe56d072	-0.20977953
86	0x3b424ad5	0.0029646654
87	0xbe379152	-0.17926529
88	0x3d5d2c8d	0.053997565
89	0x3dc98f77	0.09841817
90	0x3da5d415	0.08097092
91	0xbe100143	-0.14062981
92	0x3db4a05c	0.088196486
93	0x3e1474a8	0.14497626
94	0xbe23056e	-0.1592004
95	0x3dd1e027	0.10247832
96	0x3e359889	0.17733969
97	0x3e62e8e8	0.22159159
98	0x3dfe9724	0.124311715
99	0x3c07e023	0.008293184
100	0x3bfd2ae5	0.0077260607
101	0xbdf4f0de	-0.11960004
102	0x3d55ec39	0.052227233
103	0xbdeb9677	-0.11503308
104	0x3b496d01	0.0030735137
105	0xbd604b5f	-0.05475938
106	0xbdf54913	-0.119768284
107	0xbd68f6b8	-0.056875914
108	0x3e55341c	0.2082066
109	0xbe219c4b	-0.15782277
110	0x3d781a0c	0.060571715
111	0x3d853ec1	0.0650611
112	0x3e077100	0.132267
113	0x3e2f140c	0.17097491
114	0x3e8eaa63	0.2786437
115	0xbd08150d	-0.0332232
116	0x3e19e6c5	0.15029438
117	0xbe23e3af	-0.16004823
118	0xbda4921c	-0.08035681
119	0x3d82a291	0.06378663
120	0xbdf6ebac	-0.120566696
121	0xbe6158d6	-0.22006544
122	0x3c96a579	0.01838945
123	0x3dd84e8c	0.105618566
124	0xbd97b307	-0.07407194
125	0x3d891373	0.06693163
126	0x3e549400	0.20759583
127	0xbe4453a2	-0.19172528
128	0x3df99bf6	0.1218795
129	0x3e097c07	0.13426219
130	0xbce496cb	-0.027903935
131	0xbd3c485c	-0.045967445
132	0xbc8e4cca	-0.0173706
133	0xbe1a1547	-0.15047179
134	0x3de541d0	0.11194193
135	0x3dddf5be	0.10837887
136	0x3d625cfb	0.055264454
137	0xbca6c417	-0.020357175
138	0x3b29c561	0.0025905
139	0xbd909815	-0.07060257
140	0xbcde14bd	-0.027109498
141	0x3d21805e	0.03942906
142	0x3cebf435	0.02880297
143	0xbdc0b329	-0.09409172
144	0xbdc2c94e	-0.09511052
145	0xbdf532ca	-0.11972578
146	0xbdcdee79	-0.10055251
147	0xbd0fafce	-0.03507977
148	0xbb7518d3	-0.003739883
149	0x3da39b50	0.07988608
150	0x3d4ae623	0.04953588
151	0x3cdc139c	0.02686482
152	0x3dd91d6e	0.106013164
153	0x3c22e7a4	0.009942923
154	0xbd2ec6fa	-0.042670228
155	0x3e02cbdf	0.12773083
156	0xbd74180e	-0.059593253
157	0x3c8679fe	0.016415592
158	0xbd8cd7d2	-0.06877102
159	0xbd841956	-0.06450145
160	0xbdc9830e	-0.0983945
161	0x3daf08a3	0.08546569
162	0xbcaed110	-0.021339923
163	0xbd38847b	-0.04504822
164	0xbd4a9654	-0.04945977
165	0xbd6219d2	-0.055200405
166	0xbd31dcdb	-0.043423515
167	0xbd02fc38	-0.031978816
168	0x3dabdf73	0.08392229
169	0x3cbfda9a	0.023419667
170	0xbd8c4f3e	-0.06851052
171	0x3c3113ea	0.010807971
172	0xbdc61881	-0.096726425
173	0xbcfd8b8b	-0.030950328
174	0xbd172750	-0.036902726
175	0x3dc08a5a	0.094013885
176	0x3dfbd0cc	0.12295684
177	0xbc02c847	-0.00798232
178	0xbd33042f	-0.04370516
179	0xbc2fe119	-0.01073482
180	0xbd3b263c	-0.04569076
181	0xbdd26222	-0.102726236
182	0x3d5c4df4	0.05378528
183	0xbdc3f24f	-0.09567701
184	0x3e00c20a	0.1257402
185	0xbd39fe1a	-0.045408346
186	0xbe07fc03	-0.13279729
187	0xbd714424	-0.058902875
188	0xbd995cea	-0.07488425
189	0xbdb34f7e	-0.08755396
190	0xbdba5537	-0.09098285
191	0x3cfcd402	0.030862812
192	0x3d601467	0.054706957
193	0x3d6ca408	0.05777362
194	0xbd29e4ba	-0.041477896
195	0xbdc6a8cd	-0.09700165
196	0xbdcc4f38	-0.09976047
197	0x3d80070e	0.062513456
198	0xbdba3695	-0.09092442
199	0x3de1a25c	0.11017296
200	0xbdbb3bf5	-0.09142295
201	0xbd80e49e	-0.06293605
202	0xbdf02852	-0.117264405
203	0x3ce91618	0.028452918
204	0xbdb1472a	-0.086561516
205	0xbd10b63e	-0.03533005
206	0x3d33afc3	0.04386879
207	0xbc21a0cf	-0.009865
208	0xbaeaf30c	-0.0017925217
209	0xbd0c8089	-0.03430227
210	0x3db71b04	0.089407
211	0xbd58cd24	-0.052930012
212	0x3e29eb27	0.1659361
213	0xbe0a88fe	-0.13528821
214	0x3d893ce6	0.067010686
215	0xbdf03377	-0.11728566
216	0x3cb4c5ed	0.022067035
217	0x3d66e24b	0.056368154
218	0x3da87ae4	0.082265645
219	0xbdb3b333	-0.08774414
220	0x3d31c3b9	0.043399546
221	0x3db2c6d9	0.087293334
222	0xbb30c783	-0.0026974387
223	0x3ae7a2b9	0.0017672396
224	0xbd879e47	-0.06621986
225	0xbd13924f	-0.036028203
226	0x3dacaec2	0.0843177
227	0x3e00b3e6	0.12568626
228	0xbdcece65	-0.100979604
229	0xbd23b622	-0.039968617
230	0x3c4cea00	0.012506962
231	0x3d521bd3	0.051296066
232	0xbdc5f26c	-0.09665379
233	0xbcb2f33f	-0.021844504
234	0x3c5fb4c0	0.013653934
235	0x3b36d7a9	0.002789954
236	0x3e22bc8c	0.15892237
237	0xbd58c85f	-0.052925464
238	0xbce68bfb	-0.02814292
239	0x3cbb5281	0.02286649
240	0x3df30f81	0.118681915
241	0x3d80345a	0.06259985
242	0x3e473689	0.19454397
243	0x3c5bf298	0.013424538
244	0xbde2c354	-0.11072412
245	0x3da750e0	0.081697226
246	0xbdb388a1	-0.08766294
247	0xbd4ba98c	-0.04972224
248	0x3ce1b2fc	0.027551167
249	0xbdea153f	-0.114298336
250	0x3d52a114	0.051423147
251	0x3d10cae8	0.035349756
252	0xbcf19b60	-0.029493034
253	0xbd12804b	-0.03576688
254	0x3daf981e	0.08573936
255	0xbd7f74bd	-0.06236719

msg_layers.0.W_msg.bias f4 [64]
0	0x3e1ba154	0.1519826
1	0x3dae49de	0.08510183
2	0x3dbea852	0.09309448
3	0xbdb12749	-0.08650071
4	0x3e039741	0.12850668
5	0xbe4c37c0	-0.19943142
6	0xbcb7a26a	-0.022416312
7	0x3dc95e3a	0.098324254
8	0xbcf186d7	-0.029483242
9	0xbe13119d	-0.14362188
10	0x3e3f0151	0.18652846
11	0x3d8834a5	0.06650666
12	0xbdeb911a	-0.11502285
13	0x3dcf41b7	0.10119956
14	0xbdd0e80c	-0.102005094
15	0xbdb4ae87	-0.08822351
16	0xbe07fb38	-0.13279426
17	0x3dd9bfe4	0.10632303
18	0x3e2384f9	0.15968694
19	0xbc68c18c	-0.014206301
20	0xbd1988bb	-0.037483912
21	0xbd8eca1e	-0.069721445
22	0xbd0aa098	-0.03384456
23	0x3da02c56	0.078209564
24	0xbe1a6257	-0.15076576
25	0x3cfe8e8d	0.031073833
26	0x3dfcf5c8	0.123515666
27	0xbd9c84a5	-0.076424874
28	0x3d8999ba	0.06718774
29	0x3cf76abe	0.030202266
30	0xbc68e18f	-0.014213934
31	0x3e62d7b4	0.22152597
32	0xbe1bb674	-0.15206319
33	0x3dd0a2a4	0.10187271
34	0xbd9176d7	-0.07102745
35	0xbe39124b	-0.18073384
36	0xbd8cdfd4	-0.06878629
37	0x3d97945d	0.07401345
38	0x3cf424dc	0.029802732
39	0xbe035f5e	-0.12829348
40	0xbd85690c	-0.06514177
41	0x3ba76d26	0.005109447
42	0xbe0ebac9	-0.1393844
43	0xbe13617d	-0.14392658
44	0xbdd4acd3	-0.10384526
45	0x3e4d7cc7	0.2006713
46	0xbc88d9ee	-0.01670548
47	0xbd3579d4	-0.044305637
48	0xbdb9412c	-0.09045634
49	0x3dd596c9	0.104291506
50	0x3e37618f	0.1790831
51	0x3db5cc45	0.08876852
52	0xbe3f0942	-0.18655875
53	0xbd1463de	-0.036228053
54	0xbe752439	-0.23939599
55	0xbe2377b2	-0.15963629
56	0x3d8dd461	0.06925274
57	0x3d92b09c	0.07162592
58	0x3d43c20d	0.047792483
59	0x3e1229c6	0.14273748
60	0x3bf33922	0.0074225822
61	0x3d359fde	0.044341914
62	0xbe0aae45	-0.13543041
63	0xbda3cff0	-0.07998645

msg_layers.0.norm.weight f4 [64]
0	0x3f6e971c	0.93199325
1	0x3f92853a	1.1446908
2	0x3f69a472	0.9126655
3	0x3f6a2174	0.91457295
4	0x3f522728	0.82091
5	0x3f8a93a2	1.0826304
6	0x3f47efb3	0.78100127
7	0x3f67f440	0.9060707
8	0x3f6c7f16	0.9238142
9	0x3f79b2a7	0.97538227
10	0x3f911591	1.1334707
11	0x3f5fbf56	0.8740133
12	0x3f82751e	1.0191991
13	0x3f909d1a	1.1297944
14	0x3f8a2b6a	1.0794499
15	0x3f8d733c	1.1050792
16	0x3f71f32b	0.9451167
17	0x3f7e1acc	0.9925964
18	0x3f77eed4	0.968488
19	0x3f64a7d5	0.8931859
20	0x3f6af162	0.9177457
21	0x3f825e89	1.01851
22	0x3f552530	0.8325987
23	0x3f800fa5	1.0004774
24	0x3f77e6f7	0.968368
25	0x3f74d90c	0.9564369
26	0x3f71ecd2	0.94501984
27	0x3f944d37	1.1586064
28	0x3f53ac24	0.8268454
29	0x3f8cc2fc	1.0997005
30	0x3f7b8fca	0.9826628
31	0x3f8e041b	1.1095003
32	0x3f745487	0.9544148
33	0x3f8c6cfd	1.097076
34	0x3f66c331	0.9014159
35	0x3f64c843	0.89368075
36	0x3f48e497	0.784738
37	0x3f6ba0df	0.92042345
38	0x3f6ece5a	0.9328362
39	0x3f8d75d5	1.1051584
40	0x3f65b496	0.8972868
41	0x3f70d224	0.9407065
42	0x3f7dcff3	0.9914543
43	0x3f424983	0.7589342
44	0x3f802c5d	1.0013539
45	0x3f8cc1f3	1.0996689
46	0x3f90e77c	1.1320643
47	0x3f813d3d	1.0096813
48	0x3f41cdf0	0.7570486
49	0x3f7b4a60	0.9816036
50	0x3f7ea825	0.9947532
51	0x3f5c650f	0.86091703
52	0x3f6d33cd	0.92657167
53	0x3f5505de	0.8321208
54	0x3f83cfcf	1.0297793
55	0x3f79d750	0.97594166
56	0x3f696914	0.9117596
57	0x3f6af963	0.91786784
58	0x3f80c4df	1.006008
59	0x3f845d14	1.0340905
60	0x3f8f917a	1.1216271
61	0x3f7189ad	0.943507
62	0x3f8c9970	1.0984325
63	0x3f7edb8a	0.9955374

msg_layers.0.norm.bias f4 [64]
0	0x3ce59caf	0.028028814
1	0x3cc021a1	0.023453536
2	0x3d6e74fc	0.058217034
3	0x3d9b6d7a	0.0758924
4	0x3e0e8058	0.13916147
5	0x3bb6891d	0.0055705444
6	0x3db79f27	0.08965903
7	0x3c3bdf60	0.011466831
8	0x3de452b0	0.11148584
9	0xbd26d73e	-0.040732615
10	0x3c812b04	0.015767582
11	0xbc2b2041	-0.010444702
12	0x3d915e60	0.07098079
13	0xbd65bb11	-0.056086604
14	0xbd5fd549	-0.054646764
15	0xbdb25211	-0.08707059
16	0x3d019def	0.031644758
17	0xbb2b89a3	-0.0026174567
18	0x3c833053	0.016014254
19	0x3d6dd761	0.05806673
20	0x3d1c17e4	0.03810872
21	0xbd14e9d9	-0.036355827
22	0x3dc08724	0.09400776
23	0x3b7c6748	0.003851371
24	0x3d3376de	0.043814532
25	0xbd70ecc2	-0.05881954
26	0x3c9953b1	0.018716665
27	0xbd744bc6	-0.059642576
28	0x3d832111	0.06402791
29	0x3ba53602	0.0050418386
30	0xbc999d02	-0.018751625
31	0xbb04c9a2	-0.0020261784
32	0xbb839987	-0.0040161046
33	0x3d1c1bab	0.038112324
34	0xbca0f7fe	-0.019649502
35	0x3c1b5133	0.009479809
36	0x3d2bac10	0.04191214
37	0xbb9ab54e	-0.0047213202
38	0xbc9a0fd7	-0.018806381
39	0xbd11a967	-0.035561945
40	0x3d931d21	0.0718329
41	0xbc3d016f	-0.011535986
42	0xbc47f34f	-0.012204005
43	0x3c2b0623	0.010438475
44	0x3d87be32	0.06628074
45	0x3c5b8261	0.013397784
46	0xbbb66d54	-0.005567232
47	0xbcbc2b3d	-0.022969836
48	0x3da30b5b	0.0796115
49	0x3cc698cc	0.024242781
50	0xbd2cfabe	-0.042231314
51	0x3ce25914	0.027630366
52	0x3ca94db3	0.020666933
53	0x3cbf6333	0.023362732
54	0xbca91cc9	-0.020643609
55	0x3e165f5f	0.14684819
56	0x3dd28311	0.10278905
57	0x3d7cb73a	0.061698176
58	0x3c11a405	0.008889203
59	0xbc6fadf3	-0.014628875
60	0x3d52a8e7	0.05143061
61	0x3c7e4163	0.015518519
62	0xbdc1afee	-0.09457384
63	0xbd1b11ae	-0.037858658

msg_layers.1.W_self.weight f4 [64, 64]
0	0xbc980c1a	-0.018560458
1	0x3e059086	0.13043413
2	0x3dc42cb8	0.09578842
3	0x3c3400d9	0.01098653
4	0x3d9e6b5b	0.0773532
5	0xbe091b78	-0.13389385
6	0xbcbd7264	-0.023125835
7	0x3db1e268	0.08685762
8	0xbe13ac41	-0.14421178
9	0xbe48a42f	-0.19593881
10	0x3e190bfa	0.14945975
11	0xbd8f1f68	-0.06988412
12	0xbe0857b3	-0.13314705
13	0x3dca3618	0.09873599
14	0xbde408db	-0.111345015
15	0xba9fe66a	-0.0012199406
16	0xbcc4645d	-0.023973638
17	0x3e59aa65	0.21256407
18	0xbd8254ec	-0.06363854
19	0xbdfdfed1	-0.12402118
20	0xbd636975	-0.055520494
21	0xbe14d92c	-0.1453597
22	0xbe0a0875	-0.13479789
23	0x3e085d47	0.13316832
24	0xbdfd0408	-0.123542845
25	0xbd0be654	-0.034155205
26	0x3dbf0ee0	0.09329009
27	0x3da96586	0.08271317
28	0xbcb43dd8	-0.022002146
29	0xbdba79f6	-0.091052935
30	0xbd43d886	-0.047813915
31	0x3e96226a	0.2932313
32	0xbda88cf8	-0.08230013
33	0xbdc19709	-0.09452636
34	0xbb82e2d5	-0.0039943256
35	0xbdb5b0c9	-0.0887161
36	0xbd80f67f	-0.062970154
37	0xbe274ceb	-0.16337936
38	0x3dc7276c	0.09724316
39	0x3def9c2e	0.11699711
40	0xbca28f07	-0.019843591
41	0xbdcf5e86	-0.10125451
42	0xbde6dfa5	-0.112731256
43	0x3c84c4b9	0.016207086
44	0x3b1baa38	0.0023752581
45	0x3de858bb	0.11345049
46	0x3cebfce6	0.028807115
47	0xbdea1c1a	-0.11431141
48	0xbe360f52	-0.17779282
49	0x3e0882bc	0.13331121
50	0x3d5245da	0.051336147
51	0xbbedff79	-0.0072631207
52	0xbe068266	-0.1313568
53	0x3e1a51ec	0.15070313
54	0x3da9b3e0	0.082862616
55	0x3cb5bfdd	0.022186214
56	0xbd5c944d	-0.05385237
57	0xbd75a6c9	-0.05997351
58	0x3e155f7a	0.14587203
59	0x3e3dfbae	0.1855304
60	0xbd19b886	-0.03752949
61	0x3e0cb6ad	0.1374156
62	0x3ccd7684	0.025080927
63	0xbd9e4c88	-0.07729441
64	0x3d2a8141	0.041627172
65	0xbda8a5d0	-0.08234751
66	0x3d555b96	0.052089296
67	0x3d2175b5	0.039418895
68	0x3c053697	0.008130691
69	0xbd434e42	-0.047682054
70	0x3e3ef7d4	0.18649226
71	0x3dd50ed1	0.10403217
72	0x3d0217fd	0.03176116
73	0x3da8d6f3	0.08244123
74	0xbc751498	-0.014958523
75	0x3d340e51	0.043958966
76	0xbd81f6bb	-0.06345888
77	0xbe4bd2e0	-0.19904661
78	0xbd309501	-0.04311085
79	0x3cb6d055	0.022316137
80	0xbd06de64	-0.032926932
81	0xbbe7f758	-0.007079046
82	0x3d016c4a	0.031597413
83	0x3c2c4600	0.010514736
84	0x3e8a19a9	0.26972702
85	0xbcefc5a5	-0.029269049
86	0xbd9313ea	-0.07181533
87	0x3d01dfe7	0.03170767
88	0xbc768eb6	-0.015048673
89	0x3e338881	0.17532541
90	0x3cfa3fc1	0.030547978
91	0xbde1782a	-0.110092476
92	0x3e49d08a	0.19708458
93	0xbd1bbb92	-0.038020678
94	0xbda08b25	-0.0783904
95	0x3e48e242	0.1961756
96	0xbd3f6a5a	-0.046732284
97	0xbc839aca	-0.01606502
98	0x3e4fb2f1	0.20283104
99	0x3dbffd0b	0.09374436
100	0x3dc7aede	0.0975015
101	0x3cc69240	0.02423966
102	0xbde3e413	-0.11127486
103	0xbde4cd6a	-0.11171992
104	0xbd436109	-0.04769996
105	0x3d8c6500	0.06855202
106	0xbd0bcdcb	-0.034131806
107	0x3e3aa437	0.18226705
108	0xbd293a7e	-0.041315548
109	0xbd2429af	-0.040078815
110	0x3dd87c34	0.10570565
111	0xbaf3cc40	-0.00186003
112	0xbdace283	-0.08441641
113	0x3e31a14a	0.17346683
114	0x3e109f22	0.14123204
115	0x3e97104c	0.2950462
116	0x3d5972d0	0.05308801
117	0x3db5511a	0.088533595
118	0xbcc7df45	-0.024398455
119	0xbcc873f5	-0.024469355
120	0x3db97c58	0.0905692
121	0xbe0330fe	-0.12811658
122	0x3e030242	0.1279383
123	0x3e272911	0.1632426
124	0xbe010148	-0.12598145
125	0xbd9e2cf2	-0.077234164
126	0x3d0635f7	0.03276631
127	0x3c5a244f	0.013314321
128	0xbdf90f46	-0.12161116
129	0xbc743f26	-0.014907634
130	0x3de38009	0.11108405
131	0x3db83289	0.08994014
132	0xbdc41b3a	-0.095755056
133	0xbd29fbdb	-0.041499954
134	0xbde74111	-0.11291707
135	0xba8a85b9	-0.0010568417
136	0x3d5ed999	0.054406736
137	0x3dfbed1b	0.12301084
138	0xbd202ea7	-0.03910699
139	0xbc141b69	-0.009039738
140	0xbdd84c5d	-0.1056144
141	0xbd8e6e31	-0.06954611
142	0xbb56bcb1	-0.0032766277
143	0xbd8440e7	-0.06457692
144	0xbe10ae93	-0.14129095
145	0xbdd1db5a	-0.10246916
146	0xbd1cc6d0	-0.03827554
147	0x3cbad147	0.02280487
148	0xbd269d9b	-0.040677648
149	0xbda38345	-0.07984022
150	0x3d90df50	0.070738435
151	0x3c6750fd	0.01411843
152	0x3dafca52	0.085835114
153	0xbbbb3754	-0.0057133827
154	0xbd72d931	-0.05928916
155	0x3d34ef37	0.044173446
156	0xbcde0bc7	-0.027105225
157	0x3da8da0b	0.082447134
158	0x3e2ea2db	0.17054312
159	0xbd64c1e3	-0.055848967
160	0x3d3e5b6a	0.046473898
161	0xbd3c5ec6	-0.04598882
162	0x3dd58135	0.10425035
163	0xbd2d567a	-0.0423188
164	0x3dad73eb	0.08469375
165	0x3e168151	0.14697768
166	0x3d5e9196	0.05433806
167	0x3e24a135	0.1607712
168	0x3cde43be	0.027131911
169	0xbdad5f77	-0.08465474
170	0x3de65b07	0.11247831
171	0x3d21a86f	0.03946727
172	0x3db4754d	0.08811436
173	0x3d1280be	0.03576731
174	0xbccb0b13	-0.024785554
175	0x3c1cbb20	0.009566098
176	0xbc131c7b	-0.008978958
177	0xbe055c4f	-0.13023494
178	0xbd922abb	-0.071370564
179	0xbd857f6f	-0.06518447
180	0x3cf4fca1	0.02990562
181	0xbdd9774a	-0.10618456
182	0x3c1072d3	0.008816439
183	0xbc3a5609	-0.011373051
184	0x3d0cc954	0.03437169
185	0xbde11c18	-0.109916866
186	0xbe090e46	-0.13384351
187	0xbe01bc11	-0.12669398
188	0xbd6fdcd9	-0.058560226
189	0xbdd73a18	-0.105091274
190	0xbdba53ea	-0.090980366
191	0x3d90c010	0.07067883
192	0xbd5ee311	-0.054415766
193	0xbc2cb9cb	-0.010542343
194	0x3d0862f9	0.033297513
195	0xbd6b15d5	-0.057393868
196	0xbd84256d	-0.06452451
197	0xbe2df309	-0.16987242
198	0x3decccae	0.11562477
199	0xbe0446ab	-0.12917583
200	0x3de5061f	0.11182808
201	0x3dc4534d	0.09586201
202	0xbce3d618	-0.027812049
203	0x3dc695fe	0.096965775
204	0xbcee9acc	-0.029126547
205	0x3d02e6de	0.031958453
206	0x3d8cb781	0.06870938
207	0xbd5e2263	-0.054232012
208	0x3d63b1e4	0.05558957
209	0x3e02b2ca	0.12763515
210	0x3d50f586	0.0510154
211	0xbd771313	-0.060320925
212	0x3cbb035a	0.022828747
213	0x3dd1a28c	0.102360815
214	0x3e068d75	0.13139899
215	0x3d38ec0d	0.04514699
216	0xb9da305b	-0.00041616228
217	0x3dda2e25	0.106533326
218	0xbe154d55	-0.14580281
219	0xbd3c5384	-0.045978084
220	0x3d3fde50	0.046842873
221	0x3d15c8f7	0.036568608
222	0x3e4a9d48	0.1978656
223	0xbdae5201	-0.08511735
224	0xbdc08553	-0.094004296
225	0xbd163659	-0.036672924
226	0x3dd8ddcd	0.1058918
227	0x3c0df796	0.008664986
228	0x3de5ac51	0.11214507
229	0x3e192c63	0.14958338
230	0x3d96e991	0.07368768
231	0xbcd66198	-0.026169583
232	0xbd886220	-0.06659341
233	0x3d6eb579	0.058278535
234	0xbd2a613b	-0.041596632
235	0xbe143adb	-0.14475577
236	0xbcbd4882	-0.023105863
237	0xbd7bc84a	-0.061470307
238	0x3e28b482	0.16475108
239	0xbdedd555	-0.116129555
240	0x3e18be73	0.149164
241	0x3d8ce93b	0.06880423
242	0x3cdc1576	0.026865702
243	0xbd70047c	-0.058598027
244	0x3d88bb2f	0.066763274
245	0x3c3bb985	0.0114578055
246	0x3c87b124	0.01656396
247	0x3c54d9ab	0.012991349
248	0xbd671f4b	-0.056426328
249	0x3dc22e84	0.094815284
250	0xbdfce689	-0.123486586
251	0xbdaf8956	-0.085711166
252	0xbded5a4f	-0.115894906
253	0x3abb7ca5	0.0014304115
254	0x3de77b4d	0.11302815
255	0xbd74da5c	-0.059778556

msg_layers.1.W_self.bias f4 [64]
0	0x3dd9bc19	0.1063158
1	0xbd68e044	-0.0568545
2	0xbe307d3d	-0.17235275
3	0x3d5d9a0a	0.05410198
4	0x3d4f2495	0.050571997
5	0x3dfbef55	0.12301508
6	0xbc0a84df	-0.0084545305
7	0xbd93ec51	-0.07222808
8	0x3e41abbf	0.18913172
9	0xbb0e0c06	-0.0021674647
10	0xbd402805	-0.046913166
11	0x3d68c1e5	0.056825537
12	0x3de46564	0.11152151
13	0x3c4c4aae	0.012468977
14	0xbdfc0416	-0.12305467
15	0xbbfacfcf	-0.0076541672
16	0xbd4be5ec	-0.049779817
17	0xbd46fd81	-0.048581604
18	0xbcc25e26	-0.023726534
19	0xbd8af060	-0.06784129
20	0x3d2b6297	0.04184207
21	0xbb92127a	-0.004457769
22	0xbe0fbbf8	-0.14036548
23	0x3d3c7e2b	0.04601876
24	0x3e710ee9	0.23540844
25	0xbdda52dc	-0.106603354
26	0xbda4f65b	-0.08054801
27	0x3dc66dd8	0.0968892
28	0xbe3c39ae	-0.18381378
29	0xbe17717e	-0.14789388
30	0xbe087779	-0.13326825
31	0x3d7030b8	0.05864021
32	0xbcfaf41f	-0.030633984
33	0x3d70bb00	0.058772087
34	0xbdf11588	-0.11771685
35	0xbe018259	-0.1264738
36	0xbd2af267	-0.04173508
37	0xbd618b69	-0.055064593
38	0x3e5f3eaa	0.21801248
39	0xbe060e1c	-0.1309132
40	0x3dfc399b	0.12315675
41	0xbe1b54d7	-0.15169083
42	0xbd07cf4a	-0.03315667
43	0xbcf8bbff	-0.030363081
44	0x3d1e5503	0.038655292
45	0xb944167c	-0.00018700393
46	0xbdb88a39	-0.09010739
47	0xbe3398ff	-0.17538832
48	0x3cf5e521	0.030016484
49	0x3dde18ac	0.108445495
50	0xbe08b07f	-0.13348578
51	0xbd00126d	-0.031267572
52	0xbe1bacc1	-0.15202619
53	0x3dd6e9ed	0.104938366
54	0x3b13e286	0.0022565438
55	0x3e18cf24	0.14922768
56	0xbd46d5d2	-0.04854376
57	0x3d2c8c75	0.042126138
58	0x3dc6160a	0.09672172
59	0xbc180fab	-0.009281079
60	0xbd092674	-0.033483937
61	0xb8a467c3	-7.8394565e-05
62	0xbe1fc049	-0.15600695
63	0xbc6585b8	-0.014008932
