QuantLaxmi_Research/dtrn/results/checkpoints/fold2_BANKNIFTY/dtrn_stage2.pt (torch, 232927 bytes, 37 tensors)

embed.embed.0.weight f4 [32, 2]
000000 e6 20 56 3f 27 3f 74 be d5 93 14 3f bb c3 14 3f
       0.8364395 -0.23852216 0.58038074 0.5811116
000010 a5 44 4e bf 2b 73 2f 3e e0 85 07 3f fb 7f 48 3e
       -0.80573493 0.17133777 0.5293865 0.1958007
000020 28 f8 a1 3e 69 0b 1d 3e 4d a2 5c bf 24 23 c9 be
       0.3163464 0.15336384 -0.8618515 -0.39284623
000030 78 16 97 3e 2e 57 04 bd 72 83 4c be 23 13 63 3e
       0.2950933 -0.032309704 -0.19972017 0.22175269
000040 22 75 21 bf 84 12 b9 3e 8d ac ec bd ea f4 75 3e
       -0.63069355 0.3614694 -0.11556349 0.24019209
000050 29 c5 45 3f cd 3c 37 bf 4a df 35 3f 64 28 e1 bc
       0.7725397 -0.7157715 0.7104384 -0.02748508
000060 1e 20 72 3e ca cb f3 3e 15 36 cb 3e d7 04 11 bf
       0.23645064 0.47616416 0.396897 -0.5664801
000070 5e 77 e6 bd 40 ab 35 3e 3e f4 15 bf ee 94 84 bd
       -0.11253236 0.17741108 -0.5857581 -0.064737186
000080 52 65 13 bf b3 ca da 3d ac f5 1c bf ad 06 a6 3e
       -0.5757648 0.10683193 -0.61312366 0.32426968
000090 8f fc 40 3f b9 b7 30 bf 78 8a 77 bf 5a 56 08 bf
       0.75385374 -0.6903034 -0.9669566 -0.5325676
0000a0 3d b2 01 be bd c6 e7 3e b3 c9 3d bf f0 f9 95 be
       -0.12665649 0.45268813 -0.74135894 -0.2929225
0000b0 92 c2 33 3e 6b be e6 3c a9 8d 1a bf 21 1d 85 3e
       0.17554691 0.02816697 -0.60372406 0.25998786
0000c0 df 5f e5 be 9b 86 ff be 20 50 bd 3e a8 c2 72 3d
       -0.44799706 -0.49907383 0.36975193 0.05926767
0000d0 09 7b 30 be 3b b2 9b 3d 64 18 00 3f 9e f7 1b bf
       -0.17234434 0.07602354 0.5003722 -0.6092471
0000e0 fb 21 b5 bd 7b ae e0 bd 95 4a 5c 3e 89 3a 02 3e
       -0.08844372 -0.109707795 0.21512826 0.12717642
0000f0 7e 73 6d bf 39 3d b4 3d 29 c2 37 bf fc e1 e0 3e
       -0.9275435 0.0880074 -0.7178064 0.43922412

embed.embed.0.bias f4 [32]
000000 5f 04 85 be de 12 98 be 2f 25 86 be 64 3e e1 be
       -0.25979897 -0.29701895 -0.26200244 -0.43992913
000010 c6 e6 8b be 50 41 09 3f c3 4a 3d 3e 3e c4 04 3f
       -0.27324504 0.53615284 0.1848555 0.5186194
000020 e2 47 ca bd 79 cc 93 be 95 69 c0 3e 27 de 56 be
       -0.09876992 -0.28866938 0.37580553 -0.20983182
000030 0c 9b 70 3d bf 34 22 3d 2c d5 1e be 91 d8 80 3e
       0.058741614 0.039601084 -0.15511006 0.25165227
000040 b7 70 20 be 3f 5a c7 be d4 7d 13 3f 7c 8a f1 3e
       -0.15667997 -0.3893604 0.57613873 0.47175968
000050 d4 d7 b7 3d 77 47 8f 3d 07 84 b8 bd 93 48 cf be
       0.08976713 0.06996053 -0.09009557 -0.40485057
000060 5f 3a 0b 3f ca 3d 4e 3d 2f cf 2b 3d 36 87 42 3e
       0.5438594 0.050351895 0.041945633 0.18996891
000070 e6 dd 94 3e 72 84 6c be 05 d3 51 be e7 a6 92 be
       0.29075545 -0.23097399 -0.20490654 -0.2864296

embed.embed.2.weight f4 [32, 32]
000000 af 4a 97 3e 1e 95 82 3d 3d d9 4f 3e 35 84 e2 3d
       0.29549167 0.06376098 0.20297714 0.11060373
000010 7d c1 a0 bd fe 83 a3 bb 2b e4 49 3e 69 47 dd bd
       -0.07849405 -0.0049901 0.19715945 -0.10804636
000020 dd 71 90 3d a8 1d 34 be 3a 7d 95 3e 5e b5 a0 3e
       0.07052968 -0.17589438 0.29197103 0.31388372
000030 99 06 2f be 01 a7 f9 3d 6b 69 14 3e 71 44 40 bd
       -0.1709236 0.121900566 0.14493339 -0.04694027
000040 4b 0e 30 3e 88 5e 86 3d 6c e2 43 3e 9c 0b be 3e
       0.17192952 0.06560999 0.19129342 0.37118232
000050 8b 44 49 bd 86 13 72 3d 4c d0 e6 3d 0b f6 25 bd
       -0.049137633 0.05910065 0.11270198 -0.040517848
000060 18 cc 34 3c 2f 2a 74 3d f8 93 21 bd 5c a2 c4 3e
       0.011034988 0.059610542 -0.039447755 0.3840512
000070 4b a6 2d 3d 5d 58 d6 3d 82 c9 3b 3e e4 09 ee 3d
       0.042394917 0.10466073 0.18338588 0.1162298
000080 84 c4 71 be 22 48 00 be 30 a3 b5 be 64 33 f7 bd
       -0.23610121 -0.12527516 -0.35476065 -0.12070349
000090 c4 9a 9e 3d 26 56 8f bd 1d 10 2f 3e 7c 64 3b 3e
       0.07744363 -0.069988534 0.1709599 0.1830005
0000a0 7d f5 7e bb 7d 47 26 be be 43 d7 bd cf 1b 5b be
       -0.0038903647 -0.16238208 -0.10510968 -0.21397327
0000b0 43 18 20 bd 56 f5 85 bd 1b 5f 87 bd 5f 4d 21 3c
       -0.039085638 -0.06540935 -0.06609937 0.009845107
0000c0 46 a9 a1 be dd a5 8b be cc 2d a3 bd 95 51 49 be
       -0.31574458 -0.2727498 -0.079677194 -0.19660027
0000d0 8d 30 c6 3d f5 fe 1b be d2 13 a7 3d 70 42 b4 be
       0.09677229 -0.15233977 0.08158077 -0.35206938
0000e0 4a d0 52 3e fa 74 2f bd 46 b1 f7 3d 6b 35 66 bd
       0.20587268 -0.042836167 0.12094359 -0.056203287
0000f0 bb aa 93 3c 79 d0 e6 3d 3c 0a 7b be 1e ef 7d be
       0.018025747 0.11270232 -0.24515623 -0.24798247
000100 c5 e9 d1 3e 7b 6d 42 bd ed 77 46 3e 60 27 a3 3d
       0.40998664 -0.04746769 0.19381686 0.079664946
000110 96 35 1e 3e a7 3b 83 3e 3e 64 a4 3b b9 65 e7 3c
       0.15450129 0.2563145 0.0050168326 0.028246747
000120 61 ec d3 bd af da a7 3d 63 b8 42 3e 77 92 b0 3e
       -0.1034782 0.081960075 0.1901565 0.34486744
000130 cf 0e a5 3d 29 52 80 3d 7a d6 25 3e 7f ec 7b 3d
       0.08059465 0.06265671 0.16195098 0.061504837
000140 af b8 4f 3e 60 c4 99 3c 7e 02 83 3e 84 19 62 3d
       0.20285295 0.018770397 0.2558784 0.055200115
000150 bf 83 7d 3d 05 57 04 3d f6 23 1a bb 51 bf 02 3e
       0.06189322 0.03230955 -0.002351997 0.12768294
000160 5c af 13 3e 67 17 7b bd b8 a5 24 be cd 49 b4 3e
       0.14422363 -0.061301615 -0.16078842 0.35212556
000170 97 d9 01 bc d0 cf 95 3d 5b 6f 89 3e b9 30 f2 3c
       -0.007925413 0.07315028 0.2684277 0.029564248
000180 24 98 ec 3d 2e aa 05 3e 98 2a 34 bd cc f3 21 3b
       0.11552456 0.130532 -0.043985933 0.0024711965
000190 dd 19 ce 3d c0 49 d1 bc fe b6 85 3e 6a 50 c0 3d
       0.10063527 -0.025547862 0.26116174 0.09390338
0001a0 59 ae ae 3b c8 93 0c be bf ca bc 3e 72 86 8b 3c
       0.0053308425 -0.13728249 0.36873433 0.017031882
0001b0 57 8f 34 3e cf 05 c7 3d bb 59 61 3d 3a 7c c8 3d
       0.17632805 0.09717905 0.055017214 0.09789319
0001c0 95 bd 3f 3e 81 63 10 be 64 16 2e 3e 1b 7f e5 3d
       0.18724664 -0.14100458 0.17000729 0.11205884
0001d0 01 d9 8e bc 96 8c 86 3d 9a a9 4a be b0 d9 78 bd
       -0.01743746 0.065697834 -0.1979126 -0.060754478
0001e0 73 07 d6 3d 8f 33 71 3e 9d fd a9 3d d4 b1 81 3d
       0.104506396 0.23554824 0.08300326 0.06332746
0001f0 6e fc 7f 3e df be 56 bd 0a fb 44 3c d5 bd a7 3d
       0.24998638 -0.052428123 0.012022743 0.081905045
000200 dd a0 50 3e cf 93 54 bd a3 21 09 3e ae fd 8f 3e
       0.20373864 -0.051898774 0.13391738 0.2812323
000210 bc 41 cf 3d 43 51 a4 3d 1f 45 73 bd 69 a0 c6 3d
       0.1011996 0.08023312 -0.05939209 0.096985646
000220 c4 6f 44 bd 11 32 1f 3e 7b 7f 4b 3e 4a 91 46 3e
       -0.04795815 0.15546443 0.19872849 0.19391361
000230 48 48 54 3e 0c 37 38 b9 d8 d2 da 3c c2 51 fd bc
       0.20730698 -0.00017568114 0.026711866 -0.030922774
000240 b4 76 14 3c 27 7c 41 3e 29 70 b0 3d 73 96 70 be
       0.009061504 0.18895017 0.08615143 -0.23494892
000250 6a 47 e1 3c 11 89 1a be c8 c0 af bd 47 4c 0e 3e
       0.027499873 -0.15091349 -0.08581692 0.13896285
000260 fe 84 98 be dd 77 ef 3c 68 d8 15 3d fd be 6a 3e
       -0.29788965 0.02923196 0.036583334 0.22924419
000270 46 37 91 3c 2e ed 7b 3b 01 6a 1d 3d b7 da 97 3d
       0.017726552 0.003844093 0.03843117 0.074147634
000280 09 41 0a 3d 8d 48 71 3c 63 f5 79 bd fd c4 a6 3c
       0.03375343 0.01472677 -0.061025035 0.020357603
000290 88 a0 18 3e 2c f8 50 3e 25 94 10 3e 7b aa 56 bd
       0.14904988 0.2040717 0.14119013 -0.052408677
0002a0 4b 15 60 3d 33 76 0c be 0d 7d ac 3d 1d f5 aa bc
       0.054707807 -0.13716964 0.08422289 -0.020868832
0002b0 f3 ae 78 bb fb 57 d4 bd 10 46 1b 3e 63 28 58 bd
       -0.0037946075 -0.103683434 0.15163445 -0.05277289
0002c0 36 cf ab 3d ff 2e 13 be a8 b9 60 3e 4f d6 71 3e
       0.08389132 -0.14373396 0.21945822 0.23616908
0002d0 de bd ae bd 00 e7 09 3e 0e 00 4c be 31 b2 2c bd
       -0.08532308 0.13467026 -0.19921896 -0.042162124
0002e0 8b 4f 00 3e 38 13 b7 3b c6 b9 cb 3d 4a 0c 64 3e
       0.12530343 0.005587008 0.09947543 0.22270313
0002f0 c4 f5 e3 3d 18 5d c9 3c d9 fc 4a bc f7 b9 1c be
       0.111308604 0.024580523 -0.012389385 -0.15305315
000300 aa 69 d1 be 0f 68 0f 3e 7c f5 78 be 91 1f 3c be
       -0.40900928 0.14004539 -0.24312395 -0.18371417
000310 7d 56 51 be f6 67 1e be 87 63 35 be 44 66 dd bd
       -0.20443149 -0.15469345 -0.17713748 -0.10810521
000320 31 ac 46 be e1 31 39 3c a9 61 e6 be 67 93 94 be
       -0.19401623 0.011303396 -0.44996384 -0.2901871
000330 44 35 15 be 7c e5 84 be b2 ef 97 3d 9c a2 25 be
       -0.145711 -0.25956333 0.07418765 -0.16175312
000340 03 a3 e8 bd 40 b3 b3 be 89 2f 80 be 0e 8d da be
       -0.11359217 -0.35097694 -0.25036266 -0.4268574
000350 16 bb f2 3d 8e 54 07 be 7b c6 fc bd ec 02 ec 3a
       0.1185209 -0.13215849 -0.12342545 0.0018006242
000360 54 6a 86 bd 76 86 45 bc 87 9f d5 bc d4 ad 9f be
       -0.06563249 -0.012055984 -0.026077045 -0.31187308
000370 95 9c 0a 3e db 19 9a bd 50 f1 83 be 61 da 3b be
       0.13536294 -0.07524463 -0.25770044 -0.18345024
000380 88 bc c8 3d cf 81 ff bd 92 92 82 be 94 8f 20 bc
       0.098015845 -0.12475931 -0.2550245 -0.009799857
000390 19 57 c3 3d 99 f3 aa bd da d0 06 bb 12 6f 8a bb
       0.09538097 -0.08347244 -0.0020571263 -0.0042246664
0003a0 7a e4 88 3d 7b 64 ed bd bf 36 22 3e 3e 5f 63 3e
       0.066842034 -0.11591431 0.15841196 0.22204301
0003b0 bf 1b de 3c 44 89 ae bd b2 d6 1b bd f5 f5 f6 bd
       0.02711284 -0.08522275 -0.038046546 -0.12058631
0003c0 b5 43 82 bc 08 a9 80 be 45 b2 d4 3d 13 14 a0 bd
       -0.015901426 -0.2512896 0.10385565 -0.07816329
0003d0 1d 0d d7 bc 6b 8a 07 be 98 dc a2 bd 7c e4 1c bc
       -0.02625137 -0.13236396 -0.07952231 -0.009575959
0003e0 87 22 0c 3e 93 a1 0c 3c 2d 1d 98 3a 86 55 9b 3c
       0.13685046 0.008583444 0.0011605375 0.01896168
0003f0 01 68 7c bd 07 80 bf bd ec bf 2d be 6f aa ab 3d
       -0.061622623 -0.09350591 -0.16967744 0.08382117

embed.embed.2.bias f4 [32]
000000 99 e7 05 3e 2a fc c2 bd ca 4b 16 be 1c be 3a bd
       0.13076629 -0.09520753 -0.14677349 -0.04559146
000010 44 0c ee bd de ac 58 3e 36 bd 0a 3e ff 52 a0 3d
       -0.11623433 0.21159694 0.1354874 0.0782833
000020 1a b9 81 3d 4b 31 45 3e 3a 83 4a be cb 0c 84 bd
       0.063341334 0.19257085 -0.19776621 -0.064477526
000030 6a 50 cc 3d c3 97 96 bb e0 7f 03 3e 46 ee 19 be
       0.09976275 -0.004595728 0.12841749 -0.150323
000040 5c 53 12 3e 7c 19 03 3e 38 06 32 be 9e 72 cf 3d
       0.14289612 0.1280269 -0.17385185 0.10129283
000050 5f 2d 13 be 61 2a 9f 3d 21 e6 53 3d bc e4 12 be
       -0.14372776 0.07771755 0.05173314 -0.14345068
000060 9b 79 a7 3d b6 90 a6 bd 67 3d 1f 3e 2d 05 88 bd
       0.08177491 -0.0813307 0.15550767 -0.06641612
000070 9b c4 38 bd d3 25 48 3e b9 68 e0 3d 83 39 5f 3c
       -0.045109373 0.19545679 0.10957474 0.013624552

input_proj.weight f4 [64, 32]
000000 fc 0d e5 3d 3d 57 0c be 58 d6 28 3e 50 5b ac bd
       0.11184308 -0.13705154 0.16488016 -0.08415854
000010 6e 00 3d 3d 29 3e 7a be 35 da 10 bd 54 b1 63 bd
       0.046142988 -0.24437775 -0.03536435 -0.055589035
000020 c7 c6 c2 3b f1 32 5e 3c c8 24 2b 3e 85 cc 3c 3e
       0.0059441063 0.01356195 0.1671325 0.18437393
000030 5a ed 74 bd 10 48 f0 3d f8 f9 d4 bd c7 3e 3b 3e
       -0.05979667 0.11732495 -0.1039924 0.18285666
000040 20 f3 5c be 8b e0 db bd 93 c3 37 3c ff 5e 17 3d
       -0.2157712 -0.107361875 0.011216062 0.03695583
000050 52 77 e2 3d e5 27 15 3e 42 ee 8f 3d 92 28 78 3e
       0.11057915 0.14566 0.07027866 0.24234226
000060 5c 22 70 3d e0 67 30 3d 6c b4 09 be 0f 2a 5a 3e
       0.058626518 0.043067813 -0.13447732 0.21305107
000070 50 c6 a5 3d 19 d2 d5 bd 88 b0 30 bc b1 09 8a 3d
       0.08094466 -0.104404636 -0.010784276 0.0674013
000080 9f ea 3e 3e d7 d5 68 3d 39 96 9a bc e5 a1 3f 3e
       0.18644188 0.05684456 -0.01887046 0.18714102
000090 8a 78 dc 3d 6b 49 1e 3e 34 aa a5 be 9f d8 13 3e
       0.107651785 0.15457694 -0.32356417 0.14438103
0000a0 fd 2c 86 3e 99 0c 2c 3e c9 a2 f3 3d 06 4f 05 3e
       0.26206198 0.1680168 0.11896283 0.13018426
0000b0 9e e0 1f 3e 59 2d 9d 3d 0f f0 41 3e 3b 23 7f be
       0.15613028 0.07674665 0.18939231 -0.24915783
0000c0 4a 4e 85 3d c7 27 a4 3c d0 f0 b2 3d 5c 43 19 3d
       0.06509073 0.020038499 0.087373376 0.037417755
0000d0 8d 1a 02 bd 45 63 1d bd 64 8c 5b 3d 4e fa ea 3c
       -0.031763602 -0.03842475 0.053600684 0.028683808
0000e0 db 91 21 be 2e 18 88 3d e9 e9 de bd d4 de 9a bd
       -0.15778296 0.06645237 -0.108844586 -0.07562032
0000f0 96 c3 65 be 4c 6a 51 3e 92 03 d8 3d 8b c4 cd bb
       -0.22437891 0.20450705 0.10547556 -0.0062795333
000100 44 16 11 3e 6f cd 9f 3b ca 48 13 be 20 ab 82 bd
       0.1416865 0.0048767845 -0.14383236 -0.06380296
000110 41 c4 1f be d2 72 88 bd 7f 21 b6 bc 53 01 77 bd
       -0.15602209 -0.06662525 -0.022232769 -0.060303997
000120 06 5b 44 3d 00 56 0f be 92 b5 01 3e b2 17 41 be
       0.04793837 -0.1399765 0.1266692 -0.18856695
000130 c2 4b 4c be 13 74 61 bd 57 46 95 3a b9 2a 30 bb
       -0.19950774 -0.055042338 0.0011388761 -0.0026880933
000140 bb d3 5b be fc 71 0e 3e 92 d0 2a 3e 6e b4 d6 bd
       -0.21467488 0.13910669 0.16681126 -0.10483633
000150 85 45 33 bd cc 20 36 bc 50 1c 33 3e 04 ee 1e bc
       -0.04376747 -0.011116218 0.17491269 -0.009700302
000160 08 6f c6 bd 0e cf 52 3e 4c d5 21 3d 76 59 21 3e
       -0.09689146 0.20586798 0.039510056 0.15756783
000170 57 37 ba bd 41 9c 05 be 9b d0 a0 3d b7 de 07 be
       -0.090925865 -0.13047887 0.07852288 -0.13268553
000180 e4 17 2f be cf 0f f7 bd c2 d0 1c be 1b 9d 88 be
       -0.17098957 -0.12063562 -0.1531401 -0.26682362
000190 17 66 9e 3d cb d4 e7 bd 2c 32 61 3e 4b fe 84 3d
       0.07734316 -0.11319884 0.21991795 0.06493815
0001a0 87 13 b2 3d d3 d0 ec 3c b2 82 7c 3d 21 45 5a be
       0.08695131 0.028908169 0.06164808 -0.21315433
0001b0 2a 64 c1 3c fe 0f c9 bd 2c d3 ea 3c b5 10 00 3d
       0.023607332 -0.098175034 0.028665148 0.031265933
0001c0 08 d7 25 bc 99 6f 3e bd 89 c8 7f 3d c0 63 bb bd
       -0.010122068 -0.046493147 0.062447105 -0.09149885
0001d0 25 a7 b9 3d bc 09 08 3d a5 2a 0c bd aa 65 1b 3c
       0.090650834 0.03321241 -0.034220356 0.009484688
0001e0 85 82 23 3b 6b d9 2f 3e fa 8e ad bd 2a 07 c3 3c
       0.0024949622 0.17172782 -0.08474536 0.023807127
0001f0 1d 3c 41 3e 9a de 3e be d7 f5 43 bd f0 17 c0 3d
       0.18870588 -0.18639603 -0.047841873 0.09379566
000200 4f 68 1a be 6f 85 e8 3c 85 03 fc bd 21 b1 04 3d
       -0.15078853 0.028383939 -0.12305359 0.032395486
000210 8f 10 31 3e 40 6b 9f 3d 9b 99 11 3e 15 20 bf 3c
       0.17291473 0.07784128 0.14218752 0.023330728
000220 a5 ec 0a 3e 7f 9a 74 bc 85 ca 4d 3d f9 b7 5e ba
       0.13566835 -0.014929413 0.050241966 -0.0008496042
000230 9e 47 dc 3d 77 0c 59 be cd 10 5b be bf e5 12 3c
       0.107558474 -0.21196161 -0.21393128 0.008965909
000240 6c d0 8f 3d a8 ac 31 3d 93 15 88 3c 3e 93 81 bc
       0.07022175 0.04337755 0.01661185 -0.01581728
000250 db 48 e6 3d 38 a5 57 be cb 7a be 3d b4 7b 18 3e
       0.11244365 -0.2105912 0.09300765 0.14890939
000260 98 de ec bd 11 01 75 3e 06 f0 5c bd 6d 4c b1 bd
       -0.11565894 0.23926188 -0.05393984 -0.08657155
000270 9f bf 44 3e 7f 88 0e be 06 12 5b bd 8a 62 38 be
       0.19213723 -0.13919257 -0.053483985 -0.1800634
000280 98 11 56 be 1c 3d 6e bc d7 d5 4d be cc e0 9c 3d
       -0.20905149 -0.014540937 -0.20101105 0.07660064
000290 44 b7 2d be 87 2b a3 3d c9 be c7 3e 89 7f d3 3d
       -0.16964442 0.079672866 0.39012745 0.1032706
0002a0 50 20 ee bd c6 02 93 be 4d 53 9d bd 91 4e 37 be
       -0.11627257 -0.28713053 -0.07681904 -0.17901064
0002b0 7b 62 08 3d 47 2d eb 3b ee da d1 bd d4 5b b2 bc
       0.033297043 0.0071770283 -0.10246836 -0.021772303
0002c0 dd 3a 08 bd 50 d5 a6 bd 84 58 d4 3d c4 b6 54 3d
       -0.03325926 -0.08146155 0.103684455 0.05193211
0002d0 4a 1b 2d be 75 75 14 3d e3 0f 04 bd cd 1d e4 bc
       -0.16904941 0.03624483 -0.032241713 -0.027846241
0002e0 39 7d 70 3e 31 70 aa bd 38 2e 74 3e b0 f6 78 bd
       0.23485269 -0.0832218 0.23845756 -0.060782135
0002f0 5d b9 4b 3e 38 aa 7d bd a1 46 11 be fa 87 47 be
       0.19894929 -0.06192991 -0.14187099 -0.19485465
000300 fd 81 80 bc e8 6a cd 3c d0 b5 12 3e 70 14 ee 3d
       -0.015686983 0.025075391 0.14327168 0.11624992
000310 e4 37 84 3d ca 7d 18 bd 4d 8c 14 3e 1f 0c b4 3c
       0.06455973 -0.037229337 0.14506646 0.021978436
000320 bd d3 f5 bc 4b 60 97 bd ea b9 fc 3d 4d c8 3e bd
       -0.030008191 -0.07391413 0.12340148 -0.04657774
000330 e8 04 e6 bd 96 36 11 be c4 d7 7f 3d 3d 91 13 be
       -0.112314045 -0.14180979 0.06246163 -0.14410873
000340 a8 e5 e7 3d e8 73 3b 3e 61 1f 30 bd 08 07 1a be
       0.113231 0.18305933 -0.042998675 -0.15041745
000350 fa fd b6 3d 32 a0 0b 3e 20 9c 53 bd 79 1e 18 be
       0.08935161 0.13635328 -0.051662564 -0.14855374
000360 0b 28 06 bd 01 80 2c be 8e 53 39 3d 6e 5e 9c bc
       -0.03275303 -0.16845705 0.0452457 -0.019087996
000370 08 f9 4f bc 72 c2 15 bd 25 d5 14 3d 61 3e 89 3d
       -0.012693651 -0.03656239 0.036336083 0.06701351
000380 00 c6 52 3d ad c1 03 be 18 4c ae 3c 5b 17 1c be
       0.05145836 -0.1286685 0.021276519 -0.15243284
000390 e9 be 8c 3d 7a 4d 58 be 2a a5 18 3e db c2 3f bd
       0.06872351 -0.21123305 0.14906755 -0.046816688
0003a0 74 c9 30 bd f2 9d 11 be 3c ea 67 3d 2e ca 46 3e
       -0.04316087 -0.14220408 0.056619868 0.19413063
0003b0 e9 e2 0e be 2e 7f 08 be df a4 0a 3e ce 5a f4 3d
       -0.13953747 -0.13329765 0.13539456 0.11931382
0003c0 ba 27 1a be 1c 10 47 be cc af 2b 3e e3 d5 13 be
       -0.15054217 -0.19439739 0.1676628 -0.1443706
0003d0 65 a0 f9 bc ed 4c 9f bd fd f8 03 3c 25 86 a0 3d
       -0.03047199 -0.07778344 0.008054969 0.07838086
0003e0 c4 93 bc 3d 8d db 83 3c c0 33 86 bd 40 9d a9 bd
       0.092078716 0.0160959 -0.06552839 -0.08281946
0003f0 bf 62 19 3e d2 c4 4b be 40 16 10 be bf 01 b1 3c
       0.14979075 -0.198993 -0.14070988 0.021607278

input_proj.bias f4 [64]
000000 bf 74 e5 bd 42 75 e1 bc 5d 6e 89 3d 94 de 9d bc
       -0.11203908 -0.027521733 0.06710503 -0.019271173
000010 57 83 f0 bd a3 cd 4d 3e f4 aa 62 3d 5e 07 02 be
       -0.11743801 0.20097975 0.055338815 -0.12698123
000020 cb fd 9b bd d5 ee da bd 21 0c 94 bd a3 dc dd bb
       -0.076167665 -0.10690085 -0.07228876 -0.0067706867
000030 b9 8d d8 3d 62 a9 01 be 8b 68 cb 3d 34 f6 16 be
       0.105739065 -0.1266227 0.09932049 -0.14742357
000040 3f da 16 bd 98 d0 39 bd 66 49 10 be 4e dd e0 bb
       -0.03682923 -0.045364946 -0.140905 -0.006862319
000050 16 bb af bd 0b 62 cd 3c 0d 85 e2 3d 0b 52 b7 bd
       -0.08580606 0.025071165 0.11060534 -0.08951195
000060 99 89 8a bd be 08 b4 3d c3 c1 04 bc d8 b9 76 be
       -0.06764526 0.0879073 -0.008102837 -0.24094331
000070 f4 c1 30 bb e6 31 44 be db d5 07 be 48 3d 00 be
       -0.0026971074 -0.1915966 -0.13265173 -0.12523377
000080 42 26 a1 3d d5 22 e9 bc 76 2e 95 3d ff 96 e8 3d
       0.07868625 -0.028458992 0.07284252 0.11356925
000090 65 8a 3d 3d 7e 62 21 be 95 98 f3 bd 55 85 89 bd
       0.04627456 -0.15760228 -0.11894337 -0.06714884
0000a0 d7 08 a0 bd e3 74 93 3d 35 94 0f bd 42 42 e1 bd
       -0.07814186 0.07200029 -0.03505345 -0.10998966
0000b0 ca bd ce 3d f3 2f db bd 3e 29 2d bd 27 66 75 3d
       0.10094793 -0.10702505 -0.04227566 0.059911873
0000c0 7b 60 a0 3d 0f dd ac 3d af ac 17 bd 2c 5c 37 bc
       0.07830902 0.08440601 -0.03702992 -0.011191409
0000d0 2f a2 a2 bd 32 40 69 bd 3a 87 17 bd ff c9 6d bd
       -0.0794109 -0.056945987 -0.036994196 -0.058053967
0000e0 8a 87 65 bd b6 05 1f bd 3a 50 d5 3d 27 82 1a 3e
       -0.056037463 -0.038823806 0.104156926 0.15088712
0000f0 ce f1 8c 3d 06 76 e7 bc 33 7d e8 bc 4f 12 b7 bc
       0.06882058 -0.02825452 -0.028380012 -0.022347597

msg_layers.0.W_self.weight f4 [64, 64]
000000 d3 d9 eb 3d 46 c2 f0 bd f0 9d a1 bd 37 00 8c 3d
       0.11516156 -0.11755805 -0.07891452 0.068359785
000010 52 ee 0f bd 7b 5a ed bc 80 7a 20 be 30 45 87 3b
       -0.03513939 -0.028973809 -0.1567173 0.004128121
000020 33 0d cd 3d 01 7d f2 3d ee 67 01 3e c5 57 95 bd
       0.10012283 0.11840249 0.12637302 -0.07292131
000030 94 33 9f bc d6 5e 8e 3c 4f d3 66 3d ec a2 47 3c
       -0.019433774 0.017379206 0.056353863 0.01218484
000040 c7 d6 c5 bc 79 8a 1a 3e 31 ff 59 39 96 62 a3 bd
       -0.024150265 0.15091886 0.00020789799 -0.07977788
000050 13 a0 05 bc 49 a8 df 3c 21 04 3f 3d e0 1c 25 bc
       -0.00815584 0.027301924 0.046634797 -0.010077685
000060 76 0b 83 bc 04 83 6d bd 02 9e bd 3d ff a2 3f 3e
       -0.015996676 -0.057986274 0.09258653 0.18714522
000070 5e 55 b7 bd 5f b1 04 3d 25 22 2b bd 14 af 80 3d
       -0.089518294 0.032395717 -0.04178061 0.062833935
000080 26 e0 da bd 33 c7 1b bc 1b be ff ba 34 3f b2 3b
       -0.10687284 -0.009507942 -0.0019511612 0.0054396633
000090 f2 83 4f bd 43 6a f5 3d 84 67 af 3c e3 00 0f 3e
       -0.050662942 0.119831584 0.021411665 0.13965182
0000a0 9c 70 10 3e f2 23 1c bc f0 34 78 bd fe d8 71 bd
       0.14105457 -0.009530054 -0.06059736 -0.05904483
0000b0 e0 8f fb 3c 56 04 96 bd 4c 82 86 3c 08 95 22 bd
       0.030708253 -0.07325046 0.016419552 -0.03969291
0000c0 68 d4 88 3d 9c 30 eb bd 87 21 47 bc 61 f6 b7 bd
       0.06681138 -0.11483881 -0.01215399 -0.0898254
0000d0 76 96 cf bd c2 f3 0f 3e 37 7f 37 bd 35 18 19 be
       -0.1013612 0.1405783 -0.044799056 -0.1495064
0000e0 38 11 10 3c f5 34 cc 3c f7 65 5d bd 10 ef 14 be
       0.008793168 0.024927596 -0.05405232 -0.1454432
0000f0 aa db 30 be 74 8e 02 be 2c 85 4f 3d e4 e6 35 3e
       -0.17271295 -0.12749654 0.050664112 0.17763859
000100 25 6c a6 bd 25 32 f1 3b 03 77 f8 3b 59 ca d7 3b
       -0.08126096 0.007360714 0.0075825467 0.006585401
000110 79 96 a7 bd 58 64 68 3d 0a 85 3f 3c 65 1f c0 3d
       -0.08182997 0.05673632 0.011689434 0.09380988
000120 a7 f7 84 bc c7 3a 11 3d ff 06 e3 bc 77 f4 0b 3e
       -0.016231371 0.035456445 -0.027713297 0.13667475
000130 97 d0 1f 3c 2e 15 50 bd 9d d6 e3 bb d6 6f 85 bd
       0.009754322 -0.05080145 -0.006953074 -0.06515472
000140 d8 ad 9e 3d 58 d8 f1 bd 93 6e 83 bc 06 8c 9a 3d
       0.07748002 -0.118088424 -0.016043937 0.075462386
000150 65 3f bc bc 29 ce ed bb 7f 88 36 bb 58 be a9 3d
       -0.022979448 -0.007257242 -0.0027852354 0.08288258
000160 19 76 1c bc 82 e4 bb bd 86 15 a9 3c 21 c9 0a bd
       -0.009549641 -0.09174444 0.020640146 -0.033883218
000170 68 d3 23 3d 71 c6 df bd fd 9f f4 3d 4f ec be bc
       0.039996535 -0.109265216 0.11944578 -0.02330604
000180 4d 79 b5 3d 42 28 06 bd 68 db 92 bd 50 39 02 bb
       0.08861027 -0.032753237 -0.07170755 -0.0019870587
000190 02 c6 04 3e 28 c9 43 be 9f d5 35 3d 2f 81 cb bc
       0.12966159 -0.19119704 0.044393178 -0.024841873
0001a0 0f f6 a1 bc ee 7d 03 3d 7a f6 2b 3d 69 60 51 3d
       -0.01977065 0.032102518 0.041983105 0.051117335
0001b0 8c cd 2b bd 42 a0 05 be 8e bb 8c 3d d5 78 9c bd
       -0.04194407 -0.13049415 0.06871711 -0.076402344
0001c0 c2 e1 09 3e cd 67 0e 3c 6a fa ab bc eb 1c fb bd
       0.13465026 0.00869174 -0.02099343 -0.12261375
0001d0 5e b0 1c 3d 8b b1 3f 3d 66 59 87 3d 14 e0 74 3d
       0.038254134 0.046800178 0.06608848 0.05978401
0001e0 f5 38 0b ba 6b 34 b2 3d 6c 78 f6 bd 60 da 17 be
       -0.00053109165 0.08701404 -0.120346874 -0.14829397
0001f0 13 ea 81 3c b6 17 96 bb 8e 0a d7 bc 66 6e 39 3d
       0.015858686 -0.0045804633 -0.02625015 0.0452713
000200 13 79 9f 3d fd 51 e2 3d 33 44 65 bd 0a 98 90 bd
       0.07786765 0.11050794 -0.055973243 -0.07060249
000210 6a 4f 9a 3d b3 df 62 3d a5 98 a6 bd 39 07 fd bd
       0.07534678 0.055389117 -0.081345834 -0.12354893
000220 08 5e 90 3d 78 60 1f bd d1 4e 6b bd 6f 77 13 3e
       0.07049185 -0.03891036 -0.057448212 0.14401029
000230 9a d6 f9 3c 29 9f 0c bd fa c8 1c 3e 95 bd 01 3e
       0.030497838 -0.034331474 0.15311041 0.12669976
000240 5b 36 55 bd 48 d0 06 bd 27 5f 0b 3e 6e 0d 4e bd
       -0.05205379 -0.032913476 0.13610516 -0.050305776
000250 b3 a6 96 3d 64 1b 4e 3e cc c9 71 bd e3 fb af 3c
       0.07356014 0.20127636 -0.05903034 0.021482414
000260 15 aa 09 3e 78 6d 67 bd ee 80 11 be 39 a3 aa 3c
       0.13443787 -0.056500882 -0.14209339 0.020829784
000270 af 0d 3a 3c a1 bc c4 bd f5 ee 23 3d 48 64 b5 bc
       0.0113558015 -0.096062906 0.04002281 -0.022142544
000280 98 9a e9 3d 7e ee e6 bd 16 04 a3 bd 2f ca d2 bc
       0.114064395 -0.112759575 -0.07959764 -0.025731174
000290 20 bf 7a bd fc 78 0b bd 5a 1b 26 bd f9 95 5b bd
       -0.061217427 -0.034050927 -0.04055343 -0.053609822
0002a0 7f 97 52 be df b4 5f 3d 55 74 d2 3d 35 95 a5 3d
       -0.20565604 0.05461585 0.10276095 0.080850996
0002b0 4f 37 7a bd 31 6b 84 3d 93 fc 7a bd 87 93 ed 3d
       -0.061087903 0.06465758 -0.06127603 0.11600404
0002c0 04 3a 3e 3d 8c 96 12 bd 3b 55 75 3d ef 28 a9 3d
       0.046442047 -0.035788104 0.059895735 0.082597606
0002d0 38 00 55 3d 00 ef 88 3d d3 ef 02 3e fa 69 89 bd
       0.05200216 0.06686211 0.12786798 -0.067096666
0002e0 71 86 b4 bc e9 e6 36 bd d8 78 1c 3d 74 fe 9b 3d
       -0.022036763 -0.044653807 0.038201183 0.076168925
0002f0 c6 02 c3 bd 5c 5a 5a bd 42 48 0d 3c d0 56 2c bd
       -0.09522013 -0.05330883 0.008623185 -0.04207498
000300 04 58 11 3d 31 71 1d 3d 47 79 2a 3e eb 40 78 3d
       0.03548433 0.038438026 0.16647826 0.060608786
000310 05 31 f1 ba 51 bd 4b bc a1 3e 44 3c e3 5a 31 3c
       -0.001840145 -0.012435273 0.0119778225 0.010824892
000320 c5 93 e5 3d 3f 95 d4 3b 23 2a 2a bd f9 89 4e bd
       0.112098254 0.006487518 -0.04154409 -0.05042455
000330 77 43 c4 bd 46 ac cc bb 51 e5 04 be cb 38 66 bd
       -0.095831804 -0.0062461225 -0.12978102 -0.056206506
000340 4f 05 c4 bc 6f e1 1a 3d 75 70 b9 ba 01 8f 5f bd
       -0.023928313 0.037812646 -0.0014147895 -0.05457974
000350 5e 43 26 be c5 f5 b9 bc 00 af e9 bb 00 f7 62 bd
       -0.16236636 -0.0227002 -0.0071314573 -0.05541134
000360 5b 3d 35 bd bb a8 91 bc 99 4c db bc fc 00 f1 bd
       -0.044247966 -0.017780652 -0.026769923 -0.11767766
000370 7e c8 ff bd ff 65 8c bd b1 b8 d8 3d 97 2c d7 3d
       -0.12489413 -0.06855392 0.10582102 0.10506552
000380 04 20 c1 bd 45 ab 9e 3c ff 0c 03 be f8 c1 27 be
       -0.094299346 0.019368777 -0.12797926 -0.16382587
000390 71 09 17 bd 1c 1d a9 bd 99 db 08 be a3 61 34 bc
       -0.03687424 -0.08257505 -0.1336502 -0.0110096065
0003a0 71 f2 54 3d 49 3c 3d be c6 29 23 bd 9e a2 25 3c
       0.051989023 -0.18480028 -0.03983476 0.010109572
0003b0 d9 5e 13 bc b1 92 a6 3c 64 97 bc 3c 7c 2a 11 3d
       -0.008994781 0.02033362 0.023021407 0.035440907
0003c0 e0 e9 0d be 6d a3 3d be e1 f1 a5 bd 72 2a dd bb
       -0.13858747 -0.18519373 -0.08102775 -0.0067494446
0003d0 66 f1 01 be 28 0a 9b 3c aa f3 ad 3d 58 81 a3 bd
       -0.12689742 0.018925741 0.08493741 -0.07983655
0003e0 bf 9c 14 bd 6e 71 7e 3d d4 17 90 bc ee ac 85 3d
       -0.036282297 0.062119894 -0.017589487 0.06527124
0003f0 b5 2a 11 bc 95 bb 38 3e 45 52 ea bd 43 9f ae 3d
       -0.00886028 0.18040307 -0.11441473 0.085264705

msg_layers.0.W_self.bias f4 [64]
000000 46 11 20 3d e3 a6 08 3e 10 e1 4a bc 71 9e e8 3d
       0.039078973 0.13344912 -0.012382761 0.11358345
000010 8c 0f 34 3c 76 45 a8 3d d3 67 18 3d a6 46 20 be
       0.010990035 0.082163736 0.03720839 -0.1565195
000020 29 b6 21 3e ef 15 f9 bb 88 ec a9 3d 65 ff 05 3e
       0.15792145 -0.0076014916 0.08297068 0.13085707
000030 a6 51 56 3d 53 f1 90 bc 2e 51 bc bd ee d4 2c be
       0.05232396 -0.017693197 -0.09195171 -0.16878101
000040 43 3d b0 3c 04 9b cc bd 12 2f dd bd 2d 63 af 3d
       0.021513587 -0.099905044 -0.107999936 0.08563838
000050 00 72 7f 3d 2e 7a b8 3d 4b 7a c2 3d 3a b4 6c 3d
       0.06236458 0.09007679 0.09495982 0.057789065
000060 e8 18 ab 3c 19 ff be 3d 89 94 30 be c3 a9 5e be
       0.0208859 0.09326 -0.17244162 -0.21744446
000070 60 12 66 3e dd cb 98 bc ed e2 cc bd e0 86 06 bd
       0.22467947 -0.018651897 -0.1000422 -0.03284347
000080 e2 b8 64 bd 0c 0d 16 bd 3b a1 98 3d 62 5a f4 3d
       -0.05584038 -0.036633536 0.07452627 0.11931302
000090 c2 aa 0c bd 1e 69 d8 3c dd bc 85 3b 81 72 cf bd
       -0.034342535 0.026417311 0.004081352 -0.10129262
0000a0 e6 22 00 3e 2a 7a f3 bd af 4b 1d 3e 0f 20 bb 3c
       0.12513313 -0.11888535 0.15360902 0.022842435
0000b0 60 34 d8 3d 27 bc fd bd 01 16 17 be 4d 59 ba 3d
       0.10556865 -0.12389403 -0.14754488 0.09099064
0000c0 af 49 98 bd 37 f0 b2 bd 55 68 a5 3d 9b fe 14 3e
       -0.07435929 -0.087372236 0.080765404 0.1455025
0000d0 0d 41 e4 3d b1 4e ee 3d ae 48 12 be c9 a7 a0 bb
       0.1114522 0.11636103 -0.14285538 -0.004902814
0000e0 17 b7 99 3d ed 0a 27 be 45 ca 92 3d 33 e8 56 bc
       0.07505625 -0.16312762 0.07167486 -0.013116884
0000f0 48 48 82 bc 1c 51 88 bd 0e 2f b3 bd bf 43 06 be
       -0.015903607 -0.066560954 -0.08749209 -0.1311178

msg_layers.0.W_msg.weight f4 [64, 64]
000000 82 ed 6d bd f1 83 e8 bd be ff be 3d 94 8b 13 3e
       -0.058087833 -0.11353291 0.09326123 0.14408714
000010 dc 39 97 bc 1e 73 70 3d 2d 24 fb 3c e7 28 0f 3e
       -0.018460207 0.058703534 0.030656898 0.13980447
000020 03 6e 38 bd 27 db ad 3d 25 98 cc bc 20 55 e8 bd
       -0.04502679 0.084890656 -0.024974892 -0.11344361
000030 16 20 1b 3e 33 ff 17 bd 08 58 11 be 4a 77 f8 bd
       0.15148959 -0.03710861 -0.14193738 -0.121321276
000040 b2 e1 15 3e de eb fe bc 38 85 c2 bd 63 4a 93 bd
       0.14636877 -0.03111833 -0.09498066 -0.071919225
000050 9c c4 0b 3e 23 8f 1a be 51 e7 dc bd 46 1a 11 bc
       0.1364922 -0.15093665 -0.107863076 -0.008856362
000060 6e 62 50 bd 9e 78 ae 3c af 86 30 bd 33 8c e6 bd
       -0.05087512 0.02129775 -0.043097194 -0.1125721
000070 9a dd a7 3d 0f 53 af 3d c3 2b e3 bd a4 ac cd 3d
       0.08196564 0.08560764 -0.11092331 0.10042694
000080 b9 73 d1 3c 05 e1 b5 3d d3 04 ad 3d 4a a1 a9 bd
       0.025567876 0.0888081 0.08448186 -0.082827166
000090 66 cb db 3c 01 99 d5 bd a4 5d ab bd ee 1b 12 be
       0.026830386 -0.10429574 -0.0836747 -0.14268467
0000a0 3f 2d 15 3e da fd b6 bc 7b fb 0e 3d f2 9a b5 bd
       0.14568041 -0.022337843 0.0349078 -0.08867444
0000b0 b2 0f 11 3e 2e f0 09 bd 1f 94 62 3d 15 d0 0c be
       0.14166144 -0.03367632 0.05531704 -0.13751252
0000c0 54 8c dc bb fd 9e 68 bd 15 80 4e 3c 4d f6 15 be
       -0.0067305956 -0.056792248 0.012603779 -0.14644738
0000d0 30 7f 93 3d 72 fd 81 bb cc 1b a0 bb 40 85 ad 3d
       0.072019935 -0.0039669806 -0.004886126 0.08472681
0000e0 db 04 9c 3d fd dc f3 bd 86 c6 c3 bd 9c 29 17 bd
       0.076181136 -0.119073845 -0.0955935 -0.036904916
0000f0 33 0a 6e bc 02 ba 4b bb f9 09 db bb 42 32 c0 bd
       -0.014528799 -0.003108621 -0.0066845384 -0.09384586
000100 b9 75 07 be 88 64 39 be 9c af ce 3d 15 30 67 3e
       -0.13228501 -0.18104756 0.100920886 0.22576936
000110 99 aa bb 3d 8d 3d ec 3d 31 a4 9a 3d 42 a7 f3 3d
       0.09163398 0.115351774 0.07550848 0.11897136
000120 e8 a8 85 be ba 4b e0 bc 3c 3d 0c be 30 43 95 3d
       -0.26105428 -0.02737986 -0.13695234 0.072882056
000130 c7 8e 0a bc 92 8e 4e be b9 54 7b 3d 47 05 09 bd
       -0.008456892 -0.20171574 0.061360095 -0.0334523
000140 d1 e6 00 3e dd 50 e2 bc 50 17 c1 3d 67 25 48 be
       0.1258805 -0.02762645 0.09428275 -0.19545518
000150 7d 3f 9b 3d 31 7a 5f be 4e 46 e8 bc af 5e 0c be
       0.07580469 -0.21823956 -0.028353836 -0.13707994
000160 0a 04 dd 3c 34 ef 8c 3d 87 44 da 3d 6b a9 c9 bd
       0.026979465 0.06881562 0.10657602 -0.09846767
000170 c0 35 32 3d dc 2a 38 3e 3f d1 ef bd 78 dd ef 3d
       0.04350829 0.179851 -0.117098324 0.11712164
000180 38 91 0d 3e e0 87 6f 3e 88 8d b2 3d 4e df 13 bd
       0.13824928 0.23391676 0.08718401 -0.03610163
000190 5c f3 14 3c 3e b7 a3 bd aa ca ac 3d 33 40 f6 bd
       0.0090912245 -0.07993935 0.084370926 -0.12023964
0001a0 4e ed 21 3d d8 0d b8 bd 87 96 04 be 70 94 5f bd
       0.039532952 -0.089870155 -0.12948047 -0.05458492
0001b0 40 3e 3d 3e a3 9a ed bd ea f1 96 3d 24 4e e0 3c
       0.18480778 -0.1160176 0.0737036 0.02738101
0001c0 01 d8 bd 3d da 2f 02 3e c7 ee 82 3e 73 ba 92 bd
       0.09269715 0.12713566 0.25572798 -0.071644686
0001d0 dd 4f e9 3d 2d 90 fe bd 90 3f 45 bd d5 f2 ea 3c
       0.11392186 -0.12429843 -0.04815632 0.028680244
0001e0 51 67 bf bd 2f 57 4e be 86 f7 88 bc 3c f2 85 3d
       -0.09345878 -0.20150445 -0.01671959 0.06540343
0001f0 d9 7a cb bd 9f 01 cf 3d 89 71 34 3e 88 e0 1b be
       -0.09935541 0.10107731 0.17621435 -0.1522237
000200 78 23 e2 3d 49 7b d1 3d f0 15 b8 b9 c4 cb 8e bc
       0.110419214 0.10228593 -0.0003511156 -0.017431147
000210 49 c1 b7 3c b6 4f 04 be 4b 27 b2 3d c0 8e 17 3e
       0.022431033 -0.12921032 0.08698901 0.14800549
000220 19 17 05 3d b6 59 af bc 33 7b 6d bc 68 0e d5 bd
       0.03249273 -0.021405082 -0.014494705 -0.104031384
000230 5f b7 19 bb 2e dc 46 3c 03 e4 0a 3c 25 c0 f6 bd
       -0.0023455245 0.012137456 0.008477214 -0.120483674
000240 38 95 84 bd 00 f9 03 be 5e 35 8b bd af 9d 87 bd
       -0.06473774 -0.12887955 -0.06797288 -0.06621873
000250 1b 00 d5 3c 2d f7 3f 3d 45 32 22 3c 9e 6b ca 3b
       0.026001027 0.046866585 0.0098996805 0.0061773797
000260 a0 a2 05 3e 1f 5b 0e 3d 4e 05 1a bb 0f 7e 0e 3e
       0.13050318 0.03475487 -0.0023501697 0.13915275
000270 e8 44 a0 bd fc b9 64 3d 89 86 ba bd 46 9e df bc
       -0.07825643 0.05584143 -0.09107692 -0.02729715
000280 76 3d 97 bd 9e ed fa 3d b3 b6 21 bc 81 b1 13 bd
       -0.073847696 0.12252353 -0.009870219 -0.036057953
000290 f3 d2 b3 bd 6a 81 a3 bc 84 6a 8c bb 05 f5 9c 38
       -0.0878047 -0.01995917 -0.0042851586 7.484298e-05
0002a0 79 fc 98 3d 6c 96 80 bc 88 dd d1 bd a9 eb 20 3d
       0.0747003 -0.015696727 -0.10247332 0.039287243
0002b0 e7 63 8a bd c8 c4 4f bd a6 ed 90 bd e6 45 b4 3d
       -0.06757336 -0.050724775 -0.07076578 0.088023946
0002c0 fb 8e 0f 3e 08 f9 a4 3a 44 88 37 bc 2c 57 2e bc
       0.14019386 0.0012586424 -0.011201922 -0.010640901
0002d0 da 95 80 bd 5b 12 94 bd a4 58 ca 3c 25 61 91 bd
       -0.06278582 -0.072300635 0.02470047 -0.07098607
0002e0 a0 4a d2 3d 9e cd 9c bd 82 4a 2c be e1 96 cb bd
       0.1026814 -0.07656406 -0.16825297 -0.09940887
0002f0 5d 9d e8 bd 1b ef e4 bd 17 98 7e bd c0 a8 a6 3b
       -0.1135814 -0.11178418 -0.062156763 0.0050860345
000300 f1 98 9d 3d b3 34 8e 3d b9 f7 29 bd 46 c1 ca bd
       0.07695187 0.06943645 -0.041496012 -0.09900145
000310 0c 9a 91 bd bf 62 33 3d b3 cc e1 bd cc 46 0b 3e
       -0.0710946 0.043795343 -0.110253714 0.13601226
000320 71 3e 95 bd 27 f5 34 bd 97 0d c7 bd 74 5c c9 3b
       -0.072873004 -0.044179108 -0.09719389 0.0061450545
000330 71 a7 d0 bd 47 8a 9e bc c4 02 df 3c 20 7a 95 3b
       -0.10188187 -0.019353045 0.027222998 0.0045616776
000340 c7 7d 46 bc 9a 41 59 bc f1 b7 e1 3d 2a 41 34 bd
       -0.012114949 -0.01326027 0.11021412 -0.044007458
000350 ed be 18 3e 30 61 0b be be 1a 45 3d 19 ab c8 bd
       0.14916582 -0.13611293 0.048121206 -0.09798259
000360 51 c5 ab 3a dd 38 43 3d e5 ff d9 3d 35 87 86 bd
       0.001310507 0.04766165 0.10644511 -0.065687574
000370 74 32 b1 3c f5 cc ec 3d 25 3c 85 3c 01 6a cb 3b
       0.021630503 0.1156253 0.01626403 0.006207705
000380 28 b1 a7 bd 21 a5 f9 bc 4c b4 7d 3d 67 89 d2 3d
       -0.08188087 -0.030474247 0.061939523 0.10280114
000390 8e 87 b3 bd 25 33 9b bc dc 13 d9 3c ad 1b f4 3c
       -0.087660894 -0.018945286 0.026498728 0.029798353
0003a0 2d 0b a5 bd 0d 52 27 bd fc f9 30 3c b8 96 58 bc
       -0.08058772 -0.040849734 0.010801788 -0.013219528
0003b0 de 77 17 3e 11 98 09 bd 51 c1 82 bc a0 5d 9b 3b
       0.1479182 -0.033592287 -0.015961321 0.0047413856
0003c0 43 7d ca 3d 6d 6d 2c 3d 8a 01 3b 3e 3f 11 8b bb
       0.09887173 0.042096544 0.18262306 -0.0042439993
0003d0 66 23 03 be 9a ec ce 3d da 9b 96 bd 40 a8 8b bd
       -0.12806472 0.10103722 -0.07353945 -0.068192005
0003e0 56 68 eb 3c 5c b6 db bd 88 73 16 3d d9 dc 57 3c
       0.028736275 -0.10728142 0.036731273 0.013175213
0003f0 d0 b3 20 bd f3 15 87 bc 13 60 91 3d 71 64 3c bd
       -0.039233983 -0.016489958 0.07098403 -0.045994226

msg_layers.0.W_msg.bias f4 [64]
000000 7d 7a ec 3d c4 35 30 3d 7b b3 81 3d 77 d7 dd bd
       0.115468 0.043020025 0.06333061 -0.10832112
000010 51 98 d2 3d 90 d5 20 be 32 fa 01 3c 52 2e 8c 3d
       0.10282958 -0.15706468 0.007933186 0.068447724
000020 f8 85 dc 3b b5 e9 da bd f4 17 12 3e 0f e1 c3 3d
       0.0067298375 -0.10689107 0.1426695 0.09564411
000030 18 d1 ba bd f6 08 8b 3d 3c b5 a2 bd cc ca 3c bd
       -0.09121913 0.067888185 -0.07944724 -0.04609184
000040 33 78 dd bd 09 02 81 3d df e5 08 3e fd e1 81 3c
       -0.10813942 0.06299216 0.13368939 0.01585483
000050 ea ed bc bc 2f 08 4d bd 3d cd 47 3c 8e ff 65 3d
       -0.023062665 -0.050056633 0.012194929 0.05615192
000060 7c 12 e2 bd 48 5c 11 3c a3 23 cf 3d e2 9f d5 bd
       -0.11038682 0.008872099 0.10114219 -0.10430886
000070 e8 bf d5 3d fa f3 15 3b 9e 40 84 3c f1 92 36 3e
       0.10436994 0.0022881017 0.016144093 0.17829491
000080 fa 27 0e be ff 34 a0 3d e0 45 0f bd 2f 32 13 be
       -0.13882437 0.07822608 -0.034978747 -0.14374612
000090 f4 eb 1b bd 75 12 91 3d b6 e4 6e 3d 67 c0 d4 bd
       -0.03806682 0.070835985 0.058323584 -0.1038826
0000a0 db b7 02 bd 4e 48 19 3d d5 7a e3 bd ec 14 1a be
       -0.03191362 0.03742247 -0.11107413 -0.15047044
0000b0 9f 61 9d bd c0 a2 27 3e 36 59 03 3c 8e 3b a6 bb
       -0.07684635 0.16370678 0.008016875 -0.0050730174
0000c0 5c a0 55 bd b7 3f 8d 3d b5 04 1f 3e c9 0a 08 3e
       -0.052154884 0.06896918 0.1552914 0.13285364
0000d0 5f 6d 04 be ce 9e c9 bb fd f1 6a be 1c 9c 07 be
       -0.12932347 -0.006152964 -0.22943874 -0.13243145
0000e0 98 79 ce 3d 37 47 04 3d 63 62 ca 3c 82 07 d6 3d
       0.10081786 0.03229448 0.024705118 0.10450651
0000f0 35 f1 a8 bc 8e aa 7a 3c b2 8e ea bd 24 25 9a bd
       -0.020622829 0.0152994525 -0.11452998 -0.07526615

msg_layers.0.norm.weight f4 [64]
000000 e1 70 7f 3f e4 af 90 3f 8a 84 6a 3f 6b 39 6e 3f
       0.99781615 1.1303678 0.9160849 0.9305636
000010 96 a9 63 3f c9 a7 89 3f e9 94 4a 3f e7 55 7a 3f
       0.8893064 1.0754329 0.7913347 0.97787327
000020 0c 19 71 3f e8 80 7d 3f c6 05 8e 3f f6 2d 63 3f
       0.94178843 0.9902482 1.1095512 0.88742006
000030 28 74 86 3f 96 9c 89 3f 01 bb 84 3f 12 e2 8e 3f
       1.0504198 1.0750911 1.0369569 1.1162741
000040 81 5e 7a 3f 8d 8f 81 3f 36 06 7c 3f 6f 9c 66 3f
       0.9780045 1.0121933 0.9844698 0.9008245
000050 64 2f 6b 3f cd 9a 86 3f d5 19 64 3f b5 8a 78 3f
       0.9186919 1.0515991 0.89101917 0.9708665
000060 5b f0 6a 3f 4e 5b 74 3f c5 91 77 3f 62 de 92 3f
       0.91773003 0.9545182 0.967068 1.1474116
000070 48 30 5d 3f e0 9b 8a 3f a2 fc 6f 3f 5b a0 88 3f
       0.86401796 1.0828819 0.9374486 1.0673937
000080 c4 52 80 3f 08 19 8a 3f 18 fd 73 3f 39 4c 77 3f
       1.0025258 1.0788889 0.95308065 0.9660068
000090 41 90 46 3f 3c ef 6c 3f 4c 50 6d 3f 8e 4c 86 3f
       0.77563864 0.9255254 0.9270065 1.0492113
0000a0 88 99 5c 3f a3 09 7a 3f 59 cc 77 3f fe c9 4c 3f
       0.8617177 0.97670954 0.96796185 0.79995716
0000b0 23 c8 84 3f e5 e2 8d 3f 9c 44 8e 3f 87 0d 8a 3f
       1.0373577 1.1084868 1.1114688 1.0785378
0000c0 2d 6e 43 3f cc 3b 7b 3f fb 28 7b 3f 8b e6 68 3f
       0.7633999 0.9813812 0.98109406 0.9097678
0000d0 cb 30 72 3f af cb 53 3f e1 cd 7f 3f a2 71 76 3f
       0.946057 0.8273267 0.9992352 0.9626714
0000e0 d2 7d 71 3f a6 b1 6b 3f 71 92 80 3f 1f 8a 83 3f
       0.9433261 0.92067945 1.004469 1.0276526
0000f0 83 12 8c 3f cb d7 6f 3f 4d 37 89 3f 03 48 77 3f
       1.0943149 0.9368865 1.0720001 0.96594256

msg_layers.0.norm.bias f4 [64]
000000 87 74 31 bd e1 95 98 bb f5 1c 7f 3d b5 38 a0 3c
       -0.04332402 -0.004656539 0.062283475 0.01955829
000010 68 72 9b 3d c2 35 b8 3c 25 cd d5 3d 14 d2 6b bd
       0.07590181 0.022486571 0.10439519 -0.057573393
000020 aa 45 19 3e 5b 81 67 ba 76 fe 15 bd d8 fa 72 3d
       0.14967981 -0.0008831226 -0.036619626 0.059321254
000030 ad bd cb 3d d4 1f b7 bd 4b 9f 33 3c 72 25 6c bd
       0.09948287 -0.089416176 0.010963271 -0.057652898
000040 14 87 0b 3d 2c f5 7d bd 47 ae 2f bd d7 ee cd 3d
       0.034064367 -0.062001392 -0.042890813 0.10055321
000050 76 23 7e 3d 4d 3e 87 3c 4e 41 29 3e 60 d1 8c 3c
       0.062045537 0.0165092 0.16528818 0.017189682
000060 cb 40 b8 3d 82 33 87 bd 31 fc 42 bd eb ab c0 bd
       0.08996733 -0.06601621 -0.04760379 -0.09407791
000070 d1 38 08 3e cf a6 41 bd 72 b9 ef 3c ea 84 34 bd
       0.13302924 -0.04727822 0.029263232 -0.04407207
000080 0d 5b ac 3a 0c 0a d5 bc 6a 9c 3c 3d 1e 78 a8 3d
       0.0013149694 -0.026005767 0.046047606 0.082260355
000090 1a 28 c6 3d 31 5d 45 bc 2a 6a 1a 3d 21 85 ac 3c
       0.096756175 -0.012046144 0.037698902 0.021059575
0000a0 70 3f 01 3e 50 e1 48 3d 86 25 50 3d 5e ee e5 bc
       0.12621856 0.049043 0.050817035 -0.028067764
0000b0 dc 1d cd 3d da 18 6a bd 89 14 ca 3c 97 8f 53 3d
       0.10015461 -0.057152607 0.024667995 0.05165061
0000c0 e9 c5 f2 3d 1d 7d b3 3c 36 99 d0 bd 88 4c c0 3d
       0.118541546 0.021910245 -0.10185473 0.09389597
0000d0 42 46 b0 3d 74 c5 a9 3d 4b 57 87 3c b4 84 12 3e
       0.086071506 0.08289614 0.016521117 0.14308435
0000e0 6d 08 2a 3e 91 ef a8 3c 9d 7e 4b bd 61 04 01 bd
       0.16604777 0.020622047 -0.049681295 -0.031498317
0000f0 82 30 ec 3c c0 50 29 bd 0c 82 61 bd bd 9b ed bc
       0.028831724 -0.041336775 -0.055055663 -0.029004926

msg_layers.1.W_self.weight f4 [64, 64]
000000 aa 10 e9 bc 80 c5 cc 3d 88 63 c6 3d e2 a6 7c bc
       -0.028450329 0.09998608 0.09686953 -0.015420647
000010 11 26 ae 3d 67 cd ec bd 79 de 5b bd 27 16 be 3d
       0.08503354 -0.11562615 -0.053678963 0.09281569
000020 99 a3 13 be 16 e0 2d be ec 00 f5 3d a2 a0 19 bd
       -0.14417876 -0.16980013 0.119630665 -0.037506707
000030 21 42 0f be 30 e7 10 3e cc 4d 10 be bc 3a 56 3c
       -0.1399007 0.14150691 -0.14092177 0.013075527
000040 b5 81 8f bd f7 8e 28 3e 47 c4 1f bd 6b 78 be bd
       -0.070071615 0.16460787 -0.039005544 -0.09300312
000050 ce 57 ba bd 87 9d da bd 5a 00 01 be 1b 95 fe 3d
       -0.09098779 -0.10674577 -0.1259779 0.12430783
000060 c6 c6 93 bd 57 3f c2 bd a8 21 f4 3d fa 82 b0 3d
       -0.072156474 -0.09484737 0.11920482 0.08618732
000070 fe 7f 83 bd c4 0d 83 bd ac 0e 7a bd 9f a8 73 3e
       -0.06420897 -0.0639911 -0.06104915 0.23794793
000080 91 13 9a bd bb 01 b9 bd 1f 59 11 3d 0d 2e 9f bd
       -0.07523263 -0.09033533 0.035485383 -0.07772455
000090 0e 39 f8 bc f4 05 24 be 0f 5e 98 3d 14 f3 c2 3d
       -0.030300643 -0.16017896 0.07439815 0.0951902
0000a0 f3 45 54 bd fd 36 0b be ac 6e b1 bd f5 3b 89 3d
       -0.05182452 -0.13595195 -0.08663687 0.06700889
0000b0 7f 09 a5 bc 35 7d ac 3d 72 a8 eb 3c 52 a0 a6 bd
       -0.02014613 0.08422319 0.028766844 -0.081360474
0000c0 29 5c e8 bd 26 cd df 3d f8 43 ae 3d ad 99 c2 bc
       -0.11345703 0.10927801 0.08509058 -0.023754919
0000d0 f2 f2 a2 bd ee 2f c5 3d 45 50 b7 3d 04 06 8e 3c
       -0.079564944 0.096282825 0.08950857 0.017336853
0000e0 3b 4e a0 bd c6 31 b4 3a 5b 28 23 3e bf 8a 1c 3e
       -0.07827421 0.0013747744 0.15933363 0.15287302
0000f0 50 58 51 3c b2 f4 49 3e 2e 62 4f 3d 80 7f 65 bd
       0.012777403 0.1972225 0.05063074 -0.056029797
000100 fc 41 38 3d ad c6 a4 bd 9b 6d 25 3c c3 f9 83 3d
       0.044984803 -0.08045707 0.010096933 0.06444123
000110 72 59 bb bc bd 59 cc ba db 07 75 3e 37 cf bb 3d
       -0.0228698 -0.0015590709 0.23928778 0.091703825
000120 64 ae 3a 3d 88 8d ee 3c f0 f4 fb 3a 7b 34 07 bc
       0.045576468 0.029120222 0.0019222777 -0.008252258
000130 ea e2 74 bc 0b 77 7d be 6e 78 d4 bd 43 00 0d bd
       -0.014946679 -0.24752443 -0.10374533 -0.034424078
000140 44 1f bb 3c 59 2c 97 3c c4 05 4a bb 39 1b 29 bd
       0.022842057 0.018453764 -0.003082619 -0.041285727
000150 ea 1b 85 3e 62 a9 ab bd 06 eb 79 bd e8 41 99 bc
       0.2599786 -0.083819166 -0.06101515 -0.018708184
000160 74 89 9f bd 53 db 65 3e 75 0f 90 3c 25 fc 20 be
       -0.07789889 0.22446947 0.017585495 -0.15721186
000170 1e 13 3b 3e 84 4c ee bc 3c d4 fe bd 70 b3 7c 3e
       0.18269011 -0.02908922 -0.12442824 0.24677825
000180 ef df 68 bb 79 8c 81 3c b6 d1 48 3e 8d d9 d8 3d
       -0.0035533865 0.015814053 0.19611248 0.105883695
000190 00 cd 63 3d 8e 95 6b bc 6f 26 99 bd 11 f2 25 be
       0.055615425 -0.014378918 -0.07478034 -0.16205622
0001a0 c0 6f 8d bd b6 50 1b 3c 99 07 b5 bd c9 01 2a 3e
       -0.0690608 0.009479692 -0.0883934 0.16602243
0001b0 aa 2c 0f 3c e0 6c 2a bd dd f9 83 3d 1c bc e6 bc
       0.008738676 -0.041607738 0.06444142 -0.02816587
0001c0 84 f0 c8 bd bf c1 5c 3e a8 60 2e 3e d4 41 a6 3e
       -0.098115 0.21558283 0.17029059 0.32472098
0001d0 2d 5d 84 3c 7b 5e 06 3e f5 af a5 bd 21 d0 99 3c
       0.01615771 0.13121979 -0.08090202 0.018776001
0001e0 0d fd 3f 3d 97 78 42 be fc 32 0d 3e 1d f3 30 3e
       0.046872187 -0.18991314 0.1378898 0.1728024
0001f0 d4 34 33 be 13 ae 08 be 76 d4 15 bc de 2d 15 bd
       -0.17500621 -0.13347654 -0.009144893 -0.036420695
000200 9b 49 08 be 76 dd 8a bc f5 0e cc 3d 56 c6 07 3d
       -0.13309328 -0.016951304 0.0996379 0.033148132
000210 65 c3 e3 bd 95 71 b2 bd 62 bd 35 be 6b 5f 8a bc
       -0.11121253 -0.0871307 -0.17748025 -0.016891202
000220 d3 91 44 3d 52 a8 4a 3e 1e 2d e5 bd a2 95 44 3d
       0.04799063 0.19790772 -0.11190246 0.047994263
000230 14 13 39 be 0d 80 a2 b9 45 21 30 3d 58 c9 59 bb
       -0.18073684 -0.00030994453 0.04300048 -0.0033231582
000240 4b a9 5f be 4b 2a e4 bd 3c 41 41 bc a9 e9 b6 3d
       -0.21841924 -0.11140879 -0.011795338 0.08931286
000250 0e 3d b3 bd e6 bb 98 bc 11 5e 8b 3d 87 bf 21 3d
       -0.0875188 -0.018644284 0.06805051 0.039489295
000260 05 61 65 3d ae 57 f6 bc d8 bc 3f bd 67 29 6a 3d
       0.05600073 -0.030071106 -0.046810955 0.05716839
000270 25 bf 90 bc 1f d2 eb 3d a5 55 57 3e a0 f4 93 bd
       -0.01766927 0.11514687 0.21028765 -0.07224393
000280 ed 72 b2 ba 4a 4a 0f bc e5 77 de 3d f7 03 2b bd
       -0.0013614573 -0.008745739 0.10862712 -0.041751828
000290 ac 5e dc 3d 19 0b 30 3e 12 4f 3b 3d 3b 57 4f 3e
       0.10760245 0.17191733 0.045729704 0.2024812
0002a0 1f b7 9a 3c 43 31 43 bd a2 f1 07 3e e3 86 8b 3d
       0.018886147 -0.0476544 0.1327577 0.06812837
0002b0 9f 8f 66 3b 6a 28 0a 3d db 57 06 bd 83 40 8f 3c
       0.003518082 0.033729948 -0.03279863 0.017486816
0002c0 19 79 f0 bc 97 8f 42 be 39 d1 0f be d6 43 ab bd
       -0.029354619 -0.19000088 -0.14044656 -0.08362548
0002d0 4d 6f 4c 3d 71 bb 15 be 0d f6 86 3d 90 0a ac bd
       0.049910832 -0.14622284 0.06589899 -0.08400452
0002e0 40 cd 8b 3d 5b 7b eb bd 49 d9 51 be 78 01 27 be
       0.06826258 -0.114981376 -0.20493044 -0.16309154
0002f0 97 c9 88 bd 71 05 d9 bd 2a c1 c7 bd 7f 41 c6 3d
       -0.06679075 -0.10596741 -0.0975364 0.09680461
000300 96 28 d9 bc b6 aa 4b bd 44 0c 2f 3d 5e e0 8b bd
       -0.02650861 -0.04972335 0.042736307 -0.06829904
000310 34 8e b4 bc d0 07 1f be 03 46 dd 3d 51 b2 87 bd
       -0.022040464 -0.15530324 0.10804369 -0.06625808
000320 59 c1 b0 3d d7 78 d8 3d 86 59 34 bd a9 a3 8f 3d
       0.08630628 0.10569923 -0.04403069 0.070136376
000330 61 e7 b2 bc 26 23 9a 3c 29 13 cc 3c 9f bb 2e bd
       -0.021838846 0.018815588 0.02491148 -0.0426594
000340 ca 33 b2 3d 5f 91 12 3e 9d b6 b0 3d 6d b3 ac bd
       0.08701284 0.14313267 0.08628581 -0.0843266
000350 6e 3d f2 bb 2a 54 8a 3d cd cb c1 3d b2 1f 29 3d
       -0.007392577 0.06754334 0.094627 0.041289993
000360 28 84 93 ba a5 55 bd 3d de 7b de bd e5 07 99 bc
       -0.0011254596 0.09244851 -0.108634695 -0.018680522
000370 65 d1 44 bc e0 42 57 3d 09 3c 52 3e 88 97 a0 bd
       -0.012012814 0.05255401 0.20530714 -0.07841402
000380 72 4d 94 bd f0 c6 e3 bc 25 79 db 3d 86 97 8d 3b
       -0.07241334 -0.027804822 0.10716466 0.0043210415
000390 48 e8 d5 3d 12 a7 3c 3e a8 4a cd 3d 24 30 02 bd
       0.10444695 0.18423107 0.10024005 -0.03178419
0003a0 2c 70 7b bd 44 44 a0 3b d0 6f 57 bd b4 78 f9 bd
       -0.061386272 0.0048909504 -0.052596867 -0.121812254
0003b0 fa b8 d0 ba 52 f2 81 bd ae 18 44 3e 96 d2 01 be
       -0.0015924268 -0.06345047 0.1915004 -0.12677988
0003c0 6d c8 24 3e 07 1f 66 3d f8 43 96 3d 4e 5b b5 bd
       0.16092081 0.056181934 0.07337183 -0.088553056
0003d0 33 0f 94 3d db 96 16 3c 7b f9 80 3c f1 2b c8 3c
       0.072294615 0.00919124 0.015743962 0.024435015
0003e0 b0 42 de bd bd 13 cc 3d f5 d0 eb bd b3 57 cd bd
       -0.108525634 0.09964702 -0.11514465 -0.10026493
0003f0 a0 c3 fe bd 3e fb eb 3b 89 a6 f9 3d 95 85 00 bd
       -0.12439656 0.0072015813 0.12189967 -0.031377394

msg_layers.1.W_self.bias f4 [64]
000000 eb 79 a9 3d 95 8c 09 bb 48 8b 2a be e4 fe d4 3b
       0.08275207 -0.0020988334 -0.16654694 0.006500112
000010 75 fa 5c bb 9d c7 b7 3d f0 f5 06 bd c3 42 0c be
       -0.003371862 0.0897362 -0.032949388 -0.13697343
000020 9c 3e 73 3e 32 74 f5 3b 97 7d 59 bd 4d bb 03 3e
       0.23754352 0.007490658 -0.053098287 0.12864418
000030 e1 14 b1 3d ec af 70 3d 4d 6a e8 bd 0e 61 4a bd
       0.086465605 0.058761522 -0.113484 -0.049408965
000040 cf ca 9a bd 83 db 90 bd 52 49 50 bd fc fb f8 bb
       -0.07558214 -0.070731185 -0.050851174 -0.0075983983
000050 4c 41 c7 3c 33 27 4d 3d f4 50 f1 bd 0a 96 44 3d
       0.024323128 0.05008621 -0.11783019 0.04799465
000060 5e fe 95 3e 9e cd 0a be 08 17 e9 bd aa 77 cc 3d
       0.2929563 -0.13554999 -0.11381346 0.099837616
000070 8d a0 29 be 07 e8 4c be 16 71 0c be 9d e6 ec 3b
       -0.16565152 -0.20010386 -0.13715014 0.0072296397
000080 b6 fd 40 bd 38 54 fd 3c 94 e8 c9 bd 1b 22 b7 bd
       -0.047116958 0.030923948 -0.09858814 -0.08942052
000090 09 14 53 3c c2 1a b6 bd 2b 8c 87 3e e4 6b de bd
       0.012883195 -0.088918224 0.26474127 -0.10860422
0000a0 ba e9 3b 3e 06 49 1a be d7 99 d8 bc 27 74 a9 bd
       0.18350878 -0.15066919 -0.026440544 -0.082741074
0000b0 e0 6d eb 3b 02 28 36 bd d6 d8 d4 bd c9 02 e0 bd
       0.007184729 -0.04447175 -0.10392921 -0.10938031
0000c0 29 93 9d 3d 57 d4 97 3d 4e 0e 28 be 4e 07 af bb
       0.07694084 0.074135475 -0.16411707 -0.005341447
0000d0 d2 60 fe bd 69 e0 bb 3d 52 18 fa 3b d2 88 d7 3d
       -0.12420811 0.09173662 0.0076322937 0.10524143
0000e0 70 61 8c 3c bb eb 51 3d ac 03 9d 3d 3d c3 a1 3c
       0.017136306 0.0512502 0.07666716 0.019746417
0000f0 54 75 f3 bc 9b 99 31 bd 71 83 48 be 4b d6 d1 bc
       -0.029719032 -0.04335938 -0.19581391 -0.025614878
