QuantLaxmi_Research/dtrn/results/checkpoints/fold1_BANKNIFTY/dtrn_final.pt (torch, 236213 bytes, 37 tensors)

embed.embed.0.weight f4 [32, 2]
0.5529687 0.30039838 -0.7357364 0.38857687 -0.49122778 -0.21636328 -0.580709 -0.62194717
0.5388954 0.19527163 0.36494067 -0.39913702 -0.46643457 -0.2680635 -0.9423751 0.42666703
-0.28115845 0.5622774 0.1415647 -0.052682392 -0.23857681 -0.17720029 -0.10117957 -0.72101855
-0.72061026 0.32241887 -0.22777818 0.014637998 -0.78485626 0.3499738 0.58900774 0.3098287
0.124833174 0.598046 0.60964245 -0.5580225 0.09746691 0.28891987 0.46260488 -0.40480933
-0.32701343 -0.52875555 -0.63522524 -0.31120682 0.4168908 -0.07686385 -0.65201384 0.16680138
0.36306354 -0.38400242 0.238915 0.42755035 0.46952322 -0.5932453 -0.76201737 -0.03148166
-0.7173071 0.15296933 -0.7323936 -0.38063827 0.12367781 0.611878 -0.6381981 -0.28393403
00000000: 5b8f 0d3f d1cd 993e 3959 3cbf 8cf3 c63e
00000010: 3582 fbbe 568e 5dbe 58a9 14bf ee37 1fbf
00000020: 0df5 093f 49f5 473e 81d9 ba3e b05b ccbe
00000030: 83d0 eebe 9e3f 89be 7f3f 71bf 1a74 da3e
00000040: 00f4 8fbe 69f1 0f3f 56f6 103e 7ec9 57bd
00000050: 7b4d 74be fe73 35be 3c37 cfbd ac94 38bf
00000060: ea79 38bf 1614 a53e af3e 69be 37d4 6f3c
00000070: 57ec 48bf c42f b33e 36c9 163f dea1 9e3e
00000080: 89a8 ff3d 8b19 193f 8711 1c3f 90da 0ebf
00000090: bb9c c73d 4eed 933e 8cda ec3e 2b43 cfbe
000000a0: 4e6e a7be 865c 07bf 1f9e 22bf 8056 9fbe
000000b0: b672 d53e cb6a 9dbd 61ea 26bf fbcd 2a3e
000000c0: 77e3 b93e f79b c4be 22a6 743e e1e7 da3e
000000d0: 5965 f03e edde 17bf 9213 43bf eaf2 00bd
000000e0: 70a1 37bf fea3 1c3e 267e 3bbf 05e3 c2be
000000f0: cb4a fd3d 09a4 1c3f f360 23bf cd5f 91be

embed.embed.0.bias f4 [32]
0.5219323 0.307801 -0.55436295 -0.105726644 0.44159326 0.01953526 0.3781429 0.49976432
-0.5751741 -0.1317749 0.20317656 0.23777175 0.13486843 -0.4404998 -0.22624448 -0.5449164
0.20153461 0.7023706 0.38690346 0.32442153 -0.5731157 -0.19032331 -0.13827199 0.45565394
0.3408748 -0.4410662 0.4343838 0.24933408 -0.49306038 0.17429242 -0.4864289 0.6965228
00000000: 5b9d 053f 1898 9d3e bbea 0dbf 3687 d8bd
00000010: 8318 e23e 6908 a03c f29b c13e 1ce1 ff3e
00000020: 9c3e 13bf 00f0 06be 840d 503e 707a 733e
00000030: f31a 0a3e 3189 e1be a2ac 67be a47f 0bbf
00000040: 175f 4e3e 8fce 333f 3618 c63e 941a a63e
00000050: b6b7 12bf 1de4 42be 2c97 0dbe 794b e93e
00000060: 2487 ae3e 6ed3 e1be 8e67 de3e 6f51 7f3e
00000070: 6972 fcbe b679 323e 350d f9be 514f 323f

embed.embed.2.weight f4 [32, 32]
0.15516743 0.14307424 -0.05474586 -0.024604945 -0.0871924 0.035805766 0.06346508 0.060129967
-0.11305247 -0.012250954 -0.018778056 0.04765107 0.18180655 0.008984549 -0.17881823 -0.05722976
0.14766778 0.078009985 0.031156503 -0.069435894 -0.034663867 0.12536451 -0.088035464 -0.035559993
0.09473123 0.051154528 0.26072854 0.19045511 0.0920969 0.16431615 -0.14164984 0.13827112
-0.093880296 -0.027167482 -0.027278207 0.18580599 -0.21529174 0.048085257 -0.17578746 0.040926166
0.06647107 -0.015333608 -0.20913483 0.0143120205 0.038599446 -0.07986924 0.151528 -0.033832036
0.05965594 0.10131111 -0.1699767 -0.19478291 0.188371 0.20024218 -0.19569243 -0.13107313
0.1075584 -0.18406034 -0.062218565 -0.11889937 0.11554758 -0.020635946 0.1516288 -0.19452769
-0.022824464 0.036689702 -0.013660016 -0.09494168 -0.044127 0.1384423 0.17648526 -0.046822075
0.13531728 0.11480612 0.016205342 0.08726593 0.13551274 -0.04423424 -0.020138139 -0.03778739
-0.06305117 -0.09570838 0.19436488 0.109911576 -0.13790436 -0.066147536 -0.123253584 -0.13280798
-0.008713803 0.035332225 0.12010556 -0.06812069 -0.174939 -0.11000137 0.14801216 0.14284602
-0.076006584 -0.052124567 -0.13490929 -0.16315323 0.022202672 0.08085185 0.07853872 0.080493845
0.15963843 -0.19602396 -0.15379128 -0.09311875 0.045670215 -0.027502341 -0.15875138 -0.07579904
-0.0376802 0.13302362 0.1833816 -0.1312668 -0.21375473 -0.13049336 -0.03569444 -0.11692055
-0.16011778 -0.007866016 -0.13705896 -0.050024107 0.08021831 0.10571008 0.08935964 -0.07298606
0.076306336 -0.090284295 0.045456365 -0.097052895 -0.08942214 -0.127434 -0.041490514 0.06573229
-0.09530174 0.05212626 0.035814025 -0.14750347 -0.10953268 0.15635787 0.10360462 0.15400243
-0.14227587 -0.036414597 -0.03106882 0.1790386 -0.07545684 0.055241257 -0.01431458 0.066766754
-0.101622745 0.019464202 -0.054994587 0.13804212 0.091949195 0.10053232 -0.007733891 0.17772204
-0.038385462 -0.042047802 0.025998631 0.048930936 0.2096631 -0.14631198 0.03510809 -0.027768996
-0.1885336 -0.25172228 -0.06134367 -0.080166854 0.15827374 -0.1431133 -0.039903484 -0.13526827
0.09563821 -0.06715395 0.01223542 0.10060325 0.10119104 0.063226394 -0.15214992 0.11183954
-0.15396135 -0.17771854 -0.12706476 -0.05618133 -0.2612707 0.031454384 -0.07714544 -0.070515655
-0.11465857 0.07155474 -0.13688666 0.11076247 0.07660331 0.15176381 -0.08113646 0.0054590916
-0.11122552 0.117919944 0.008022739 0.015643582 0.04029651 0.16171646 -0.018323591 0.11307074
0.057084203 -0.11715507 -0.037345245 0.11900326 0.1737931 -0.042207416 -0.16891307 0.04049325
0.1873796 0.18263833 0.087453246 0.03912483 0.19411962 0.12406951 -0.10661736 -0.15007718
-0.13619946 -0.23819023 0.16650115 -0.14512952 0.16088207 0.038294412 -0.11533737 -0.053569358
0.09247798 -0.051562693 0.051755104 -0.112598576 -0.062250067 0.053650964 -0.2906863 0.02794761
-0.01834477 -0.14594576 0.14749083 0.021762814 0.03692742 0.052725513 -0.072059885 -0.19696417
0.0277409 -0.058034584 -0.13355428 -0.11323655 0.09614554 0.029847398 -0.09827222 0.027935095
00000000: 36e4 1e3e 0e82 123e 323d 60bd 4f90 c9bc
00000010: ee91 b2bd 11a9 123d fbf9 813d d74a 763d
00000020: 0e88 e7bd 3ab8 48bc 70d4 99bc c52d 433d
00000030: 7f2b 3a3e ee33 133c 201c 37be c169 6abd
00000040: 3936 173e b3c3 9f3d ec3b ff3c 6834 8ebd
00000050: b3fb 0dbd 8e5f 003e f04b b4bd 5ba7 11bd
00000060: 7202 c23d 6987 513d 367e 853e aa06 433e
00000070: 4d9d bc3d 7e42 283e a80c 11be f296 0d3e
00000080: 5044 c0bd 578e debc 8c76 dfbc ed43 3e3e
00000090: 7075 5cbe 0cf5 443d a101 34be 32a2 273d
000000a0: fc21 883d d039 7bbc 7127 56be f77c 6a3c
000000b0: 741a 1e3d 7c92 a3bd 282a 1b3e 7693 0abd
000000c0: c959 743d 337c cf3d 5f0e 2ebe 2c75 47be
000000d0: 54e4 403e 490c 4d3e 9963 48be 0938 06be
000000e0: 9447 dc3d 507a 3cbe e5d8 7ebd 8381 f3bd
000000f0: 36a4 ec3d b70c a9bc 9544 1b3e 4432 47be
00000100: 5ffa babc f147 163d 42ce 5fbc c970 c2bd
00000110: 83be 34bd d1c3 0d3e 8db8 343e 81c8 3fbd
00000120: 9d90 0a3e 791f eb3d 11c1 843c 7bb8 b23d
00000130: dac3 0a3e f62e 35bd bdf8 a4bc f3c6 1abd
00000140: f920 81bd c102 c4bd 9607 473e 5219 e13d
00000150: cd36 0dbe 5c78 87bd 606c fcbd d1fe 07be
00000160: 57c4 0ebc 86b8 103d e7f9 f53d dc82 8bbd
00000170: 3623 33be 6648 e1bd 8090 173e 3a46 123e
00000180: 57a9 9bbd 9280 55bd a925 0abe a411 27be
00000190: 61e2 b53c a895 a53d e9d8 a03d f5d9 a43d
000001a0: 4278 233e 81ba 48be 767b 1dbe 0bb5 bebd
000001b0: b110 3b3d 974c e1bc b98f 22be 873c 9bbd
000001c0: 8e56 1abd 5837 083e 63c8 3b3e ce6a 06be
000001d0: 85e2 5abe 0da0 05be 5534 12bd 0b74 efbd
000001e0: eaf5 23be 76e0 00bc 2f59 0cbe 14e6 4cbd
000001f0: 7f49 a43d 877e d83d 3002 b73d b779 95bd
00000200: 7f46 9c3d f9e6 b8bd 7430 3a3d abc3 c6bd
00000210: f422 b7bd 0f7e 02be f5f1 29bd a79e 863d
00000220: 8f2d c3bd 5882 553d bab1 123d 260b 17be
00000230: ab52 e0bd 471c 203e a92e d43d d0b2 1d3e
00000240: c4b0 11be 7927 15bd 0a84 febc e555 373e
00000250: 1e89 9abd a844 623d b387 6abc 02bd 883d
00000260: 961f d0bd 6473 9f3c 0142 61bd ea5a 0d3e
00000270: dc4f bc3d e4e3 cd3d 946c fdbb c4fc 353e
00000280: 133a 1dbd 513a 2cbd 15fb d43c ce6b 483d
00000290: ecb1 563e cfd2 15be 80cd 0f3d ce7b e3bc
000002a0: f40e 41be bee1 80be 8043 7bbd 852e a4bd
000002b0: 8312 223e 4b8c 12be d671 23bd c483 0abe
000002c0: f7dd c33d 0388 89bd 1277 483c 1409 ce3d
000002d0: 3f3d cf3d d77c 813d 30cd 1bbe 210c e53d
000002e0: 0ba8 1dbe d9fb 35be 441d 02be 651e 66bd
000002f0: 46c5 85be 50d6 003d 6efe 9dbd 836a 90bd
00000300: 1dd2 eabd 4b8b 923d 042c 0cbe 6fd7 e23d
00000310: 32e2 9c3d f967 1b3e df2a a6bd 2ee2 b23b
00000320: 35ca e3bd 0380 f13d ce71 033c f826 803c
00000330: f40d 253d 0099 253e 5b1b 96bc a291 e73d
00000340: 20d1 693d ffee efbd 54f7 18bd fbb7 f33d
00000350: d2f6 313e afe1 2cbd 8cf7 2cbe 40dc 253d
00000360: 70e0 3f3e 8b05 3b3e b01a b33d 5c41 203d
00000370: 4bc7 463e 2818 fe3d 345a dabd d5ad 19be
00000380: df77 0bbe 24e8 73be 477f 2a3e d59c 14be
00000390: 45be 243e 9ada 1c3d 0036 ecbd 8b6b 5bbd
000003a0: 1865 bd3d 6733 53bd 29fd 533d 159a e6bd
000003b0: edf9 7ebd 1dc1 5b3d d6d4 94be 63f2 e43c
000003c0: c547 96bc ce72 15be d607 173e ee47 b23c
000003d0: 3541 173d b5f6 573d 2294 93bd fab0 49be
000003e0: e240 e33c acb5 6dbd 74c2 08be 90e8 e7bd
000003f0: f4e7 c43d 8882 f43c f242 c9bd 24d8 e43c

embed.embed.2.bias f4 [32]
-0.032954823 -0.04546222 0.057217326 -0.00468867 -0.16208729 0.02301608 0.07213274 -0.14714164
0.050193347 -0.03339429 -0.07265806 -0.15685605 0.09778036 -0.026151415 -0.15752275 0.04749056
0.1871817 0.032957967 0.059388705 0.11239433 0.05226321 0.10670517 0.18907775 -0.1400466
0.056764994 -0.14806877 -0.08818937 0.1110796 -0.101688735 0.08443031 -0.1964303 0.0881761
00000000: a3fb 06bd 9836 3abd b75c 6a3d 6aa3 99bb
00000010: 36fa 25be 388c bc3c 54ba 933d 4cac 16be
00000020: 8a97 4d3d 73c8 08bd c0cd 94bd df9e 20be
00000030: 1241 c83d 7e3b d6bc a54d 21be 7685 423d
00000040: 8fac 3f3e effe 063d 9241 733d 002f e63d
00000050: f311 563d 3d88 da3d 999d 413e 6068 0fbe
00000060: 6982 683d 579f 17be a19c b4bd b47d e33d
00000070: 2f42 d0bd cce9 ac3d 0625 49be ac95 b43d

input_proj.weight f4 [64, 32]
-0.19182335 -0.021425478 -0.0044719377 -0.16855367 -0.13701192 -0.10726398 0.12658003 -0.18276665
-0.047630455 -0.061254174 0.13452023 0.11473703 0.0027060157 0.084349446 0.08139299 0.182628
-0.11077122 -0.023830172 0.0724334 0.0046944628 0.16078636 0.23186895 0.2225777 -0.08011198
-0.18357964 0.007144942 -0.10244325 0.061918568 0.08954668 0.12598836 -0.15115973 0.25510174
-0.032758538 0.088050276 0.1370493 0.04425103 -0.08367472 -0.14712901 -0.08722569 0.08551965
-0.06713915 -0.028570287 -0.027995491 -0.005059723 0.007392516 0.13264607 -0.08221758 0.15916552
0.120786905 0.015350181 0.054826416 0.09742036 0.051401094 0.077661715 0.10685916 0.089501046
-0.19560625 0.06353662 -0.0014184605 -0.120218515 -0.14833273 0.1106962 0.037251662 0.112275995
-0.07137377 0.10425686 0.013253192 -0.14051232 0.1021812 0.16042842 -0.1653996 -0.07492902
-0.082751825 0.142092 -0.009589613 -0.15047671 -0.14134464 0.0038249572 0.013946397 -0.009726456
-0.11543005 -0.06512642 0.09657021 -0.12179245 0.07797015 -0.088127434 -0.10774389 -0.085781865
0.063397214 0.02153971 -0.18006362 -0.03188473 0.029750872 -0.18419161 -0.08787961 -0.033630926
0.052897375 -0.11445946 0.037550874 -0.10266869 -0.025766293 -0.02214623 0.09735922 -0.018522607
-0.06574311 -0.1709018 0.023453047 -0.09996491 -0.05633585 0.18906887 -0.09129862 0.122527
-0.15382354 0.12090903 -0.14623997 0.01446541 0.080869265 0.15396789 -0.17855044 0.014969478
0.13608289 -0.15159704 0.17984745 -0.020085063 -0.008485914 0.0014497141 -0.14799826 0.022965757
-0.23705348 0.2122332 -0.028375227 -0.045019064 -0.06920858 0.007484641 0.028591087 -0.09319628
-0.18136999 0.075024195 -0.100806706 -0.17814861 0.06845188 -0.12566875 0.25126258 -0.0061559547
-0.009877956 -0.07640158 0.24521975 -0.1949592 -0.007201749 -0.10247835 0.20978314 -0.037260216
0.14813115 -0.12527329 -0.18373594 -0.12309383 0.065442026 0.051845327 0.09590515 -0.040532418
-0.04212681 0.111764215 0.14316651 -0.057880644 0.121909864 -0.040934406 -0.14789267 -0.0015441419
-0.14001577 0.031185776 0.038250085 0.057240903 0.113288336 0.065424986 0.10861518 0.038995225
0.09780239 0.05967592 0.116165645 -0.2278292 0.10173936 0.038815428 0.21199107 0.022243287
0.105698735 0.046720278 0.115431234 0.18307799 -0.033368435 -0.08154781 0.08798336 -0.02372332
0.070980474 0.084302515 -0.14168745 -0.012460522 -0.010195882 0.05278934 -0.024345322 -0.05308303
-0.1458845 -0.00043347766 -0.11330458 0.23487617 -0.12235258 0.22986756 0.0060492666 0.14320433
0.051342104 0.037628997 -0.02250363 -0.0045180176 -0.0105312215 0.10022105 -0.2333373 -0.05578746
-0.11699159 -0.06146399 0.07910723 0.05719159 0.042082615 -0.1570101 0.20495996 0.100775294
-0.103731774 0.15359429 -0.082527146 0.07686727 0.063207485 -0.063206024 0.08019495 0.008795674
0.15168801 0.022975737 0.07813082 -0.1746897 0.1155459 0.091352455 0.17974636 -0.08835915
-0.035818208 -0.19443096 -0.006264577 -0.1295385 0.0063785235 0.12299716 0.14643127 0.038307942
-0.072862595 -0.039666157 -0.17766625 -0.08910127 -0.0787876 -0.039068185 -0.097764194 0.06145932
00000000: 576d 44be 7c84 afbc 5589 92bb 5599 2cbe
00000010: da4c 0cbe 38ad dbbd 329e 013e 2e27 3bbe
00000020: 2718 43bd a8e5 7abd acbf 093e 3ffb ea3d
00000030: 6957 313b 67bf ac3d 5eb1 a63d d602 3b3e
00000040: 05dc e2bd 7e37 c3bc f657 943d 02d4 993b
00000050: 2ea5 243e 0e6f 6d3e 69eb 633e c011 a4bd
00000060: 4dfc 3bbe 1e20 ea3b c4cd d1bd 539e 7d3d
00000070: 4064 b73d 1803 013e 9ec9 1abe b29c 823e
00000080: d12d 06bd b453 b43d a756 0c3e 9140 353d
00000090: a75d abbd fda8 16be 62a3 b2bd ed24 af3d
000000a0: 4080 89bd 3c0c eabc cd56 e5bc 08cc a5bb
000000b0: eb3c f23b 5fd4 073e b161 a8bd 49fc 223e
000000c0: 205f f73d 537f 7b3c aa91 603d 5384 c73d
000000d0: f489 523d 1b0d 9f3d fad8 da3d 534c b73d
000000e0: 014d 48be 7d1f 823d a3eb b9ba 2035 f6bd
000000f0: 89e4 17be b0b4 e23d 3395 183d f5f0 e53d
00000100: 692c 92bd 9f84 d53d eb23 593c 76e2 0fbe
00000110: 6144 d13d 5947 243e 835e 29be 6374 99bd
00000120: ca79 a9bd 9180 113e c11d 1dbc 9116 1abe
00000130: a6bc 10be 22ac 7a3b 6e7f 643c b75b 1fbc
00000140: 9766 ecbd 0061 85bd 9ac6 c53d 526e f9bd
00000150: d0ae 9f3d 287c b4bd d4a8 dcbd 67ae afbd
00000160: 66d6 813d 0c74 b03c 9962 38be 9099 02bd
00000170: 1ab8 f33c ba9c 3cbe 3afa b3bd 95c0 09bd
00000180: ebaa 583d b969 eabd f2ce 193d f643 d2bd
00000190: d513 d3bc 036c b5bc 4564 c73d b9bc 97bc
000001a0: 53a4 86bd e200 2fbe 9b20 c03c 67ba ccbd
000001b0: 6cc0 66bd 459b 413e c5fa babd 70ef fa3d
000001c0: eb83 1dbe 279f f73d eebf 15be 5400 6d3c
000001d0: c99e a53d c2a9 1d3e edd5 36be 8b42 753c
000001e0: 5059 0b3e 413c 1bbe ee29 383e 6e89 a4bc
000001f0: 8108 0bbc 5504 be3a db8c 17be af22 bc3c
00000200: 26be 72be a953 593e 2a73 e8bc e965 38bd
00000210: 3abd 8dbd b841 f53b db37 ea3c b1dd bebd
00000220: 0eb9 39be 49a6 993d bf73 cebd 976c 36be
00000230: 8030 8c3d 4faf 00be 7da5 803e e4b7 c9bb
00000240: 26d7 21bc 6e78 9cbd e31a 7b3e 62a3 47be
00000250: a6fc ebbb 2be0 d1bd 64d1 563e 2b9e 18bd
00000260: b1af 173e a447 00be 4625 3cbe 9e18 fcbd
00000270: 7806 863d c45b 543d eb69 c43d 5205 26bd
00000280: 298d 2cbd a3e4 e43d 3e9a 123e 4114 6dbd
00000290: e1ab f93d d6aa 27bd 2d71 17be ce64 caba
000002a0: 4b60 0fbe 5079 ff3c 1fac 1c3d 7075 6a3d
000002b0: b703 e83d 89fd 853d a371 de3d 75b9 1f3d
000002c0: 9f4c c83d bd6e 743d 41e8 ed3d 0f4c 69be
000002d0: ba5c d03d edfc 1e3d 3014 593e 8e37 b63c
000002e0: 9478 d83d c35d 3f3d 3667 ec3d cc78 3b3e
000002f0: 57ad 08bd 8a02 a7bd 9f30 b43d 6857 c2bc
00000300: 365e 913d cca6 ac3d 8416 11be 3827 4cbc
00000310: a10c 27bc a339 583d d76f c7bc 976d 59bd
00000320: bf62 15be 6344 e3b9 3b0c e8bd 6183 703e
00000330: fd93 fabd 6762 6b3e ed38 c63b 28a4 123e
00000340: 194c 523d dd20 1a3d 8859 b8bc e10b 94bb
00000350: 258b 2cbc b240 cd3d f9ef 6ebe 6481 64bd
00000360: 4999 efbd aac1 7bbd f902 a23d bb41 6a3d
00000370: d25e 2c3d 41c7 20be 06e1 513e 4763 ce3d
00000380: 5371 d4bd d247 1d3e fe03 a9bd 966c 9d3d
00000390: ed72 813d 2972 81bd 403d a43d bb1b 103c
000003a0: 1a54 1b3e 9d37 bc3c 0d03 a03d dbe1 32be
000003b0: 54a3 ec3d ff16 bb3d 6e0f 383e a4f5 b4bd
000003c0: 1db6 12bd e918 47be 1547 cdbb bea5 04be
000003d0: ef02 d13b efe5 fb3d 14f2 153e cae8 1c3d
000003e0: fc38 95bd fb78 22bd 24ee 35be ba7a b6bd
000003f0: 655b a1bd f605 20bd 9838 c8bd c5bc 7b3d

input_proj.bias f4 [64]
0.23523912 0.15210193 -0.17953654 0.06999276 0.09724846 -0.092540205 -0.044952035 -0.098439924
0.21976557 0.12542509 -0.11392971 0.12717153 -0.14582774 -0.13970558 -0.07349384 0.042281657
0.08705058 0.002635661 -0.06928118 -0.07566269 -0.19060259 -0.09966969 -0.022504415 -0.124323234
-0.11842326 -0.15571156 -0.09587817 -0.026836414 0.021153433 0.13694039 0.19670124 0.01979113
-0.01620292 0.04671437 0.16016778 0.054538477 0.110434964 0.0991033 0.13728607 -0.1517373
-0.050807144 0.17143676 0.19085284 -0.0056833765 0.018742708 -0.16412205 -0.050786406 0.015391182
0.050023064 0.20891652 0.10072334 -0.12672515 -0.13641733 -0.1220093 0.047459226 0.07072395
-0.091849536 0.050874062 0.015121759 -0.1863987 -0.02148729 -0.12122469 -0.09051416 0.044015385
00000000: 86e2 703e 9cc0 1b3e 6dd8 37be 5d58 8f3d
00000010: 332a c73d b885 bdbd a01f 38bd df9a c9bd
00000020: 3a0a 613e 6f6f 003e fb53 e9bd 4139 023e
00000030: de53 15be fb0e 0fbe f083 96bd 882f 2d3d
00000040: 9347 b23d 0ebb 2c3b 4be3 8dbd 0af5 9abd
00000050: 532d 43be 9f1f ccbd 2e5b b8bc 2e9d febd
00000060: e587 f2bd da72 1fbe c65b c4bd 0ad8 dbbc
00000070: f749 ad3c 1a3a 0c3e 0d6c 493e 0221 a23c
00000080: fcbb 84bc 9157 3f3d 0603 243e bd63 5f3d
00000090: ba2b e23d acf6 ca3d b894 0c3e 0661 1bbe
000000a0: 271b 50bd 1e8d 2f3e ed6e 433e 9e3b babb
000000b0: 4f8a 993c 9c0f 28be 6805 50bd 4c2b 7c3c
000000c0: fce4 4c3d 36ee 553e 0a48 ce3d 3dc4 01be
000000d0: fcb0 0bbe 03e0 f9bd 9b64 423d b8d7 903d
000000e0: 9c1b bcbd 5261 503d 41c1 773c 4ddf 3ebe
000000f0: 1d06 b0bc a644 f8bd 7d5f b9bd 7a49 343d

msg_layers.0.W_self.weight f4 [64, 64]
0.19103396 0.122505434 -0.07311653 -0.06889863 0.13146012 -0.012523494 -0.05219181 0.037523467
0.23031484 0.10900475 0.15834539 0.17448524 0.07278591 -0.048366893 -0.0024563707 0.11877626
0.17655902 -0.11842915 0.03043301 -0.09811849 -0.0713951 -0.12885049 -0.014592762 -0.21850464
-0.14736696 -0.11380775 0.028956473 -0.086667374 -0.118500106 -0.09355284 -0.12010618 -0.04644765
-0.120592736 -0.16035695 0.14778475 0.01293842 -0.020636963 0.089136146 0.065226756 -0.17002608
-0.07629286 0.0030964278 -0.028697593 0.084863946 -0.035133917 -0.0846475 -0.11862942 0.18499854
-0.040482193 0.0013465618 0.08177634 -0.03471558 -0.21496758 0.17487536 -0.027667562 -0.044148583
-0.13042036 0.114301056 0.12768185 -0.07357971 0.23285119 -0.16932474 -0.042170186 0.035040673
0.04499385 -0.09643703 0.0863562 0.09985081 -0.09812499 0.022066753 -0.07222279 -0.09569205
0.005522212 -0.051785454 0.128587 0.10769517 -0.014479036 0.1461864 -0.08581237 0.039112277
0.08772447 -0.06935829 0.067457356 -0.11883954 -0.11215273 -0.11515781 -0.074214704 0.050379936
-0.105279446 0.041969847 -0.031406414 0.024976218 0.114231795 -0.08880677 -0.05362687 -0.1122494
-0.07191218 -0.061721016 0.041896995 0.03489632 0.056402247 0.075082496 -0.064476 -0.05570465
-0.04424474 -0.060667045 0.025209801 0.08106316 0.11647939 0.09783768 0.012100082 0.032878816
-0.023393396 -0.012180649 0.13375448 -0.104907475 -0.02347544 0.08423764 0.14050324 0.036725592
-0.12202854 0.053060193 0.070306584 -0.0780983 -0.008673542 0.049454857 -0.053299166 -0.043318886
0.005583893 -0.06352124 0.09382145 0.11155073 -0.05987395 0.01395463 0.0064545576 -0.0036949087
-0.09411419 0.06717914 -0.051887564 -0.07175958 0.0823172 0.09173183 -0.079213716 0.2183763
-0.120349884 0.092750855 0.12601249 0.08986612 0.07169871 -0.07408651 -0.0457522 -0.09465212
0.09559972 0.15282209 0.10744596 -0.061651234 -0.12179289 0.092232965 0.005027222 -0.08579859
0.10684546 -0.03406228 -0.020941885 -0.014555551 -0.044543076 -0.07728889 0.021733575 0.09652351
-0.06821091 0.02266339 0.017815396 -0.021471357 -0.080250375 0.07121752 -0.09287842 0.109191775
0.026402963 -0.08582671 -0.052844245 0.03089346 0.04299299 -0.072244085 0.052742057 0.055135436
0.102610365 -0.12093633 -0.047159985 0.13405524 0.029127758 0.118904464 0.049443286 -0.045543753
0.11310235 0.15576768 0.07534215 -0.041767124 0.1285047 -0.03094289 -0.06433322 -0.018163702
0.12145526 -0.10837872 -0.06106768 -0.031682845 -0.058336202 -0.03953348 -0.1469091 -0.026246058
0.14329858 0.031661097 -0.088807285 -0.10597072 0.06985924 -0.014321131 -0.047920264 -0.15380886
0.0035994947 -0.04323365 0.089343 0.11602937 0.091640614 -0.044622265 -0.06968409 0.08083611
0.0152397 0.028595977 0.1331946 0.082861915 0.08446432 -0.017473448 0.11747829 -0.008973465
-0.01731621 0.20561387 -0.0396778 0.10431484 0.005925574 -0.026839456 -0.054552082 -0.09480628
0.056758333 0.05123798 0.12792087 0.11041537 -0.16103008 0.12968773 -0.03398098 0.10822024
-0.0056388793 -0.055955507 0.08944041 -0.103234366 0.07153158 -0.028120913 -0.004030777 -0.08494035
00000000: 689e 433e 21e4 fa3d 1fbe 95bd ba1a 8dbd
00000010: 7b9d 063e 572f 4dbc 14c7 55bd 35b2 193d
00000020: a7d7 6b3e e23d df3d 4b25 223e 42ac 323e
00000030: c710 953d 5d1c 46bd 10fb 20bb f840 f33d
00000040: e3cb 343e fb8a f2bd a64e f93c 59f2 c8bd
00000050: 9837 92bd 62f1 03be 7b16 6fbc aebf 5fbe
00000060: 5de7 16be 0a14 e9bd 2036 ed3c aa7e b1bd
00000070: 2fb0 f2bd a298 bfbd 3bfa f5bd e43f 3ebd
00000080: 53f9 f6bd 9d34 24be e354 173e abfb 533c
00000090: d90e a9bc 038d b63d 9b95 853d 511b 2ebe
000000a0: 6e3f 9cbd 70ed 4a3b 3717 ebbc 26cd ad3d
000000b0: 95e8 0fbd ab5b adbd fbf3 f2bd 4270 3d3e
000000c0: a8d0 25bd 1e7f b03a 5b7a a73d ed31 0ebd
000000d0: 7620 5cbe 8712 333e 15a7 e2bc 25d5 34bd
000000e0: ea8c 05be ac16 ea3d 08bf 023e f6b0 96bd
000000f0: 8b70 6e3e 7763 2dbe a5ba 2cbd cf86 0f3d
00000100: 794b 383d c780 c5bd 85db b03d 957e cc3d
00000110: c1f5 c8bd 56c5 b43c 8be9 93bd 32fa c3bd
00000120: acf3 b43b fc1c 54bd 4fac 033e 498f dc3d
00000130: 7b39 6dbc e3b1 153e 65be afbd 3234 203d
00000140: e3a8 b33d b80b 8ebd 1527 8a3d 2562 f3bd
00000150: 55b0 e5bd dcd7 ebbd e1fd 97bd 315b 4e3d
00000160: c09c d7bd 93e8 2b3d 03a4 00bd ed9a cc3c
00000170: 5cf2 e93d 53e0 b5bd d9a7 5bbd 03e3 e5bd
00000180: b146 93bd 2dcf 7cbd 2f9c 2b3d 72ef 0e3d
00000190: 0b06 673d dac4 993d fe0b 84bd 8f2a 64bd
000001a0: f939 35bd 027e 78bd c984 ce3c 7104 a63d
000001b0: bf8c ee3d 1f5f c83d 6c3f 463c f0ab 063d
000001c0: 82a3 bfbc 5891 47bc eff6 083e bbd9 d6bd
000001d0: 914f c0bc c984 ac3d 15e0 0f3e 936d 163d
000001e0: 19ea f9bd a555 593d e6fc 8f3d 00f2 9fbd
000001f0: 791b 0ebc 2d91 4a3d 3a50 5abd 256f 31bd
00000200: 17f9 b63b 6d17 82bd 7625 c03d b674 e43d
00000210: 633e 75bd f6a1 643c c180 d33b 4826 72bb
00000220: f1be c0bd 3895 893d 0e88 54bd b0f6 92bd
00000230: ec95 a83d e6dd bb3d cd3a a2bd 099e 5f3e
00000240: 007a f6bd 29f4 bd3d 6b09 013e ba0b b83d
00000250: c6d6 923d abba 97bd a966 3bbd f8d8 c1bd
00000260: c9c9 c33d 657d 1c3e a10c dc3d 0186 7cbd
00000270: 8d6e f9bd a3e4 bc3d 65bb a43b 2cb7 afbd
00000280: cbd1 da3d e484 0bbd 518e abbc 687a 6ebc
00000290: cd72 36bd a349 9ebd 9c0a b23c 1eae c53d
000002a0: 29b2 8bbd 93a8 b93c 98f1 913c b3e4 afbc
000002b0: 4f5a a4bd 7eda 913d 0b37 bebd f09f df3d
000002c0: 074b d83c eac5 afbd 3573 58bd 4814 fd3c
000002d0: 6b19 303d b5f4 93bd 0e08 583d b2d5 613d
000002e0: 6225 d23d 77ad f7bd d42a 41bd c745 093e
000002f0: 569d ee3c 2f84 f33d 0b85 4a3d 168c 3abd
00000300: 34a2 e73d 9081 1f3e fc4c 9a3d 0114 2bbd
00000310: bc96 033e f27b fdbc 23c1 83bd 0bcc 94bc
00000320: 89bd f83d aaf5 ddbd 1b22 7abd dfc5 01bd
00000330: f1f1 6ebd dced 21bd 576f 16be f901 d7bc
00000340: ddbc 123e 11af 013d 98e0 b5bd 2d07 d9bd
00000350: 5c12 8f3d 2da3 6abc 0a48 44bd 1280 1dbe
00000360: 80e5 6b3b c515 31bd 76f9 b63d cea0 ed3d
00000370: 13ae bb3d d6c5 36bd 88b6 8ebd 678d a53d
00000380: efaf 793c 1c42 ea3c 2a64 083e 82b3 a93d
00000390: a1fb ac3d 7a24 8fbc 7598 f03d 7105 13bc
000003a0: b9da 8dbc 718c 523e 3085 22bd 05a3 d53d
000003b0: 512b c23b 6bde dbbc 0172 5fbd cc29 c2bd
000003c0: 6d7b 683d ebde 513d b0fd 023e 7421 e23d
000003d0: 12e5 24be dccc 043e a42f 0bbd 93a2 dd3d
000003e0: 59c6 b8bb 9a31 65bd 892c b73d 8a6c d3bd
000003f0: 267f 923d d45d e6bc 9c14 84bb 35f5 adbd

msg_layers.0.W_self.bias f4 [64]
0.13191521 -0.07728044 -0.09412818 0.0068189446 -0.031234963 0.07788876 -0.15858774 -0.12222631
0.04848063 0.00752561 -0.11018472 -0.020764505 -0.067630686 0.04388725 0.071671866 -0.059118368
0.02181763 -0.07955142 -0.051797032 0.14790031 -0.09456417 0.11079332 -0.066913635 -0.09417724
0.15036061 0.0015921592 0.032059465 -0.036343414 0.12026119 0.0524531 0.033082828 -0.057735432
-0.10568937 0.042965557 0.1421569 0.14269742 -0.016404074 -0.14632565 0.15576907 -0.18320064
0.00558687 0.10302405 0.19247665 0.11413787 0.03368761 -0.076842465 0.058972917 -0.040719565
-0.08666803 -0.032344565 0.011282666 -0.023855682 0.08059629 0.04112327 0.028146688 0.037291378
0.05373457 0.021033432 -0.08354117 -0.20066859 -0.18029872 -0.012047597 -0.061586875 -0.08503645
00000000: c814 073e 3545 9ebd 46c6 c0bd 7471 df3b
00000010: 77e0 ffbc 2484 9f3d d364 22be ca51 fabd
00000020: a093 463d 6499 f63b 87a8 e1bd 531a aabc
00000030: f581 8abd 1ec3 333d b3c8 923d 1a26 72bd
00000040: e3ba b23c dbeb a2bd 2029 54bd 2e73 173e
00000050: dcaa c1bd 9ce7 e23d 040a 89bd ffdf c0bd
00000060: 22f8 193e ffaf d03a c950 033d d5dc 14bd
00000070: 804b f63d 10d9 563d dc81 073d fd7b 6cbd
00000080: ab73 d8bd a7fc 2f3d 9491 113e 461f 123e
00000090: d661 86bc 64d6 15be ed81 1f3e f398 3bbe
000000a0: 1012 b73b 46fe d23d 9918 453e 1ec1 e93d
000000b0: 05fc 093d 955f 9dbd 968d 713d 8fc9 26bd
000000c0: 027f b1bd bc7b 04bd eeda 383c fe6c c3bc
000000d0: ab0f a53d e070 283d e293 e63c d8be 183d
000000e0: c818 5c3d 4e4e ac3c a217 abbd 117c 4dbe
000000f0: 3aa0 38be 4963 45bc 8542 7cbd 9727 aebd

msg_layers.0.W_msg.weight f4 [64, 64]
-0.00014914681 -0.10813661 -0.015791114 -0.035617415 -0.12766926 -0.028145025 -0.03034308 -0.04737659
-0.04016727 -0.11418329 -0.12937191 -0.10144746 0.08089972 -0.042293042 0.021859303 0.016770938
-0.008732646 -0.111890085 0.02908028 0.07287721 0.16623333 0.11938589 -0.006864414 0.10353373
0.18909685 -0.14549658 0.12252768 0.14117688 -0.118356906 0.067747846 -0.07228015 0.042877905
-0.039400686 -0.04677456 -0.124409206 -0.0013070557 -0.042271033 -0.10697292 -0.020598264 0.021869825
-0.06569377 -0.05734527 0.08163715 0.022296952 -0.04441404 0.023107665 0.07908058 0.0830156
-0.0480178 -0.075045854 -0.06208095 -0.08026581 0.07354222 0.035581898 0.03265627 -0.03947493
-0.009797917 0.060402274 0.015300005 0.14293091 -0.041513078 -0.053377375 0.026028603 -0.021336468
0.11321847 -0.070955686 0.02100735 0.026162103 0.0607908 -0.0420356 0.008406894 -0.06275812
0.025210507 0.022605099 0.07406044 -0.0733725 -0.10781931 0.011902578 0.004558308 0.08261537
0.09505433 0.12371049 0.06474195 -0.094325334 0.065084636 0.08489584 -0.018679164 -0.027454808
0.100857094 0.089832574 0.05688969 0.013966384 0.046932932 0.089359574 0.07961274 0.102641135
0.08711861 -0.046933748 -0.0007408485 -0.08616153 0.08933035 0.081268445 0.054094292 -0.1320925
-0.010015088 -0.024521103 -0.11752864 -0.0013258875 -0.029873537 -0.121620856 0.11109486 0.019416224
-0.12030297 -0.09983819 0.029155916 -0.03845416 -0.08898019 0.14253788 0.14232036 0.026902337
-0.15437369 -0.050564688 0.093071535 -0.052432206 -0.033483878 0.10145338 -0.10694362 0.09542143
-0.0047273156 0.09608761 -0.00792505 -0.08704352 0.10457094 0.022686163 -0.01578774 0.02784434
-0.012177012 0.05030825 0.025552953 0.064946696 0.054223746 -0.06253217 -0.022001378 0.008086384
0.09506231 -0.1741983 0.04838823 -0.011775613 -0.08422962 0.03251813 -0.23915559 -0.026263367
-0.028776832 -0.10308963 0.07502457 0.024805728 -0.16530672 -0.159623 -0.17500728 -0.055150956
-0.039427936 -0.021084342 0.003964008 -0.17261043 0.12425698 0.03762442 0.042157996 -0.10302252
-0.15647052 -0.10159608 0.0002528924 0.009131647 0.08761243 -0.12826824 -0.045895606 0.1262519
-0.03460155 -0.113675125 0.1560436 0.05795657 0.004475085 0.041739754 -0.053168055 0.08838678
0.027064165 0.028982388 0.05024327 -0.058566686 0.14873873 0.033262793 0.077008046 0.22572082
0.022526484 -0.12297581 -0.005061432 0.11651908 0.09944996 -0.06788258 0.117617145 0.11764057
-0.027019985 -0.09862131 -0.048014876 0.11152271 -0.058202635 0.08050723 0.14632605 -0.124994375
0.012955914 0.013360361 -0.005869267 0.064793885 -0.03370312 0.020494342 0.14342222 0.026966328
0.06629503 -0.14024271 0.018037561 0.13589087 0.15445413 0.086451374 0.025489269 0.11119984
0.0108066965 0.009150128 -0.13945796 0.025123188 -0.05849175 -0.15090653 0.16926704 0.07588436
-0.022575006 -0.057009768 0.041302316 -0.024766916 0.01473484 0.097430326 -0.05967079 0.010431919
-0.023461932 -0.021781217 0.06994112 0.027114885 0.032749046 -0.087582394 0.02611003 -0.00991653
0.010515034 -0.046062164 0.013436483 0.032661203 -0.20352325 -0.009638508 -0.10053111 -0.12399774
00000000: 4b64 1cb9 ba76 ddbd 5e5c 81bc 91e3 11bd
00000010: bbbb 02be 6590 e6bc 0d92 f8bc f50d 42bd
00000020: 6f86 24bd eed8 e9bd 127a 04be b0c3 cfbd
00000030: c1ae a53d 783b 2dbd 4812 b33c 3563 893c
00000040: 5f13 0fbc a126 e5bd c439 ee3c a640 953d
00000050: 1239 2a3e 9780 f43d e1ee e0bb 7e09 d43d
00000060: 9ba2 413e 0efd 14be cbef fa3d ac90 103e
00000070: 1b65 f2bd 62bf 8a3d 9e07 94bd bea0 2f3d
00000080: 9d62 21bd ae96 3fbd 41ca febd 8351 abba
00000090: 6424 2dbd 9e14 dbbd b1bd a8bc 5928 b33c
000000a0: 758a 86bd e0e2 6abd 6131 a73d 19a8 b63c
000000b0: 7feb 35bd 494c bd3c 00f5 a13d 1504 aa3d
000000c0: 50ae 44bd a4b1 99bd 9848 7ebd 6762 a4bd
000000d0: 4e9d 963d 53be 113d 95c2 053d 77b0 21bd
000000e0: 7187 20bc 6068 773d dfac 7a3c 7b5c 123e
000000f0: 9e09 2abd 3ca2 5abd f039 d53c d1c9 aebc
00000100: 16df e73d 3751 91bd 9b17 ac3c e851 d63c
00000110: c6ff 783d 852d 2cbd 12bd 093c 5487 80bd
00000120: 4486 ce3c 542e b93c 00ad 973d 5244 96bd
00000130: 5fd0 dcbd 0803 433c dc5d 953b 3f32 a93d
00000140: d8ab c23d ed5b fd3d 6d97 843d a42d c1bd
00000150: 184b 853d dfdd ad3d 0c05 99bc e8e8 e0bc
00000160: 2a8e ce3d 24fa b73d 2a05 693d 43d3 643c
00000170: bf3c 403d 2702 b73d 010c a33d 8435 d23d
00000180: 3e6b b23d 9a3d 40bd 8035 42ba 7575 b0bd
00000190: d5f2 b63d 1270 a63d fa91 5d3d 4243 07be
000001a0: 5316 24bc 7be0 c8bc dbb2 f0bd 67c9 adba
000001b0: 59b9 f4bc 5b14 f9bd b485 e33d c60e 9f3c
000001c0: 6761 f6bd f777 ccbd 63d8 ee3c 1c82 1dbd
000001d0: 3f3b b6bd 73f5 113e 6ebc 113e 4a62 dc3c
000001e0: 2314 1ebe eb1c 4fbd 4a9c be3d 27c3 56bd
000001f0: 6426 09bd cac6 cf3d 4205 dbbd 506c c33d
00000200: 99e7 9abb 95c9 c43d 12d8 01bc df43 b2bd
00000210: 4a29 d63d 55d8 b93c 4a55 81bc d019 e43c
00000220: 1782 47bc 0610 4e3d 6d54 d13c c602 853d
00000230: b819 5e3d de10 80bd 3c3c b4bc c17c 043c
00000240: 07b0 c23d 0a61 32be bd32 463d 80ee 40bc
00000250: 9480 acbd bb31 053d 34e5 74be 4626 d7bc
00000260: 64bd ebbc a820 d3bd 7ba6 993d 6235 cb3c
00000270: 2a46 29be 3674 23be 1c35 33be f8e5 61bd
00000280: 307f 21bd 12b9 acbc 82e4 813b cac0 30be
00000290: 727a fe3d 101c 1a3d ddad 2c3d 79fd d2bd
000002a0: cf39 20be 9b11 d0bd a596 8439 e79c 153c
000002b0: 256e b33d c058 03be 08fd 3bbd 2e48 013e
000002c0: 5bba 0dbd 81ce e8bd e5c9 1f3e de63 6d3d
000002d0: bca3 923b 4ef7 2a3d bfc6 59bd 2104 b53d
000002e0: abb5 dd3c 796c ed3c e3cb 4d3d 9fe3 6fbd
000002f0: f74e 183e 913e 083d 65b6 9d3d 5c23 673e
00000300: 7689 b83c beda fbbd 5eda a5bb 8ea1 ee3d
00000310: 6cac cb3d 0606 8bbd 42e1 f03d 8aed f03d
00000320: 0459 ddbc f8f9 c9bd 3fab 44bd 0566 e43d
00000330: e365 6ebd f9e0 a43d 7fd6 153e 0dfd ffbd
00000340: 0b45 543c 6ae5 5a3c fb52 c0bb a8b2 843d
00000350: 480c 0abd c0e3 a73c 46dd 123e 7de8 dc3c
00000360: b0c5 873d c99b 0fbe 82c3 933c fa26 0b3e
00000370: 3929 1e3e 6b0d b13d dfce d03c bebc e33d
00000380: 920e 313c 6bea 153c 11ce 0ebe 25cf cd3c
00000390: 0c95 6fbd 3e87 1abe 5754 2d3e 4269 9b3d
000003a0: 38ef b8bc 1383 69bd 9e2c 293d fde3 cabc
000003b0: 666a 713c 8d89 c73d 5c69 74bd a4ea 2a3c
000003c0: 3d33 c0bc 866e b2bc 4a3d 8f3d 0920 de3c
000003d0: dd23 063d 665e b3bd b4e4 d53c f178 22bc
000003e0: 4047 2c3c aeab 3cbd b224 5c3c c1c7 053d
000003f0: 6668 50be d5ea 1dbc 41e3 cdbd 87f2 fdbd

msg_layers.0.W_msg.bias f4 [64]
-0.16150299 0.013997657 -0.0947298 -0.12662849 -0.06516476 -0.13469233 0.075072736 0.06701636
0.04233695 0.09422968 -0.115996264 -0.0003630817 -0.06685663 -0.087734 0.11348331 -0.06824464
0.0071974313 -0.030322252 -0.098239124 0.061357643 -0.015943477 -0.12364204 -0.087041415 0.119077854
0.03919983 -0.069878444 -0.014139531 0.13866776 0.13061157 -0.03403171 -0.059019487 -0.048205543
-0.12392053 0.09511025 -0.025543913 0.09028887 0.07539539 -0.16066237 0.0053527034 0.02463732
-0.013312762 -0.0923935 -0.11776996 0.11059839 0.0829641 -0.08972695 -0.15097696 -0.051216494
-0.019253021 0.0063127796 -0.030318642 0.022765795 0.0499826 -0.0465645 0.043772336 0.021648275
-0.04593223 0.07781822 0.1439055 0.07528825 0.014868171 0.046338864 0.061091185 -0.14195096
00000000: 0a61 25be 6e56 653c b301 c2bd e6aa 01be
00000010: 1a75 85bd c9ec 09be bcbf 993d e03f 893d
00000020: 8269 2d3d 7efb c03d 738f edbd 005c beb9
00000030: 21ec 88bd e2ad b3bd f069 e83d d9c3 8bbd
00000040: 6ed8 eb3b 5f66 f8bc 9831 c9bd 2752 7b3d
00000050: e59b 82bc 0a38 fdbd c542 b2bd 17df f33d
00000060: 0090 203d 6e1c 8fbd 7ea9 67bc ecfe 0d3e
00000070: 0abf 053e d664 0bbd 6bbe 71bd 2d73 45bd
00000080: 0cca fdbd 2ac9 c23d 7841 d1bc 5fe9 b83d
00000090: e668 9a3d ad84 24be bb65 af3b 34d4 c93c
000000a0: c51d 5abc ce38 bdbd 6031 f1bd 6981 e23d
000000b0: 15e9 a93d c3c2 b7bd b499 1abe 63c8 51bd
000000c0: 83b8 9dbc 6fdb ce3b cd5e f8bc 557f ba3c
000000d0: 8eba 4c3d 6bba 3ebd 9f4a 333d b957 b13c
000000e0: 6f23 3cbd 295f 9f3d f75b 133e ba30 9a3d
000000f0: a199 733c d2cd 3d3d c03a 7a3d 985b 11be

msg_layers.0.norm.weight f4 [64]
1.0825258 0.94409966 1.0074085 1.0049498 0.9919902 0.91964513 0.99425334 0.9735761
1.1032057 0.92957973 0.962212 1.02936 0.93730724 0.8203636 1.0703235 0.9416707
0.9592493 0.9361264 0.9636193 0.9073993 0.96423 0.92186505 1.0569463 0.9695
0.9659211 0.91756946 0.89459753 1.0135889 0.9959043 1.0178839 1.0632403 0.8902522
1.0825685 1.0384403 1.086713 1.0221192 0.95396847 1.0149606 0.93998015 0.97610074
0.94859654 1.1341852 1.0225601 1.008033 0.9677063 0.9324117 0.95716643 1.004414
0.93433666 1.1553149 1.0054854 0.95724684 1.0512936 0.9655525 0.968806 1.0113283
0.9657096 1.0394777 1.0108572 1.0463308 0.97735304 0.9901821 0.9602004 0.97216445
00000000: 3590 8a3f 84b0 713f c3f2 803f 32a2 803f
00000010: 12f3 7d3f dd6d 6b3f 6387 7e3f 493c 793f
00000020: d835 8d3f f0f8 6d3f 8753 763f 12c2 833f
00000030: 5ef3 6f3f 5903 523f 5c00 893f 5511 713f
00000040: 5d91 753f fba5 6f3f c1af 763f 524b 683f
00000050: c7d7 763f 59ff 6b3f 044a 873f 2731 783f
00000060: 9b46 773f d5e5 6a3f 5804 653f 48bd 813f
00000070: 96f3 7e3f 054a 823f 4218 883f 91e7 633f
00000080: 9b91 8a3f 9deb 843f 6919 8b3f cdd4 823f
00000090: 4737 743f 3bea 813f 8aa2 703f bde1 793f
000000a0: 39d7 723f fb2c 913f 40e3 823f 3a07 813f
000000b0: 9abb 773f 88b2 6e3f dc08 753f a390 803f
000000c0: b030 6f3f 5ce1 933f bfb3 803f 210e 753f
000000d0: ca90 863f 732e 773f ac03 783f 3573 813f
000000e0: bf38 773f 9b0d 853f c563 813f 2bee 853f
000000f0: cf33 7a3f 937c 7d3f b2cf 753f c5df 783f

msg_layers.0.norm.bias f4 [64]
0.043240037 0.06171057 -0.04957733 0.039770998 0.032737475 0.078829184 -0.084924646 -0.03332111
0.09088737 0.07127675 0.010946831 0.04287099 0.029695237 0.028251365 -0.016424773 0.03221799
-0.016366066 0.03012332 0.03609562 0.052815657 -0.056321997 0.07997571 0.012469536 -0.052553825
0.043746844 0.113239296 -0.047012236 0.09440727 0.06529251 0.020447707 0.019474888 -0.024011018
-0.10504784 0.065584786 0.035159856 0.07975306 0.095708705 0.0012133057 0.07789204 -0.009770358
-0.008818037 0.069402404 0.054355882 0.0409956 0.0646211 -0.064155355 0.07788738 -0.006863581
0.06500145 0.09597366 -0.015994007 -0.027175244 -0.057531532 0.03417777 0.044682063 -0.030003347
0.044829637 -0.07400266 -0.0059436713 -0.087053895 -0.030924188 -0.0399188 -0.042003464 -0.02971301
00000000: 771c 313d 39c4 7c3d 9911 4bbd eae6 223d
00000010: bb17 063d 3271 a13d f9ec adbd b77b 08bd
00000020: 2823 ba3d 8bf9 913d 565a 333c 7e99 2f3d
00000030: 6d43 f33c 686f e73c 3f8d 86bc 03f7 033d
00000040: 2112 86bc 2ec5 f63c 00d9 133d 3b55 583d
00000050: e5b1 66bd 4eca a33d 064d 4c3c ae42 57bd
00000060: e42f 333d 01ea e73d e78f 40bd 9958 c13d
00000070: 14b8 853d f381 a73c cd89 9f3c c1b2 c4bc
00000080: 5223 d7bd 5151 863d c803 103d 9355 a33d
00000090: ed02 c43d c907 9f3a dd85 9f3d da13 20bc
000000a0: 8779 10bc d922 8e3d 46a4 5e3d 01eb 273d
000000b0: 1158 843d e263 83bd 6b83 9f3d e4e7 e0bb
000000c0: 7b1f 853d d78d c43d dd05 83bc 9e9e debc
000000d0: 2fa6 6bbd fdfd 0b3d 8a04 373d 94c9 f5bc
000000e0: 489f 373d b58e 97bd 21c3 c2bb 5049 b2bd
000000f0: b954 fdbc e581 23bd d30b 2cbd b368 f3bc

msg_layers.1.W_self.weight f4 [64, 64]
-0.003890369 0.0052830256 0.016388463 -0.029741904 0.036222428 0.12132908 -0.042168558 -0.013647396
-0.058617566 0.10591272 0.08326149 0.045792863 0.084759645 0.067048125 0.06062114 -0.03436481
-0.05795235 0.11431887 -0.21013883 0.055663448 0.05825713 0.13608633 0.021563873 -0.04121525
0.1342726 -0.06512022 0.0824634 -0.05354126 0.041369557 -0.060451526 0.063939676 -0.01443942
0.15927784 0.003915121 0.07741019 0.020142684 -0.053307846 -0.032298364 0.08673522 -0.029253181
0.08683244 -0.12172517 -0.17110148 -0.03362371 -0.11417553 -0.015482622 -0.09652913 -0.04512534
-0.11054713 -0.10412953 0.04144684 -0.0316104 0.08614427 -0.103928566 0.03199168 -0.04835848
-0.04609577 -0.048733197 -0.035966463 0.07172723 -0.100487664 -0.10655566 0.03665262 0.024226341
0.14293092 -0.1639081 -0.2074251 0.06381675 -0.014863696 -0.035351746 -0.048194017 0.024570996
0.16811278 0.016077988 -0.22092055 0.037707172 -0.06998306 0.076792166 -0.18002982 -0.1468989
0.020921238 -0.047647025 0.060351025 0.12247769 -0.073998496 0.07242816 -0.06070716 0.027018568
0.020662896 -0.0016932358 0.06354951 0.04153498 -0.039042983 -0.011594203 -0.07563259 -0.019514576
-0.1577555 -0.07566459 0.105510436 0.04574946 0.09749337 0.2426154 0.031435404 0.038194165
-0.17225504 0.15902047 0.17514166 0.08206128 0.057964887 -0.13301615 0.038334403 -0.1741435
0.026293037 0.050121147 0.16117725 0.062057406 0.022915203 0.13311675 0.120133296 -0.0019377066
-0.015813893 -0.08583095 -0.022285067 0.041339472 -0.051004924 0.032195468 -0.008744302 -0.054750476
-0.041131653 0.03906386 0.01887853 0.05724752 -0.10232572 -0.096203856 0.12573189 -0.10442757
-0.02558385 -0.07745514 -0.010776467 -0.05473532 0.11673107 0.019705132 -0.11658462 0.15438697
-0.13240713 0.046418723 0.10649119 -0.076451935 -0.03984345 0.09396847 -0.09033934 -0.055373788
0.11224079 0.047450703 0.033208292 -0.0037157834 0.029406317 0.055249967 -0.0281024 -0.06303226
0.09243676 -0.066735186 -0.08288227 0.049124185 -0.12907147 -0.05069061 -0.04089516 -0.08130001
-0.07310208 0.0025122308 -0.031609267 -0.067867875 0.08232915 0.043768298 -0.059244636 0.08378644
0.030460361 -0.061302666 0.06376956 -0.080430634 0.05062104 -0.086659215 0.124101914 -0.019891452
0.056509245 -0.0618932 -0.036444128 0.021909107 -0.1404689 0.08590159 -0.035449553 0.0234406
0.16441047 0.15602913 -0.19231822 -0.09355898 -0.007906179 -0.12670872 -0.19073458 -0.02972088
0.18786548 0.0731817 -0.22865002 0.14484148 0.035058353 0.053085834 -0.16582757 -0.14814006
0.0072930967 -0.041044895 -0.094218954 -0.10407157 -0.01793567 -0.16980472 -0.022920482 -0.20569162
0.10603667 0.016803809 0.012619268 -0.020648878 -0.009404954 -0.025926918 0.08535083 -0.050045878
-0.041778464 0.09843364 0.02600359 0.042380244 0.081661604 0.12152992 0.09218606 -0.11375117
-0.21425812 0.2022303 0.15015215 0.028381187 0.035481274 -0.1325283 0.061778978 -0.09925202
0.0049574273 0.20504011 0.046428494 0.042830847 -0.11822619 0.14986409 0.079989016 -0.060834676
-0.16679528 -0.03747642 0.08898576 -0.2342773 -0.118548326 -0.21333027 -0.14243421 0.17624891
00000000: 90f5 7ebb 3b1d ad3b 1941 863c 4ba5 f3bc
00000010: f85d 143d 617b f83d f0b8 2cbd 5499 5fbc
00000020: f918 70bd c5e8 d83d 0085 aa3d 4c91 3b3d
00000030: 7796 ad3d 8750 893d df4d 783d 1dc2 0cbd
00000040: 715f 6dbd 0320 ea3d a22e 57be 5bff 633d
00000050: 079f 6e3d 375a 0b3e b8a6 b03c 52d1 28bd
00000060: c27e 093e c05d 85bd 92e2 a83d 154e 5bbd
00000070: 2073 293d 059c 77bd cef2 823d 5193 6cbc
00000080: bb19 233e 6a4a 803b 3c89 9e3d 4502 a53c
00000090: 5459 5abd 4a4b 04bd 3ca2 b13d 5ea4 efbc
000000a0: 35d5 b13d 0c4b f9bd 3a35 2fbe 04b9 09bd
000000b0: dcd4 e9bd d3aa 7dbc 11b1 c5bd 59d5 38bd
000000c0: 8966 e2bd dd41 d5bd 29c4 293d e879 01bd
000000d0: 686c b03d 80d8 d4bd b509 033d 8b13 46bd
000000e0: ebce 3cbd 769c 47bd 9251 13bd bae5 923d
000000f0: 7acc cdbd db39 dabd 0f21 163d 5276 c63c
00000100: 7c5c 123e 86d7 27be 3f67 54be 5bb2 823d
00000110: dc86 73bc fecc 10bd 1767 45bd 1d49 c93c
00000120: c225 2c3e fcb5 833c ff38 62be d672 1a3d
00000130: 4753 8fbd 3645 9d3d bd59 38be aa6c 16be
00000140: 0463 ab3c 8729 43bd a332 773d 95d5 fa3d
00000150: 868c 97bd 3755 943d 12a8 78bd 0b56 dd3c
00000160: 3c45 a93c 91ef ddba 3f26 823d 9520 2a3d
00000170: 89eb 1fbd 9df5 3dbc 42e5 9abd 08dd 9fbc
00000180: a88a 21be 09f6 9abd db15 d83d c963 3b3d
00000190: 9baa c73d 2c70 783e 69c2 003d 7c71 1c3d
000001a0: a063 30be 43d6 223e 5658 333e bf0f a83d
000001b0: 976c 6d3d 6335 08be 8904 1d3d ac52 32be
000001c0: 7f64 d73c d54b 4d3d a60b 253e e82f 7e3d
000001d0: aab8 bb3c c24f 083e 7208 f63d a5fa fdba
000001e0: 238c 81bc 23c8 afbd 2c8f b6bc 9453 293d
000001f0: 8aea 50bd 65df 033d 4344 0fbc 0942 60bd
00000200: aa79 28bd 6d01 203d 26a7 9a3c 607c 6a3d
00000210: 2690 d1bd 8706 c5bd dcbf 003e 1fde d5bd
00000220: 3995 d1bc cda0 9ebd c78f 30bc 2532 60bd
00000230: b310 ef3d a86c a13c ebc3 eebd 9e17 1e3e
00000240: bc95 07be 8f21 3e3d 0e18 da3d d592 9cbd
00000250: e332 23bd 8b72 c03d d503 b9bd a0cf 62bd
00000260: 80de e53d ab5b 423d 6b05 083d 8084 73bb
00000270: 84e5 f03c ca4d 623d 0137 e6bc 0f17 81bd
00000280: 7c4f bd3d 75ac 88bd 2ebe a9bd 7136 493d
00000290: 502b 04be f5a0 4fbd af81 27bd 9f80 a6bd
000002a0: 8bb6 95bd 3da4 243b b878 01bd 50fe 8abd
000002b0: 2f9c a83d 6346 333d 81aa 72bd 3a98 ab3d
000002c0: 0288 f93c 8118 7bbd 9d99 823d d1b8 a4bd
000002d0: 0258 4f3d 637a b1bd 2529 fe3d 66f3 a2bc
000002e0: 3d76 673d b983 7dbd 7046 15bd ba7a b33c
000002f0: 14d7 0fbe 2ced af3d 8d33 11bd 8006 c03c
00000300: 385b 283e 1ac6 1f3e 11ef 44be da9b bfbd
00000310: eb88 01bc eebf 01be ed4f 43be 3479 f3bc
00000320: cf5f 403e 4ae0 953d 3b23 6abe 5351 143e
00000330: 5999 0f3d 8870 593d b4ce 29be 07b2 17be
00000340: eefa ee3b b11e 28bd def5 c0bd 7a23 d5bd
00000350: d4ed 92bc 4ae1 2dbe bcc3 bbbc d3a0 52be
00000360: c129 d93d 24a8 893c 0cc1 4e3c d627 a9bc
00000370: 3c17 1abc b064 d4bc 6acc ae3d e8fc 4cbd
00000380: e51f 2bbd 9497 c93d 7b05 d53c e896 2d3d
00000390: 333e a73d aee4 f83d 0ccc bc3d 60f6 e8bd
000003a0: 7b66 5bbe 7615 4f3e 7cc1 193e aa7f e83c
000003b0: d054 113d 80b5 07be f40b 7d3d a544 cbbd
000003c0: ea71 a23b 09f6 513e ce2b 3e3d 666f 2f3d
000003d0: 9320 f2bd f975 193e 48d1 a33d c82d 79bd
000003e0: 62cc 2abe e080 19bd 2b3e b63d 63e6 6fbe
000003f0: 77c9 f2bd 4073 5abe 46da 11be 987a 343e

msg_layers.1.W_self.bias f4 [64]
-0.2100364 -0.046011478 0.06645023 0.22336622 -0.045585215 0.20668317 -0.062500924 -0.15865421
0.24845482 -0.10557757 -0.04545994 -0.11485661 -0.045318473 0.06777845 -0.060219638 -0.03694444
-0.10790686 -0.066848285 -0.14955883 0.21062307 0.084078304 0.016531575 0.1275576 -0.0056369025
-0.11300873 -0.036245428 0.022644404 -0.020809835 -0.07824236 -0.024613388 -0.0083651105 -0.04198031
-0.05715076 -0.20039093 0.029056646 -0.060288746 0.047263153 0.09785879 -0.07731329 -0.15600625
0.0704082 -0.087421805 0.18782927 0.06474459 0.059330452 0.066124946 -0.038871232 -0.092212446
0.1664659 -0.072521165 0.067736976 -0.09313623 -0.032684706 -0.07793449 -0.1748928 0.015501252
0.061490193 -0.06189152 0.13969529 0.12152665 0.05215568 -0.026075918 0.096775346 -0.060247652
00000000: c813 57be 8876 3cbd 0f17 883d 1dba 643e
00000010: 90b7 3abd c1a4 533e 7c00 80bd 4076 22be
00000020: f16a 7e3e 0e39 d8bd 3434 3abd f139 ebbd
00000030: dd9f 39bd 6ecf 8a3d dea8 76bd 0e53 17bd
00000040: 46fe dcbd c1e7 88bd f325 19be 93ad 573e
00000050: 3f31 ac3d 3a6d 873c 769e 023e c4b5 b8bb
00000060: 1f71 e7bd 1676 14bd c280 b93c 6379 aabc
00000070: 883d a0bd 04a2 c9bc d10d 09bc 8cf3 2bbd
00000080: ea16 6abd 4833 4dbe 3408 ee3c 55f1 76bd
00000090: 0297 413d 306a c83d 6e56 9ebd 1ac0 1fbe
000000a0: 2d32 903d 340a b3bd 5156 403e d098 843d
000000b0: 7d04 733d 846c 873d 7137 1fbd e1d9 bcbd
000000c0: 0976 2a3e fa85 94bd afb9 8a3d 35be bebd
000000d0: 66e0 05bd 1e9c 9fbd 1917 33be f7f8 7d3c
000000e0: 24dd 7b3d f681 7dbd 480c 0f3e f7e2 f83d
000000f0: 32a1 553d 2a9d d5bc 2732 c63d 3ec6 76bd

msg_layers.1.W_msg.weight f4 [64, 64]
-0.25080693 0.008828091 0.08728578 0.096812375 -0.008734153 0.18574236 0.11475582 0.018859923
-0.14579593 -0.075462095 -0.07917307 -0.08576841 -0.0392943 0.14120485 -0.07126163 -0.01393271
0.078346714 -0.13491549 -0.069706835 0.06482272 0.08345111 -0.0034880864 0.009523099 0.07781357
-0.05280582 0.06807606 -0.045054782 0.09693237 0.072082974 -0.05379146 0.006640328 -0.0067398874
-0.0035969948 -0.09526123 -0.14588153 -0.06826189 -0.015940918 -0.1720733 -0.017339086 0.12177488
-0.09678626 -0.10075462 0.010172674 0.039814048 0.0346442 0.14021082 0.12729861 0.017294938
-0.010701041 -0.23655412 -0.10616646 0.11899984 0.011335499 -0.12371002 -0.116592415 -0.010519388
-0.004851338 -0.07011056 0.090767495 0.16026546 0.061479934 0.09518441 -0.041445255 0.037167292
0.060375612 0.042484008 0.07394674 -0.07712678 -0.10557537 0.007540638 0.10258704 0.07871351
0.109158896 0.04185452 0.06999422 -0.12108988 -0.02140871 0.050218243 -0.083212554 0.010091107
-0.099901244 0.056700014 0.043205187 0.013290657 0.043899953 0.06976539 0.093817376 0.04244673
-0.11762067 0.10906017 -0.00063165446 0.07858051 0.04072391 0.10800084 -0.00595644 0.12296332
0.13332644 -0.09687498 -0.12889753 0.09601883 -0.015337257 0.026598865 -0.11871411 -0.025926642
0.045699887 0.040588092 0.08995702 0.07374214 -0.07451372 -0.08082105 -0.051596574 0.13348389
-0.10162673 -0.0011119428 0.03391941 -0.08552613 -0.11908194 0.065480344 0.014472741 0.111364014
0.016482025 0.0285227 -0.063222855 -0.043123197 0.07187088 -0.12591277 -0.04408197 0.18934804
0.14658678 -0.017600821 -0.04725433 -0.12159141 -0.035385035 -0.13885915 -0.10781969 -0.07415518
0.17062117 0.0011726936 -0.08156717 -0.089251876 -0.053165734 0.0677476 -0.08716996 -0.03458218
-0.04166261 -0.036598146 -0.09619918 -0.13154565 -0.033370063 -0.10877725 0.03394517 0.07550331
-0.08716958 -0.11271423 0.110264726 -0.10065337 0.033602357 0.0012197318 0.003919857 0.03836289
0.05584326 -0.15471557 -0.081977755 -0.06444775 0.076031335 0.09079564 0.045476004 0.021948341
-0.083031215 0.10117279 -0.0056771454 0.09257896 0.13083683 0.08046132 -0.045095395 0.042866953
-0.08067589 0.15260282 0.08332412 -0.054370273 -0.11335906 0.020328766 -0.088692464 0.16020499
0.03734777 0.17551397 -0.013414262 0.038060952 0.055434458 0.037559018 0.08341884 0.12344537
0.14875822 0.060005322 -0.11091696 -0.013159627 0.025073888 -0.03350212 -0.2273915 0.12287916
0.010248491 0.09852501 0.1461649 -0.08449523 0.031021232 0.11649798 -0.05815998 0.012341052
-0.1277315 -0.021269528 -0.099271566 0.13895825 0.05839519 -0.07330172 -0.05963478 -0.14393486
0.1120499 -0.050956883 -0.1194742 -0.040624365 0.053673144 -0.047888387 0.15515472 0.12647805
-0.016209392 0.08595381 0.019320443 0.025864298 -0.09291682 -0.0574452 0.1606444 0.06916003
0.06548567 -0.14616677 0.056411292 0.17448312 0.05117815 -0.100278035 0.09562066 0.073296055
-0.03507485 0.02918021 0.042839557 -0.051441904 0.009866765 0.10768563 0.09947203 0.13350251
0.09935222 -0.11378924 -0.009571897 -0.08603486 -0.08281562 0.050149057 -0.0926822 0.070251256
00000000: c469 80be b3a3 103c e3c2 b23d 9145 c63d
00000010: b119 0fbc 3f33 3e3e 1905 eb3d 2080 9a3c
00000020: 874b 15be df8b 9abd 7e25 a2bd 59a7 afbd
00000030: 0ff3 20bd 0198 103e 9ef1 91bd 0546 64bc
00000040: 3e74 a03d 4927 0abe 75c2 8ebd c6c1 843d
00000050: 6ae8 aa3d 6198 64bb c606 1c3c b95c 9f3d
00000060: ea4a 58bd 766b 8b3d 5d8b 38bd 7a84 c63d
00000070: 3da0 933d 6f54 5cbd 1c97 d93b 46da dcbb
00000080: 8fbb 6bbb 5218 c3bd f861 15be e4cc 8bbd
00000090: 8796 82bc fc33 30be b30a 8ebc 1c65 f93d
000000a0: e037 c6bd 7058 cebd 4aab 263c 0e14 233d
000000b0: 14e7 0d3d 6d93 0f3e 915a 023e 1dae 8d3c
000000c0: 6b53 2fbc 3e3b 72be cd6d d9bd 30b6 f33d
000000d0: 87b8 393c ae5b fdbd 01c8 eebd 8359 2cbc
000000e0: f9f7 9ebb 2096 8fbd 4fe4 b93d a11c 243e
000000f0: 62d2 7b3d 0bf0 c23d 80c2 29bd bb3c 183d
00000100: 6b4c 773d b603 2e3d 6371 973d a5f4 9dbd
00000110: e637 d8bd 7517 f73b 2719 d23d 8c34 a13d
00000120: b38e df3d a56f 2b3d 2159 8f3d f9fd f7bd
00000130: 5261 afbc a5b1 4d3d 586b aabd 2c55 253c
00000140: 0699 ccbd 463e 683d ecf7 303d 0ec1 593c
00000150: 70d0 333d 28e1 8e3d 5323 c03d 9fdc 2d3d
00000160: 1be3 f0bd f05a df3d 9d95 25ba d2ee a03d
00000170: 1dce 263d 8b2f dd3d 3e2e c3bb 31d4 fb3d
00000180: ba86 083e 6466 c6bd b7fd 03be 85a5 c43d
00000190: 1e49 7bbc dde5 d93c 6220 f3bd 1c64 d4bc
000001a0: ce2f 3b3d b33f 263d 633b b83d 1e06 973d
000001b0: a69a 98bd 8285 a5bd ee56 53bd 00b0 083e
000001c0: ad21 d0bd 9cbe 91ba 14ef 0a3d 5328 afbd
000001d0: 3be1 f3bd 8f1a 863d 131f 6d3c d112 e43d
000001e0: 5005 873c 70a8 e93c fc7a 81bd f3a1 30bd
000001f0: 0a31 933d 47ef 00be 4c8f 34bd 74e4 413e
00000200: d81a 163e 992f 90bc c28d 41bd eb04 f9bd
00000210: e6ef 10bd 1831 0ebe 92d0 dcbd acde 97bd
00000220: 51b7 2e3e 11b5 993a b00c a7bd b0c9 b6bd
00000230: 50c4 59bd 41bf 8a3d 2a86 b2bd 0ba6 0dbd
00000240: 6aa6 2abd f0e7 15bd 1304 c5bd e7b3 06be
00000250: 0caf 08bd 9bc6 debd 170a 0b3d 7ba1 9a3d
00000260: f785 b2bd b8d6 e6bd 79d2 e13d 5b23 cebd
00000270: a0a2 093d 68df 9f3a 2572 803b 6822 1d3d
00000280: e7bb 643d c26d 1ebe f4e3 a7bd 2ffd 83bd
00000290: 51b6 9b3d 11f3 b93d 0c45 3a3d 02cd b33c
000002a0: 450c aabd ae33 cf3d 5907 babb 0a9a bd3d
000002b0: 17fa 053e e8c8 a43d f3b5 38bd 4295 2f3d
000002c0: 6739 a5bd ea43 1c3e d6a5 aa3d 5db3 5ebd
000002d0: cb28 e8bd 8388 a63c 65a4 b5bd c70c 243e
000002e0: faf9 183d efb9 333e 7ec7 5bbc cde5 1b3d
000002f0: 3e0f 633d 7cd7 193d 7fd7 aa3d edd0 fc3d
00000300: 1354 183e 24c8 753d 6e28 e3bd 7a9b 57bc
00000310: c167 cd3c 8539 09bd 51d9 68be 12a8 fb3d
00000320: 49e9 273c 7bc7 c93d 40ac 153e d60b adbd
00000330: 3d20 fe3c 7e96 ee3d 2939 6ebd 2032 4a3c
00000340: 0ccc 02be 6f3d aebc e44e cbbd 124b 0e3e
00000350: cb2f 6f3d 361f 96bd 9943 74bd a963 13be
00000360: 6b7a e53d 2ab8 50bd e4ae f4bd bc65 26bd
00000370: 5fd8 5b3d 9d26 44bd e1e0 1e3e 7683 013e
00000380: 8fc9 84bc 8d08 b03d e845 9e3c 5de1 d33c
00000390: 2c4b bebd a84b 6bbd f77f 243e c6a3 8d3d
000003a0: 5a1d 863d beac 15be 870f 673d b4ab 323e
000003b0: 2ea0 513d 925e cdbd c4d4 c33d 3e1c 963d
000003c0: a5aa 0fbd 560b ef3c 8878 2f3d bfb4 52bd
000003d0: 36a8 213c 498a dc3d feb7 cb3d e2b4 083e
000003e0: 2d79 cb3d 550a e9bd 72d3 1cbc 0b33 b0bd
000003f0: 3c9b a9bd 1969 4d3d 2ad0 bdbd e4df 8f3d
