QuantLaxmi_Research/dtrn/results/checkpoints/fold1_BANKNIFTY/dtrn_stage2.pt (torch, 232927 bytes, 37 tensors)

embed.embed.0.weight f4 [32, 2]
0.553653 0.3069867 -0.72054803 0.3906951 -0.460529 -0.22735159 -0.57401335 -0.6500044
0.53746325 0.20244719 0.36464372 -0.39862344 -0.448647 -0.27081823 -0.91787654 0.41055143
-0.25176454 0.5516227 0.14410225 -0.06307679 -0.21240488 -0.17899671 -0.070792966 -0.7217563
-0.6890284 0.31642306 -0.21392705 0.0070234155 -0.77311105 0.3431871 0.5903596 0.30848286
0.12622593 0.6112757 0.6103709 -0.5543099 0.09491169 0.2945534 0.4698567 -0.4057436
-0.31541452 -0.5254902 -0.6226077 -0.3273353 0.40708646 -0.07613198 -0.6332031 0.15980196
0.36663097 -0.38053915 0.24264434 0.43157288 0.4762007 -0.5876382 -0.74392754 -0.05311863
-0.7055052 0.13986571 -0.71449804 -0.40572643 0.13148415 0.6085644 -0.6220149 -0.2746978
00000000: 34bc 0d3f 5c2d 9d3e d675 38bf 3009 c83e
00000010: 75ca ebbe dbce 68be 8af2 12bf b066 26bf
00000020: 3197 093f 514e 4f3e 95b2 ba3e 5f18 ccbe
00000030: 0fb5 e5be b0a8 8abe f5f9 6abf cc33 d23e
00000040: 48e7 80be 2537 0d3f 8a8f 133e 672e 81bd
00000050: aa80 59be ea4a 37be e7fb 90bd 05c5 38bf
00000060: 2a64 30bf 3402 a23e b10f 5bbe ae24 e63b
00000070: 9bea 45bf 38b6 af3e cf21 173f 77f1 9d3e
00000080: 5f41 013e 907c 1c3f 4441 1c3f 41e7 0dbf
00000090: 0f61 c23d b4cf 963e 0f91 f03e a0bd cfbe
000000a0: 037e a1be 8786 06bf 3863 1fbf 7e98 a7be
000000b0: a36d d03e 15eb 9bbd 9919 22bf 20a3 233e
000000c0: 0eb7 bb3e 07d6 c2be c277 783e 1ff7 dc3e
000000d0: 94d0 f33e 756f 16bf 0972 3ebf ec92 59bd
000000e0: fd9b 34bf f538 0f3e 58e9 36bf 60bb cfbe
000000f0: c8a3 063e e0ca 1b3f 5e3c 1fbf 31a5 8cbe

embed.embed.0.bias f4 [32]
0.5268051 0.30830958 -0.5475149 -0.10104273 0.44677147 0.022841457 0.37529293 0.48456693
-0.5850963 -0.13812163 0.20049565 0.23262428 0.12868918 -0.44567424 -0.23142757 -0.54591334
0.21203122 0.7056871 0.390298 0.32319975 -0.56706125 -0.1991926 -0.14008929 0.4509926
0.34505624 -0.43674523 0.43976474 0.23088703 -0.5034698 0.14885357 -0.4895817 0.7029555
00000000: b3dc 063f c1da 9d3e f029 0cbf 7eef cebd
00000010: 3bbf e43e 021e bb3c 6526 c03e 2819 f83e
00000020: dfc8 15bf c26f 0dbe bb4e 4d3e 0f35 6e3e
00000030: 19c7 033e 6a2f e4be 59fb 6cbe fac0 0bbf
00000040: b61e 593e e9a7 343f 24d5 c73e 707a a53e
00000050: ed2a 11bf 25f9 4bbe 9173 0fbe 81e8 e63e
00000060: 36ab b03e 129d dfbe d828 e13e a66d 6c3e
00000070: 66e3 00bf 126d 183e 74aa fabe e4f4 333f

embed.embed.2.weight f4 [32, 32]
0.15934275 0.14557602 -0.055520352 -0.02733305 -0.08253048 0.033775926 0.059059165 0.062211957
-0.10401832 -0.012545088 -0.028888248 0.040452506 0.1846672 0.007593628 -0.17108764 -0.05920418
0.15132596 0.07857563 0.034013 -0.071872674 -0.03576524 0.12389487 -0.08931245 -0.033868264
0.09245304 0.061635405 0.2558632 0.19082366 0.09388939 0.15707457 -0.12898885 0.13715917
-0.09620359 -0.031346377 -0.026142819 0.18825278 -0.21744287 0.053029556 -0.1755925 0.037175495
0.05454227 -0.01243356 -0.2038963 0.021291468 0.033371948 -0.07832443 0.13467655 -0.029948326
0.056232624 0.10291703 -0.17274316 -0.18985318 0.19005282 0.20092125 -0.19355293 -0.13444349
0.11195715 -0.19082722 -0.054083556 -0.12378842 0.112518735 -0.020675443 0.1444868 -0.19586325
-0.020658715 0.033145662 -0.013791042 -0.094164684 -0.041981816 0.14034557 0.16993994 -0.0500421
0.12572175 0.11736764 0.006247314 0.08890505 0.1302367 -0.045267016 -0.038994532 -0.039721914
-0.062444754 -0.10602938 0.19512455 0.1063002 -0.13765183 -0.06709971 -0.12381708 -0.13590583
-0.013268545 0.029569676 0.117714725 -0.077034496 -0.1786967 -0.11234786 0.1500317 0.13977659
-0.08758811 -0.060488425 -0.1274817 -0.15658814 0.010172877 0.08256423 0.07003052 0.072247475
0.169246 -0.19289567 -0.16147025 -0.08777513 0.036932576 -0.01946775 -0.15656702 -0.07284072
-0.04618501 0.12024779 0.17449869 -0.13602437 -0.20552681 -0.12386809 -0.03373284 -0.12579356
-0.17021312 -0.004541025 -0.14107467 -0.05570322 0.08707131 0.11204759 0.079893135 -0.08426026
0.06745727 -0.0928172 0.047099352 -0.0923498 -0.09981228 -0.124340795 -0.03589042 0.063589595
-0.10766381 0.050446253 0.04679255 -0.13380717 -0.11192301 0.15872991 0.10216128 0.1405171
-0.14895688 -0.078223966 -0.036323957 0.15543728 -0.07395899 0.058395054 -0.019796869 0.06539349
-0.12955636 -0.035094738 -0.06880313 0.14047495 0.09112311 0.11109197 -0.040119227 0.17958085
-0.04032658 -0.036205947 0.026267381 0.04801172 0.20733744 -0.15555082 0.04102414 -0.02266165
-0.17153448 -0.2598843 -0.055802103 -0.084382616 0.1672406 -0.14250569 -0.020997243 -0.13969609
0.09628742 -0.07110487 0.012402524 0.09579559 0.10051541 0.06471804 -0.15804219 0.11683056
-0.15893492 -0.18098016 -0.13238223 -0.0455968 -0.25604331 0.034643 -0.07743772 -0.06620046
-0.10504547 0.075744905 -0.143697 0.10579962 0.08531258 0.15944669 -0.076721 0.009984251
-0.12990898 0.11723409 0.010265335 0.011771049 0.043428674 0.15358649 -0.029488405 0.11818684
0.06482808 -0.11166703 -0.02913446 0.12399637 0.1667061 -0.048128664 -0.16212398 0.045411248
0.19243576 0.18503478 0.09267766 0.040388614 0.18644708 0.12130271 -0.102561414 -0.1435336
-0.13454233 -0.23353119 0.16429345 -0.14722951 0.16219448 0.040417153 -0.10906001 -0.04898445
0.104559556 -0.05260663 0.05777775 -0.11597624 -0.05675151 0.051601697 -0.2854671 0.030122083
-0.015474069 -0.14803001 0.15021653 0.018194735 0.034335215 0.05177803 -0.07084067 -0.19247423
0.0236202 -0.05741578 -0.13841815 -0.10545602 0.097713195 0.0345491 -0.096120074 0.03254658
00000000: bf2a 233e e111 153e 4f69 63bd 8fe9 dfbc
00000010: be05 a9bd a058 0a3d 06e8 713d f7d1 7e3d
00000020: 8f07 d5bd ea89 4dbc 0ca7 ecbc 87b1 253d
00000030: 6619 3d3e f8d3 f83b 9931 2fbe 1580 72bd
00000040: 31f5 1a3e 43ec a03d 3751 0b3d fb31 93bd
00000050: 937e 12bd 98bc fd3d 72e9 b6bd 73b9 0abd
00000060: 0558 bd3d 6875 7c3d 8000 833e 4767 433e
00000070: 1549 c03d 28d8 203e a715 04be 7473 0c3e
00000080: 6306 c5bd 0f65 00bd 7729 d6bc 56c5 403e
00000090: 58a9 5ebe 8535 593d 85ce 33be 5545 183d
000000a0: b767 5f3d 21b6 4bbc 31ca 50be 726b ae3c
000000b0: 06b1 083d 8f68 a0bd a6e8 093e 3156 f5bc
000000c0: 2e54 663d 2ac6 d23d 95e3 30be df68 42be
000000d0: 359d 423e 4dbe 4d3e bd32 46be 8eab 09be
000000e0: ca49 e53d 3668 43be b886 5dbd c884 fdbd
000000f0: 3970 e63d 8c5f a9bc 59f4 133e 6090 48be
00000100: 773c a9bc bfc3 073d d3f3 61bc 6ad9 c0bd
00000110: 20f5 2bbd c0b6 0f3e bc04 2e3e f2f8 4cbd
00000120: 34bd 003e 725e f03d 45b6 cc3b da13 b63d
00000130: c55c 053e e869 39bd bbb8 1fbd 72b3 22bd
00000140: 12c6 7fbd ee25 d9bd bbce 473e ebb3 d93d
00000150: 9af4 0cbe 936b 89bd cf93 fdbd e62a 0bbe
00000160: 5064 59bc 1b3c f23c 6b14 f13d 43c4 9dbd
00000170: 45fc 36be a316 e6bd e9a1 193e 9821 0f3e
00000180: 6561 b3bd b6c2 77bd 908a 02be a458 20be
00000190: 24ac 263c 6f17 a93d 296c 8f3d 7cf6 933d
000001a0: d34e 2d3e 7186 45be 7558 25be 73c3 b3bd
000001b0: 9d46 173d d57a 9fbc 1b53 20be 842d 95bd
000001c0: 7e2c 3dbd 7944 f63d c9af 323e f949 0bbe
000001d0: 9f75 52be 8eae fdbd 722b 0abd 07d0 00be
000001e0: 594c 2ebe e1cc 94bb e175 10be 0f29 64bd
000001f0: 7152 b23d 3579 e53d 039f a33d a590 acbd
00000200: 0a27 8a3d f216 bebd 40eb 403d e421 bdbd
00000210: 616a ccbd 63a6 febd d501 13bd 433b 823d
00000220: d87e dcbd bba0 4e3d 8ba9 3f3d bf04 09be
00000230: e437 e5bd 188a 223e ef39 d13d b7e3 0f3e
00000240: 2788 18be e333 a0bd 6ec8 14bd f32a 1f3e
00000250: d077 97bd a72f 6f3d 0b2d a2bc 06ed 853d
00000260: 6caa 04be 80bf 0fbd a8e8 8cbd aad8 0f3e
00000270: c19e ba3d 3084 e33d 0f54 24bd 0be4 373e
00000280: 7c2d 25bd b04c 14bd b12e d73c f0a7 443d
00000290: 4450 543e b748 1fbe ee08 283d eda4 b9bc
000002a0: bca6 2fbe 8e0f 85be bf90 64bd cbd0 acbd
000002b0: 1f41 2b3e 03ed 11be 6902 acbc 7e0c 0fbe
000002c0: 5732 c53d 6e9f 91bd f533 4b3c 7a30 c43d
000002d0: 06db cd3d e48a 843d d0d5 21be dc44 ef3d
000002e0: d6bf 22be dd52 39be 358f 07be b6c3 3abd
000002f0: 1c18 83be d2e5 0d3d ab97 9ebd 1b94 87bd
00000300: 1422 d7bd 2520 9b3d 4e25 13be 79ad d83d
00000310: 5db8 ae3d fe45 233e e61f 9dbd fc94 233c
00000320: dc06 05be 6d18 f03d f02f 283c 5cdb 403c
00000330: 44e2 313d c745 1d3e ab91 f1bc f10b f23d
00000340: 96c4 843d afb1 e4bd 64ab eebc cff1 fd3d
00000350: 01b5 2a3e 9022 45bd d403 26be 2501 3a3d
00000360: e10d 453e c279 3d3e c9cd bd3d 886e 253d
00000370: fceb 3e3e 8e6d f83d b80b d2bd 79fa 12be
00000380: 77c5 09be cd22 6fbe 8b3c 283e 55c3 16be
00000390: 4f16 263e 758c 253d db5a dfbd eba3 48bd
000003a0: 5223 d63d 0d7a 57bd 5da8 6c3d f384 edbd
000003b0: 4574 68bd 4d5c 533d be28 92be 96c2 f63c
000003c0: f386 7dbc 2e95 17be 5dd2 193e 200d 953c
000003d0: 15a3 0c3d 3315 543d ea14 91bd f717 45be
000003e0: 267f c13c cf2c 6bbd 7dbd 0dbe 53f9 d7bd
000003f0: db1d c83d 5b83 0d3d 9ada c4bd 904f 053d

embed.embed.2.bias f4 [32]
-0.03159173 -0.04725344 0.057707943 -0.013096289 -0.16439027 0.023196356 0.080149576 -0.1445765
0.05811922 -0.027418762 -0.07148408 -0.1637798 0.10235011 -0.03692751 -0.15395503 0.04117194
0.18956809 0.03577205 0.05372933 0.109690554 0.05283581 0.10569686 0.19011883 -0.14285947
0.06496266 -0.16188486 -0.099354975 0.111377664 -0.09994261 0.087666266 -0.19727078 0.08466811
00000000: 5466 01bd d38c 41bd 2a5f 6c3d d191 56bc
00000010: ec55 28be 4906 be3c 7625 a43d dd0b 14be
00000020: 6b0e 6e3d 509d e0bc 3f66 92bd e4b5 27be
00000030: ef9c d13d 4d41 17bd 63a6 1dbe e8a3 283d
00000040: 231e 423e b785 123d 4913 5c3d 71a5 e03d
00000050: 5d6a 583d 9877 d83d 83ae 423e c149 12be
00000060: 250b 853d 25c5 25be 9f7a cbbd f919 e43d
00000070: b6ae ccbd 5f8a b33d 5a01 4abe 7966 ad3d

input_proj.weight f4 [64, 32]
-0.18194573 -0.028455628 -0.0022984985 -0.18064962 -0.13552338 -0.11662623 0.14783314 -0.18985961
-0.051578715 -0.07419613 0.11604658 0.11619688 0.00012271364 0.09549491 0.073790416 0.18694328
-0.11206721 -0.02092219 0.04597733 0.031761315 0.17195742 0.24050571 0.22000487 -0.07352823
-0.17653774 0.001770557 -0.10102302 0.06902083 0.084015734 0.10717491 -0.15761586 0.252327
-0.038237233 0.09287175 0.13381176 0.052963484 -0.08228228 -0.1425248 -0.09792425 0.09119055
-0.06711224 -0.009565882 -0.020545322 -0.0040841345 0.0061766887 0.12511857 -0.074913666 0.15939824
0.11845879 0.017295 0.058765087 0.08869761 0.045500353 0.07281644 0.10590213 0.08134801
-0.1996227 0.06767105 -0.0002005929 -0.12146741 -0.13000962 0.100425124 0.0403828 0.115157254
-0.0724762 0.10585936 0.0074092937 -0.13245387 0.10302473 0.16451086 -0.16540846 -0.072490856
-0.08141819 0.14016789 -0.009464154 -0.1496516 -0.14129041 0.0014679101 0.016799256 -0.009271048
-0.11666955 -0.06516723 0.09877891 -0.12397586 0.07749498 -0.08936535 -0.10792366 -0.086518414
0.061566625 0.023596497 -0.17929891 -0.03424436 0.029510966 -0.1628074 -0.08626751 -0.032422967
0.046941783 -0.10980804 0.03285419 -0.11772072 -0.022721788 -0.031554904 0.090787165 -0.011706278
-0.073059134 -0.15753552 0.029445376 -0.09688853 -0.061064135 0.18158935 -0.08282081 0.113640904
-0.15920049 0.12767638 -0.14537019 0.011791248 0.074901946 0.14946423 -0.18252818 0.0054130177
0.13255276 -0.14892936 0.18288764 -0.018687991 -0.00045248846 -0.017794035 -0.14546537 0.026006114
-0.22839716 0.20557418 -0.021388317 -0.044429373 -0.073729314 0.013052488 0.03679756 -0.1011625
-0.17476147 0.06487233 -0.109611355 -0.18108548 0.07151704 -0.11641024 0.24298796 0.0009551738
-0.0056676837 -0.080321714 0.23039323 -0.16634859 0.0017271262 -0.0958784 0.21234114 -0.023630083
0.15546678 -0.1302485 -0.18693636 -0.113417536 0.056849115 0.028044358 0.08837028 -0.046683572
-0.045799047 0.11597211 0.13624586 -0.07357384 0.1299347 -0.054396488 -0.118159525 0.0034925311
-0.15099637 0.02196814 0.036290284 0.06573678 0.10397517 0.06173387 0.11361767 0.04417914
0.089396924 0.06858608 0.10503107 -0.18630545 0.09888873 0.035408206 0.20284796 0.023085441
0.102132164 0.050095636 0.12382942 0.18382333 -0.04757602 -0.12739274 0.09143864 -0.018339546
0.06713628 0.086748704 -0.14450519 -0.018206611 -0.008986678 0.05015772 -0.02799832 -0.049329117
-0.14955388 0.008887064 -0.10925564 0.23532212 -0.1231765 0.22500685 0.010317922 0.12818848
0.04996393 0.03916486 -0.017440928 -0.01514611 -0.014566813 0.09794296 -0.23373958 -0.06456213
-0.11936437 -0.060612395 0.07948457 0.05539536 0.046801917 -0.15560018 0.20728347 0.10243939
-0.08727468 0.13879773 -0.07297361 0.060413525 0.055913012 -0.06319067 0.11830509 -0.0055604707
0.15542816 -0.0065852934 0.05562659 -0.17967324 0.11931398 0.10911162 0.16460831 -0.08722937
-0.029605115 -0.19928642 -0.035981245 -0.077111535 0.024158005 0.13825 0.1506116 0.058861323
-0.058077358 -0.053709038 -0.18354179 -0.068563566 -0.097667515 -0.07029059 -0.1130293 0.048969764
00000000: fb4f 3abe c71b e9bc 68a2 16bb 37fc 38be
00000010: a4c6 0abe bcd9 eebd 9261 173e 8f6a 42be
00000020: 3444 53bd 24f4 97bd d4a9 ed3d a1f8 ed3d
00000030: b1ac 0039 d692 c33d 6e1f 973d 0f6e 3f3e
00000040: 7e83 e5bd 0365 abbc ba52 3c3d 2718 023d
00000050: 9b15 303e 2147 763e f548 613e f895 96bd
00000060: 4fc6 34be 0912 e83a 28e5 cebd cb5a 8d3d
00000070: 7110 ac3d 857e db3d 0d66 21be 0131 813e
00000080: a59e 1cbd 8b33 be3d f305 093e 3df0 583d
00000090: 9d83 a8bd 05f2 11be 828c c8bd 1cc2 ba3d
000000a0: 2472 89bd 38ba 1cbc aa4e a8bc 34d4 85bb
000000b0: d265 ca3b 151f 003e 566c 99bd 4b39 233e
000000c0: 869a f23d 3eae 8d3c a9b3 703d 18a7 b53d
000000d0: 945e 3a3d c920 953d 37e3 d83d c999 a63d
000000e0: e569 4cbe 1f97 8a3d 3f56 52b9 e8c3 f8bd
000000f0: 3e21 05be b0ab cd3d 6f68 253d 91d7 eb3d
00000100: 676e 94bd cbcc d83d a9c9 f23b fda1 07be
00000110: a1fe d23d 8975 283e d660 29be 1676 94bd
00000120: 94be a6bd 2c88 0f3e 8a0f 1bbc 453e 19be
00000130: 6fae 10be e466 c03a 989e 893c 98e5 17bc
00000140: 72f0 eebd 6676 85bd 994c ca3d 0ee7 fdbd
00000150: b0b5 9e3d 2e05 b7bd 1407 ddbd 9130 b1bd
00000160: 492d 7c3d 714d c13c 229a 37be d043 0cbd
00000170: fbc0 f13c fcb6 26be 05ad b0bd f2cd 04bd
00000180: 0746 403d 0ae3 e0bd 1d92 063d 9017 f1bd
00000190: 0b23 babc b73f 01bd 9fee b93d b0cb 3fbc
000001a0: 07a0 95bd fe50 21be 6e37 f13c 7e6d c6bd
000001b0: 631e 7abd 8ff2 393e f59d a9bd 90bc e83d
000001c0: 7405 23be 99bd 023e ecdb 14be 1430 413c
000001d0: 3166 993d 270d 193e abe8 3abe af5f b13b
000001e0: e9bb 073e f080 18be e646 3b3e 8f17 99bc
000001f0: f93b edb9 ccc4 91bc e0f4 14be c60a d53c
00000200: f2e0 69be 0a82 523e 8d36 afbc 93fb 35bd
00000210: 65ff 96bd 1ada 553c 0ab9 163d 492e cfbd
00000220: acf4 32be c9db 843d eb7b e0bd 796e 39be
00000230: 8777 923d 7e68 eebd d6d1 783e a164 7a3a
00000240: fab7 b9bb b67f a4bd 34ec 6b3e 4957 2abe
00000250: bd60 e23a e55b c4bd f56f 593e e093 c1bc
00000260: af32 1f3e dd5f 05be 3f6c 3fbe 7447 e8bd
00000270: 9eda 683d 48bd e53c 7afb b43d 4637 3fbd
00000280: c897 3bbd c982 ed3d 0984 0b3e e2ad 96bd
00000290: 9a0d 053e dace 5ebd 9ffd f1bd f3e2 643b
000002a0: cb9e 1abe 87f6 b33c 1fa5 143d 01a1 863d
000002b0: eff0 d43d a8dc 7c3d 62b0 e83d 30f5 343d
000002c0: bc15 b73d dc76 8c3d 881a d73d dbc6 3ebe
000002d0: 2d86 ca3d 3208 113d 60b7 4f3e ae1d bd3c
000002e0: ab2a d13d 1531 4d3d 479a fd3d 2f3c 3c3e
000002f0: 13df 42bd 3e73 02be 2f44 bb3d d13c 96bc
00000300: bf7e 893d 4ea9 b13d 2bf9 13be 0826 95bc
00000310: dc3c 13bc 2e72 4d3d bc5c e5bc 540d 4abd
00000320: a724 19be 0c9b 113c 6cc1 dfbd 48f8 703e
00000330: f643 fcbd 3268 663e 800c 293c d743 033e
00000340: faa6 4c3d 556b 203d 47e0 8ebc 6427 78bc
00000350: a4a9 6ebc 5296 c83d 6e59 6fbe 2639 84bd
00000360: 4f75 f4bd b444 78bd cec8 a23d 3fe6 623d
00000370: 5eb3 3f3d a755 1fbe 1e42 543e becb d13d
00000380: 11bd b2bd fe20 0e3e 3073 95bd 2c74 773d
00000390: 0b05 653d 1c6a 81bd f049 f23d 9c34 b6bb
000003a0: 8f28 1f3e 72c9 d7bb b5d8 633d 43fc 37be
000003b0: e35a f43d ea75 df3d 158f 283e 50a5 b2bd
000003c0: 6d86 f2bc bd11 4cbe 1261 13bd a7ec 9dbd
000003d0: 02e7 c53c 6891 0d3e ed39 1a3e 9218 713d
000003e0: 86e2 6dbd 02fe 5bbd 61f2 3bbe 0e6b 8cbd
000003f0: e805 c8bd 83f4 8fbd e87b e7bd 8594 483d

input_proj.bias f4 [64]
0.2358428 0.14957137 -0.18169867 0.06495258 0.10401666 -0.0998281 -0.04753784 -0.08849348
0.21579221 0.112976715 -0.10915053 0.12343014 -0.1508132 -0.13645272 -0.076001525 0.018836664
0.0874741 -0.003994944 -0.06794963 -0.06987189 -0.18838233 -0.09806534 -0.017691823 -0.12292998
-0.11946361 -0.1531525 -0.08909338 -0.042379547 0.025676975 0.13863443 0.20122467 0.025247127
-0.024401752 0.04257719 0.16001077 0.05758377 0.10978883 0.10198775 0.14834958 -0.14799812
-0.04569172 0.174181 0.19073819 -0.02193257 0.01273524 -0.1657794 -0.054571375 0.008003983
0.03862431 0.20921792 0.110628515 -0.11688969 -0.12993896 -0.12768155 0.0459877 0.07432202
-0.08826547 0.046435475 0.012133598 -0.18723467 -0.023765279 -0.11495431 -0.10618794 0.049997583
00000000: c680 713e 3d29 193e 370f 3abe dc05 853d
00000010: b006 d53d ad72 ccbd 0ab7 42bd 123c b5bd
00000020: a2f8 5c3e 5660 e73d 508a dfbd f1c8 fc3d
00000030: c76e 1abe 43ba 0bbe b0a6 9bbd 594f 9a3c
00000040: 9f25 b33d 05e8 82bb 2d29 8bbd fe18 8fbd
00000050: 4ce7 40be 7bd6 c8bd 71ee 90bc b7c2 fbbd
00000060: 56a9 f4bd 02d4 1cbe 9776 b6bd 2d96 2dbd
00000070: 8558 d23c 2ff6 0d3e d70d 4e3e 10d3 ce3c
00000080: 2fe6 c7bc 6b65 2e3d ddd9 233e f6dc 6b3d
00000090: f7d8 e03d f4de d03d f4e8 173e d28c 17be
000000a0: 3e27 3bbd 815c 323e df50 433e efab b3bc
000000b0: 78a7 503c 13c2 29be 3c86 5fbd 2323 033c
000000c0: 8634 1e3d 393d 563e 3491 e23d dd63 efbd
000000d0: b80e 05be f4be 02be 995d 3c3d 2536 983d
000000e0: 87c4 b4bd 2033 3e3d 00cc 463c 72ba 3fbe
000000f0: 67af c2bc 2a6d ebbd 1079 d9bd 44ca 4c3d

msg_layers.0.W_self.weight f4 [64, 64]
0.19170323 0.12977025 -0.07535636 -0.06543662 0.13039877 -0.016666288 -0.051457398 0.038274568
0.24604166 0.1105875 0.15896918 0.17242996 0.055647474 -0.047946077 -0.0019032933 0.114382185
0.17381541 -0.11576 0.030645095 -0.09982386 -0.08639479 -0.12949663 -0.014493078 -0.21948819
-0.15814267 -0.113427855 0.029016266 -0.08702657 -0.11657003 -0.09404871 -0.12063305 -0.057338882
-0.11799676 -0.16061158 0.14858639 0.013283706 -0.021164589 0.09049968 0.06515676 -0.16973832
-0.063403144 0.0016835444 -0.03101753 0.08588757 -0.031173864 -0.08410258 -0.119671345 0.18582033
-0.03864864 0.007187121 0.0783348 -0.0366258 -0.21419157 0.17763709 -0.028287381 -0.03257151
-0.13012782 0.11699445 0.12907763 -0.07346149 0.23274988 -0.1713916 -0.04338696 0.03565455
0.052822683 -0.09528235 0.083844885 0.100420885 -0.09962544 0.02096176 -0.06901771 -0.099812485
0.011843094 -0.043030202 0.12084247 0.11483231 -0.014531471 0.15495288 -0.08460305 0.04524847
0.08478757 -0.06778802 0.060534645 -0.12527654 -0.111573376 -0.10929139 -0.06562148 0.05092275
-0.10630097 0.039805297 -0.038231324 0.032796606 0.116383545 -0.08012127 -0.04654938 -0.11141171
-0.058734734 -0.05523461 0.037300985 0.042753205 0.06259797 0.080501795 -0.057539266 -0.049750254
-0.043148477 -0.060252465 0.032443363 0.08092279 0.12020421 0.09635091 0.016249923 0.027861232
-0.021685766 -0.012076769 0.13076228 -0.108739436 -0.019697158 0.075462535 0.128873 0.03592794
-0.11568094 0.047466677 0.07091077 -0.086143486 -0.01651704 0.056655787 -0.05785408 -0.04913482
0.007542472 -0.05845405 0.091986746 0.113108054 -0.05712096 0.013012821 0.005596669 -0.0023618022
-0.0831023 0.06860061 -0.05283268 -0.068820804 0.07695447 0.088926695 -0.07684819 0.21870889
-0.1231987 0.09392096 0.12454335 0.08831858 0.057196815 -0.07354361 -0.044525053 -0.09700465
0.10167039 0.15168299 0.10583511 -0.060683824 -0.11997871 0.092664324 0.0058619627 -0.089270055
0.10689952 -0.033063777 -0.022386791 -0.016410524 -0.048139147 -0.07907635 0.023110347 0.097399145
-0.07088868 0.023075756 0.018822627 -0.018828576 -0.08128171 0.070179194 -0.092092894 0.108456485
0.027806161 -0.090915404 -0.054793295 0.032379836 0.041577328 -0.070673026 0.051916428 0.060323756
0.10486589 -0.119647674 -0.04844847 0.13310279 0.02750066 0.1176527 0.047887564 -0.046597306
0.11287296 0.1507649 0.070165634 -0.023139916 0.0827652 -0.0393257 -0.049968746 -0.036980588
0.13062009 -0.08643672 -0.059587706 -0.037063442 -0.08479551 -0.014582672 -0.16365659 -0.05518159
0.14245793 0.046448685 -0.08582878 -0.121193565 0.047420695 -0.015686536 -0.046000622 -0.112165995
0.004924708 -0.029083904 0.09306855 0.117534794 0.10014794 -0.04417177 -0.0711776 0.05829252
0.008753278 0.028207842 0.13513927 0.10824899 0.09838931 -0.005762012 0.11463659 -0.011129123
0.009417669 0.20106661 -0.034823876 0.07641632 0.021712767 -0.01429792 -0.05573495 -0.096554965
0.07368899 0.08763051 0.12083272 0.08750682 -0.12991446 0.12629841 -0.03633523 0.1052906
-0.01675476 -0.063394904 0.09076053 -0.10368461 0.075567774 -0.021848222 -0.005697856 -0.08834846
00000000: da4d 443e 7ee2 043e 6f54 9abd a203 86bd
00000010: 4187 053e bd87 88bc fec4 52bd cbc5 1c3d
00000020: 58f2 7b3e b37b e23d d1c8 223e 7b91 303e
00000030: 9bee 633d 1b63 44bd ed77 f9ba 3541 ea3d
00000040: abfc 313e 9413 edbd 6c0b fb3c 7470 ccbd
00000050: c0ef b0bd c49a 04be 6074 6dbc 83c1 60be
00000060: 27f0 21be dd4c e8bd 85b3 ed3c fd3a b2bd
00000070: 45bc eebd 9c9c c0bd 760e f7bd 2ddc 6abd
00000080: 49a8 f1bd 5d77 24be 0827 183e e7a3 593c
00000090: 5c61 adbc e557 b93d e870 853d e2cf 2dbe
000000a0: 82d9 81bd 60aa dc3a 7a18 febc d3e5 af3d
000000b0: 5560 ffbc f93d acbd 4016 f5bd af47 3e3e
000000c0: 094e 1ebd f181 eb3b ff6d a03d ef04 16bd
000000d0: 0955 5bbe 7fe6 353e f0ba e7bc b469 05bd
000000e0: 3a40 05be c99a ef3d ed2c 043e fa72 96bd
000000f0: fc55 6e3e 4881 2fbe 86b6 31bd 810a 123d
00000100: 995c 583d 6523 c3bd deb6 ab3d 77a9 cd3d
00000110: 6c08 ccbd ffb7 ab3c 2859 8dbd 7d6a ccbd
00000120: 8909 423c 7040 30bd 427c f73d 342d eb3d
00000130: 6815 6ebc f8ab 1e3e 5d44 adbd 7656 393d
00000140: 1ba5 ad3d 72d4 8abd 2df3 773d 7e48 00be
00000150: 9580 e4bd 2ad4 dfbd 8e64 86bd 6094 503d
00000160: 53b4 d9bd e10a 233d 7398 1cbd bc55 063d
00000170: 7f5a ee3d 9f16 a4bd 90aa 3ebd d32b e4bd
00000180: d593 70bd b03d 62bd ebc8 183d fc1d 2f3d
00000190: 5d33 803d 20de a43d 4bae 6bbd ecc6 4bbd
000001a0: 75bc 30bd 4acb 76bd 55e3 043d d9ba a53d
000001b0: a02d f63d a053 c53d 8f1e 853c 3d3d e43c
000001c0: 59a6 b1bc a4dd 45bc 8ce6 053e c8b2 debd
000001d0: ef5b a1bc 1a8c 9a3d 49f7 033e 2d29 133d
000001e0: 21ea ecbd 6b6c 423d aa39 913d ff6b b0bd
000001f0: be4e 87bc e60f 683d 66f8 6cbd 9841 49bd
00000200: d726 f73b 846d 6fbd 8c63 bc3d 32a5 e73d
00000210: abf7 69bd ba33 553c 4364 b73b 77c8 1abb
00000220: 8a31 aabd 7a7e 8c3d 1567 58bd ecf1 8cbd
00000230: 4e9a 9d3d 331f b63d 9562 9dbd 39f5 5f3e
00000240: 9a4f fcbd a259 c03d 9510 ff3d 5fe0 b43d
00000250: 3547 6a3d 089e 96bd e75f 36bd 60aa c6bd
00000260: 9138 d03d c952 1b3e 14c0 d83d 9a8f 78bd
00000270: 66b7 f5bd cbc6 bd3d b515 c03b 38d3 b6bd
00000280: 23ee da3d e26d 07bd 8164 b7bc 5d6f 86bc
00000290: 8e2d 45bd c8f2 a1bd e951 bd3c 3479 c73d
000002a0: 162e 91bd 5e09 bd3c e931 9a3c 633e 9abc
000002b0: 0677 a6bd 1cba 8f3d 339b bcbd 6f1e de3d
000002c0: bfc9 e33c db31 babd ef6e 60bd b8a0 043d
000002d0: fd4c 2a3d 05bd 90bd 52a6 543d 0b16 773d
000002e0: eec3 d63d d709 f5bd e771 46bd 194c 083e
000002f0: 1049 e13c e6f3 f03d c025 443d d1dc 3ebd
00000300: f029 e73d 1d62 1a3e 00b3 8f3d ec8f bdbc
00000310: cd80 a93d fc13 21bd 07ac 4cbd f578 17bd
00000320: 46c1 053e bc05 b1bd 3d12 74bd d6cf 17bd
00000330: 45a9 adbd 29ec 6ebc 9895 27be 1706 62bd
00000340: 7ee0 113e fa40 3e3d 00c7 afbd 5534 f8bd
00000350: 343c 423d 0d81 80bc 266b 3cbd 49b7 e5bd
00000360: 725f a13b 5e41 eebc b99a be3d 15b6 f03d
00000370: 5d1a cd3d 75ed 34bd 90c5 91bd 23c4 6e3d
00000380: e969 0f3c 2214 e73c f361 0a3e a5b1 dd3d
00000390: 5680 c93d 43cf bcbb 97c6 ea3d ed56 36bc
000003a0: 914c 1a3c 68e4 4d3e 7ba3 0ebd 2980 9c3d
000003b0: f9de b13c d341 6abc 554a 64bd 9cbe c5bd
000003c0: 41ea 963d a077 b33d 2577 f73d c736 b33d
000003d0: 4c08 05be 5f54 013e 40d4 14bd 99a2 d73d
000003e0: 4741 89bc 30d5 81bd a8e0 b93d 9958 d4bd
000003f0: 47c3 9a3d 0bfb b2bc 15b5 babb 0af0 b4bd

msg_layers.0.W_self.bias f4 [64]
0.13231505 -0.065656975 -0.09286587 0.004300081 -0.025002057 0.07108821 -0.16314085 -0.11616875
0.05739518 0.0006493264 -0.11366728 -0.014772161 -0.07330827 0.048862975 0.067186184 -0.06874286
0.024534736 -0.08090224 -0.055046212 0.14749597 -0.096440844 0.101193696 -0.06586791 -0.089998566
0.15600343 0.00989093 0.03603948 -0.042506386 0.1203108 0.056589834 0.034283355 -0.053919557
-0.09999815 0.041627225 0.1426055 0.14496087 -0.02332924 -0.14031477 0.15931207 -0.18336843
0.0126634715 0.10474856 0.19331832 0.11359103 0.033406556 -0.0759957 0.055991165 -0.045654926
-0.09174181 -0.02896686 0.025009949 -0.011702576 0.08476197 0.05001238 0.030191261 0.013380575
0.04534952 -0.012973688 -0.0909138 -0.19686213 -0.19164975 -0.0056243176 -0.065527424 -0.07218298
00000000: 997d 073e 2a77 86bd 7630 bebd b2e7 8c3b
00000010: 1dd1 ccbc b296 913d 650e 27be e2e9 edbd
00000020: 3517 6b3d 8f37 2a3a 64ca e8bd ef06 72bc
00000030: a522 96bd 8b24 483d e998 893d 0ec9 8cbd
00000040: 12fd c83c 13b0 a5bd 2378 61bd 2f09 173e
00000050: c782 c5bd a43e cf3d c1e5 86bd 2b51 b8bd
00000060: 5dbf 1f3e 910d 223c 229e 133d 2d1b 2ebd
00000070: 8265 f63d beca 673d b46c 0c3d c1da 5cbd
00000080: d4cb ccbd 4f81 2a3d 2d07 123e 9f70 143e
00000090: f61c bfbc adae 0fbe b422 233e efc4 3bbe
000000a0: 737a 4f3c 6a86 d63d 3df5 453e 6aa2 e83d
000000b0: 50d5 083d a2a3 9bbd fe56 653d a900 3bbd
000000c0: 21e3 bbbd e94b edbc aae1 cc3c 29bc 3fbc
000000d0: af97 ad3d c8d9 4c3d aa53 f73c 333a 5b3c
000000e0: 6bc0 393d 978f 54bc 0431 babd 3a96 49be
000000f0: d53f 44be 324c b8bb 3e33 86bd acd4 93bd

msg_layers.0.W_msg.weight f4 [64, 64]
0.003493009 -0.08656298 -0.021762839 -0.028792236 -0.1385901 -0.037408456 -0.026969358 -0.049235407
-0.0154855605 -0.11253625 -0.12998761 -0.097674206 0.05683106 -0.040242247 0.027358009 0.018495508
-0.016927285 -0.10483274 0.028093455 0.06378143 0.14365645 0.115809284 -0.004284386 0.09525437
0.16481745 -0.14691217 0.120901756 0.1413581 -0.11151555 0.06939919 -0.071336456 0.035121582
-0.01938676 -0.04628402 -0.120854735 -0.0016600152 -0.044798106 -0.10205517 -0.018887967 0.022568932
-0.036531337 -0.06303671 0.07907223 0.02387854 -0.028924799 0.024879437 0.077245824 0.08380015
-0.043441944 -0.051090617 -0.07278069 -0.08951188 0.07478309 0.037423804 0.027793499 -0.023486884
-0.0064802533 0.064171866 0.019373043 0.14040573 -0.044211417 -0.059312697 0.020825075 -0.020536926
0.11352788 -0.06452234 0.021560954 0.018412322 0.06633699 -0.0390275 0.009488363 -0.064028956
0.0535574 0.021107042 0.07487194 -0.06859643 -0.11085266 0.01070902 0.006238561 0.11168649
0.09581076 0.118968256 0.065335274 -0.10069617 0.060209733 0.08141753 -0.020057827 -0.032713085
0.08005442 0.08988242 0.05730418 0.012089543 0.043805532 0.08742901 0.07841272 0.111374415
0.09500425 -0.049267065 0.0038459725 -0.087014265 0.08882437 0.08239917 0.05331479 -0.1356545
-0.0064062197 -0.02745107 -0.116252646 -0.00085288315 -0.026743421 -0.12153467 0.10818603 0.023178365
-0.12657626 -0.1008156 0.031758424 -0.038853116 -0.09086118 0.14635879 0.14365482 0.03834015
-0.15304713 -0.041648995 0.09831934 -0.05108014 -0.033454623 0.089316435 -0.106771596 0.09893437
0.022351108 0.1013075 -0.03151232 -0.07285349 0.12281181 0.006175336 -0.036004983 0.04323705
-0.03374862 0.037346296 0.00022492695 0.09410613 0.07163656 -0.08727177 0.003400174 0.01748051
0.07140735 -0.1574581 0.02302059 0.0038024278 -0.07062754 0.056016307 -0.21207394 -0.04520101
-0.0053271013 -0.12767135 0.048643947 0.052596327 -0.14493968 -0.13349216 -0.15016165 -0.066632226
-0.025825232 0.005207508 -0.01945657 -0.19508043 0.09750866 0.012698206 0.06650055 -0.07914059
-0.18428232 -0.08077578 0.02474847 0.037600502 0.064972185 -0.15042312 -0.019506421 0.10182976
-0.0135828005 -0.1391734 0.13871665 0.07774976 -0.017853877 0.017908964 -0.08032356 0.06638376
0.050709356 0.0069692824 0.026738552 -0.08404327 0.124345735 0.05296789 0.053012516 0.2006296
0.016238062 -0.14119823 0.002150785 0.11063183 0.09235457 -0.061021727 0.12034742 0.112017795
-0.056216598 -0.090892255 -0.04299244 0.101537235 -0.04613845 0.08541983 0.13658516 -0.13032742
0.021093972 0.006526585 -0.00078092143 0.061096784 -0.01959152 0.018199626 0.13844863 0.043560747
0.078825995 -0.13456729 0.023418056 0.1324617 0.14713712 0.082112 0.021306384 0.11590421
-0.0025570465 0.00552158 -0.13653144 0.03146135 -0.05184699 -0.14781891 0.16408381 0.072570026
-0.041391023 -0.05757961 0.037860285 -0.029525673 0.009180414 0.10153065 -0.061103076 0.012840998
-0.028586816 -0.03514599 0.079790965 0.028552286 0.039692584 -0.08612931 0.032357078 -0.019377152
0.0017585673 -0.04635101 0.011829329 0.037707355 -0.19676675 -0.009563921 -0.093990974 -0.12117202
00000000: f7ea 643b ef47 b1bd fb47 b2bc b2dd ebbc
00000010: 90ea 0dbe 9c39 19bd d8ee dcbc 11ab 49bd
00000020: 26b7 7dbc 6879 e6bd 791b 05be 6a09 c8bd
00000030: b0c7 683d 0ed5 24bd e71d e03c e483 973c
00000040: 17ab 8abc 8cb2 d6bd 3f24 e63c d79f 823d
00000050: ad1a 133e 6b2d ed3d 0964 8cbb b914 c33d
00000060: e8c5 283e 2570 16be 579b f73d 2ec0 103e
00000070: 4462 e4bd 2a21 8e3d d918 92bd a6db 0f3d
00000080: fcd0 9ebc 5094 3dbd b082 f7bd de94 d9ba
00000090: 387e 37bd 4d02 d1bd f0ba 9abc 7be2 b83c
000000a0: e2a1 15bd 6419 81bd 9ff0 a13d ee9c c33c
000000b0: b3f3 ecbc f6cf cb3c 0f33 9e3d 6a9f ab3d
000000c0: 2ef0 31bd 6544 51bd 0b0e 95bd 0152 b7bd
000000d0: e027 993d b449 193d 31af e33c 9167 c0bc
000000e0: 4e58 d4bb 8a6c 833d 37b4 9e3c 85c6 0f3e
000000f0: 0817 35bd dff1 72bd 5999 aa3c 0e3d a8bc
00000100: 4e81 e83d 4a24 84bd 99a0 b03c 70d5 963c
00000110: b0db 873d 4ddb 1fbd 1475 1b3c 9d21 83bd
00000120: 015f 5b3d ade8 ac3c 7656 993d 497c 8cbd
00000130: b806 e3bd e374 2f3c d86c cc3b e3bb e43d
00000140: 6f38 c43d a1a5 f33d 80ce 853d cb39 cebd
00000150: 7b9e 763d 3cbe a63d 5050 a4bc 28fe 05bd
00000160: 92f3 a33d 4614 b83d cab7 6a3d 3813 463c
00000170: 6e6d 333d fb0d b33d d996 a03d 4518 e43d
00000180: 9791 c23d 43cc 49bd b60c 7c3b 8934 b2bd
00000190: 8de9 b53d e5c0 a83d 9c60 5a3d 03e9 0abe
000001a0: 44eb d1bb 11e1 e0bc de15 eebd 0594 5fba
000001b0: 0515 dbbc 2be7 f8bd a390 dd3d 8ee0 bd3c
000001c0: 359d 01be 6978 cebd 1f15 023d 7224 1fbd
000001d0: 6d15 babd 14df 153e 401a 133e 900a 1d3d
000001e0: 63b8 1cbe 2398 2abd a65b c93d 6939 51bd
000001f0: b707 09bd 89eb b63d 11ab dabd 1a9e ca3d
00000200: ac19 b73c 4e7a cf3d 1013 01bd 3634 95bd
00000210: c284 fb3d 795a ca3b f679 13bd 5519 313d
00000220: fe3b 0abd 6ef8 183d 5eda 6b39 b7ba c03d
00000230: 30b6 923d 8bbb b2bd 74d5 5e3b 4933 8f3c
00000240: 043e 923d b23c 21be ad95 bc3c 2732 793b
00000250: 2ca5 90bd 5b71 653d e929 59be b224 39bd
00000260: f78e aebb 47bc 02be e03e 473d 3f6f 573d
00000270: 116b 14be 2bb2 08be fac3 19be 7a76 88bd
00000280: 708f d3bc bea3 aa3b 6263 9fbc 2ac3 47be
00000290: 9fb2 c73d 230c 503c 7131 883d 7614 a2bd
000002a0: 81b4 3cbe c66d a5bd 4ebd ca3c fc02 1a3d
000002b0: 2310 853d 8508 1abe eecb 9fbc 1f8c d03d
000002c0: 658a 5ebc 7983 0ebe bd0b 0e3e 443b 9f3d
000002d0: 4b42 92bc d2b5 923c ae80 a4bd 35f4 873d
000002e0: 9db4 4f3d 945e e43b cf0a db3c e11e acbd
000002f0: faa8 fe3d dcf4 583d a723 593d d971 4d3e
00000300: af05 853c 4596 10be 2ff4 0c3b f192 e23d
00000310: 6524 bd3d ebf1 79bd b578 f63d 9669 e53d
00000320: 6043 66bd b825 babd d718 30bd c1f2 cf3d
00000330: acfb 3cbd 98f0 ae3d fbdc 0b3e 8d74 05be
00000340: 44cd ac3c f7dc d53b c0b6 4cba 9f40 7a3d
00000350: 657e a0bc 6217 953c 7ac5 0d3e c16c 323d
00000360: 866f a13d 02cc 09be 39d7 bf3c 0aa4 073e
00000370: 1dab 163e 562a a83d ba8a ae3c 305f ed3d
00000380: 1f94 27bb 5fee b43b e6ce 0bbe 9edd 003d
00000390: 825d 54bd d75d 17be 9605 283e 989f 943d
000003a0: a289 29bd 99d8 6bbd 6313 1b3d d3df f1bc
000003b0: 7269 163c 4def cf3d 3847 7abd 0d63 523c
000003c0: e62e eabc 3ef5 0fbd 7269 a33d 7ce6 e93c
000003d0: b194 223d 9064 b0bd db88 043d d5bc 9ebc
000003e0: ba7f e63a 8fda 3dbd cdcf 413c 0773 1a3d
000003f0: 397d 49be feb1 1cbc 577e c0bd 0929 f8bd

msg_layers.0.W_msg.bias f4 [64]
-0.15542014 0.015940292 -0.06744022 -0.1348984 -0.049580563 -0.14842363 0.08191266 0.08747424
0.048256285 0.08022058 -0.09818711 0.0060302783 -0.06252331 -0.08991953 0.120343484 -0.07185203
-0.01144793 -0.038252205 -0.08117432 0.058909304 -0.006454384 -0.1094867 -0.074725695 0.10212557
0.05253303 -0.059411358 -0.006118656 0.12746255 0.12541628 -0.01600258 -0.050870813 -0.04194808
-0.12616548 0.09897141 -0.045904182 0.088996075 0.068335444 -0.1550697 0.0054854685 0.008839621
-0.0027701948 -0.09951639 -0.1246316 0.098601766 0.08054351 -0.07955939 -0.14224944 -0.052921146
-0.032377817 0.00648859 -0.04370629 0.029821508 0.05846239 -0.0059724734 0.060643952 -0.0007999135
-0.0565583 0.044304576 0.13765642 0.081339136 0.00959877 0.06476348 0.08055466 -0.12888142
00000000: 7526 1fbe 3795 823c 191e 8abd ce22 0abe
00000010: fd14 4bbd 5dfc 17be d3c1 a73d b225 b33d
00000020: 62a8 453d b04a a43d 5316 c9bd a499 c53b
00000030: 390c 80bd bb27 b8bd a576 f63d 2827 93bd
00000040: 1990 3bbc 58ae 1cbd b93e a6bd e24a 713d
00000050: 4c7f d3bb 903a e0bd c909 99bd 3627 d13d
00000060: e02c 573d 5359 73bd 027f c8bb 8b85 023e
00000070: 206d 003e d817 83bc ea5d 50bd c0d1 2bbd
00000080: 8631 01be 86b1 ca3d 0606 3cbd 9343 b63d
00000090: 74f3 8b3d 97ca 1ebe 72bf b33b 0fd4 103c
000000a0: 288c 35bb 40cf cbbd da3e ffbd b9ef c93d
000000b0: fff3 a43d 09f0 a2bd d6a9 11be d8c3 58bd
000000c0: 9a9e 04bd 3d9e d43b 5e05 33bd 3c4c f43c
000000d0: 4276 6f3d bdb4 c3bb cb65 783d 49b1 51ba
000000e0: ada9 67bd b778 353d cef5 0c3e 2295 a63d
000000f0: 2944 1d3c b7a2 843d d7f9 a43d 7ef9 03be

msg_layers.0.norm.weight f4 [64]
1.0942386 0.9483449 1.0141596 1.0151136 0.9887079 0.916293 0.99599755 0.97210246
1.1089131 0.93679976 0.92928153 1.0343019 0.92085475 0.8253252 1.0734003 0.9302472
0.9585672 0.94013953 0.9670437 0.9101692 0.9677812 0.9213866 1.0554805 0.9615774
0.9724432 0.9089518 0.8907495 1.0150033 0.9971754 1.0201023 1.0652878 0.8883187
1.0963153 1.0378798 1.0812263 1.0256184 0.95863557 1.0105078 0.944681 0.9672179
0.9593278 1.1176684 1.0229161 1.0046761 0.9810177 0.92827386 0.9504904 1.0061346
0.93829584 1.142412 0.9940702 0.9488002 1.0457493 0.9738596 0.9665319 1.0038756
0.95671964 1.0357796 0.9952733 1.0381955 0.97954994 0.99744785 0.9883377 0.96521115
00000000: 0310 8c3f bbc6 723f fbcf 813f 3eef 813f
00000010: f61b 7d3f 2e92 6a3f b2f9 7e3f b5db 783f
00000020: ddf0 8d3f 1cd2 6f3f 65e5 6d3f 0164 843f
00000030: 23bd 6b3f 8348 533f 2e65 893f ae24 6e3f
00000040: a964 753f fcac 703f 2d90 773f d900 693f
00000050: 82c0 773f fedf 6b3f fc19 873f f029 763f
00000060: 0af2 783f 11b1 683f 2908 643f a1eb 813f
00000070: e346 7f3f b692 823f 5a5b 883f db68 633f
00000080: 0f54 8c3f 3fd9 843f a065 8a3f 7747 833f
00000090: 2469 753f 5258 813f 9dd6 713f 989b 773f
000000a0: 8296 753f c20f 8f3f eaee 823f 3a99 803f
000000b0: fa23 7b3f 5ba3 6d3f 5753 733f 05c9 803f
000000c0: 2834 703f 8e3a 923f 627b 7e3f 92e4 723f
000000d0: 1ddb 853f dd4e 793f a26e 773f ff7e 803f
000000e0: 94eb 743f 6d94 843f 3bca 7e3f 97e3 843f
000000f0: c9c3 7a3f be58 7f3f b303 7d3f 1418 773f

msg_layers.0.norm.bias f4 [64]
0.043862335 0.05842625 -0.056649663 0.046840586 0.034563992 0.071647644 -0.08491124 -0.02127536
0.087108426 0.058423437 0.0118280165 0.04498306 0.03053359 0.032048915 -0.019440252 0.025573362
-0.012748402 0.029838346 0.034296405 0.055985466 -0.0550004 0.074511625 0.0143020395 -0.043676622
0.049624532 0.12525964 -0.0427479 0.09890094 0.0698451 0.025545314 0.022336984 -0.020381447
-0.11414429 0.06262906 0.03733533 0.09103491 0.09041018 0.005768375 0.08356833 -0.0038986388
-0.0020828831 0.07482908 0.056001898 0.041892387 0.064403325 -0.061941758 0.07845783 -0.008751371
0.0672646 0.10027948 -0.0072251395 -0.017454186 -0.051024698 0.025241006 0.0464002 -0.024590539
0.036375366 -0.07691525 -0.008610467 -0.08034196 -0.032533724 -0.03481754 -0.04947277 -0.022193491
00000000: fea8 333d 5d50 6f3d 7a09 68bd eadb 3f3d
00000010: f992 0d3d 00bc 923d f2e5 adbd aa49 aebc
00000020: e765 b23d 6a4d 6f3d 4cca 413c 2840 383d
00000030: 9421 fa3c b945 033d 2a41 9fbc 3a7f d13c
00000040: acde 50bc 8c6f f43c 637a 0c3d 0451 653d
00000050: 1948 61bd 8d99 983d 1a53 6a3c 42e6 32bd
00000060: 1843 4b3d 1044 003e 6c18 2fbd 938c ca3d
00000070: f30a 8f3d 6844 d13c 0dfc b63c fef6 a6bc
00000080: 7bc4 e9bd aa43 803d eeec 183d 8370 ba3d
00000090: f928 b93d a304 bd3b df25 ab3d 4e80 7fbb
000000a0: fb80 08bb fd3f 993d 3f62 653d 5a97 2b3d
000000b0: e4e5 833d a4b6 7dbd 80ae a03d e961 0fbc
000000c0: 06c2 893d 545f cd3d ddc0 ecbb 15fc 8ebc
000000d0: 46ff 50bd 3ac6 ce3c 230e 3e3d 1972 c9bc
000000e0: 56fe 143d be85 9dbd eb12 0dbc 538a a4bd
000000f0: 1542 05bd d69c 0ebd f6a3 4abd 20cf b5bc

msg_layers.1.W_self.weight f4 [64, 64]
3.117558e-06 0.0032603722 0.013547597 -0.027423536 0.033529826 0.1251519 -0.043948587 -0.011223913
-0.059790343 0.11059808 0.08620875 0.04260876 0.08560446 0.068232395 0.06385437 -0.031559277
-0.061289176 0.11794536 -0.2136377 0.057927344 0.052306224 0.13951366 0.02416711 -0.04470358
0.13647644 -0.06777024 0.079115316 -0.049025346 0.045522694 -0.058208976 0.06650356 -0.017831389
0.15964201 0.006197178 0.075074375 0.018277066 -0.056540653 -0.03551609 0.089556195 -0.039111182
0.0863413 -0.12067266 -0.16486217 -0.029723031 -0.116973445 -0.022856977 -0.09355755 -0.04845712
-0.10555716 -0.10711978 0.037909113 -0.03596065 0.08349576 -0.106655374 0.029006606 -0.05120564
-0.043206997 -0.052183192 -0.041576594 0.06888601 -0.10363149 -0.11416236 0.04515478 0.02131871
0.15889166 -0.1553301 -0.20330104 0.07618885 -0.016115911 -0.04344417 -0.036368832 0.016523376
0.17527233 0.044137355 -0.19766875 0.045287658 -0.06256075 0.08759329 -0.16915771 -0.13472877
0.033800192 -0.04898818 0.050701976 0.120290585 -0.062493395 0.08575645 -0.049605355 0.03950004
0.032640263 -0.012761055 0.06520309 0.03665843 -0.04641602 -0.0007448498 -0.066078 -0.018616708
-0.151858 -0.066451676 0.08760075 0.041399274 0.08264031 0.24705964 0.03311364 0.022998996
-0.14581934 0.13964422 0.17944944 0.07189446 0.070262566 -0.12058786 0.03172401 -0.17354073
0.060074538 0.0651579 0.14190403 0.0597098 0.031752247 0.13643084 0.123340815 0.0010905054
-0.004327597 -0.08600013 -0.016330324 0.042139728 -0.047734417 0.037210315 -0.019336771 -0.05380548
-0.04865934 0.04611429 0.03267501 0.043723453 -0.083400205 -0.09966847 0.12096617 -0.09560757
-0.02457834 -0.09944577 -0.029035794 -0.042096216 0.11805187 0.0036091853 -0.12111714 0.15220317
-0.12582755 0.02765618 0.09550258 -0.06895428 -0.0135563845 0.09109361 -0.10330242 -0.05948697
0.099658914 0.044060405 0.044653963 -0.022269594 0.013900016 0.04543994 -0.04019001 -0.04478572
0.10099855 -0.07163398 -0.07645641 0.055156685 -0.115197405 -0.04204146 -0.048178818 -0.069765784
-0.08535053 -0.011776745 -0.034669835 -0.078072645 0.07322085 0.058860566 -0.07074024 0.09623017
0.01626562 -0.071537614 0.07847405 -0.06301813 0.059349824 -0.073834874 0.1386816 -0.008999544
0.049253277 -0.048812833 -0.02213835 0.0341247 -0.12892823 0.093228735 -0.027960697 0.03645975
0.14865334 0.1524223 -0.18857856 -0.09451457 -0.013779761 -0.13154048 -0.18375172 -0.03877926
0.18661098 0.07449306 -0.23551343 0.1452675 0.023061438 0.045971155 -0.17422192 -0.15693682
0.011284955 -0.046295866 -0.07653871 -0.10933457 -0.009950661 -0.17614199 -0.02837623 -0.1995519
0.10257311 0.03215544 0.01883889 -0.024232738 -0.013483162 -0.033776887 0.07884732 -0.047732506
-0.04714169 0.091717154 0.040455606 0.055443026 0.090984516 0.12638767 0.08470602 -0.105627954
-0.20855683 0.21263064 0.14158928 0.020699885 0.041743692 -0.14336568 0.055932965 -0.09308785
0.021687277 0.21021184 0.056089457 0.028161455 -0.10854454 0.1522264 0.083373405 -0.059008975
-0.1737599 -0.033040684 0.09830565 -0.22922249 -0.11323326 -0.21745808 -0.14333358 0.17957029
00000000: 3d37 5136 f8ab 553b bef6 5d3c 53a7 e0bc
00000010: 9256 093d d227 003e 6f03 34bd 81e4 37bc
00000020: b8e6 74bd 3f81 e23d 378e b03d 8686 2e3d
00000030: 6451 af3d 6dbd 8b3d 14c6 823d 4d44 01bd
00000040: 5c0a 7bbd 568d f13d d7c3 5abe 3945 6d3d
00000050: 0d3f 563d abdc 0e3e 1afa c53c 1a1b 37bd
00000060: 7bc0 0b3e 20cb 8abd 3607 a23d cdce 48bd
00000070: 0176 3a3d 896c 6ebd 0533 883d 2213 92bc
00000080: 3279 233e b211 cb3b 98c0 993d c9b9 953c
00000090: 2c97 67bd 5279 11bd 3d69 b73d 0c33 20bd
000000a0: b5d3 b03d 3a23 f7bd a1d1 28be b77d f3bc
000000b0: c68f efbd 8e3e bbbc 1a9b bfbd f97a 46bd
000000c0: 5a2e d8bd 9d61 dbbd 9646 1b3d 794b 13bd
000000d0: d3ff aa3d 226e dabd 439f ed3c 01bd 51bd
000000e0: d2f9 30bd 0bbe 55bd 384c 2abd 1c14 8d3d
000000f0: bf3c d4bd f5cd e9bd 38f4 383d 93a4 ae3c
00000100: 7fb4 223e db0e 1fbe 262e 50be e608 9c3d
00000110: 8405 84bc 84f2 31bd 7cf7 14bd 085c 873c
00000120: 977a 333e 5fc9 343d ad69 4abe 8d7f 393d
00000130: da1f 80bd 1c64 b33d ae37 2dbe 57f6 09be
00000140: 1272 0a3d d4a7 48bd e0ac 4f3d e95a f63d
00000150: 13f9 7fbd 14a1 af3d fc2e 4bbd cbca 213d
00000160: ccb1 053d be13 51bc 3389 853d 2627 163d
00000170: b91e 3ebd 0642 43ba e753 87bd 1182 98bc
00000180: aa80 1bbe d117 88bd 0668 b33d 4992 293d
00000190: 533f a93d 34fd 7c3e 2ba2 073d 6468 bc3c
000001a0: aa51 15be e5fe 0e3e 98c1 373e 673d 933d
000001b0: d2e5 8f3d c5f6 f6bd 09f1 013d a9b4 31be
000001c0: b810 763d 8171 853d 4a4f 113e 4392 743d
000001d0: a50e 023d 87b4 0b3e 1c9a fc3d 4aef 8e3a
000001e0: 84ce 8dbb d620 b0bd 2cc7 85bc b59a 2c3d
000001f0: 2a85 43bd d869 183d 2668 9ebc 2363 5cbd
00000200: 044f 47bd 56e2 3c3d 3bd6 053d 5d17 333d
00000210: bacd aabd fc1e ccbd 1dbd f73d e7cd c3bd
00000220: 8458 c9bc 39aa cbbd 79dc edbc 156d 2cbd
00000230: 2ec5 f13d 1588 6c3b 430c f8bd 26db 1b3e
00000240: f0d8 00be 378f e23c db96 c33d e737 8dbd
00000250: 991b 5ebc 498f ba3d 3890 d3bd 9ca8 73bd
00000260: f919 cc3d af78 343d 13e7 363d b96e b6bc
00000270: e5bc 633c 3b1f 3a3d 489e 24bd 3b71 37bd
00000280: 54d8 ce3d d6b4 92bd 2e95 9cbd faeb 613d
00000290: 9eec ebbd aa33 2cbd 2757 45bd 5de1 8ebd
000002a0: 42cc aebd 40f3 40bc f501 0ebd 8de4 9fbd
000002b0: d0f4 953d c717 713d 42e0 90bd 5314 c53d
000002c0: 7a3f 853c 5082 92bd 01b7 a03d a60f 81bd
000002d0: cd18 733d bd36 97bd 8d02 0e3e d372 13bc
000002e0: cebd 493d f7ef 47bd 7c5b b5bc 57c6 0b3d
000002f0: c305 04be b5ee be3d d50d e5bc d256 153d
00000300: 9538 183e 9714 1c3e bd1a 41be db90 c1bd
00000310: 82c4 61bc 8cb2 06be 6929 3cbe 00d7 1ebd
00000320: f316 3f3e d18f 983d 6f2a 71be 01c1 143e
00000330: 57eb bc3c 404c 3c3d 3b67 32be 0cb4 20be
00000340: 88e4 383c bca0 3dbd 54c0 9cbd ceea dfbd
00000350: 1908 23bc 915e 34be 4475 e8bc 5557 4cbe
00000360: da11 d23d 6cb5 033d 0454 9a3c bc83 c6bc
00000370: 7be8 5cbc a259 0abd b47a a13d 2983 43bd
00000380: a517 41bd 34d6 bb3d c7b4 253d 3a18 633d
00000390: 1756 ba3d c56b 013e 5a7a ad3d 7853 d8bd
000003a0: ec8f 55be d9bb 593e c8fc 103e ce92 a93c
000003b0: 6ffb 2a3d 74ce 12be f719 653d d8a4 bebd
000003c0: 84a9 b13c c641 573e 0fbe 653d dab2 e63c
000003d0: 9a4c debd 3de1 1b3e adbf aa3d 65b3 71bd
000003e0: 1dee 31be ab55 07bd 7954 c93d 4db9 6abe
000003f0: d7e6 e7bd 55ad 5ebe 0ac6 12be 46e1 373e

msg_layers.1.W_self.bias f4 [64]
-0.20701312 -0.052059047 0.05313195 0.22006273 -0.03497505 0.20301367 -0.066832945 -0.15321667
0.230447 -0.09553471 -0.048778318 -0.11342833 -0.05912436 0.066888876 -0.06097352 -0.045594923
-0.10824912 -0.07603692 -0.14552628 0.21395734 0.0882786 0.028340466 0.12556821 0.002821341
-0.09894047 -0.028500171 0.02572605 0.00517151 -0.05747723 -0.0050375876 0.0025188327 -0.036708318
-0.057662327 -0.17334475 0.03524084 -0.060094032 0.07936504 0.09496675 -0.08356273 -0.1624181
0.06494082 -0.07866621 0.19580254 0.08409436 0.06074128 0.07729989 -0.020051736 -0.076962106
0.17370935 -0.067706734 0.0763062 -0.07866679 -0.03250629 -0.08392696 -0.17391895 0.008038907
0.06023927 -0.06367928 0.14515358 0.10089595 0.045739494 -0.024609193 0.092877224 -0.065521464
00000000: 3ffb 53be de3b 55bd e3a0 593d 2058 613e
00000010: ff41 0fbd d1e2 4f3e b6df 88bd d5e4 1cbe
00000020: 4cfa 6b3e b4a7 c3bd c6cb 47bd 1d4d e8bd
00000030: 632c 72bd 09fd 883d 5fbf 79bd bec1 3abd
00000040: b7b1 ddbd 3fb9 9bbd d704 15be a217 5b3e
00000050: 69cb b43d 442a e83c f494 003e 3fe6 383b
00000060: 4da1 cabd 3179 e9bc 70bf d23c c575 a93b
00000070: 3e6d 6bbd 5912 a5bb 0013 253b 765b 16bd
00000080: 552f 6cbd 4981 31be b358 103d 2925 76bd
00000090: 238a a23d ed7d c23d f022 abbd ee50 26be
000000a0: b1ff 843d c01b a1bd 7680 483e aa39 ac3d
000000b0: d9cb 783d 684f 9e3d 8a43 a4bc 4f9e 9dbd
000000c0: dde0 313e d4a9 8abd 6d46 9c3d 0e1c a1bd
000000d0: 5125 05bd e6e1 abbd cf17 32be 9fb5 033c
000000e0: 74bd 763d 486a 82bd 24a3 143e 89a2 ce3d
000000f0: 5659 3b3d 3899 c9bc 6a36 be3d 1e30 86bd

msg_layers.1.W_msg.weight f4 [64, 64]
-0.2632132 0.009656368 0.081615716 0.10538322 -0.03235646 0.18553744 0.11758717 0.0042043184
-0.12146984 -0.060768116 -0.08690116 -0.09410452 -0.0930258 0.13117698 -0.067350596 -0.022367317
0.0723106 -0.121635444 -0.070873335 0.06798173 0.03997023 -0.0012100493 -0.00015237425 0.07494919
-0.05970398 0.06840222 -0.046530478 0.12497584 0.092433766 -0.07848764 0.008713874 -0.016088877
-0.00405308 -0.089148246 -0.15088017 -0.03826053 -0.00765062 -0.16937034 -0.014690566 0.108300805
-0.07863438 -0.15325879 0.022594081 0.0473533 0.044348132 0.0889748 0.07348001 0.017453235
0.036236398 -0.22469233 -0.118599474 0.06381062 0.051275 -0.12443379 -0.12220541 0.006644869
-0.00017406857 -0.05534416 0.03658905 0.15792036 0.057611823 0.08651168 -0.045756426 0.035661463
0.057239026 0.0349983 0.08536843 -0.08549178 -0.103199564 -0.00808152 0.10834437 0.0857467
0.10353207 0.02374049 0.087894544 -0.11078768 -0.022816645 0.048915673 -0.090472504 0.005030332
-0.0918103 0.048527002 0.0594398 0.009253331 0.053963993 0.06680268 0.086228065 0.051124774
-0.1218323 0.10239302 0.01619347 0.06092727 0.020350048 0.1191402 -0.01595595 0.13321158
0.15330635 -0.104534864 -0.13547045 0.089870766 -0.024105126 0.036103368 -0.12838599 -0.01680487
0.04519474 0.037753817 0.07960154 0.03499225 -0.076295026 -0.09036334 -0.07445431 0.14881256
-0.1099639 0.00054855575 0.03976493 -0.07980196 -0.09732288 0.07954149 0.024101755 0.1073308
0.008444903 0.023482481 -0.037359815 -0.029752525 0.08287995 -0.11375427 -0.03135955 0.20446742
0.162953 -0.035381302 -0.050285593 -0.119250156 -0.020678783 -0.12696631 -0.11946117 -0.05751113
0.13690458 -0.0200149 -0.07734247 -0.0947559 -0.022270337 0.07075007 -0.078662276 -0.019049637
-0.04228738 -0.07919064 -0.10622814 -0.12007847 0.0036461437 -0.097183585 0.04108824 0.06769212
-0.08190152 -0.12884155 0.10283712 -0.104881346 0.0310441 0.020284852 0.009040433 0.03843134
0.05323398 -0.14824027 -0.09456125 -0.10000344 0.06529076 0.08079177 0.052785985 0.02179248
-0.09728384 0.12555939 -0.006324308 0.097106166 0.10442924 0.10133248 -0.028147306 0.03172216
-0.11045144 0.12865101 0.08133325 -0.02194204 -0.11667447 0.011120805 -0.093068734 0.13443659
0.044930734 0.15728918 -0.0060861213 0.03230516 0.049913947 0.034980044 0.07639117 0.11767363
0.14483887 0.05941453 -0.114780664 -0.010280021 0.024128435 -0.027756635 -0.23063855 0.10621195
0.0038977296 0.10221561 0.14032798 -0.08790091 0.044312697 0.11096837 -0.05432486 0.019214362
-0.13102314 -0.028937288 -0.103239484 0.14113197 0.06356508 -0.06954962 -0.053267255 -0.14730479
0.118439965 -0.052526962 -0.12295135 -0.043501414 0.051748697 -0.045289315 0.15807551 0.12164134
-0.021179464 0.08844564 0.011296614 0.020606589 -0.07968325 -0.062220626 0.16310796 0.06576665
0.06682831 -0.1375242 0.06047077 0.17287096 0.04755231 -0.083238244 0.09809217 0.07499499
-0.03440144 0.02506903 0.04013789 -0.04094484 -0.00023049572 0.10376064 0.09589485 0.1309732
0.10367105 -0.1080099 -0.0019166067 -0.08967473 -0.08619807 0.046626795 -0.097975604 0.0658291
00000000: e1c3 86be be35 1e3c 2426 a73d 28d3 d73d
00000010: 3588 04bd 87fd 3d3e 8bd1 f03d 61c4 893b
00000020: 2ec5 f8bd fde7 78bd 3cf9 b1bd dfb9 c0bd
00000030: 5084 bebd 4253 063e 1cef 89bd aa3b b7bc
00000040: 9417 943d 011c f9bd 0a26 91bd 013a 8b3d
00000050: d3b7 233d 849a 9eba a7c6 1fb9 f67e 993d
00000060: 298c 74bd 7716 8c3d be96 3ebd 55f3 ff3d
00000070: ea4d bd3d 21be a0bd a3c4 0e3c d2cc 83bc
00000080: b3cf 84bb 5b93 b6bd 5580 1abe 13b7 1cbd
00000090: 0db2 fabb 6b6f 2dbe b3b0 70bc d0cc dd3d
000000a0: 100b a1bd dfef 1cbe 3917 b93c 89f5 413d
000000b0: 63a6 353d 6c38 b63d b07c 963d 16fa 8e3c
000000c0: 9e6c 143d bf15 66be 48e4 f2bd 24af 823d
000000d0: bc05 523d 25d7 febd d446 fabd 34bd d93b
000000e0: 2d86 36b9 8fb0 62bd 66de 153d e0b5 213e
000000f0: 60fa 6b3d 092d b13d 176b 3bbd c111 123d
00000100: 7873 6a3d 615a 0f3d a5d5 ae3d 5016 afbd
00000110: 4b5a d3bd 5a68 04bc a7e3 dd3d f79b af3d
00000120: 9f08 d43d 6b7b c23c 0e02 b43d a7e4 e2bd
00000130: f9e9 babc cd5b 483d a649 b9bd 7cd5 a43b
00000140: 0a07 bcbd 40c4 463d 2677 733d 499b 173c
00000150: 5909 5d3d d8cf 883d 5798 b03d 3668 513d
00000160: 3783 f9bd 6fb3 d13d 2ba8 843c e08e 793d
00000170: 25b5 a63c c7ff f33d 0db6 82bc 9e68 083e
00000180: 57fc 1c3e 6016 d6bd c4b8 0abe 2a0e b83d
00000190: 1d78 c5bc 20e1 133d 9e77 03be 5eaa 89bc
000001a0: 1f1e 393d bfa3 1a3d 2206 a33d 0954 0f3d
000001b0: 9140 9cbd 6a10 b9bd 807b 98bd 5262 183e
000001c0: c134 e1bd f4cc 0f3a 8de0 223d 366f a3bd
000001d0: 3851 c7bd a6e6 a23d 0b71 c53c 40d0 db3d
000001e0: 7e5c 0a3c 555e c03c 9b06 19bd 91bb f3bc
000001f0: f7bc a93d 00f8 e8bd df72 00bd e85f 513e
00000200: 27dd 263e fceb 10bd 44f8 4dbd 6d39 f4bd
00000210: 8d66 a9bc 7503 02be 0fa8 f4bd ca90 6bbd
00000220: b730 0c3e 4af6 a3bc bb65 9ebd 620f c2bd
00000230: 4870 b6bc 6ae5 903d b019 a1bd fc0d 9cbc
00000240: 8835 2dbd b42e a2bd 248e d9bd b3eb f5bd
00000250: 24f4 6e3b 3008 c7bd 244c 283d 2ba2 8a3d
00000260: fcbb a7bd 0aef 03be 459c d23d 08cc d6bd
00000270: 3250 fe3c 6b2c a63c 531e 143c 2e6a 1d3d
00000280: e00b 5a3d 4ccc 17be 54a9 c1bd 9bce ccbd
00000290: 29b7 853d 2876 a53d 1e36 583d 2586 b23c
000002a0: c03c c7bd a492 003e 243c cfbb 99df c63d
000002b0: ffde d53d 6787 cf3d 2e95 e6bc 18ef 013d
000002c0: 5d34 e2bd 17bd 033e 0c92 a63d cbbf b3bc
000002d0: 06f3 eebd 0934 363c d29a bebd bfa9 093e
000002e0: 4a09 383d 6a10 213e 166e c7bb 6a52 043d
000002f0: 9172 4c3d 3c47 0f3d f972 9c3d dffe f03d
00000300: a450 143e a65c 733d 2012 ebbd 886d 28bc
00000310: ffa8 c53c e261 e3bc 832c 6cbe a785 d93d
00000320: 0d71 7f3b 6b56 d13d 23b2 0f3e 6405 b4bd
00000330: 3b81 353d 6343 e33d bf83 5ebd 7067 9d3c
00000340: ee2a 06be e40d edbc 396f d3bd e684 103e
00000350: 692e 823d 0870 8ebd c42e 5abd 11d7 16be
00000360: a790 f23d 8326 57bd ebcd fbbd 8a2e 32bd
00000370: 71f6 533d 4a81 39bd 8cde 213e 181f f93d
00000380: 8e80 adbc fd22 b53d 6f15 393c 26cf a83c
00000390: f930 a3bd 0edb 7ebd c605 273e aab0 863d
000003a0: 48dd 883d 25d3 0cbe 33b0 773d 1605 313e
000003b0: 36c6 423d d078 aabd 8ce4 c83d f996 993d
000003c0: 86e8 0cbd 915d cd3c a167 243d c7b5 27bd
000003d0: 39b1 71b9 7580 d43d 8564 c43d d71d 063e
000003e0: 7d51 d43d 4b34 ddbd a636 fbba 63a7 b7bd
000003f0: 9d88 b0bd bdfb 3e3d 6fa7 c8bd 68d1 863d
