QuantLaxmi_Research/dtrn/results/checkpoints/fold1_BANKNIFTY/dtrn_stage1.pt (torch, 232927 bytes, 37 tensors)

embed.embed.0.weight f4 [32, 2]
0	0x3f090706	0.5352634
1	0x3e8e3140	0.2777195
2	0xbf2dfe07	-0.6796574
3	0x3ee04665	0.43803707
4	0xbf024288	-0.5088277
5	0xbe80d680	-0.2516365
6	0xbf1d9449	-0.6155439
7	0xbf20884a	-0.6270796
8	0x3f005c1e	0.5014056
9	0x3e49e096	0.19714579
10	0x3ed55c08	0.41671777
11	0xbebdc942	-0.3706761
12	0xbeff65bc	-0.49882305
13	0xbea35870	-0.3190341
14	0xbf779eb2	-0.96726525
15	0x3ed7bde5	0.42137066
16	0xbe69c4be	-0.22828957
17	0x3f1b52ed	0.6067341
18	0x3e4848b2	0.19558981
19	0xbd557629	-0.05211464
20	0xbe873980	-0.26411057
21	0xbe725ba0	-0.23667765
22	0xbd76a162	-0.0602125
23	0xbf46f0cd	-0.7771118
24	0xbf3c09ee	-0.7345265
25	0x3e98a791	0.29815343
26	0xbe80603b	-0.25073418
27	0x3d7524e0	0.05984962
28	0xbf4f3f98	-0.8095641
29	0x3ec8f8b3	0.39252242
30	0x3f24d424	0.643862
31	0x3eb51f48	0.35375428
32	0x3dc32ec6	0.09530406
33	0x3f1ed600	0.6204529
34	0x3f11b402	0.56915295
35	0xbf1aa5ea	-0.60409415
36	0x3d86bc88	0.06578928
37	0x3e80d381	0.25161365
38	0x3efd3958	0.49457812
39	0xbee390c7	-0.44446394
40	0xbeb76164	-0.3581649
41	0xbf141cea	-0.5785662
42	0xbf297950	-0.66200733
43	0xbe91e26f	-0.28493068
44	0x3ee8030b	0.45314822
45	0xbd06e570	-0.032933652
46	0xbf2a191a	-0.6644455
47	0x3e173352	0.14765671
48	0x3ecba0aa	0.39771014
49	0xbeda4ce0	-0.42636776
50	0x3e97b771	0.29632142
51	0x3eee4c09	0.46542385
52	0x3ef7f62b	0.4843
53	0xbf23b98c	-0.63955
54	0xbf49b067	-0.78784794
55	0xbd999175	-0.07498447
56	0xbf3f7495	-0.74787265
57	0x3e408455	0.1880048
58	0xbf37bb69	-0.7177034
59	0xbee15c93	-0.4401594
60	0x3e342747	0.17593108
61	0x3f2977c9	0.661984
62	0xbf2bd879	-0.67127186
63	0xbea2056c	-0.31644762

embed.embed.0.bias f4 [32]
0	0x3f010406	0.50396764
1	0x3eb65968	0.35615087
2	0xbf091b62	-0.5355741
3	0xbd967d21	-0.07348085
4	0x3ee4b560	0.44669628
5	0x3d83c511	0.06434072
6	0x3ea76a94	0.326985
7	0x3eff3bdd	0.4985036
8	0xbf07d6ef	-0.5306234
9	0xbdcbe655	-0.09956042
10	0x3e1cd8d8	0.15317094
11	0x3e349371	0.1763437
12	0x3dee54c9	0.11637265
13	0xbeca7b53	-0.39547214
14	0xbe3ac255	-0.18238194
15	0xbefeee0d	-0.49790993
16	0x3e5dc6e7	0.21657906
17	0x3f2817db	0.656614
18	0x3eb0b253	0.3451105
19	0x3ea4e07c	0.32202518
20	0xbf1d87a9	-0.61535126
21	0xbe2971a3	-0.16547255
22	0xbdc1c3f9	-0.09461207
23	0x3ef7a233	0.48365936
24	0x3e9c711b	0.30555043
25	0xbec4ea2c	-0.3845991
26	0x3ed2dc96	0.4118392
27	0x3e62b68e	0.22139952
28	0xbeea61a1	-0.4577761
29	0x3dc568bf	0.09639119
30	0xbedea3ae	-0.43484253
31	0x3f2895cd	0.6585358

embed.embed.2.weight f4 [32, 32]
0	0x3dd0c1a9	0.10193188
1	0x3dc239a5	0.09483651
2	0xba8abea5	-0.0010585381
3	0x3cd58ef6	0.026069146
4	0xbe0fc214	-0.14038879
5	0xbcb4eae2	-0.022084657
6	0x3c01f1d8	0.007931195
7	0x3c34ac4a	0.011027405
8	0xbd5165f9	-0.05112264
9	0xb9412240	-0.00018418673
10	0xbd84fa5e	-0.06493066
11	0x3d455b25	0.048182625
12	0x3e13aa6d	0.14420481
13	0x3d7cdc92	0.06173379
14	0xbe0ef8ac	-0.13962048
15	0xbdba27d5	-0.090896286
16	0x3dc8286a	0.09773333
17	0x3ca089e4	0.019597001
18	0xbcaa4c3c	-0.020788305
19	0xbe071cd4	-0.13194591
20	0x3c9af7a8	0.01891692
21	0x3e367529	0.1781813
22	0xbe04a563	-0.12953715
23	0xbdb16442	-0.08661701
24	0x3d0463f8	0.0323219
25	0x3d189c2c	0.037258312
26	0x3e48bba7	0.19602834
27	0x3e18a1c1	0.14905454
28	0x3e17c9dd	0.14823098
29	0x3e436d3b	0.19084637
30	0xbe16579c	-0.14681858
31	0x3da9ce12	0.08291258
32	0xbd102efd	-0.03520106
33	0x3ced2fef	0.02895352
34	0xbdae91b2	-0.08523883
35	0x3e030cde	0.12797877
36	0xbe20198e	-0.15634748
37	0x3de3b8f4	0.111192614
38	0xbe00a051	-0.12561156
39	0x3dc73d0a	0.09728439
40	0x3b963ab4	0.0045846347
41	0x3c0ee0c4	0.0087205805
42	0xbe45c83e	-0.19314668
43	0xbcc2ee09	-0.023795145
44	0x3dbd319f	0.0923798
45	0xbe0c60b2	-0.13708761
46	0x3dda7aea	0.10667975
47	0x3ce1de3f	0.027571796
48	0x3df040d2	0.117311135
49	0x3e2754ee	0.16340992
50	0xbde5823f	-0.11206483
51	0xbe0417ff	-0.12899779
52	0x3e062375	0.13099463
53	0x3e11517d	0.14191242
54	0xbe08e9ee	-0.13370487
55	0xbd99444a	-0.07483728
56	0x3e30ceec	0.17266434
57	0xbe0b040a	-0.1357576
58	0x3bd1bd29	0.0064007235
59	0xbd940cd5	-0.0722901
60	0x3d6754d7	0.056477394
61	0xbd991b77	-0.07475942
62	0x3e4ab4f3	0.19795589
63	0xbe0dfa6e	-0.13865063
64	0xb6b29f7e	-5.3233807e-06
65	0x3c0823b7	0.008309296
66	0xbba37ae1	-0.0049890135
67	0xbd8573ab	-0.065162025
68	0xbc893322	-0.016748015
69	0x3e4875b6	0.19576153
70	0x3e36494f	0.17801403
71	0xbd96166b	-0.07328495
72	0x3ddfe6dd	0.109327056
73	0x3e1a73e2	0.15083268
74	0x3c329691	0.010900156
75	0x3e0e443a	0.13893214
76	0x3dcef774	0.10105792
77	0xbd3b14a2	-0.045673974
78	0xbd7def35	-0.061995704
79	0xbb5da564	-0.0033820504
80	0xbd92ef19	-0.071745105
81	0xbd89b25c	-0.067234725
82	0x3e46fc5f	0.1943221
83	0x3e1d4f2e	0.15362236
84	0xbe094c73	-0.1340807
85	0xbd427823	-0.047477853
86	0xbd8b4301	-0.06799889
87	0xbe1c8d63	-0.1528831
88	0x3d033635	0.032034118
89	0x3d3fdeb8	0.04684326
90	0x3e27e6ea	0.1639668
91	0xbd9ff53e	-0.07810448
92	0xbe2e7b8a	-0.17039314
93	0xbd8181e9	-0.063236065
94	0x3e1bf111	0.15228678
95	0x3e0eda25	0.13950403
96	0xbddf48af	-0.10902535
97	0xbd550649	-0.052007947
98	0xbdc7279d	-0.097243525
99	0xbe208a69	-0.156778
100	0xbc3e2f4d	-0.011607957
101	0x3d7de4b7	0.061985698
102	0x3d0424d7	0.032261696
103	0x3d9e4f86	0.07730012
104	0x3e52dddf	0.2059245
105	0xbe520966	-0.20511398
106	0xbe507bf2	-0.20359781
107	0xbdfc31c0	-0.123141766
108	0x3d4cd34f	0.050006207
109	0x3c54c33e	0.0129860025
110	0xbe1085da	-0.1411356
111	0xbdae6b49	-0.08516557
112	0xbd4186d5	-0.047247726
113	0x3db8e92a	0.090288475
114	0x3e1d7a85	0.15378769
115	0xbe23964a	-0.159753
116	0xbe30f887	-0.17282306
117	0xbddab694	-0.10679355
118	0xbd505eb5	-0.05087157
119	0xbe0c9e4a	-0.13732257
120	0xbe47b766	-0.19503555
121	0xbace0fcd	-0.0015721262
122	0xbe2ab671	-0.16671158
123	0xbd8bd1ed	-0.068271495
124	0x3dee2a01	0.11629105
125	0x3d9b1647	0.075726084
126	0x3dcb926f	0.09940039
127	0xbdf33efd	-0.118772484
128	0x3d83ee5e	0.06441949
129	0xbd59cf35	-0.053176124
130	0x3d1a57dd	0.03768145
131	0xbdbb006d	-0.091309406
132	0xbdd3d4c6	-0.10343318
133	0xbdf5de8a	-0.120053366
134	0xba7351f2	-0.0009281925
135	0x3dd63583	0.10459425
136	0xbdc6fe67	-0.09716492
137	0x3d2dad06	0.042401336
138	0x3d9e9b12	0.07744421
139	0xbe07d63c	-0.13265318
140	0xbd84b409	-0.064796515
141	0x3e224a68	0.15848696
142	0x3e0cd12e	0.1375167
143	0x3e126733	0.1429718
144	0xbe12e91c	-0.14346737
145	0xbda3e949	-0.0800348
146	0xbd021040	-0.03175378
147	0x3e1e8a11	0.15482356
148	0xbdb1925a	-0.086704925
149	0x3d86c9fd	0.06581495
150	0xbc9204a9	-0.017824488
151	0x3dd38027	0.103271775
152	0xbe044785	-0.12917908
153	0xbd12a42b	-0.035801094
154	0xbd87b18c	-0.06625661
155	0x3e3c3594	0.18379813
156	0x3dca54e0	0.0987947
157	0x3e0d3a39	0.13791741
158	0xbd28c019	-0.041198824
159	0x3e5c2d01	0.21501543
160	0xbdbe050c	-0.09278306
161	0xbd95ea76	-0.073201105
162	0x3d979b87	0.07402711
163	0x3db3bd9d	0.087764
164	0x3e1e1440	0.15437412
165	0xbe5a61e6	-0.21326408
166	0xbb57a9da	-0.0032907636
167	0xbd7a322e	-0.06108301
168	0xbdff97e9	-0.124801464
169	0xbe93785e	-0.2880277
170	0xbdbdb056	-0.09262149
171	0xbdbc24d6	-0.091867134
172	0x3e154895	0.14578469
173	0xbdbfaa7d	-0.0935869
174	0xba20c4a0	-0.0006132815
175	0xbe4059cf	-0.1878426
176	0x3d48bcd2	0.049008198
177	0xbe006c32	-0.12541273
178	0xbd1802eb	-0.037112158
179	0x3d25495a	0.040353157
180	0x3e186846	0.14883527
181	0x3de09277	0.10965436
182	0xbe6006f5	-0.21877654
183	0x3d9790a8	0.07400638
184	0xbe5b4858	-0.21414316
185	0xbe4f8b10	-0.20267892
186	0xbe3ff991	-0.18747546
187	0xbda71c40	-0.08159685
188	0xbe570d89	-0.21001257
189	0x3cba7f0a	0.022765655
190	0xbdb4cbbb	-0.08827921
191	0xbde6d48a	-0.11271007
192	0xbda3b77c	-0.07993981
193	0x3d88fe47	0.066891246
194	0xbe20024d	-0.15625878
195	0x3dfa9219	0.12234897
196	0x3de95874	0.11393824
197	0x3e594853	0.21218996
198	0xbd2f58a9	-0.042809162
199	0x3b92e583	0.0044829263
200	0xbe289372	-0.16462496
201	0x3e1d6a43	0.15372567
202	0x3d3e59cb	0.046472352
203	0x3d3a063b	0.045416098
204	0x3d025f15	0.03182896
205	0x3e09ceab	0.13457744
206	0xbd537c8a	-0.05163244
207	0x3e1fb085	0.1559468
208	0x3d746512	0.0596667
209	0xbd8d799f	-0.06907963
210	0xbca9f587	-0.02074696
211	0x3e2e1e7e	0.1700382
212	0x3e17fd16	0.14842638
213	0xbd2dc32f	-0.04242247
214	0xbde1527f	-0.11002063
215	0x3d46ab65	0.0485033
216	0x3e73e802	0.23818973
217	0x3e441c8b	0.19151513
218	0x3e0e11e2	0.13874009
219	0x3d80eca6	0.06295137
220	0x3e2dc88c	0.16971034
221	0x3e26cfb1	0.16290165
222	0xbdf39b12	-0.11894812
223	0xbdedd8f5	-0.11613647
224	0xbdbc14ba	-0.09183641
225	0xbe4cc8d7	-0.1999849
226	0x3e1606cf	0.14651035
227	0xbe35417f	-0.17700766
228	0x3e52c2c3	0.20582108
229	0x3dc7a469	0.097481556
230	0xbe0e1b7e	-0.13877675
231	0xbc945489	-0.018106716
232	0x3de4bdbf	0.11169004
233	0xba4abbad	-0.00077336543
234	0x3c43263f	0.011910974
235	0xbe280f96	-0.16412196
236	0xbc61e6b2	-0.013787912
237	0x3d056fdd	0.032577384
238	0xbe86b5e2	-0.2631064
239	0x3db077f7	0.086166315
240	0x3cd9aa5b	0.02657049
241	0xbdeb3e8b	-0.114865385
242	0x3e3d972d	0.185147
243	0x3d81f96b	0.06346401
244	0x3c990702	0.0186801
245	0x3ceff415	0.029291192
246	0xbc576287	-0.013146049
247	0xbe2e174d	-0.17001076
248	0x3d84ce88	0.06484705
249	0xbb2eb95a	-0.002666077
250	0xbdceed72	-0.10103883
251	0xbde90f2d	-0.11379848
252	0x3db21f89	0.08697421
253	0xba254374	-0.0006304302
254	0xbd319410	-0.043354094
255	0x3d0f8060	0.035034537

embed.embed.2.bias f4 [32]
0	0xbdafccb2	-0.085839644
1	0x3c4399fa	0.011938566
2	0x3d70a0b3	0.058747005
3	0xbd355f29	-0.044280205
4	0xbe20d359	-0.15705623
5	0xbcd2c5f5	-0.025729159
6	0x3dca40f2	0.098756686
7	0xbdfc16e9	-0.12309057
8	0x3d96b36d	0.073584415
9	0xbd9c7fcf	-0.07641565
10	0xbdde2d2b	-0.10848459
11	0xbdffb83c	-0.12486312
12	0x3d9bfd18	0.07616633
13	0xbdb2964b	-0.08720072
14	0xbdf2a40f	-0.11847698
15	0x3d2403dd	0.040042747
16	0x3e19b6e6	0.15011176
17	0x3d881a81	0.0664568
18	0x3dd8ee6f	0.105923526
19	0x3e1604a7	0.14650212
20	0x3bb9fdb4	0.0056759957
21	0x3d70a2eb	0.05874912
22	0x3e1a2f46	0.15057096
23	0xbe1f8d25	-0.15581186
24	0x3c79c17f	0.015243887
25	0xbdf0a0eb	-0.11749443
26	0xbd614290	-0.05499512
27	0x3d710ae3	0.058848273
28	0xbe0c9af9	-0.13730992
29	0x3e0c608f	0.13708709
30	0xbe14c2c3	-0.1452742
31	0x3df8929c	0.121373385

input_proj.weight f4 [64, 32]
0	0xbe230972	-0.15921572
1	0xbd1e6071	-0.038666192
2	0xbc4bee48	-0.012446947
3	0xbe20c9cf	-0.15701984
4	0xbe1a1426	-0.15046749
5	0xbd811eb5	-0.06304685
6	0x3e04b692	0.1296027
7	0xbe4d5e75	-0.20055564
8	0xbd3bffdd	-0.045898307
9	0xbd61c779	-0.055121873
10	0x3e02f7e0	0.1278987
11	0x3d97c289	0.074101515
12	0x3d39b2e9	0.045336638
13	0x3db5088c	0.08839521
14	0x3d373ed3	0.04473765
15	0x3e2b6e49	0.16741289
16	0xbd6d2fff	-0.0579071
17	0xbd94298b	-0.07234486
18	0x3d2b58e3	0.041832816
19	0x3c024749	0.007951566
20	0x3e35d613	0.17757444
21	0x3e799bda	0.24375859
22	0x3e85dbe5	0.2614433
23	0xbdd9250f	-0.106027715
24	0xbe2fcc7f	-0.17167853
25	0xbc88d4f6	-0.01670311
26	0xbe10f941	-0.14157583
27	0x3dc963a1	0.09833456
28	0x3e094c1e	0.13407943
29	0x3db4ee74	0.08834544
30	0xbe2cf2c2	-0.1688948
31	0x3e42ede9	0.19036068
32	0x3a6c62c6	0.0009017404
33	0x3da0e490	0.07856095
34	0x3e0200b9	0.12695588
35	0x3d4d35d9	0.05010018
36	0xbdbd562f	-0.09244954
37	0xbe0ace11	-0.1355517
38	0xbdc0a414	-0.094062954
39	0x3d9a0afd	0.07521627
40	0xbd8818b8	-0.0664534
41	0xbc838b9c	-0.016057782
42	0xbce1bbc2	-0.02755535
43	0xbcecad5b	-0.028891256
44	0x3ce8f57f	0.028437374
45	0x3e11ed97	0.1425079
46	0xbdc6e796	-0.0971214
47	0x3e19c3e8	0.15016139
48	0x3e214e39	0.15752496
49	0xbc631c1b	-0.013861681
50	0x3d1e5e1b	0.038663965
51	0x3dbab13e	0.091158375
52	0x3d83b73e	0.06431435
53	0x3da9dbde	0.082938895
54	0x3e069e81	0.13146402
55	0x3d88b67e	0.066754326
56	0xbe40b0f7	-0.18817507
57	0x3d4f72e6	0.050646685
58	0xbcbf561a	-0.023356486
59	0xbdc4f00c	-0.09616098
60	0xbdf947f5	-0.12171928
61	0x3de2d541	0.11075831
62	0x3cc9a51a	0.02461486
63	0x3d8e611f	0.06952118
64	0xbdea6cf5	-0.11446563
65	0x3df25bf5	0.11833946
66	0x3b3e09d0	0.0028997548
67	0xbe02069b	-0.12697832
68	0x3dd4784a	0.10374506
69	0x3e1f013b	0.15527813
70	0xbe248b3d	-0.1606874
71	0xbd6252f5	-0.055254895
72	0xbd9493db	-0.07254764
73	0x3e098a7c	0.13431734
74	0xbc493f71	-0.012283192
75	0xbe0c636c	-0.13709801
76	0xbe117dc1	-0.14208128
77	0xbd11a647	-0.035558965
78	0x3d4879bd	0.048944224
79	0x3b2d8fb3	0.0026483356
80	0xbe12ef6f	-0.14349149
81	0xbd7a6b04	-0.061137214
82	0x3e0e7ee8	0.13915598
83	0xbe0921eb	-0.13391845
84	0x3d2d3d70	0.04229492
85	0xbdbe20fd	-0.09283636
86	0xbde4afe7	-0.11166363
87	0xbdea05fe	-0.11426924
88	0x3d3414ba	0.04396508
89	0x3d3ae27a	0.04562614
90	0xbe29501a	-0.16534463
91	0xbd98e52f	-0.07465588
92	0x3cf3d4c3	0.029764539
93	0xbe11a788	-0.14224064
94	0xbd7d5420	-0.061847806
95	0x3cacf803	0.021114355
96	0x3bf8d9f8	0.0075943433
97	0xbd7585a9	-0.05994192
98	0xbad201ca	-0.0016022262
99	0xbdd19711	-0.10233892
100	0x3cd1fd54	0.025633492
101	0xbd21f59d	-0.039540876
102	0x3d7f0a9f	0.06226599
103	0x3cebed1e	0.02879959
104	0xbdead1cf	-0.11465799
105	0xbe0a531e	-0.13508269
106	0x3d7ccc97	0.06171855
107	0xbd1dca38	-0.03852293
108	0xbdee387d	-0.11631868
109	0x3e50063b	0.20314877
110	0xbdcddd99	-0.10052032
111	0x3e2e7cd1	0.17039801
112	0xbe4bae8e	-0.19890806
113	0x3e2ce13f	0.168828
114	0xbe0b3502	-0.1359444
115	0x3a5346b4	0.0008059547
116	0x3d239483	0.039936554
117	0x3dd240aa	0.1026624
118	0xbe73b606	-0.23799905
119	0x3d1d7ca5	0.03844895
120	0x3db0bf06	0.08630185
121	0xbdc6fb58	-0.09715909
122	0x3e7687ac	0.24075192
123	0xbd9fb507	-0.077982
124	0xbc37c847	-0.011217183
125	0xbd4c1ce7	-0.04983225
126	0xbdc33ceb	-0.095331036
127	0x3d8af996	0.06785886
128	0xbe5fb825	-0.2184759
129	0x3e2ad5fd	0.16683193
130	0x3c7bffec	0.015380841
131	0xbd9d3561	-0.07676197
132	0xbddfaab6	-0.109212324
133	0x3ba66797	0.005078267
134	0x3d990eeb	0.074735485
135	0xbdfcf396	-0.12351148
136	0xbe14970a	-0.14510742
137	0x3d270a74	0.040781453
138	0xbe10fd25	-0.14159067
139	0xbe5ae7ab	-0.21377437
140	0x3dc9a590	0.09846032
141	0xbe03e6b0	-0.12880969
142	0x3e84d499	0.2594345
143	0xbd246252	-0.040132828
144	0x3cbcac85	0.023031482
145	0xbdbc06f3	-0.09181013
146	0x3e48b53c	0.19600385
147	0xbe098d4d	-0.13432808
148	0x3ce0d2cd	0.027444268
149	0xbd6a2809	-0.057167087
150	0x3e75c43e	0.24000642
151	0xbd2f90b7	-0.04286262
152	0x3e4a06de	0.19729182
153	0xbe2ffe92	-0.17186955
154	0xbe607cc4	-0.21922594
155	0xbd837fea	-0.06420882
156	0x3d880cfd	0.06643102
157	0x3d3f01a3	0.04663242
158	0x3d42af4b	0.047530454
159	0xbdb72f7f	-0.08944606
160	0xbd845d94	-0.06463161
161	0x3dc61635	0.096722044
162	0x3e1ba5b5	0.15199931
163	0xbdcf33cd	-0.10117302
164	0x3dd83b98	0.105582416
165	0xbdbfdf59	-0.09368772
166	0xbda5e32e	-0.08099972
167	0xbb57b4c7	-0.0032914148
168	0xbe097406	-0.13423166
169	0xbc4ed9ef	-0.012625202
170	0x3b558508	0.0032580514
171	0x3d8e16b8	0.06937927
172	0x3dd0239b	0.10163041
173	0x3d7b5182	0.06135703
174	0x3e10a8be	0.1412687
175	0x3cdda3cc	0.027055643
176	0x3d712884	0.05887653
177	0x3dbe9d25	0.09307317
178	0x3e0e3b9c	0.13889927
179	0xbe22d3aa	-0.15901056
180	0x3dd6b0c3	0.10482933
181	0x3d7b3a9a	0.061335184
182	0x3e52f324	0.20600563
183	0x3cb88e2d	0.022528732
184	0x3df54d6a	0.11977656
185	0x3d1ddb9f	0.038539525
186	0x3e00f1cc	0.12592238
187	0x3e173861	0.147676
188	0xbd9bc379	-0.07605643
189	0xbdaabb38	-0.083364904
190	0x3dac1421	0.08402277
191	0x3cdbe3f9	0.026842104
192	0x3d810f05	0.06301693
193	0x3de301e4	0.11084345
194	0xbe29ffdb	-0.16601507
195	0x3b5aaa73	0.0033365756
196	0x3c8c2338	0.017106637
197	0x3d8bb16a	0.068209484
198	0xbd4dd231	-0.050249282
199	0xbd1a2e1b	-0.037641626
200	0xbe219dca	-0.15782848
201	0x3caef589	0.021357315
202	0xbdb9ea74	-0.090779215
203	0x3e877d7a	0.2646292
204	0xbe15830a	-0.14600769
205	0x3e6e8d54	0.232961
206	0xbc4d51f1	-0.012531743
207	0x3e279919	0.16366996
208	0x3c950c94	0.018194474
209	0x3d3f342d	0.046680618
210	0x3c8cf5a0	0.017206967
211	0xbd148641	-0.036260847
212	0xbc9ab6a1	-0.018885912
213	0x3d9acda2	0.075587526
214	0xbe8515f3	-0.25993308
215	0xbce5978a	-0.028026361
216	0xbe164e37	-0.14678274
217	0xbcfdbc05	-0.030973444
218	0x3dde0c76	0.108422205
219	0x3c81a0fc	0.015823834
220	0x3d450539	0.048100684
221	0xbe28c2fb	-0.16480629
222	0x3e71f219	0.23627509
223	0x3e17e034	0.1483162
224	0xbdc40bc7	-0.09572559
225	0x3e2d07f0	0.16897559
226	0xbdc166ab	-0.094434105
227	0x3dbf100a	0.09329231
228	0x3db0b277	0.086277895
229	0xbcc79ef9	-0.024367796
230	0x3da58178	0.08081335
231	0x3c80776e	0.015681949
232	0x3e0acd87	0.13554965
233	0x3ccfbf5e	0.025359806
234	0x3db8529c	0.090001315
235	0xbe22b75f	-0.15890263
236	0x3dd0c4f6	0.10193817
237	0x3dd4500b	0.103668295
238	0x3e16c9cd	0.14725418
239	0xbd759296	-0.05995425
240	0xbc9a4c2f	-0.018835155
241	0xbe5aa32c	-0.21351308
242	0xbd22b375	-0.039721925
243	0xbdde1765	-0.10844306
244	0xb9c8f717	-0.0003833107
245	0x3dd78dc1	0.10525084
246	0x3e00b997	0.12570797
247	0x3d54d49c	0.051960573
248	0xbdaf4c68	-0.08559495
249	0xbceebe49	-0.02914347
250	0xbe24af37	-0.16082464
251	0xbd91e916	-0.07124536
252	0xbd9159c1	-0.07097197
253	0xbddd3635	-0.10801355
254	0xbdb525ab	-0.08845075
255	0x3d02a8fb	0.031899434

input_proj.bias f4 [64]
0	0x3e7d9777	0.2476481
1	0x3e28c45c	0.16481155
2	0xbe43d866	-0.19125518
3	0x3ca3d205	0.019997606
4	0x3e0a61c6	0.1351386
5	0xbdb106ce	-0.08643876
6	0xbd895664	-0.06705931
7	0xbde6fc02	-0.112785354
8	0x3e769ea6	0.24083957
9	0x3dc32d37	0.095301084
10	0xbda20756	-0.079115555
11	0x3e26a499	0.16273727
12	0xbe19960c	-0.14998645
13	0xbde9da8f	-0.1141864
14	0xbdf85ba1	-0.12126852
15	0x3d1e9857	0.0387195
16	0x3de12015	0.10992447
17	0xbd0ed970	-0.034875333
18	0xbd2632c5	-0.04057576
19	0xbdd45db3	-0.10369434
20	0xbe6cc83c	-0.23123258
21	0xbdfc441b	-0.123176776
22	0xbd898e2e	-0.06716572
23	0xbe145970	-0.14487243
24	0xbe21a229	-0.15784515
25	0xbe1ebfba	-0.15502825
26	0xbd367a09	-0.044549976
27	0xbdcc6c0d	-0.099815466
28	0xbcf329e2	-0.029683057
29	0x3db82eae	0.089932784
30	0x3e167778	0.14694011
31	0x3da7d92e	0.081957206
32	0xbd8b14a1	-0.06791044
33	0x3c1cbd18	0.009566568
34	0x3e4a6e89	0.19768728
35	0x3d3f1c76	0.046658
36	0x3e0c3cef	0.1369512
37	0x3e211437	0.15730368
38	0x3dd1d4d4	0.10245672
39	0xbe408af4	-0.18803006
40	0xbdaa0468	-0.08301622
41	0x3e4d5207	0.20050822
42	0x3e4548dc	0.19266075
43	0xbbca51f0	-0.0061743185
44	0x3d53e15a	0.051728584
45	0xbe47bd11	-0.19505717
46	0xbdd02651	-0.10163558
47	0x3d7389ee	0.059457712
48	0x3b2fdcce	0.002683449
49	0x3e6f85b6	0.2339085
50	0x3e300f2e	0.1719329
51	0xbe08d737	-0.13363348
52	0xbe2a425d	-0.16626878
53	0xbdab6848	-0.083694994
54	0x3da9dc8a	0.082940176
55	0x3dfda93a	0.12385793
56	0xbe0becf4	-0.13664609
57	0x3dc96d87	0.09835344
58	0x3d40d6c6	0.047079824
59	0xbe09d849	-0.13461412
60	0x3cbb7b85	0.022886047
61	0xbe29499d	-0.16531987
62	0xbdb03152	-0.08603157
63	0x3ddb5893	0.107102536

msg_layers.0.W_self.weight f4 [64, 64]
0	0x3e4fee87	0.20305835
1	0x3e06dac4	0.1316939
2	0xbda6fa73	-0.08153238
3	0xbda11804	-0.07865909
4	0x3e10742a	0.14106813
5	0xbcec7c3e	-0.028867837
6	0xbd7e78f4	-0.06212707
7	0x3d90d864	0.07072523
8	0x3e702f25	0.23455484
9	0x3d8c0f0d	0.06838808
10	0x3e0ddfb3	0.13854866
11	0x3e395e8b	0.18102472
12	0x3d5ff4e9	0.054676924
13	0xbd980d9f	-0.07424473
14	0x3d12a85c	0.03580509
15	0x3de6c697	0.11268347
16	0x3e0b36a0	0.13595057
17	0xbde91228	-0.11380416
18	0x3bac59b9	0.005259719
19	0xbd8d1aa5	-0.06889848
20	0xbd9ea981	-0.07747174
21	0xbdf8b0bb	-0.12143084
22	0x3ab21b04	0.0013588374
23	0xbe759655	-0.23983128
24	0xbe2003df	-0.15626477
25	0xbe0d09e7	-0.13773309
26	0x3c1645f3	0.009171951
27	0xbd9d0604	-0.07667163
28	0xbde1436d	-0.109991886
29	0xbd8a9e6a	-0.06768496
30	0xbdd25ba7	-0.102713875
31	0xbd405522	-0.04695619
32	0xbde91e5a	-0.11382742
33	0xbe16e81f	-0.14736985
34	0x3df3ba0e	0.119007215
35	0xbcb18bfc	-0.021673195
36	0xbd3bd43e	-0.045856707
37	0x3d4c8411	0.049930636
38	0x3da4c3c9	0.080451556
39	0xbe163a8d	-0.14670773
40	0xbd8dfbda	-0.069328025
41	0x3c48bd41	0.012252153
42	0xbcc10062	-0.023559753
43	0x3de2fe2e	0.11083637
44	0xbd8c0e30	-0.068386436
45	0xbdbd22d6	-0.0923516
46	0xbdab29ea	-0.08357604
47	0x3e31d66a	0.17366949
48	0xbd626c33	-0.055278968
49	0xbc8dafdd	-0.017295772
50	0x3d78c0d7	0.06073078
51	0xb8d8040f	-0.000103004386
52	0xbe62aaa1	-0.22135402
53	0x3e115c2f	0.14195322
54	0xbd4e76fa	-0.050406434
55	0xbb544d64	-0.0032394761
56	0xbdd9107a	-0.10598846
57	0x3de9aac4	0.11409524
58	0x3dc69f0a	0.09698303
59	0xbdae257d	-0.08503244
60	0x3e4b0cfc	0.19829172
61	0xbe22e86e	-0.15908977
62	0xbd63a866	-0.05558052
63	0x3ce270a4	0.027641602
64	0x3d50203e	0.050812
65	0xbdea7986	-0.1144896
66	0x3daff68b	0.08591946
67	0x3de525d3	0.11188855
68	0xbe060fc9	-0.13091959
69	0x3c82b729	0.015956478
70	0xbd77f3a3	-0.060535084
71	0xbd9ccd45	-0.076563396
72	0x3a5ba87d	0.0008379294
73	0xbd82e5b7	-0.06391471
74	0x3dbf00c3	0.09326317
75	0x3de42e24	0.11141613
76	0xbcb1578b	-0.021648189
77	0x3e0f7d27	0.14012586
78	0xbdac04ca	-0.08399351
79	0x3d306ae2	0.04307068
80	0x3d5743f4	0.05255504
81	0xbd5b12b1	-0.053484622
82	0x3c2afb07	0.010435826
83	0xbe073e99	-0.13207473
84	0xbde6579a	-0.112471774
85	0xbdd841fd	-0.10559461
86	0xbd5d0936	-0.053963862
87	0x3d3efe87	0.046629455
88	0xbde6a731	-0.11262358
89	0x3b2b5460	0.002614282
90	0xbd4ac05f	-0.049499866
91	0x3cfed030	0.03110513
92	0x3e00b12d	0.12567587
93	0xbd2282ad	-0.039675403
94	0xbd06a4df	-0.032872077
95	0xbe03fc33	-0.12889175
96	0xbd50fbe4	-0.05102147
97	0xbd5bd605	-0.0536709
98	0xbb425ac4	-0.0029656151
99	0x3cceab5f	0.0252282
100	0x3d50706b	0.05088846
101	0x3d6d344d	0.057911206
102	0xbd527ac0	-0.051386595
103	0xbc40de23	-0.0117717115
104	0xbbe0ed89	-0.006864254
105	0xbd786b88	-0.060649425
106	0x3d13174b	0.035910886
107	0x3daced6b	0.084437214
108	0x3df00dac	0.11721358
109	0x3dcf090e	0.10109149
110	0x3d24877d	0.040168274
111	0x3cc890f3	0.02448318
112	0xbc667d0b	-0.0140678985
113	0xbc1d7e4f	-0.009612634
114	0x3daed383	0.085364364
115	0xbdedc2aa	-0.11609395
116	0x3c0ca60e	0.008584512
117	0x3c5ce426	0.013482129
118	0x3db7738e	0.08957587
119	0x3d02a84f	0.031898793
120	0xbdedb2f0	-0.11606395
121	0x3d1c3178	0.038133115
122	0x3d38e066	0.045135878
123	0xbdb9861a	-0.09058781
124	0xbd684d29	-0.05671421
125	0x3dc9cd0b	0.09853562
126	0xbd6e14fb	-0.058125477
127	0xbd3cc336	-0.046084605
128	0x3d51c2c6	0.05121114
129	0xbc76acb5	-0.015055825
130	0x3d4cb252	0.049974747
131	0x3d9995b5	0.074992575
132	0xbc8641c5	-0.016388783
133	0xbd05e49b	-0.03268872
134	0xbd11c5fe	-0.03558921
135	0x3c861552	0.016367588
136	0xbd385bfc	-0.045009598
137	0x3dc3e1b6	0.09564535
138	0xbda25697	-0.07926672
139	0xbce815b2	-0.028330658
140	0x3d0c35d7	0.034231033
141	0x3d1a37cb	0.037650865
142	0xbdb6f72f	-0.08933865
143	0x3e377e22	0.1791921
144	0xbdee1892	-0.1162578
145	0x3daa2b8a	0.08309086
146	0x3da4a4ec	0.08039269
147	0x3d7cc86a	0.061714567
148	0x3c96c037	0.018402202
149	0xbd400df9	-0.046888325
150	0x3a841bcf	0.0010079088
151	0xbe10a910	-0.14126992
152	0x3e0abb97	0.13548122
153	0x3ddada64	0.10686186
154	0x3d7839a8	0.06060186
155	0xbca17745	-0.019710192
156	0xbdac504f	-0.08413755
157	0x3dc6b66d	0.09702764
158	0x3d50fd12	0.051022597
159	0xbd5d9a4b	-0.054102223
160	0x3d8d6f06	0.06905942
161	0x3c2f7960	0.01071009
162	0x3c2f5d4e	0.010703398
163	0xbd849ef8	-0.064756334
164	0xbc82049f	-0.015871344
165	0xbd70a8ee	-0.058754854
166	0x3d8c59b6	0.068530485
167	0x3d848c3e	0.064720616
168	0xbdde8c11	-0.10866559
169	0x3d83c41a	0.06433888
170	0x3d6e3079	0.058151696
171	0x3cfb851b	0.030703118
172	0xbdcde4aa	-0.1005338
173	0x3ceb95d5	0.028757969
174	0xbdcfe18e	-0.10150443
175	0x3d96c8e7	0.07362538
176	0xbc967c70	-0.018369883
177	0xbd618aad	-0.055063892
178	0xbcbbffba	-0.022949088
179	0x3d9cb645	0.07651953
180	0x3a855b11	0.0010174235
181	0xbcf63409	-0.03005411
182	0x3daf47b6	0.085586
183	0x3ddb11a9	0.10696728
184	0x3da09a62	0.07841946
185	0xbdc1f998	-0.09471434
186	0xbce0e8ad	-0.027454698
187	0x3db48b45	0.08815626
188	0xbb1fe67b	-0.0024398852
189	0x3da450c4	0.08023217
190	0x3b56dfba	0.003278716
191	0xbd2e23f1	-0.042514745
192	0x3d557b33	0.052119445
193	0x3dd5e2ee	0.10443674
194	0x3e059fbc	0.13049215
195	0xbda94d27	-0.08266669
196	0x3d1121c8	0.035432607
197	0x3ca6adb6	0.020346504
198	0x3c20d03a	0.00981527
199	0xbce05c92	-0.027387891
200	0x3dd94878	0.106095254
201	0xbdecda5f	-0.115650885
202	0x3bad3b03	0.0052865758
203	0xbdc11ad4	-0.09428945
204	0xbce4b9a7	-0.027920557
205	0xbb94a150	-0.0045358315
206	0xbdeb0594	-0.11475673
207	0x3c2bce8a	0.0104862545
208	0x3e06729e	0.1312966
209	0xbc958d29	-0.018255787
210	0xbd692777	-0.056922402
211	0xbd9a7ffb	-0.075439416
212	0x3dcfc711	0.10145391
213	0xbdb57e35	-0.08861963
214	0xbde2c0e1	-0.11071945
215	0xbdc6a64a	-0.09699686
216	0xbd819e5d	-0.063290335
217	0xbc26cb4a	-0.010180304
218	0x3e1dd98e	0.15415022
219	0x3d3a64d1	0.045506302
220	0x3d0d8767	0.034552958
221	0xbda74d74	-0.0816907
222	0xbe0a93a0	-0.13532877
223	0x3da21c9b	0.07915612
224	0x3d8d0524	0.06885746
225	0xbd1d3c87	-0.0383878
226	0x3ddb4400	0.10706329
227	0x3dbd8c94	0.09255329
228	0x3d5767ab	0.0525891
229	0xbd27a971	-0.040933076
230	0x3d4ce8c0	0.050026655
231	0x3c5dfde8	0.0135493055
232	0x3d636ae4	0.05552186
233	0x3e0ce913	0.13760786
234	0xbdc2f031	-0.09518469
235	0x3d942444	0.072334796
236	0xbbbf4dfb	-0.0058381534
237	0x3d395178	0.04524371
238	0xbd876dd1	-0.06612743
239	0xbcc9a683	-0.024615532
240	0x3cc4efd9	0.02404015
241	0x3d0ac629	0.033880387
242	0x3db8c6d3	0.09022298
243	0x3df32843	0.11872914
244	0xbda445e7	-0.08021145
245	0x3dec37f2	0.11534108
246	0xbd983268	-0.07431489
247	0x3e2cd9e8	0.1688
248	0x3cc2f16d	0.023796761
249	0x3c078eb9	0.008273774
250	0x3d9db17d	0.07699869
251	0xbd130802	-0.03589631
252	0x3db47325	0.088110246
253	0x3be6f5d1	0.0070483466
254	0x3d71f1c5	0.05906846
255	0xbce68c03	-0.028142935

msg_layers.0.W_self.bias f4 [64]
0	0x3e13a0c2	0.14416793
1	0xbd80921e	-0.0627787
2	0xbd46fc21	-0.048580293
3	0xbd6e2666	-0.05814209
4	0xbbcf83c5	-0.006332847
5	0x3c9ff253	0.019524729
6	0xbe0120e7	-0.12610207
7	0xbe1b09af	-0.15140413
8	0x3dc34eb9	0.095364995
9	0xbd69c39b	-0.05707131
10	0xbe1a6006	-0.15075693
11	0x3ca898a3	0.020580595
12	0xbde482fb	-0.11157795
13	0x3d7fc88c	0.062447116
14	0x3c5e2ec3	0.013560954
15	0xbdf2bb22	-0.11852099
16	0x3d4d2cc5	0.050091524
17	0xbdd2990f	-0.102831
18	0xbd6287c1	-0.055305246
19	0x3dca724f	0.09885084
20	0xbddadfba	-0.10687204
21	0x3dadc435	0.08484689
22	0xbe00a485	-0.12562759
23	0xbd828437	-0.06372874
24	0x3ddf2293	0.108952664
25	0xbd277ab6	-0.04088851
26	0x3d94c1fb	0.07263561
27	0xbdcb9433	-0.09940376
28	0x3d485101	0.048905376
29	0x3b86ade2	0.004110084
30	0xbcb06e12	-0.02153686
31	0xbb884558	-0.004158657
32	0xbd9dcae0	-0.07704711
33	0xbb89571c	-0.0041912924
34	0x3e361c57	0.17784248
35	0x3e0906d2	0.13381508
36	0xbcbb424e	-0.022858765
37	0xbdb83d7a	-0.08996101
38	0x3df26747	0.11836105
39	0xbe15e5d1	-0.14638449
40	0xbc9fc058	-0.019500896
41	0x3dfdf64a	0.124004915
42	0x3e317364	0.17329174
43	0x3dcd759b	0.10032197
44	0x3d26c2b6	0.040713035
45	0xbdc41b2e	-0.095754966
46	0x3c90cfd2	0.017677221
47	0x3b67249e	0.0035269628
48	0xbdc3bf4d	-0.09557972
49	0xbc00bbdd	-0.00785729
50	0x3da4f52e	0.08054577
51	0xbbfa9bf9	-0.007647988
52	0x3d380539	0.044926856
53	0x3d9add38	0.075617254
54	0x3d529e49	0.051420484
55	0x3d60887b	0.054817658
56	0xbc344fd7	-0.011005363
57	0x3cdf446d	0.027254308
58	0xbd54bd2c	-0.05193822
59	0xbe0e5d31	-0.13902737
60	0xbe1834ff	-0.14863966
61	0x3c9c5dd2	0.019087706
62	0xbda8f816	-0.08250444
63	0xbc731090	-0.014835492

msg_layers.0.W_msg.weight f4 [64, 64]
0	0xbca8d898	-0.020611092
1	0xbdf37acb	-0.11888655
2	0x3bc51c23	0.006015317
3	0xbbdb827e	-0.0066989055
4	0xbe208098	-0.15674055
5	0xbc265d86	-0.010154134
6	0xbc317f44	-0.010833565
7	0xbd4668a5	-0.04843964
8	0xbd0164e3	-0.031590354
9	0xbe1be0da	-0.15222493
10	0xbe0c23f3	-0.13685589
11	0xbdf7cbda	-0.120994285
12	0x3daa8905	0.08326916
13	0xbcc14bda	-0.02359574
14	0x3d7fc40f	0.062442835
15	0x3c5697b2	0.01309769
16	0xbd42c63b	-0.04755233
17	0xbd9ed5ac	-0.077555984
18	0x3cf74c69	0.030187802
19	0x3dc1ff5e	0.094725356
20	0x3e363457	0.17793404
21	0x3df0f9af	0.11766373
22	0xbc81b435	-0.015833
23	0x3df00590	0.11719811
24	0x3e240080	0.16015816
25	0xbe0aee46	-0.13567457
26	0x3e068c79	0.13139524
27	0x3e0c2f51	0.13689925
28	0xbdb99b5c	-0.090628356
29	0x3dc1afdf	0.09457373
30	0xbd9cc47c	-0.07654664
31	0x3c8e4f28	0.017371729
32	0x3ba4f009	0.0050334972
33	0xbd7178f4	-0.05895324
34	0xbe260972	-0.1621454
35	0x3c2645eb	0.010148506
36	0xbda1fd46	-0.07909636
37	0xbe14be9a	-0.14525834
38	0xbd0f1dcc	-0.034940526
39	0x3d7d2b89	0.061809096
40	0xbca460f8	-0.02006577
41	0xbda1249b	-0.0786831
42	0x3d63f74d	0.055655766
43	0x3bded5c8	0.006800387
44	0xbce1c18f	-0.027558116
45	0x3d383257	0.044969883
46	0x3db39c44	0.0877004
47	0x3da8a40f	0.08234417
48	0xbc7fa575	-0.015603413
49	0xbdb4a01c	-0.08819601
50	0xbdbe543e	-0.09293412
51	0xbdca9296	-0.0989124
52	0x3dc419b6	0.095752165
53	0xbc38cc23	-0.011279139
54	0xbb618a54	-0.0034414725
55	0xbd872fc1	-0.06600905
56	0x3ced87a1	0.028995337
57	0x3d091c6d	0.033474375
58	0xbd0fdc51	-0.03512222
59	0x3e243f9e	0.16039893
60	0xbd43e8f2	-0.047829576
61	0xbcc9eb9d	-0.024648482
62	0x3d3cdc58	0.046108574
63	0xbd164756	-0.036689125
64	0x3daf9b0c	0.08574495
65	0xbdbc566c	-0.09196171
66	0x3d4d931f	0.050189134
67	0x3d327db1	0.0435769
68	0x3d230906	0.039803527
69	0xbc4dd3c8	-0.0125627
70	0x3d1c34d8	0.038136333
71	0xbd6c468f	-0.057684477
72	0x3d00932a	0.031390347
73	0xbce46d9d	-0.027884299
74	0x3d776bb7	0.06040546
75	0xbdc63ac2	-0.09679176
76	0xbdb1b738	-0.08677524
77	0x3d0adfdf	0.033904906
78	0x3d5d9cae	0.0541045
79	0x3ddd06c5	0.10792307
80	0x3d38c0bd	0.045105685
81	0x3e1395cb	0.1441261
82	0x3d868ae7	0.06569462
83	0xbd837f91	-0.06420816
84	0x3dc2f342	0.09519054
85	0x3db96511	0.0905248
86	0xbd06e24b	-0.032930654
87	0xbc3d4c41	-0.011553825
88	0x3d7523b7	0.059848513
89	0x3dd3cf08	0.103422225
90	0x3d95e795	0.073195614
91	0xbb211505	-0.002457918
92	0x3d6aba7f	0.057306763
93	0x3dde45d8	0.108531654
94	0x3d956ca7	0.072961144
95	0x3db6835e	0.08911775
96	0x3e06c1eb	0.13159911
97	0xbd9dfbce	-0.077140436
98	0xbd3c1300	-0.045916557
99	0xbda5be2d	-0.08092914
100	0x3d1bb4c9	0.038014207
101	0x3d1538e5	0.036431212
102	0x3cd9c792	0.02658442
103	0xbdb48a0f	-0.08815395
104	0x3cc6ba45	0.024258742
105	0xbd680dd7	-0.056653824
106	0xbe15873d	-0.1460237
107	0xbcb3cea2	-0.021949116
108	0xbd027a6b	-0.031855028
109	0xbdbcb055	-0.0921332
110	0x3e01e2ff	0.12684248
111	0x3c4a300b	0.012340556
112	0xbdd659aa	-0.10466321
113	0xbe0f0f15	-0.13970597
114	0xbc82cafc	-0.015965931
115	0xbd45f084	-0.048325077
116	0xbd7fdf7a	-0.062468983
117	0x3dd8b987	0.105822615
118	0x3dc017f1	0.093795665
119	0x3cd8b601	0.026453974
120	0xbdd19c85	-0.10234932
121	0xbd8682a5	-0.06567887
122	0x3d74a4b8	0.0597274
123	0xbcbe0e78	-0.023200259
124	0xbd1d9839	-0.03847525
125	0x3e063004	0.13104254
126	0xbda60bc4	-0.08107713
127	0x3da09442	0.07840778
128	0x3d95455a	0.072886184
129	0x3e1ac547	0.15114318
130	0xbda69901	-0.08134652
131	0xbdfa9812	-0.12236036
132	0x3e323945	0.17404659
133	0xbd30e5fa	-0.043188073
134	0xbdb1fcf9	-0.08690829
135	0x3d9273ae	0.071509704
136	0xbcfaa2d6	-0.030595224
137	0x3d6731dc	0.056444034
138	0xbc9836b2	-0.018580768
139	0x3e143fc3	0.14477448
140	0x3cf0b59e	0.029383477
141	0xbe0ce1c3	-0.13757996
142	0xbd1d77f1	-0.038444463
143	0x3ba8e37b	0.005154071
144	0x3de23a07	0.11046224
145	0xbe476d9f	-0.19475411
146	0xbbcd804c	-0.0062713977
147	0xbc582212	-0.013191717
148	0xbdefe5b6	-0.11713736
149	0x3dbc7a3f	0.09203004
150	0xbe313e02	-0.1730881
151	0xbdc34cc0	-0.09536123
152	0x3d294bbb	0.041331988
153	0xbe324289	-0.17408194
154	0x3b813b2e	0.0039438223
155	0x3dca9525	0.09891728
156	0xbe2308c2	-0.1592131
157	0xbe0b81e1	-0.13623764
158	0xbdee8d1a	-0.11648007
159	0xbc7e914b	-0.01553757
160	0xbd9a8527	-0.07544928
161	0x3d610ca7	0.054943707
162	0x3cea6860	0.028614223
163	0xbe730d19	-0.23735465
164	0x3e155f3c	0.1458711
165	0x3d2f082b	0.0427324
166	0x3deeb324	0.11655262
167	0xbe03210d	-0.12805577
168	0xbe710b05	-0.2353936
169	0xbcf73e03	-0.030180937
170	0x3d988a27	0.074482255
171	0x3db35170	0.08755767
172	0x3d0327d3	0.0320204
173	0xbe4e1827	-0.20126401
174	0xbb76e905	-0.0037675512
175	0x3d9176ef	0.07102763
176	0xbd7f77e0	-0.06237018
177	0xbdcb2709	-0.09919555
178	0x3e4216b6	0.18953976
179	0x3dff8cdf	0.12478041
180	0xbd8d568c	-0.06901273
181	0x3d7e963c	0.062154993
182	0xbcfa9b5c	-0.03059166
183	0x3dc4b14c	0.09604129
184	0x3b457344	0.0030128518
185	0x3c3fc27a	0.011704082
186	0x3d816d36	0.063196585
187	0xbe095f7f	-0.13415335
188	0x3dd993bc	0.10623881
189	0x3b338c84	0.0027396986
190	0x3b450b00	0.003006637
191	0x3e49d52c	0.19710225
192	0xbc9fe4ee	-0.019518342
193	0xbe2fb3e7	-0.17158471
194	0x3d09278a	0.033484973
195	0x3dfa45d7	0.12220352
196	0x3d63f26d	0.055651117
197	0xbce173c3	-0.02752102
198	0x3e21bc0d	0.15794392
199	0x3da053ee	0.07828508
200	0xbd6b6117	-0.05746564
201	0xbdc83d83	-0.097773574
202	0xbc879cc4	-0.016554244
203	0x3d848fa3	0.06472709
204	0xbcce5883	-0.02518869
205	0x3e01e66e	0.12685558
206	0x3e206857	0.15664802
207	0xbde6a04c	-0.11261043
208	0x3ce82f47	0.028342856
209	0x3c3891fa	0.011265272
210	0x3d26ba62	0.040705092
211	0x3d933bc8	0.07189137
212	0x3b4d0a23	0.003128656
213	0xbbcb19ca	-0.0061981427
214	0x3dc6864a	0.09693582
215	0x3da2e3f4	0.07953635
216	0x3d575ec7	0.05258062
217	0xbdc04b59	-0.093893714
218	0x3d889671	0.066693194
219	0x3dd15a7e	0.10222338
220	0x3e0a8d2f	0.1353042
221	0x3d6bbb75	0.05755182
222	0xbc9ae3a8	-0.018907383
223	0x3dc9c4ee	0.098520145
224	0x3ceb55b6	0.028727394
225	0xbd02efb6	-0.031966887
226	0xbe1ea57f	-0.15492819
227	0x3d908459	0.07056493
228	0xbd9bae7e	-0.07601641
229	0xbe23745e	-0.1596236
230	0x3dfc9cd6	0.123346016
231	0x3dbdb606	0.09263234
232	0xbc0419cc	-0.008062791
233	0xbdc29c6e	-0.09502493
234	0x3b6fe5a6	0.0036605387
235	0xbd8a0563	-0.06739309
236	0x3d097ec8	0.033568174
237	0x3e0e8a7c	0.13920015
238	0xbda99113	-0.08279624
239	0x3d297d07	0.041379
240	0xbc4aa3c2	-0.0123681445
241	0xbd5a7c22	-0.05334104
242	0x3d65edc3	0.05613495
243	0x3aa99432	0.0012937842
244	0x3d9aa5ec	0.07551178
245	0xbdcd551f	-0.10026001
246	0x3bd0e88a	0.006375377
247	0xbcd050f0	-0.025429219
248	0x3cd31eb9	0.025771486
249	0xbd23567d	-0.039877404
250	0x3b91ae66	0.0044458387
251	0x3d9ab410	0.075538754
252	0xbe1eb5f7	-0.15499102
253	0x3c648f83	0.0139502315
254	0xbd720ecc	-0.059096143
255	0xbdd393b0	-0.103309035

msg_layers.0.W_msg.bias f4 [64]
0	0xbe3a58fa	-0.18198004
1	0xbc149ef7	-0.009071103
2	0xbc895ca0	-0.0167678
3	0xbe2e53b1	-0.17024113
4	0xbc9e2a91	-0.019307407
5	0xbe38903c	-0.18023771
6	0x3df51e7d	0.11968706
7	0x3dd28e5e	0.10281061
8	0x3c9775aa	0.018488724
9	0x3dcbfa19	0.09959812
10	0xbd9b2246	-0.075748965
11	0x3d659042	0.056045778
12	0xbcc42597	-0.023943705
13	0xbdc9d782	-0.09855558
14	0x3d854fbe	0.0650935
15	0xbdcc8e50	-0.099880815
16	0x3d1d00a2	0.03833068
17	0xbac54e46	-0.0015053235
18	0xbd20a2e7	-0.039217856
19	0x3c4d554c	0.012532543
20	0x3c80a311	0.015702756
21	0xbe18cb70	-0.14921355
22	0xbdfe7a87	-0.12425714
23	0x3e18fb77	0.14939676
24	0x3cfbf685	0.030757198
25	0xbda169a6	-0.07881479
26	0x3b0e1dab	0.0021685164
27	0x3dc6662b	0.09687456
28	0x3da88c38	0.082298696
29	0xbd8677e4	-0.06565836
30	0xbda8d726	-0.08244161
31	0xbcd89cc0	-0.026441932
32	0xbd960c29	-0.07326538
33	0x3d7043ab	0.058658283
34	0xbd2cd29b	-0.042193037
35	0x3d601f41	0.054717306
36	0x3d1d26f7	0.038367238
37	0xbde3e73d	-0.111280896
38	0xbd06fe78	-0.032957524
39	0x3d3a8be0	0.04554355
40	0xbcf6bae7	-0.030118419
41	0xbda526b7	-0.08064025
42	0xbe263de1	-0.16234542
43	0x3df188c9	0.11793668
44	0x3dbf4384	0.093390495
45	0xbd89ed01	-0.06734658
46	0xbdedb9d4	-0.116077095
47	0xbd17caa5	-0.03705849
48	0xbda052bb	-0.078282796
49	0x3c6ccf53	0.014453727
50	0xbb5b3a72	-0.0033451584
51	0x3d26c8a6	0.040718697
52	0x3d024db3	0.03181238
53	0x3cb10c0b	0.021612188
54	0x3dda6046	0.10662894
55	0xbc2fb8c5	-0.010725205
56	0xbdcc0aad	-0.09962974
57	0x3d88ea13	0.06685271
58	0x3e212259	0.15735759
59	0x3df20abc	0.11818454
60	0x3d6f64ce	0.058445744
61	0x3dad857f	0.08472728
62	0x3dab5a27	0.083668046
63	0xbe001718	-0.1250881

msg_layers.0.norm.weight f4 [64]
0	0x3f8f25ad	1.1183373
1	0x3f6ea98e	0.9322747
2	0x3f782735	0.96934825
3	0x3f80120a	1.0005505
4	0x3f7e78bf	0.99402994
5	0x3f761c6c	0.9613712
6	0x3f7ced3a	0.9879948
7	0x3f810fd6	1.0082958
8	0x3f915223	1.1353191
9	0x3f76e0c6	0.9643673
10	0x3f779074	0.9670479
11	0x3f88e151	1.0693761
12	0x3f6f1aae	0.93400085
13	0x3f5a2961	0.8521939
14	0x3f8b682e	1.0891168
15	0x3f784dca	0.96993697
16	0x3f7e3c94	0.99311185
17	0x3f6e72a6	0.9314369
18	0x3f81b60b	1.013368
19	0x3f6c37a8	0.92272425
20	0x3f81b61f	1.0133704
21	0x3f73190f	0.9496011
22	0x3f816118	1.0107756
23	0x3f7a9c99	0.978952
24	0x3f72933c	0.9475591
25	0x3f76b61e	0.9637164
26	0x3f57e59f	0.8433475
27	0x3f73d6df	0.9524974
28	0x3f6deede	0.9294261
29	0x3f7cbd6b	0.9872653
30	0x3f83caa8	1.0296221
31	0x3f5a5a60	0.8529415
32	0x3f92a773	1.1457351
33	0x3f7ec2e9	0.9951616
34	0x3f8c5ccb	1.0965818
35	0x3f87f73c	1.0622325
36	0x3f72ef14	0.94896054
37	0x3f807232	1.003485
38	0x3f667bea	0.9003283
39	0x3f823ee4	1.0175443
40	0x3f7ebee9	0.99510056
41	0x3f9170d1	1.1362554
42	0x3f8467a0	1.0344124
43	0x3f8427df	1.0324668
44	0x3f821734	1.0163331
45	0x3f74694d	0.95473176
46	0x3f6bb2f8	0.9206996
47	0x3f78c878	0.9718089
48	0x3f74ca42	0.9562112
49	0x3f969bec	1.1766334
50	0x3f7e7c8e	0.99408805
51	0x3f73e653	0.9527332
52	0x3f8b6db2	1.0892851
53	0x3f7acf7d	0.9797285
54	0x3f7642cf	0.9619569
55	0x3f766d3f	0.96260446
56	0x3f7b621a	0.98196566
57	0x3f7bbb24	0.9833243
58	0x3f82b346	1.021096
59	0x3f7b635b	0.9819848
60	0x3f71218f	0.9419183
61	0x3f85bd1f	1.044834
62	0x3f7e0f64	0.99242234
63	0x3f60870e	0.8770608

msg_layers.0.norm.bias f4 [64]
0	0x3cd9d55a	0.026590992
1	0x3d452410	0.048130095
2	0xbc10d524	-0.008839879
3	0xbc830279	-0.01599239
4	0x3d83a99a	0.06428833
5	0x3ca51641	0.020152213
6	0xbd7a72d5	-0.06114467
7	0xbd685db6	-0.056729995
8	0x3db085e9	0.08619291
9	0x3c1f67ec	0.009729367
10	0xbccc0ecd	-0.024909401
11	0x3db18277	0.08667462
12	0x3c3bf7ec	0.011472683
13	0x3d49abd1	0.049236123
14	0xbd90f231	-0.07077444
15	0xbcc8b544	-0.024500497
16	0x3c973c1b	0.018461278
17	0x3cdd409a	0.027008343
18	0x3d5b51e6	0.0535449
19	0x3c030f56	0.007999262
20	0xbd7a455d	-0.061101306
21	0x3d6336be	0.055472128
22	0xbd226636	-0.039648257
23	0xbc5da451	-0.013527946
24	0x3aa2730e	0.0012393908
25	0x3d958e05	0.07302479
26	0x3b844618	0.004036676
27	0x3d3d0da9	0.046155605
28	0x3bc68d19	0.0060593006
29	0xbcbe1210	-0.023201972
30	0xbd0401b6	-0.032228194
31	0x3d1475b8	0.036245078
32	0xbe288c03	-0.1645966
33	0x3c63603a	0.013877923
34	0x3d888480	0.06665897
35	0x3d8aff01	0.067869194
36	0x3da480d5	0.08032385
37	0x3d6efd0f	0.058346804
38	0x3d16ae19	0.036787126
39	0xbd587220	-0.052843213
40	0xbd313a1b	-0.043268304
41	0x3dd388e1	0.10328842
42	0x3c9ff34c	0.019525193
43	0x3c7562dc	0.014977183
44	0x3da47e4f	0.08031904
45	0xbdac1ac3	-0.08403542
46	0x3d10572f	0.035239395
47	0x3c5ae213	0.013359564
48	0x3d49f33d	0.049304236
49	0x3e063e8e	0.131098
50	0x3d6944f8	0.05695054
51	0xbb49d083	-0.0030794449
52	0xbdbd8bdb	-0.09255191
53	0x3d7af320	0.06126702
54	0x3d90f7c2	0.07078506
55	0x3cc23ce2	0.023710672
56	0xbc98fc25	-0.01867492
57	0xbccf5db0	-0.025313228
58	0x3d0d44d7	0.03448948
59	0xbccc9bd0	-0.024976641
60	0x3c0527df	0.008127182
61	0xbdad65e0	-0.08466697
62	0xbd71d17c	-0.05903767
63	0x3d42ca82	0.047556408

msg_layers.1.W_self.weight f4 [64, 64]
0	0x3cecd52c	0.028910242
1	0x3b286b45	0.0025698703
2	0xbcbde234	-0.023179151
3	0x3b8acf24	0.004236119
4	0x3d6aedc6	0.057355665
5	0x3e1a5801	0.15072633
6	0xbd99ff49	-0.07519395
7	0x3c0af28a	0.008480677
8	0xbd7e810e	-0.062134795
9	0x3da1a6fa	0.078931764
10	0x3d6ffe1e	0.058591954
11	0x3d57534c	0.052569672
12	0x3dce8f95	0.1008598
13	0x3dc903be	0.09815167
14	0x3db7e252	0.08978714
15	0xbc39c6ac	-0.011338871
16	0xbdcfdd24	-0.10149601
17	0x3e1e673e	0.15469071
18	0xbe641d20	-0.22276735
19	0x3d788459	0.06067309
20	0x3d521450	0.051288903
21	0x3e0d5918	0.13803518
22	0x3d36c0d9	0.044617508
23	0xbd909a43	-0.07060673
24	0x3e160f31	0.14654233
25	0xbd910b00	-0.07082176
26	0x3d38defb	0.045134526
27	0xbc7e54f7	-0.015523187
28	0x3da85083	0.082184814
29	0xbd62f3fd	-0.055408467
30	0x3da8781b	0.08226033
31	0xbd819504	-0.063272506
32	0x3e01f668	0.12691653
33	0x3d1abce0	0.03777778
34	0x3d6f51e7	0.058427718
35	0xbbc42727	-0.0059861126
36	0xbd3d2ad9	-0.04618344
37	0xbd38e065	-0.045135874
38	0x3df84661	0.12122799
39	0xbd889419	-0.066688724
40	0x3d5850b8	0.052811354
41	0xbdbd833f	-0.09253549
42	0xbe0b9b5e	-0.13633487
43	0xbcc8049a	-0.024416257
44	0xbe0583e3	-0.13038592
45	0xbd30d163	-0.043168437
46	0xbdbb423c	-0.091434926
47	0xbda3dd66	-0.08001213
48	0xbdf06008	-0.117370665
49	0xbdeed18e	-0.11661063
50	0x3bf5e1a1	0.0075037037
51	0xbc86acef	-0.016439883
52	0x3d8afde2	0.067867056
53	0xbdc202b4	-0.09473172
54	0x3c5e5163	0.013569209
55	0xbd9691a0	-0.073519945
56	0xbc842f18	-0.016135737
57	0xbda4424c	-0.080204576
58	0xbd4b7882	-0.049675472
59	0x3d0e350e	0.034718566
60	0xbe07f206	-0.13275918
61	0xbe063feb	-0.1311032
62	0x3c0f1df2	0.008735167
63	0xbc482b89	-0.012217411
64	0x3e316945	0.17325313
65	0xbe108fdb	-0.14117377
66	0xbe66d922	-0.22543767
67	0x3dc7eaac	0.09761557
68	0xbcd2a2e7	-0.025712444
69	0xbd8ec3f5	-0.069709696
70	0xbd5d7093	-0.054062437
71	0x3c154b37	0.009112171
72	0x3e2714a4	0.16316468
73	0x3d2eea63	0.042703997
74	0xbe5c9ab2	-0.21543387
75	0x3d676ddb	0.05650125
76	0xbd991c52	-0.07476105
77	0x3deaad7e	0.11458872
78	0xbe3d5923	-0.18491034
79	0xbe1d0a26	-0.15335903
80	0x3c7cef96	0.015437981
81	0xbcb3eb6e	-0.021962848
82	0x3d3fd24a	0.046831407
83	0x3e08a2ea	0.13343397
84	0xbd9bd957	-0.07609814
85	0x3de47c54	0.11156526
86	0xbc9e8446	-0.019350182
87	0x3d0b88c7	0.034065988
88	0x3d6e8451	0.058231656
89	0x3cab32ec	0.020898305
90	0x3d3060e1	0.04306114
91	0x3d813182	0.06308271
92	0xbc90aa6e	-0.017659392
93	0x3cbc19ef	0.022961585
94	0xbd37459c	-0.04474412
95	0xbd5f32b0	-0.0544917
96	0xbe31f932	-0.17380217
97	0xbd3de8ac	-0.04636447
98	0x3dd4609a	0.10369988
99	0x3d6c2f3d	0.057662237
100	0x3dc79ed2	0.097470894
101	0x3e5d72e8	0.21625865
102	0x3d604bc1	0.054759745
103	0x3beff5ec	0.0073230173
104	0xbe01fffb	-0.12695305
105	0x3e221973	0.1583002
106	0x3e4c5542	0.19954398
107	0x3dc725f2	0.09724034
108	0x3da5d64a	0.08097513
109	0xbe0fb9a3	-0.14035659
110	0x3d74523a	0.05964873
111	0xbe49f958	-0.19724023
112	0x3d992263	0.07477262
113	0x3da59834	0.08085671
114	0x3e135e9f	0.14391564
115	0x3d0fc112	0.035096236
116	0x3c91da72	0.017804358
117	0x3dc9d545	0.09855131
118	0x3de72b1d	0.1128752
119	0xbcc07a74	-0.02349589
120	0xba5d7757	-0.0008448264
121	0xbde1d715	-0.11027352
122	0xbd6cb049	-0.057785306
123	0x3c9cc4a3	0.019136732
124	0xbd9127e7	-0.07087689
125	0x3cb9dfb9	0.022689687
126	0xbd234436	-0.039859973
127	0xbda218a8	-0.07914859
128	0xbdb78550	-0.08960974
129	0x3d8d0098	0.06884879
130	0x3cfcdb05	0.030866155
131	0x3d872cde	0.066003546
132	0xbdba88c8	-0.0910812
133	0xbe0717bc	-0.13192648
134	0x3e10f5d4	0.14156276
135	0xbdf8c8a9	-0.12147648
136	0xbb38a071	-0.0028171802
137	0xbdb398c7	-0.08769374
138	0xbc9f3852	-0.019436035
139	0xbd019606	-0.031637214
140	0x3d9f7e5e	0.077877745
141	0x3b88176c	0.0041531827
142	0xbe18a691	-0.1490729
143	0x3de5fdcf	0.11230051
144	0xbe052390	-0.13001847
145	0x3d08985b	0.033348422
146	0x3e079435	0.1324013
147	0xbdf2814e	-0.11841069
148	0xbcf9ed37	-0.03050862
149	0x3d7b4a8a	0.061350383
150	0xbe110093	-0.14160375
151	0xbcade0e6	-0.021225404
152	0x3d884d37	0.066553526
153	0x3db5f729	0.08885033
154	0x3d98976d	0.07450757
155	0xbcc4c038	-0.024017438
156	0xbbc6c0bc	-0.006065456
157	0x3a1955aa	0.0005849252
158	0xbda0e405	-0.07855991
159	0xbda1f40a	-0.07907875
160	0x3db97614	0.09055725
161	0xbdea70d3	-0.11447301
162	0xbd86b54b	-0.06577548
163	0x3db33f66	0.08752327
164	0xbddfad84	-0.10921767
165	0xbb1b5136	-0.0023699529
166	0xbdc0cc75	-0.09413997
167	0xbda12d0c	-0.0786992
168	0xbd86d082	-0.065827385
169	0xbc8f0b10	-0.01746133
170	0xbd9163cf	-0.07099115
171	0xbdf46475	-0.11933223
172	0x3de9d973	0.11418428
173	0x3d6e9cc0	0.058254957
174	0xbdcff6bc	-0.10154483
175	0x3dc3f40d	0.09568033
176	0x3d4314ca	0.047627248
177	0xbd60a76e	-0.054847173
178	0x3d85e918	0.065386
179	0xbdd38384	-0.10327819
180	0x3d9ec6eb	0.07752784
181	0xbd2d0285	-0.04223873
182	0x3df8aadd	0.121419646
183	0x3c62169f	0.013799339
184	0x3c718bb4	0.0147427805
185	0xbd513d57	-0.05108389
186	0xbc99b6ae	-0.018763866
187	0x3d0500a6	0.03247132
188	0xbdbcacc8	-0.09212643
189	0x3da9d142	0.08291866
190	0xbd1fd8ee	-0.03902524
191	0x3cff1a98	0.03114061
192	0x3dc4f3e5	0.09616832
193	0x3dd51907	0.10405164
194	0xbe059126	-0.13043651
195	0xbe00cc44	-0.12577921
196	0xbd73b949	-0.059502874
197	0xbdace720	-0.08442521
198	0xbe032abc	-0.1280927
199	0x3b919534	0.004442835
200	0x3e16f7f8	0.1474303
201	0x3df382ce	0.118901834
202	0xbe3bd189	-0.1834165
203	0x3dc1eec8	0.09469372
204	0x3d83d7f3	0.064376734
205	0x3d79f33d	0.061022986
206	0xbe08d3a2	-0.13361982
207	0xbde290b8	-0.11062759
208	0xbbafdb4b	-0.005366718
209	0xbdcfd17d	-0.101473786
210	0xbd31e095	-0.04342707
211	0xbdce56a4	-0.10075119
212	0x3d1bf0cf	0.03807145
213	0xbe12bd55	-0.14330037
214	0xbd3f6ef7	-0.046736684
215	0xbe1783c9	-0.14796366
216	0x3d91ecbe	0.07125233
217	0x3caa20fe	0.020767685
218	0x3da52850	0.080643296
219	0xbdb32096	-0.0874645
220	0xbd9dd041	-0.07705737
221	0xbd268369	-0.040652666
222	0x3d4efcce	0.050534062
223	0x3c6da6d2	0.014505105
224	0x3c153183	0.009106043
225	0x3d06de29	0.032926712
226	0xbbcb4231	-0.006202959
227	0x3c87cfdb	0.016578605
228	0x3d2899a9	0.041162167
229	0x3e046316	0.12928423
230	0x3cc837b6	0.024440628
231	0xbd5fb31a	-0.054614164
232	0xbe262855	-0.16226323
233	0x3e2370e2	0.1596103
234	0x3db19ada	0.08672114
235	0xbd21b8c4	-0.039482847
236	0x3adabe71	0.0016688836
237	0xbdbb3b33	-0.09142151
238	0x3cd35c57	0.025800867
239	0xbcf0d484	-0.02939821
240	0xbca9bb67	-0.020719243
241	0x3e27364b	0.16329305
242	0x3caafc60	0.020872295
243	0x3d91f8de	0.07127546
244	0xbd716b79	-0.058940385
245	0x3dfef1af	0.12448441
246	0x3d2b32da	0.041796543
247	0xbb045c46	-0.00201966
248	0xbe1cbd6c	-0.15306634
249	0x3ce7a038	0.02827464
250	0x3d8f38f0	0.06993282
251	0xbe2bb61d	-0.1676869
252	0xbd5c16d6	-0.053732716
253	0xbe2c919c	-0.1685242
254	0xbdabf834	-0.0839695
255	0x3e7a2924	0.24429756

msg_layers.1.W_self.bias f4 [64]
0	0xbe2d212a	-0.16907182
1	0xbceb8630	-0.028750509
2	0x3d73066e	0.059332304
3	0x3e247192	0.16058949
4	0xba8748b3	-0.0010321349
5	0x3e1e047c	0.15431398
6	0xbd994614	-0.074840695
7	0xbe02e64d	-0.12783165
8	0x3e8aecf3	0.27133903
9	0xbe0604ed	-0.13087817
10	0xbdddac6e	-0.10823904
11	0xbda66002	-0.08123781
12	0xbcaf4a76	-0.02139781
13	0x3dbc8cb6	0.09206526
14	0x3a6cde06	0.00090357696
15	0xbd8bf5ab	-0.06833967
16	0xbd965b49	-0.0734163
17	0xbd03b5ae	-0.032155685
18	0xbe0a3749	-0.13497652
19	0x3e2bbef0	0.16772056
20	0x3d9000bb	0.07031389
21	0xbba272c4	-0.004957529
22	0x3d7dd0ed	0.061966825
23	0xbc5fc8d3	-0.01365872
24	0xbd977116	-0.07394616
25	0xbc22c5c2	-0.009934844
26	0x3d926452	0.07148041
27	0x3d30600d	0.04306035
28	0x39d9e3a5	0.00041559074
29	0x3d57e3bf	0.05270743
30	0x3d2cb97a	0.04216907
31	0xbc87e118	-0.016586825
32	0xbcb5b74e	-0.022182133
33	0xbdeb32f3	-0.11484327
34	0x3d921727	0.07133322
35	0xbcf7a373	-0.030229306
36	0x3dc60431	0.09668768
37	0x3e11389d	0.14181753
38	0xbd5944f8	-0.05304429
39	0xbe185014	-0.14874297
40	0x3dac7457	0.084206276
41	0xbd4de327	-0.050265457
42	0x3e1f121f	0.15534256
43	0x3d20a900	0.03922367
44	0x3db24975	0.08705417
45	0x3d2041d0	0.039125264
46	0x3ca6acbe	0.020346042
47	0xbd45ffb3	-0.048339557
48	0x3e294cbe	0.16533181
49	0xbd02768c	-0.031851336
50	0x3df23932	0.118273154
51	0xbd4c5445	-0.049885053
52	0xbd85270d	-0.06501589
53	0xbd9f84ad	-0.07788978
54	0xbe1bb340	-0.15205097
55	0x3b50e91d	0.0031877228
56	0x3c164d85	0.0091737555
57	0xbd87893c	-0.06617972
58	0x3e3aebc1	0.18253995
59	0x3dee4364	0.116339475
60	0x3dc33178	0.0953092
61	0xbc5bacd0	-0.013407901
62	0x3d9fedf0	0.07809055
63	0xbb0c4c6c	-0.0021407856
