QuantLaxmi_Research/dtrn/results/checkpoints/fold2_NIFTY/dtrn_stage1.pt (torch, 232927 bytes, 37 tensors)

embed.embed.0.weight f4 [32, 2]
0.18306644 -0.7176936 0.12999322 -0.35676607 0.63076735 -0.07980568 0.28327793 -0.79485095
0.1291855 0.5728231 -0.52087605 -0.3781011 0.78829545 -0.3469512 -0.7204753 0.63347185
0.26708174 0.3169445 -0.20154819 0.32074723 0.45901352 -0.2757111 0.016448228 -0.6608845
-0.607166 -0.27977005 0.19198395 -0.0324097 -0.53681326 -0.47281235 -0.60562336 0.22531424
0.037200306 0.45583785 -0.6833597 -0.40911555 -0.46804753 -0.20351668 -0.23795041 0.597675
-0.5430314 -0.39720374 -0.36938867 -0.021932755 0.67657584 -0.71693474 -0.17102021 -0.30039227
-0.6653755 -0.1908709 -0.15353853 0.36380032 0.15105356 -0.07802161 0.07576849 -0.044437688
0.24760145 -0.3690442 0.15202095 -0.29977754 -0.46059546 -0.40271887 -0.4713259 -0.44255868
00000000: c575 3b3e c5ba 37bf f11c 053e 0baa b6be
00000010: f879 213f 2971 a3bd ce09 913e 5a7b 4bbf
00000020: 3449 043e 89a4 123f 2258 05bf 7896 c1be
00000030: bbcd 493f 96a3 b1be 1271 38bf 362b 223f
00000040: f0be 883e 8d46 a23e a662 4ebe fb38 a43e
00000050: d203 eb3e 012a 8dbe 6fbe 863c ba2f 29bf
00000060: 3b6f 1bbf 053e 8fbe 7197 443e 09c0 04bd
00000070: 986c 09bf 7614 f2be 220a 1bbf c7b8 663e
00000080: 595f 183d 9463 e93e a9f0 2ebf 9877 d1be
00000090: eda3 efbe ad66 50be 46a9 73be 3b01 193f
000000a0: 1b04 0bbf 4a5e cbbe 8320 bdbe 52ac b3bc
000000b0: 1334 2d3f 0989 37bf ec1f 2fbe 04cd 99be
000000c0: 0c56 2abf a973 43be 3439 1dbe 0944 ba3e
000000d0: c9ad 1a3e cbc9 9fbd 832c 9b3d 4b04 36bd
000000e0: 3c8b 7d3e 5df3 bcbe 61ab 1b3e 717c 99be
000000f0: 2bd3 ebbe 2b31 cebe a151 f1be 0d97 e2be

embed.embed.0.bias f4 [32]
0.41991282 -0.33663708 -0.095736004 0.46861145 0.30903786 -0.6847567 -0.31721568 -0.32064605
-0.48745033 -0.24004439 0.09538293 0.59433043 0.450484 -0.05771817 -0.018510707 -0.5985605
-0.40611836 0.23639207 -0.4019175 -0.5268775 -0.1455508 0.032127105 0.03893902 0.42774335
-0.5615189 -0.1286071 -0.23300023 0.055604383 0.076767296 0.14418152 0.5525819 -0.43310243
00000000: d0fe d63e b25b acbe 3d11 c4bd d7ed ef3e
00000010: 363a 9e3e 374c 2fbf 186a a2be b82b a4be
00000020: 1793 f9be 32ce 75be 2058 c33d 0a26 183f
00000030: d7a5 e63e e369 6cbd c4a3 97bc 433b 19bf
00000040: bfee cfbe c310 723e 21c8 cdbe 72e1 06bf
00000050: 450b 15be b697 033d 867e 1f3d 2d01 db3e
00000060: b4bf 0fbf 94b1 03be 9d97 6ebe 6cc1 633d
00000070: 2c38 9d3d 52a4 133e 0276 0d3f 9abf ddbe

embed.embed.2.weight f4 [32, 32]
0.18683448 0.09121654 -0.01902884 -0.15932526 0.11623513 0.13525043 -0.13069485 -0.0009182642
0.096409075 -0.00954741 -0.008263831 0.07233672 -0.14722209 -0.030076815 -0.069940954 -0.05853934
0.14546278 -0.13005689 -0.0760382 0.13087943 0.021549841 -0.18184158 0.039257873 0.12848781
0.07773796 -0.097682685 0.03747485 0.10942246 0.032115046 -0.12857555 -0.18511586 0.14024483
-0.16966848 -0.042295486 0.09034259 0.0007740503 0.06960608 0.010392201 -0.08423495 0.07171097
-0.16804971 0.16070469 -0.053921193 -0.051993538 -0.104340084 0.0698172 -0.013174288 0.07245036
0.052508976 -0.101370156 -0.15514833 -0.1481651 -0.0031372763 -0.113317475 0.1610058 0.0025970358
0.00028246903 -0.15507355 -0.1619858 0.010567267 0.05647699 0.03936655 0.08745462 0.12048241
0.04213401 0.07860466 -0.0614256 0.21573994 -0.03829196 0.12634192 0.14472082 -0.063641846
0.068740964 -0.08222459 0.16311327 0.24048376 0.078271985 -0.115901284 -0.055478413 -0.032115884
-0.02681602 0.052709736 -0.07617332 -0.10077737 0.1544966 0.1250958 0.037169006 -0.033414572
-0.121996306 0.10772741 -0.16498266 -0.11839131 0.043666054 0.044461418 0.05384762 -0.020093812
-0.28477132 0.022673344 0.09172706 -0.23970033 0.18971895 -0.02791635 -0.22039649 -0.016070899
-0.05243423 0.05089843 -0.22249867 -0.16947623 -0.15561631 -0.024215654 -0.17863104 -0.1626881
0.04557534 -0.35909206 -0.19184408 0.2061176 -0.0065859193 -0.101065144 -0.19416688 0.03791775
-0.08005431 0.096644126 0.02980074 0.16410168 -0.17492548 -0.09971407 -0.095028386 -0.024892265
0.33256283 0.18430768 0.033641912 0.18997811 -0.14624277 -0.009647203 0.2602846 0.11636417
0.12315827 -0.2488063 0.24007079 0.18661723 0.038028475 -0.046925195 0.10394452 0.05585583
0.15281478 0.34250337 0.068886116 -0.13760144 0.117055796 -0.116827086 0.22805789 -0.04211989
0.050722275 -0.14368613 0.17731813 0.12445015 0.19762792 -0.059604514 0.095993556 0.167795
-0.108326845 0.15341422 0.13381223 -0.07613109 0.009866405 -0.11229152 0.10409544 -0.10430565
0.00095983595 -0.043830927 -0.039631926 0.020970343 0.050089043 0.15248983 -0.059284322 -0.112577155
-0.11800857 0.2487344 -0.030999025 -0.06816204 -0.017350553 0.020785552 0.0829183 -0.01534752
-0.043514565 -0.08349861 -0.011243353 0.13894004 -0.13348591 0.14105824 -0.13463 -0.037245672
-0.27168667 0.110088184 0.05188462 -0.03653056 -0.059153594 0.098651394 -0.019208884 0.08987076
-0.15805276 0.13571112 -0.18018164 -0.24066795 0.1221666 -0.1602854 0.08947444 0.12369603
0.047740325 0.07103597 0.05874078 0.16977218 0.105561465 -0.008231892 -0.11997249 -0.01976656
-0.020301783 0.1784158 -0.04506721 -0.15448363 -0.2439085 -0.1851603 0.15329053 -0.0990979
-0.1995944 -0.06526977 -0.19664825 -0.19660318 0.08247005 -0.18867344 -0.02747003 0.20060238
-0.05663616 0.21456082 -0.10378244 -0.14893566 0.09307798 -0.05591525 -0.10392414 -0.16038881
0.1480528 -0.24662228 -0.12989753 -0.065617494 -0.048043232 -0.05314689 -0.10425113 0.17346527
-0.17115402 0.07278142 -0.029010577 -0.121194005 -0.08225179 0.07140848 -0.083248176 -0.17119704
00000000: 8a51 3f3e bdcf ba3d 5fe2 9bbc 2926 23be
00000010: af0c ee3d 177f 0a3e dfd4 05be abb7 70ba
00000020: 1f72 c53d bd6c 1cbc 0565 07bc 4625 943d
00000030: 63c1 16be a763 f6bc 343d 8fbd f2c6 6fbd
00000040: 32f4 143e a22d 05be eab9 9bbd 4205 063e
00000050: 4b89 b03c ae34 3abe ddcc 203d 4f92 033e
00000060: 1435 9f3d dc0d c8bd 3a7f 193d e218 e03d
00000070: 118b 033d 4fa9 03be 038f 3dbe 579c 0f3e
00000080: 93bd 2dbe 083e 2dbd 8905 b93d a3e9 4a3a
00000090: a28d 8e3d 0d44 2a3c 6083 acbd 33dd 923d
000000a0: 3915 2cbe c58f 243e 78dc 5cbd 2df7 54bd
000000b0: 41b0 d5bd 52fc 8e3d f8d8 57bc db60 943d
000000c0: a713 573d 289b cfbd 34df 1ebe 98b8 17be
000000d0: c39a 4dbb fe12 e8bd b4de 243e 0833 2a3b
000000e0: 5a18 9439 9acb 1ebe 9bdf 25be 5522 2d3c
000000f0: 6b54 673d d23e 213d 681b b33d 7bbf f63d
00000100: b694 2c3d 7bfb a03d 6999 7bbd eeea 5c3e
00000110: 08d8 1cbd c75f 013e b231 143e a856 82bd
00000120: 10c8 8c3d 5e65 a8bd 2a07 273e 6041 763e
00000130: 104d a03d a75d edbd 553d 63bd f28b 03bd
00000140: 45ad dbbc 2ae6 573d c200 9cbd 5e64 cebd
00000150: 5b34 1e3e 1d19 003e 873e 183d b8dd 08bd
00000160: 33d9 f9bd 30a0 dc3d 37f1 28be 2577 f2bd
00000170: 2ddb 323d 2d1d 363d 528f 5c3d c79b a4bc
00000180: 8ccd 91be 73bd b93c 66db bb3d 0174 75be
00000190: af45 423e d4b0 e4bc 9eaf 61be 1ea7 83bc
000001a0: 46c5 56bd df7a 503d b1d6 63be 2d8b 2dbe
000001b0: e259 1fbe e85f c6bc 0eeb 36be b697 26be
000001c0: 35ad 3a3d eada b7be c672 44be 7e10 533e
000001d0: b2ce d7bb 3efb cebd afd3 46be a54f 1b3d
000001e0: 84f3 a3bd 5bed c53d ae20 f43c 450a 283e
000001f0: aa1f 33be e436 ccbd 3e9e c2bd ddea cbbc
00000200: ad45 aa3e 27bb 3c3e 1acc 093d 9f89 423e
00000210: aac0 15be 4d0f 1ebc 0644 853e 5750 ee3d
00000220: 673a fc3d 14c7 7ebe 1ed5 753e 9618 3f3e
00000230: bfc3 1b3d a234 40bd dde0 d43d 15c9 643d
00000240: 7a7b 1c3e 9a5c af3e 2a14 8d3d 64e7 0cbe
00000250: f3ba ef3d 0a43 efbd 0288 693e e885 2cbd
00000260: 29c2 4f3d 7522 13be e292 353e b8df fe3d
00000270: f95e 4a3e dd23 74bd 4598 c43d 74d2 2b3e
00000280: 77da ddbd 9e18 1d3e 1306 093e 9eea 9bbd
00000290: b4a6 213c 19f9 e5bd fd2f d53d 339e d5bd
000002a0: 809d 7b3a 0f88 33bd 1655 22bd ffc9 ab3c
000002b0: 2b2a 4d3d 4b26 1c3e 1ed4 72bd da8e e6bd
000002c0: 7aae f1bd 3bb4 7e3e abf1 fdbc 8a98 8bbd
000002d0: bf22 8ebc 7646 aa3c 12d1 a93d 2a74 7bbc
000002e0: 543c 32bd 5201 abbd 0a36 38bc 4c46 0e3e
000002f0: 88b0 08be 9271 103e 72dc 09be eb8e 18bd
00000300: 841a 8bbe ea75 e13d f884 543d 12a1 15bd
00000310: 0a4b 72bd be09 ca3d f35b 9dbc 290e b83d
00000320: 95d8 21be dbf7 0a3e 8981 38be a971 76be
00000330: 7b32 fa3d db21 24be 603e b73d 5854 fd3d
00000340: 5c8b 433d 4e7b 913d 2c9a 703d c2d8 2d3e
00000350: 9c30 d83d 0fdf 06bc 23b4 f5bd 7bed a1bc
00000360: ed4f a6bc a2b2 363e 6598 38bd f530 1ebe
00000370: 26c3 79be a99a 3dbe 31f8 1c3e d7f3 cabd
00000380: 7962 4cbe 28ac 85bd 295e 49be 5852 49be
00000390: 0fe6 a83d 9c33 41be d408 e1bc b66a 4d3e
000003a0: 51fb 67bd d5b5 5b3e e38b d4bd 9782 18be
000003b0: ab9f be3d 6407 65bd 2ed6 d4bd f73c 24be
000003c0: 279b 173e 8d8a 7cbe dc03 05be 7762 86bd
000003d0: fbc8 44bd 8eb0 59bd 9e81 d5bd e1a0 313e
000003e0: 0043 2fbe 6d0e 953d 97a7 edbc 9034 f8bd
000003f0: a073 a8bd 9c3e 923d 057e aabd 474e 2fbe

embed.embed.2.bias f4 [32]
0.07969372 -0.09245312 0.12110251 0.050542146 -0.20648052 -0.21132705 0.17395474 0.044665165
-0.0074621816 0.09648016 0.05741051 -0.03841083 0.036393452 0.054388843 -0.03129971 -0.013205838
0.018630086 -0.102857344 0.021592991 -0.033736225 0.09936543 -0.24241352 0.1419333 0.043627556
-0.049463272 -0.26022366 0.09294903 0.14325151 0.025712356 -0.013498125 -0.21545687 0.14449483
00000000: 7636 a33d 1058 bdbd 9804 f83d 4805 4f3d
00000010: a16f 53be 1e66 58be 3121 323e d2f2 363d
00000020: 5185 f4bb 6497 c53d 4827 6b3d ad54 1dbd
00000030: 4d11 153d d6c6 5e3d 2034 00bd 4d5d 58bc
00000040: 1f9e 983c dfa6 d2bd c9e3 b03c ff2e 0abd
00000050: 1a80 cb3d 403b 78be f756 113e cfb2 323d
00000060: 009a 4abd 093c 85be 105c be3d 86b0 123e
00000070: b8a2 d23c 3d27 5dbc baa0 5cbe 74f6 133e

input_proj.weight f4 [64, 32]
-0.061840966 -0.14352943 -0.07986021 -0.21006742 0.2077625 -0.034701932 0.03514593 -0.14428274
0.021539481 0.13706328 0.015316973 0.026703795 0.052498177 0.14031066 -0.11761512 0.120429456
0.16513376 0.12602998 0.049430713 -0.092470124 0.06464626 0.18040939 -0.11580004 0.027163293
0.10740593 -0.01526086 -0.16393043 -0.11892829 -0.012820888 -0.117815584 0.016719526 0.093297176
-0.03451375 -0.13173476 -0.18978612 0.12591358 0.19168495 0.05131078 -0.042281028 -0.13245626
-0.14851652 -0.2516697 -0.108948365 0.042521395 0.1598646 -0.121255726 0.15850234 -0.21645944
-0.08896406 0.06750493 0.13758156 0.15511699 0.1388264 0.2299782 0.07228413 -0.113159955
-0.16781648 0.1305287 -0.06718611 0.06055994 -0.095298015 0.13035884 0.14844169 -0.19162332
-0.17232895 -0.13226524 0.18826638 -0.15714125 -0.20718706 0.09332971 -0.066614956 -0.17833914
-0.14505184 0.17432135 0.16945004 0.090677395 -0.055113036 -0.0804543 0.01641244 -0.0033547352
-0.21611646 -0.03398076 0.026233982 -0.08529045 0.27091882 -0.012576449 -0.09188248 -0.0024192366
0.05991125 -0.18432839 0.0077304603 0.065676734 -0.0032448971 0.07742548 -0.39301217 0.11095799
0.04851319 -0.06792938 0.1072226 -0.15825243 0.08969892 -0.048392933 0.22286628 0.09541433
-0.11306504 0.013804886 -0.13267839 -0.05284805 -0.23067297 0.15018724 -0.09987796 0.17914066
0.10927546 0.09536419 -0.013781697 -0.13758376 -0.21056876 -0.117625006 0.13988501 -0.27174988
-0.11929538 -0.0041183718 -0.03833918 -0.16259359 0.055447143 -0.00018899913 -0.08553806 0.1107678
-0.011494829 0.1048931 0.13093115 0.0426942 0.06516515 -0.029978484 -0.058082074 0.018264709
-0.13347882 -0.0065815807 -0.06795813 -0.16044651 0.16475047 0.10806086 -0.07692614 0.10655571
-0.10208282 0.11525488 0.017620947 0.093359366 0.160173 -0.19038944 0.0951372 0.21652499
0.13095175 -0.1324995 0.15554407 -0.080684625 0.09307732 -0.10446535 0.02335775 0.16412897
-0.14392218 0.077591 -0.119411975 -0.11030517 0.2693698 0.002692859 -0.06567346 -0.08569848
-0.15069945 0.17265378 0.063613966 -0.1273511 0.02227709 -0.061956014 0.068148255 -0.047385044
-0.08970933 0.24449517 0.025889939 0.06336414 -0.14672944 0.00926104 0.13292468 0.1112671
0.2174699 0.053459447 -0.19354789 0.08493615 0.23730114 -0.013868205 -0.009410853 -0.10472463
-0.10163265 0.0020966087 0.08505255 0.1313117 -0.13557778 -0.048855536 0.08080067 0.15582925
0.18281084 0.08427486 -0.017845148 0.2848706 0.071900874 -0.03788286 0.2637288 -0.04818144
-0.23439589 -0.038738694 0.10915346 -0.28214785 0.016688611 -0.0066006584 0.13225211 0.019159261
-0.18080038 -0.1646785 -0.051395733 0.2818884 -0.124187365 0.08093233 -0.1269265 0.18104099
0.12856255 0.04495817 0.15491568 0.059244122 0.16563669 0.121782914 0.017777821 0.016317882
0.025813581 0.17773262 -0.055689845 0.084070995 -0.024563301 0.13731171 0.051748987 0.058193643
0.0038597477 -0.11662554 0.082981244 0.15403439 -0.11458915 -0.03855589 -0.09101486 -0.03926847
0.043001465 0.16585958 0.18365751 -0.15174577 -0.114076495 0.09106721 0.0857986 0.1220337
00000000: f44c 7dbd 61f9 12be c08d a3bd ea1b 57be
00000010: b1bf 543e 9d23 0ebd 2ef5 0f3d dbbe 13be
00000020: 9173 b03c 515a 0c3e 0bf4 7a3c ebc1 da3c
00000030: 5408 573d 99ad 0f3e 32e0 f0bd b8a3 f63d
00000040: d318 293e 010e 013e dc77 4a3d fa60 bdbd
00000050: 4265 843d 3dbd 383e 9228 edbd 8e85 de3c
00000060: a4f7 db3d b008 7abc 61dd 27be ad90 f3bd
00000070: b40e 52bc 4c49 f1bd 63f7 883c 9712 bf3d
00000080: 4a5e 0dbd 7ae5 06be 4b57 42be 7def 003e
00000090: 0f49 443e 412b 523d df2e 2dbd 9da2 07be
000000a0: b714 18be dada 80be 5220 dfbd ea2a 2e3d
000000b0: 8cb3 233e ec54 f8bd 704e 223e 8ba7 5dbe
000000c0: ca32 b6bd 0640 8a3d 2ee2 0c3e fdd6 1e3e
000000d0: 8228 0e3e 687f 6b3e b409 943d 68c0 e7bd
000000e0: 15d8 2bbe 51a9 053e df98 89bd b30d 783d
000000f0: 9b2b c3bd ca7c 053e 1901 183e e738 44be
00000100: 0077 30be 8a70 07be e7c8 403e a3e9 20be
00000110: d828 54be a623 bf3d 6c6d 88bd 899e 36be
00000120: 7888 14be 4c81 323e 5084 2d3e 12b5 b93d
00000130: 35be 61bd 39c5 a4bd 6273 863c 1edb 5bbb
00000140: a24d 5dbe 692f 0bbd a6e8 d63c c2ac aebd
00000150: dfb5 8a3e 730d 4ebc e22c bcbd 0e8c 1ebb
00000160: 8065 753d 95c0 3cbe cd4f fd3b 8681 863d
00000170: 57a8 54bb 4091 9e3d e438 c9be f13d e33d
00000180: c4b5 463d 8f1e 8bbd 8697 db3d ed0c 22be
00000190: 11b4 b73d ab37 46bd 0f37 643e 9768 c33d
000001a0: a58e e7bd e32d 623c d8dc 07be 3277 58bd
000001b0: 8935 6cbe afca 193e d18c ccbd a670 373e
000001c0: d0cb df3d 4d4e c33d a0cc 61bc c2e2 0cbe
000001d0: 569f 57be 61e5 f0bd 043e 0f3e cd22 8bbe
000001e0: 2351 f4bd 68f3 86bb 8b09 1dbd ef7e 26be
000001f0: 8b1c 633d 112e 46b9 942e afbd 3ada e23d
00000200: cf54 3cbc 32d2 d63d d112 063e 1de0 2e3d
00000210: 4e75 853d 7095 f5bc 78e7 6dbd df9f 953c
00000220: acae 08be 4daa d7bb a22d 8bbd 174c 24be
00000230: 59b4 283e 034f dd3d 748b 9dbd e139 da3d
00000240: cc10 d1bd c00a ec3d ce59 903c 3233 bf3d
00000250: 6404 243e 73f5 42be 4bd7 c23d bab8 5d3e
00000260: 3718 063e f3ad 07be f246 1f3e fb3d a5bd
00000270: 529f be3d eef1 d5bd c158 bf3c 6d11 283e
00000280: 5660 13be 08e8 9e3d 448e f4bd ade7 e1bd
00000290: d7ea 893e ad7a 303b cf7f 86bd af82 afbd
000002a0: f550 1abe 27cc 303e 0a48 823d 5468 02be
000002b0: 727e b63c 97c5 7dbd 5091 8b3d d216 42bd
000002c0: 86b9 b7bd f15c 7a3e 2317 d43c 0fc5 813d
000002d0: 3e40 16be 9ebb 173c 681d 083e 01e0 e33d
000002e0: 6eb0 5e3e 4bf8 5a3d 6b31 46be 01f3 ad3d
000002f0: 12ff 723e 7837 63bc fa2f 1abc de79 d6bd
00000300: c724 d0bd 4267 093b 0830 ae3d 9376 063e
00000310: e7d4 0abe be1c 48bd d27a a53d b491 1f3e
00000320: c432 3b3e 4c98 ac3d fd2f 92bc 8fda 913e
00000330: c440 933d 0f2b 1bbd 7607 873e e759 45bd
00000340: 7a05 70be 77ac 1ebd d98b df3d af75 90be
00000350: 8eb6 883c 564a d8bb 196d 073e e2f3 9c3c
00000360: bc23 39be 7ba1 28be 5584 52bd ad53 903e
00000370: f255 febd d9bf a53d 05f9 01be cf62 393e
00000380: e7a5 033e 0f26 383d 37a2 1e3e f7a9 723d
00000390: aa9c 293e 5269 f93d cba2 913c 14ad 853c
000003a0: 0177 d33c 8aff 353e 091b 64bd 6a2d ac3d
000003b0: fa38 c9bc 719b 0c3e bff6 533d 755c 6e3d
000003c0: d2f3 7c3b 5fd9 eebd 12f2 a93d 31bb 1d3e
000003d0: b7ad eabd c8ec 1dbd 0066 babd fad7 20bd
000003e0: 4e22 303d 18d7 293e b710 3c3e 3e63 1bbe
000003f0: f0a0 e9bd 7281 ba3d 2db7 af3d ceec f93d

input_proj.bias f4 [64]
-0.025336042 -0.10178043 0.14052078 0.11177849 -0.09416024 -0.06800915 0.07169851 -0.101579316
-0.052728996 0.23779052 -0.10634454 -0.17078006 -0.13133882 0.1966182 -0.13923217 -0.17172371
-0.26194856 -0.012628944 -0.13003106 -0.11699027 0.04010084 -0.16125862 0.25858486 -0.0680291
-0.17053449 -0.093545035 -0.02271285 0.20581798 0.14408201 -0.16479759 -0.18366084 -0.06977461
-0.12955186 -0.020181485 -0.13680221 -0.10814528 -0.147163 -0.06897813 -0.12774953 -0.042217653
0.026516013 0.20062862 0.094835155 -0.045638002 0.03368456 0.123761155 0.04219118 -0.20848665
0.15698755 -0.25275534 -0.052975565 0.25421673 -0.05452934 0.18247339 0.20939355 -0.25690615
-0.0006955585 -0.120007284 0.027970074 -0.2036212 0.06918352 -0.13735798 0.126213 -0.02001034
00000000: 888d cfbc 4272 d0bd aee4 0f3e 1fec e43d
00000010: 15d7 c0bd 6248 8bbd abd6 923d d108 d0bd
00000020: 5cfa 57bd 5c7f 733e 2bcb d9bd f8e0 2ebe
00000030: af7d 06be 4856 493e e192 0ebe 57d8 2fbe
00000040: 1f1e 86be a1e9 4ebc dd26 05be 9898 efbd
00000050: c740 243d fb20 25be 3c65 843e d752 8bbd
00000060: 98a0 2ebe 8a94 bfbd 4c10 babc f3c1 523e
00000070: 3c8a 133e b3c0 28be 9611 3cbe fee5 8ebd
00000080: 3ea9 04be a453 a5bc e115 0cbe 467b ddbd
00000090: e6b1 16be 6844 8dbd c6d0 02be 6bec 2cbd
000000a0: 1c38 d93c 9771 4d3e ef38 c23d eaee 3abd
000000b0: d2f8 093d 7d76 fd3d a9d0 2c3d 867d 55be
000000c0: 58c1 203e 2669 81be e8fc 58bd b228 823e
000000d0: 285a 5fbd 4eda 3a3e 436b 563e 3489 83be
000000e0: 2456 36ba 61c6 f5bd 7f21 e53c 1382 50be
000000f0: 17b0 8d3d 92a7 0cbe fb3d 013e b9ec a3bc

msg_layers.0.W_self.weight f4 [64, 64]
-0.0924223 0.06772412 0.111826375 0.017588545 0.07915132 0.013267642 0.11505532 -0.015911644
0.06035892 -0.119927704 -0.057164688 -0.009279948 -0.075592384 0.09835596 -0.1238635 -0.06477661
0.15422718 0.14344311 -0.02093278 -0.0035771974 0.06270884 0.06279458 -0.084302045 -0.085480005
-0.045334276 -0.005954796 0.042805366 0.04747653 -0.068786524 0.095991895 -0.10383722 0.015405458
0.13414758 -0.08362985 0.05711943 -0.06446805 -0.024023082 0.14135352 -0.1286179 -0.024461253
-0.04891088 -0.05046475 -0.100470535 0.13540368 0.11192003 -0.024628857 -0.06754376 -0.066383615
-0.10883943 0.103861354 -0.035177555 -0.048466537 0.055796396 -0.037615985 0.01159486 0.010278145
-0.1600216 -0.080639824 -0.07398267 -0.09485862 0.054195404 -0.10747629 0.07050748 -0.106031805
0.011727486 0.10381251 -0.048888303 0.06109021 0.05030475 -0.08410179 -0.109579846 -0.0044660955
0.007047209 -0.115868166 -0.04708319 0.073197365 0.07515685 -0.13138987 0.011725583 -0.07753121
-0.041383125 -0.050029904 -0.11168605 -0.15393479 0.07405282 0.08139757 0.09198462 0.010817137
0.10115975 -0.0016097843 -0.090955265 0.09890392 -0.0073661963 -0.09200226 0.064646624 0.032690458
0.04092727 -0.030825835 0.016158339 0.016414406 -0.023867512 0.11162192 -0.020548195 -0.042750437
-0.107860796 -0.08716692 -0.20010959 -0.062492017 0.07909797 -0.035593618 0.023636874 0.03215117
-0.080607004 0.08049976 0.10398371 -0.112087496 -0.107327655 0.0012066943 -0.10591704 0.1419976
0.022391345 0.15831357 0.11873665 0.0527549 -0.123926036 0.057082824 -0.06753426 -0.06643702
0.1375895 -0.00011731651 -0.024007093 -0.06105126 0.11455651 -0.07329582 0.0879237 -0.11162194
-0.031377595 -0.09318962 -0.14353254 -0.067115255 -0.11595742 -0.047144767 0.02957687 0.023377314
0.12390448 0.1340137 0.013468884 0.022882469 -0.027168779 0.11174698 0.08444394 0.1701633
0.07141545 -0.022792844 -0.0074490365 0.13618654 -0.053208858 0.06162364 0.054035485 -0.027452365
-0.109773 -0.044642538 0.02109801 -0.18363187 -0.045440227 -0.17136376 0.109642245 0.047078952
0.15667439 0.00763569 0.05921572 -0.09653187 -0.0728783 -0.043265652 -0.03655966 -0.029954178
0.15661605 -0.065732 0.016455706 0.13355155 0.091853924 0.17129196 0.0038458605 -0.08142033
-0.11734348 -0.057304733 0.037517812 0.013467612 0.1764655 0.06920936 -0.037885204 -0.013036669
-0.059134822 0.033692278 0.03386662 -0.06393479 0.1379527 0.015119211 -0.10552092 0.063372314
0.014450631 -0.11108113 -0.091327086 0.019646427 0.050266072 0.102379575 0.09043134 0.09360199
-0.054173127 -0.042074993 0.015045775 -0.012665674 0.095650025 0.0071235653 0.042189825 0.02377484
0.014627882 0.10268664 0.119404435 -0.012348926 -0.047515377 0.14867902 -0.14708735 0.025452789
0.12557824 -0.1196999 0.12330882 -0.032982275 0.10138967 0.038300168 -0.096266784 -0.00795797
0.10691563 -0.07545512 0.113627896 -0.1197664 -0.093024656 -0.09758432 -0.014046109 0.060462736
-0.15354703 0.052665077 -0.011030883 -0.074998826 -0.07274879 0.020788142 0.018299798 -0.04815133
0.073588304 -0.0032258157 -0.029164428 0.008811417 0.020814411 0.064988606 -0.08498056 0.14534625
00000000: e747 bdbd f2b2 8a3d 3a05 e53d da15 903c
00000010: 161a a23d 8660 593c 20a2 eb3d 2359 82bc
00000020: ea3a 773d a89c f5bd 8525 6abd ec0a 18bc
00000030: 2ed0 9abd d96e c93d 26ac fdbd 99a9 84bd
00000040: bbed 1d3e c0e2 123e 397b abbc 6a6f 6abb
00000050: 7e6d 803d 729a 803d 8da6 acbd 2410 afbd
00000060: 6fb0 39bd 7320 c3bb ae54 2f3d c076 423d
00000070: f3df 8cbd 6697 c43d 9ca8 d4bd 2d67 7c3c
00000080: fc5d 093e 2046 abbd 10f6 693d d307 84bd
00000090: 0ecc c4bc fabe 103e 69b4 03be f762 c8bc
000000a0: c656 48bd 20b4 4ebd 7fc3 cdbd 43a7 0a3e
000000b0: 5436 e53d 75c2 c9bc 6254 8abd 22f4 87bd
000000c0: 35e7 debd 43b5 d43d 5716 10bd d984 46bd
000000d0: c38a 643d 3813 1abd 5ef8 3d3c aa65 283c
000000e0: b4dc 23be 7e26 a5bd 3a84 97bd 3c45 c2bd
000000f0: 00fc 5d3d 871c dcbd 3a66 903d 3427 d9bd
00000100: a424 403c a79b d43d 1a3f 48bd ba39 7a3d
00000110: 5b0c 4e3d 8f3d acbd 666b e0bd 5358 92bb
00000120: 46ec e63b 4a4c edbd 4eda 40bd 80e8 953d
00000130: d6eb 993d 118b 06be a91c 403c afc8 9ebd
00000140: 5a81 29bd 28ec 4cbd a8bb e4bd 15a1 1dbe
00000150: 01a9 973d c5b3 a63d 6f62 bc3d 5c3a 313c
00000160: d82c cf3d 66ff d2ba c146 babd 238e ca3d
00000170: 2260 f1bb ae6b bcbd 7365 843d 6ee6 053d
00000180: 5aa3 273d 7686 fcbc 7e5e 843c 8177 863c
00000190: cd85 c3bc 089a e43d b054 a8bc 151b 2fbd
000001a0: 1fe6 dcbd 9284 b2bd 87e9 4cbe a1f7 7fbd
000001b0: 1efe a13d 9dca 11bd 1ea2 c13c f2b0 033d
000001c0: 4915 a5bd 0fdd a43d 69f5 d43d 218e e5bd
000001d0: 9ace dbbd f129 9e3a 08eb d8bd d267 113e
000001e0: 0e6e b73c f41c 223e 332c f33d 8615 583d
000001f0: efcc fdbd aecf 693d 674f 8abd 2210 88bd
00000200: 43e4 0c3e d207 f6b8 86aa c4bc e310 7abd
00000210: 9a9c ea3d 1e1c 96bd 5711 b43d 0b9a e4bd
00000220: cb85 00bd 33da bebd 32fa 12be b973 89bd
00000230: 157b edbd df1a 41bd 314b f23c c881 bf3c
00000240: a2c1 fd3d e33a 093e 98ac 5c3c 0474 bb3c
00000250: 0f91 debc 9adb e43d f2f0 ac3d 4a3f 2e3e
00000260: 4342 923d 0fb8 babc 0c17 f4bb 7c74 0b3e
00000270: 88f1 59bd 1269 7c3d 5054 5d3d c8e3 e0bc
00000280: abd0 e0bd 18db 36bd bcd5 ac3c fe09 3cbe
00000290: 881f 3abd fb79 2fbe 1d8c e03d dcd5 403d
000002a0: 406f 203e cf34 fa3b 2f8c 723d 80b2 c5bd
000002b0: 3841 95bd 5337 31bd 95bf 15bd 7762 f5bc
000002c0: f55f 203e 809e 86bd 1ece 863c bdc1 083e
000002d0: e91d bc3d 2967 2f3e d50a 7c3b b4bf a6bd
000002e0: c751 f0bd 5eb8 6abd 47ac 193d 42a7 5c3c
000002f0: 5fb3 343e a3bd 8d3d 842d 1bbd c197 55bc
00000300: 5b37 72bd ea00 0a3d bab7 0a3d 3ef0 82bd
00000310: 7943 0d3e 91b6 773c 5a1b d8bd 58c9 813d
00000320: 57c2 6c3c 817e e3bd b209 bbbd 8bf1 a03c
00000330: cce3 4d3d 62ac d13d 1134 b93d 66b2 bf3d
00000340: a4e4 5dbd d456 2cbd 8e82 763c b083 4fbc
00000350: 29e4 c33d cc6c e93b 3dcf 2c3d 74c3 c23c
00000360: c9a9 6f3c 604d d23d 508a f43d 2653 4abc
00000370: 7c9f 42bd 503f 183e 119e 16be 5e82 d03c
00000380: 9597 003e 3925 f5bd 5689 fc3d 6c18 07bd
00000390: 63a5 cf3d a3e0 1c3d 8527 c5bd 2562 02bc
000003a0: 95f6 da3d 3788 9abd beb5 e83d 1648 f5bd
000003b0: b683 bebd 4ada c7bd a721 66bc c6a7 773d
000003c0: 6f3b 1dbe 56b7 573d e0ba 34bc fc98 99bd
000003d0: 51fd 94bd e54b aa3c 75e9 953c 543a 45bd
000003e0: 77b5 963d 3568 53bb 3dea eebc c35d 103c
000003f0: fc82 aa3c bf18 853d 4a0a aebd a6d5 143e

msg_layers.0.W_self.bias f4 [64]
0.07536788 -0.10554549 0.07304441 -0.07542027 -0.06933709 0.027463896 -0.014281379 -0.045998868
-0.1032173 -0.085306086 0.03207694 -0.14408329 -0.09620072 0.12297113 0.019130878 0.08867111
-0.17249037 0.008205506 -0.04823839 -0.0035282534 -0.114799455 0.100332834 0.07725894 0.030596158
0.13562612 -0.17172743 0.09601022 0.056235373 0.08855932 -0.12636586 -0.037756164 -0.018179327
-0.02394394 0.16619775 -0.056130685 -0.10094209 0.022668231 0.045001864 -0.118747674 0.019269707
-0.14153056 0.039420243 0.14061035 0.001939201 -0.08657379 -0.033859994 0.093047395 -0.055588607
0.086334415 -0.007576411 -0.076905526 0.049975865 0.10442514 0.11646692 0.11085745 -0.19569579
0.044551477 0.070886314 -0.12512904 0.024760837 0.05491925 -0.08633003 0.0046315356 -0.060046576
00000000: 7a5a 9a3d 3c28 d8bd 4f98 953d f175 9abd
00000010: 9b00 8ebd f7fb e03c 72fc 69bc 4f69 3cbd
00000020: 9763 d3bd f5b4 aebd 1c63 033d 928a 13be
00000030: e204 c5bd 4ad8 fb3d 5cb8 9c3c 3399 b53d
00000040: 51a1 30be 6370 063c 9e95 45bd 453a 67bb
00000050: fa1b ebbd 4d7b cd3d ef39 9e3d cba4 fa3c
00000060: 93e1 0a3e 51d9 2fbe 02a1 c43d 1057 663d
00000070: 975e b53d 0d66 01be 35a6 1abd d0ec 94bc
00000080: 1526 c4bc be2f 2a3e 4ae9 65bd baba cebd
00000090: bab2 b93c e053 383d fb31 f3bd 81db 9d3c
000000a0: 63ed 10be 1f77 213d 29fc 0f3e ca2c fe3a
000000b0: 994d b1bd c7b0 0abd a28f be3d e1b0 63bd
000000c0: 19d0 b03d 8b43 f8bb a580 9dbd 7eb3 4c3d
000000d0: d9dc d53d 3586 ee3d 3b09 e33d 7a64 48be
000000e0: 9c7b 363d d82c 913d d421 00be 3dd7 ca3c
000000f0: 02f3 603d cccd b0bd 23c4 973b 66f3 75bd

msg_layers.0.W_msg.weight f4 [64, 64]
0.040614348 0.09024606 -0.15145467 0.0656824 0.0059800274 -0.052508954 0.077550404 -0.042381927
0.046643794 0.08673846 0.12253949 -0.023661178 -0.024727125 -0.008140795 -0.092489116 0.030768996
0.18599495 -0.059986565 -0.105387464 -0.076015875 0.034307078 0.046328384 -0.08291341 -0.031236561
-0.033287354 0.042307913 0.051613983 -0.06968212 0.0695643 0.04393875 0.11531025 0.0497298
0.068667136 0.017534219 -0.09022056 -0.15308453 -0.0025197298 0.08533089 0.109793134 0.026483748
0.02398787 -0.011850154 0.04439918 -0.11448809 0.039439343 0.12182385 -0.08861795 0.14054531
-0.1134128 -0.04297904 -0.058061983 -0.11936306 -0.07906972 -0.02462528 -0.044762246 0.13311766
-0.048291624 0.034958947 0.18080811 0.018004155 0.008363502 -0.07261973 -0.011192136 -0.10072114
0.020389402 0.048075154 -0.16906725 -0.019716097 0.01837338 0.10602266 -0.016056461 -0.0833609
-0.044536628 0.039953634 0.030957839 0.09497626 0.060615223 -0.10831546 -0.082817234 0.015239939
-0.02299542 0.07227582 0.00278411 0.064027816 -0.012801237 0.062488154 -0.044722077 0.15092087
0.0050440906 -0.05223974 0.0029133945 0.024137184 0.044145737 0.0017929733 0.00015332953 -0.057939846
-0.0525021 -0.17366405 0.068502225 -0.046847876 -0.086269625 0.033640906 -0.16564456 -0.11405004
0.006151835 -0.08912511 -0.03997221 0.019957237 -0.027986396 0.04046821 0.030991966 0.0055977725
-0.05117404 0.14021374 0.109814174 0.020199643 0.12963028 -0.107393 0.002413389 0.119593404
-0.08252098 -0.05592719 0.19257587 0.0024046768 -0.1223597 0.055504747 -0.15642278 0.00011944775
0.05051531 -0.09298516 0.061623823 -0.10694159 -0.01927042 -0.045552142 -0.112249464 -0.034213405
-0.056208815 -0.21916522 -0.11318428 0.014349152 0.013897222 0.022586936 0.1539987 0.033053856
0.03504955 0.09198749 0.15129426 -0.02774597 -0.04529027 -0.06305816 -0.07114155 0.08217938
0.013996675 0.060172763 -0.05746983 -0.18335032 0.08462345 0.015847849 -0.102429464 0.068017304
0.07853114 -0.084919 -0.022554081 -0.052837845 0.087621294 -0.03955229 -0.01862262 -0.055661313
0.21383737 0.09713786 0.023934111 -0.080292225 -0.122255795 -0.02121898 0.03676974 0.044812493
0.05018062 0.00018898679 -0.14716502 -0.17658377 0.00491102 0.052371524 -0.038191054 -0.1474023
0.011472644 -0.023035513 -0.20270745 -0.010762352 -0.058472455 -0.0016948585 0.05778676 -0.02056898
-0.062203027 0.104690745 -0.032827396 -0.081709765 0.080163054 -0.0395817 0.021521315 0.12464389
0.00569657 -0.019000422 0.012001005 0.11002529 0.0071515683 0.050351232 -0.0965733 -0.029783849
0.02707427 -0.013759538 -0.037130598 0.11770955 0.12985857 -0.08450886 -0.053920515 -0.10374812
0.06612573 0.045322802 -0.0494087 -0.13814783 0.09877348 -0.024297297 0.08055358 0.0052295187
-0.027397692 0.01864196 0.04248909 0.06534793 -0.14997342 0.10357139 0.011336227 0.033722825
0.08415735 0.0781691 0.031212434 0.024287062 -0.024814043 -0.07451381 0.11208192 0.09437144
0.0422264 -0.025851998 -0.11161931 -0.107940435 0.03677263 0.026747024 0.053841542 -0.13250254
0.100798234 0.06737955 -0.11416914 -0.08343489 -0.09370921 0.023161082 0.08982307 -0.085977696
00000000: 3b5b 263d edd2 b83d ef16 1bbe 7e84 863d
00000010: 1bf4 c33b a113 57bd bfd2 9e3d ac98 2dbd
00000020: 900d 3f3d efa3 b13d fcf5 fa3d 16d5 c1bc
00000030: 8a90 cabc f860 05bc ef6a bdbd 430f fc3c
00000040: 7675 3e3e 79b4 75bd 62d5 d7bd 36ae 9bbd
00000050: 9485 0c3d d5c2 3d3d 82ce a9bd d1e3 ffbc
00000060: 5258 08bd 104b 2d3d 2f69 533d 80b5 8ebd
00000070: ba77 8e3d 1ef9 333d c827 ec3d 7ab1 4b3d
00000080: 5ba1 8c3d eca3 8f3c 8fc5 b8bd 31c2 1cbe
00000090: 0d22 25bb f6c1 ae3d 39db e03d 72f4 d83c
000000a0: 3682 c43c 2627 42bc eadb 353d bb78 eabd
000000b0: 268b 213d c87e f93d 547d b5bd 1ceb 0f3e
000000c0: f844 e8bd ca0a 30bd 67d2 6dbd 9f74 f4bd
000000d0: 4eef a1bd f5ba c9bc 9e58 37bd ff4f 083e
000000e0: 70cd 45bd 1d31 0f3d c325 393e 737d 933c
000000f0: 1207 093c a7b9 94bd 395f 37bc e346 cebd
00000100: ad07 a73c 74ea 443d f71f 2dbe a783 a1bc
00000110: c583 963c 6922 d93d d788 83bc 1fb9 aabd
00000120: 0a6c 36bd 6ca6 233d 4b9b fd3c ea82 c23d
00000130: ab47 783d 7fd4 ddbd 159c a9bd f0b0 793c
00000140: e460 bcbc 5805 943d 9d75 363b 0421 833d
00000150: 48bc 51bc 94f3 7f3d 7f2e 37bd 008b 1a3e
00000160: e648 a53b 56f9 55bd a6ee 3e3b 58bb c53c
00000170: 29d2 343d 3302 eb3a 15c7 2039 5552 6dbd
00000180: 710c 57bd fdd4 31be e54a 8c3d 8fe3 3fbd
00000190: 21ae b0bd 0ccb 093d ba9e 29be 1193 e9bd
000001a0: 5595 c93b 3a87 b6bd e6b9 23bd 5c7d a33c
000001b0: ba43 e5bc fec1 253d dde2 fd3c 856d b73b
000001c0: df9b 51bd 3194 0f3e 41e6 e03d b979 a53c
000001d0: cdbd 043e dcf0 dbbd f329 1e3b 63ed f43d
000001e0: c200 a9bd e913 65bd 9c32 453e c897 1d3b
000001f0: b997 fabd f258 633d 4b2d 20be 0680 fa38
00000200: 24e9 4e3d 016f bebd 4369 7c3d 3104 dbbd
00000210: 00dd 9dbc e294 3abd 0ce3 e5bd 5b23 0cbd
00000220: 373b 66bd d96c 60be 29cd e7bd b518 6b3c
00000230: 2cb1 633c 3d08 b93c d6b1 1d3e 7b63 073d
00000240: 1e90 0f3d f063 bc3d e2ec 1a3e 844b e3bc
00000250: 4a82 39bd a324 81bd a9b2 91bd aa4d a83d
00000260: 4f52 653c b777 763d 7c65 6bbd 30c0 3bbe
00000270: 0f4f ad3d 59d3 813c 8ac6 d1bd a84c 8b3d
00000280: efd4 a03d 03ea adbd 56c3 b8bc 7f6c 58bd
00000290: cb72 b33d 9501 22bd 778e 98bc 1efd 63bd
000002a0: 2ff8 5a3e 37f0 c63d 7811 c43c 4070 a4bd
000002b0: 3f61 fabd 6dd3 adbc de9b 163d 4e8d 373d
000002c0: 328a 4d3d c12a 4639 6db2 16be 60d2 34be
000002d0: 9fec a03b 8683 563d 396e 1cbd a1f0 16be
000002e0: c2f7 3b3c f9b4 bcbc 8b92 4fbe 9354 30bc
000002f0: d080 6fbd 0426 deba cfb1 6c3d 4780 a8bc
00000300: 9ac8 7ebd 1a68 d63d 0576 06bd 7357 a7bd
00000310: 872c a43d 6c20 22bd 784d b03c 4c45 ff3d
00000320: 4baa ba3b c6a6 9bbc dd9f 443c f054 e13d
00000330: b457 ea3b 183d 4e3d 39c8 c5bd 42fd f3bc
00000340: dcca dd3c af6f 61bc 4116 18bd b411 f13d
00000350: a5f9 043e fb12 adbd c2db 5cbd e579 d4bd
00000360: ed6c 873d 67a4 393d c760 4abd a076 0dbe
00000370: c049 ca3d 200b c7bc 46f9 a43d 625c ab3b
00000380: 2071 e0bc 06b7 983c 0a09 2e3d 23d5 853d
00000390: a292 19be 3d1d d43d 95bb 393c f220 0a3d
000003a0: b05a ac3d 1f17 a03d 38b1 ff3c a9f5 c63c
000003b0: d246 cbbc b29a 98bd 358b e53d d045 c13d
000003c0: 97f5 2c3d 92c7 d3bc aa98 e4bd e00f ddbd
000003d0: e69e 163d 931c db3c f388 5c3d bfae 07be
000003e0: 4e6f ce3d 4afe 893d 83d1 e9bd e9df aabd
000003f0: 9dea bfbd 4fbc bd3c 28f5 b73d 1315 b0bd

msg_layers.0.W_msg.bias f4 [64]
-0.12732945 0.05608629 -0.16448082 0.03435078 -0.11417847 0.045286812 0.20684722 0.09153466
-0.04995417 0.052515067 0.0566469 -0.049201395 0.074813224 -0.09253488 -0.20437995 -0.13049069
-0.015589301 0.051100597 -0.08652541 0.013183782 -0.022478502 0.17211044 0.033883173 0.08602074
-0.07742503 0.13709828 -0.08964098 0.1752476 0.0518563 -0.16711542 0.068294995 0.03971737
0.11992028 0.0967092 -0.017090019 0.030951163 0.111939915 -0.05000456 -0.03481362 -0.11890265
0.05668249 -0.050709944 0.15208253 -0.048018318 -0.04155505 -0.07702215 0.093731105 -0.11010147
-0.07714253 -0.14892314 0.07504623 0.047276933 0.055465024 0.08155442 0.11653105 -0.0859757
0.08857367 -0.100158185 -0.103544764 -0.020824227 0.08771095 0.13476297 -0.09339822 -0.12494994
00000000: a762 02be bdba 653d a96d 28be 67b3 0c3d
00000010: 67d6 e9bd aa7e 393d c2cf 533e 8676 bb3d
00000020: be9c 4cbd 0a1a 573d 9406 683d 6787 49bd
00000030: ad37 993d ed82 bdbd fa48 51be 5a9f 05be
00000040: 446a 7fbc dc4e 513d 3c34 b1bd ca00 583c
00000050: d624 b8bc b83d 303e 15c9 0a3d a42b b03d
00000060: 0491 9ebd 7e63 0c3e b195 b7bd 1b74 333e
00000070: 4667 543d 4e20 2bbe 3fde 8b3d aeae 223d
00000080: c498 f53d 790f c63d 5e00 8cbc 4b8d fd3c
00000090: c140 e53d 95d1 4cbd ba98 0ebd 3c83 f3bd
000000a0: e62b 683d 3bb5 4fbd 86bb 1b3e dbae 44bd
000000b0: a135 2abd cabd 9dbd 18f6 bf3d e17c e1bd
000000c0: e7fc 9dbd 4f7f 18be d6b1 993d 75a5 413d
000000d0: 4b2f 633d 0106 a73d d5a7 ee3d 0714 b0bd
000000e0: 1d66 b53d bc1f cdbd 470f d4bd 9297 aabc
000000f0: cca1 b33d 4eff 093e 9147 bfbd c1e5 ffbd

msg_layers.0.norm.weight f4 [64]
0.95463306 1.162077 1.0644761 0.8559721 0.91536313 1.0637628 1.1014098 0.85202646
0.7723216 1.0920852 0.9624572 0.9781319 0.94458914 1.0686766 1.0278661 0.9511451
1.0075136 0.9006573 1.0962502 0.97778565 0.9543466 1.0389851 1.1814318 1.0523399
0.94229394 0.9090734 0.9318068 1.2221955 1.0512264 0.9802153 0.92837846 0.8688524
0.9978946 1.0965143 0.93249017 0.9745462 0.9519857 0.98788255 0.914759 0.95856935
1.1071811 0.8939453 1.15574 0.9274492 0.9550078 0.93303585 0.9699827 1.0074607
1.00538 0.9821375 1.0302724 1.1900493 0.9043794 0.93971944 1.2158263 0.9754016
1.0883628 0.92546815 1.049624 1.0652319 0.98144436 0.8562234 1.071813 1.0935328
00000000: d562 743f f0be 943f c140 883f fd20 5b3f
00000010: 3d55 6a3f 6129 883f fffa 8c3f 681e 5a3f
00000020: deb6 453f 73c9 8b3f 9863 763f da66 7a3f
00000030: 98d0 713f 65ca 883f 1e91 833f 3f7e 733f
00000040: 35f6 803f 7a91 663f ed51 8c3f 2950 7a3f
00000050: 0f50 743f 77fd 843f 2839 973f 13b3 863f
00000060: 2d3a 713f 09b9 683f e48a 6e3f e770 9c3f
00000070: 968e 863f 64ef 7a3f 36aa 6d3f 1c6d 5e3f
00000080: 0576 7f3f 955a 8c3f adb7 6e3f dc7b 793f
00000090: 56b5 733f dfe5 7c3f a52d 6a3f cd64 753f
000000a0: 1cb8 8d3f 99d9 643f 4aef 933f 506d 6d3f
000000b0: 647b 743f 70db 6e3f c950 783f 79f4 803f
000000c0: 4bb0 803f 5d6d 7b3f f7df 833f 8953 983f
000000d0: 6985 673f 7491 703f 32a0 9b3f ebb3 793f
000000e0: 794f 8b3f 7beb 6c3f 145a 863f 8559 883f
000000f0: f03f 7b3f 7531 5b3f 2b31 893f e2f8 8b3f

msg_layers.0.norm.bias f4 [64]
0.0482454 -0.088571765 0.012892488 0.029524073 0.09966527 0.015163583 -0.039188135 0.047730323
0.0062106266 -0.017077975 0.03394516 0.025063686 0.08751076 0.018841598 0.121466115 0.1422419
-0.122342505 0.011138277 -0.01783317 0.102200866 0.030789874 -0.024306305 0.016934615 0.060419682
0.054162256 -0.013831008 0.047652077 -0.03881322 0.024763994 0.015157726 0.053729344 0.009342273
-0.055775825 -0.0012421337 0.043831967 0.008140582 0.041366152 -0.056990284 0.045541923 0.07890972
0.018026555 0.14630648 0.0741126 -0.037013512 -0.036809172 0.032909352 -0.021740193 0.007495672
0.009619708 -0.10751732 -0.028911985 0.047446024 0.10412223 0.04030815 0.067621306 -0.15698884
0.04490099 0.06452737 0.0074981092 -0.021774579 0.02419553 0.14524084 0.12085711 -0.00840781
00000000: f89c 453d 1d65 b5bd 043b 533c 78dc f13c
00000010: 4e1d cc3d ad70 783c bd83 20bd df80 433d
00000020: 8382 cb3b 1ce7 8bbc 150a 0b3d 5c52 cd3c
00000030: d738 b33d b259 9a3c 3ac3 f83d dca7 113e
00000040: b58e fabd 527d 363c de16 92bc b04e d13d
00000050: 0c3b fc3c 041e c7bc 76ba 8a3c a17a 773d
00000060: 3ed9 5d3d 749b 62bc d32e 433d 9cfa 1ebd
00000070: dcdd ca3c 1c58 783c 4d13 5c3d 5510 193c
00000080: 3175 64bd 17cf a2ba 2689 333d 1360 053c
00000090: 8e6f 293d a56e 69bd 2b8a 3a3d 6b9b a13d
000000a0: 6dac 933c 5ed1 153e 59c8 973d 7b9b 17bd
000000b0: 37c5 16bd f5cb 063d 7d18 b2bc 419e f53b
000000c0: fb9b 1d3c 0a32 dcbd d4d8 ecbc c356 423d
000000d0: 093e d53d 291a 253d 0a7d 8a3d afc1 20be
000000e0: 1aea 373d ed26 843d b3b2 f53b 9a60 b2bc
000000f0: b435 c63c 04ba 143e ef83 f73d e9c0 09bc

msg_layers.1.W_self.weight f4 [64, 64]
-0.1052385 -0.09816929 -0.080606624 0.017605225 0.039677456 -0.10241225 0.12096773 0.13637581
-0.019754132 0.0758129 -0.020405557 0.0036204779 -0.047046397 0.023566134 -0.10335123 -0.10014039
0.056087032 -0.10358376 0.08779313 -0.005398533 0.06553336 -0.0039318725 -0.08698418 0.005046572
-0.12194198 0.0026071607 0.044638444 -0.07061846 -0.120895 -0.084742084 0.010397188 -0.07881433
-0.039039936 0.014917922 -0.032091312 0.117132746 -0.01500862 0.088008896 -0.064364046 0.08324116
0.05472035 0.020251319 0.10157258 0.13460465 0.09821345 -0.12557738 0.053991113 0.02684961
-0.07821232 -0.07140165 0.005744764 -0.033862926 -0.031093441 -0.006499637 0.080329284 0.117415085
-0.13951243 0.07256442 0.015639136 0.112509064 0.060749244 -0.12435348 -0.11780933 0.020874882
0.007477428 -0.077138826 0.024715006 -0.07195409 0.06929735 0.07288676 -0.04527796 0.091518395
-0.016874505 0.033537943 -0.008300752 -0.029959356 0.06731506 -0.027444992 -0.076577514 0.07379521
-0.028137257 -0.052549355 -0.13035089 0.0038702474 0.036022834 -0.039135296 -0.052549824 0.10514039
0.117293485 -0.03257182 0.011945383 -0.13708895 -0.068276525 -0.0078109493 0.09467165 0.035692833
0.050422046 0.059031162 -0.017686993 0.0903467 0.010554432 0.02860397 0.15750238 -0.012824548
-0.044037923 -0.0792932 -0.009603464 0.023676028 0.025075145 -0.019310933 0.014501496 0.0396352
-0.08212961 0.004667164 0.08139467 -0.046738707 0.068895206 0.02209452 -0.003146708 -0.079076245
-0.055623736 0.03706132 0.076694585 -0.047116894 -0.022621784 -0.084704526 -0.13548438 0.052854136
0.0545729 -0.07353751 0.047126118 0.0071450938 -0.122384116 0.100357816 -0.09523293 0.028395422
0.088502705 0.02435061 -0.12962547 0.0014555131 -0.14155771 0.023731826 -0.045024447 -0.06491335
0.10857928 0.08436814 -0.0031604224 0.101530254 -0.038590025 0.04876539 -0.12602165 -0.101845816
0.037437826 -0.13619411 -0.015156627 0.12748657 0.08137293 -0.030628169 0.0432516 -0.013416913
-0.0043049166 0.03134067 0.047181085 -0.00716646 -0.12905154 0.07589817 0.087898016 0.10208192
-0.03412983 0.090969 -0.077647194 -0.12642322 -0.18859948 0.14990027 0.12928566 -0.07449253
0.21230371 -0.102266625 -0.099041924 -0.036707137 0.03265351 -0.114022344 -0.13672519 -0.029007697
0.06159567 0.16347137 0.014910351 0.10707825 -0.034079865 0.0073808744 -0.032706264 0.039522197
0.05471383 -0.11271765 0.10754048 -0.10717677 -0.10825567 -0.20175849 0.16919217 -0.11840562
-0.03835481 0.037561517 -0.042360958 0.01563458 -0.08563403 -0.001759837 0.10362568 0.11026045
-0.22389841 0.09159768 -0.108265124 -0.0073198187 -0.015910016 -0.012202426 -0.011670244 -0.25336406
-0.018029578 0.08725976 -0.16410048 0.103906505 0.10934306 -0.047909446 -0.13955992 -0.051160358
-0.04512643 0.20182602 -0.18204902 -0.21040443 -0.0009778759 0.016204868 0.040669903 0.14260915
-0.09948264 0.06719173 0.18474482 0.06490201 0.08396328 0.22293441 -0.05186039 -0.14566213
0.053070925 -0.072541974 0.025071904 0.048588213 -0.17729793 0.16432719 0.10903604 -0.20018527
0.02169992 -0.12352942 -0.055597704 -0.15322655 0.14430588 -0.06533321 0.17715117 -0.12661318
00000000: 4887 d7bd fb0c c9bd 1615 a5bd d538 903c
00000010: d484 223d 84bd d1bd eebd f73d 1aa6 0b3e
00000020: 6bd3 a1bc cb43 9b3d 8e29 a7bc 8a45 6d3b
00000030: b9b3 40bd c40d c13c cfa9 d3bd 6816 cdbd
00000040: 84bb 653d b923 d4bd e2cc b33d 2de6 b0bb
00000050: 5b36 863d f0d6 80bb c324 b2bd b75d a53b
00000060: b8bc f9bd e6dc 2a3b cdd6 363d 69a0 90bd
00000070: cc97 f7bd 428d adbd f858 2a3c 6869 a1bd
00000080: 57e8 1fbd 4d6a 743c 2e72 03bd 4be3 ef3d
00000090: b7e6 75bc 023e b43d 4cd1 83bd 577a aa3d
000000a0: 7222 603d 18e6 a53c 4905 d03d cdd5 093e
000000b0: 2224 c93d 5b97 00be c925 5d3d b7f3 db3c
000000c0: c82d a0bd 073b 92bd 933e bc3b dab3 0abd
000000d0: acb7 febc e8fa d4bb ae83 a43d 5277 f03d
000000e0: 59dc 0ebe a89c 943d a51d 803c 276b e63d
000000f0: 33d4 783d 0aad febd 0546 f1bd cd01 ab3c
00000100: 3605 f53b f6fa 9dbd 2077 ca3c aa5c 93bd
00000110: c5eb 8d3d a745 953d 6275 39bd ff6d bb3d
00000120: 673c 8abc 155f 093d e1ff 07bc 536d f5bc
00000130: 7adc 893d 52d4 e0bc acd4 9cbd f121 973d
00000140: 1b80 e6bc fe3d 57bd b47a 05be faa3 7d3b
00000150: ae8c 133d 554c 20bd 7c3e 57bd d853 d73d
00000160: 9137 f03d 076a 05bd 91b6 433c 0c61 0cbe
00000170: 90d4 8bbd fef2 ffbb 36e3 c13d a632 123d
00000180: 5987 4e3d a9ca 713d 50e4 90bc b107 b93d
00000190: 7fec 2c3c df52 ea3c 4e48 213e 0e1e 52bc
000001a0: 1c61 34bd 7964 a2bd d957 1dbc 3bf4 c13c
000001b0: 646a cd3c f631 9ebc af97 6d3c 8558 223d
000001c0: 9233 a8bd 02ef 983b 40b2 a63d 1671 3fbd
000001d0: ee18 8d3d 91ff b43c 0039 4ebb baf2 a1bd
000001e0: b7d5 63bd 9ccd 173d 0d12 9d3d a5fd 40bd
000001f0: 5251 b9bc 9179 adbd 6bbc 0abe 947d 583d
00000200: d587 5f3d d69a 96bd 5107 413d 6421 ea3b
00000210: 86a4 fabd 6688 cd3d 7b09 c3bd 849d e83c
00000220: e840 b53d ee7a c73c 8abc 04be eac6 be3a
00000230: 81f4 10be 3f69 c23c 8e6b 38bd 4af1 84bd
00000240: d05e de3d 34c9 ac3d 171f 4fbb 18ef cf3d
00000250: 9310 1ebd 38be 473d d20b 01be 8a94 d0bd
00000260: 6858 193d 7876 0bbe 8053 78bc d78b 023e
00000270: daa6 a63d ede7 fabc 9728 313d 9dd2 5bbc
00000280: 4210 8dbb 135f 003d f440 413d a0d4 eabb
00000290: 1626 04be 8070 9b3d e003 b43d 5310 d13d
000002a0: b8cb 0bbd f44d ba3d 7e05 9fbd 1775 01be
000002b0: 3920 41be 757f 193e 7663 043e 8a8f 98bd
000002c0: 2566 593e 2a71 d1bd 7ed6 cabd 395a 16bd
000002d0: b0bf 053d 8c84 e9bd b001 0cbe 8da1 edbc
000002e0: be4b 7c3d 0a65 273e 8b4a 743c d74b db3d
000002f0: 5497 0bbd 43db f13b 01f7 05bd 07e2 213d
00000300: 9c1b 603d 83d8 e6bd 2f3e dc3d 7f7f dbbd
00000310: 26b5 ddbd c799 4ebe b640 2d3e a57e f2bd
00000320: ef19 1dbd 1bda 193d af82 2dbd 1714 803c
00000330: e560 afbd 55aa e6ba b339 d43d 3bd0 e13d
00000340: a045 65be 9097 bb3d 1bba ddbd 17db efbb
00000350: b955 82bc afec 47bc 8d34 3fbc efb8 81be
00000360: c4b2 93bc 3fb5 b23d f509 28be efcc d43d
00000370: 41ef df3d b23c 44bd cce8 0ebe 868d 51bd
00000380: 7ed6 38bd 7bab 4e3e 0f6b 3abe 4274 57be
00000390: 122c 80ba 12c0 843c 7c95 263d 2208 123e
000003a0: 8ebd cbbd d19b 893d bf2d 3d3e 58eb 843d
000003b0: f1f4 ab3d eb48 643e 8f6b 54bd 7428 15be
000003c0: e660 593d e390 94bd 9863 cd3c 6f04 473d
000003d0: 978d 35be 6345 283e 4a4e df3d 5efd 4cbe
000003e0: 08c4 b13c fefc fcbd 6bba 63bd 6ce7 1cbe
000003f0: ecc4 133e 6bcd 85bd 1e67 353e e3a6 01be

msg_layers.1.W_self.bias f4 [64]
-0.07484057 -0.05073188 0.07643293 0.1822286 -0.023856904 -0.058124952 -0.025497233 -0.086995564
-0.03724489 0.11920894 -0.100614 0.07881526 0.058373477 0.029621268 -0.022280743 0.053803355
-0.1312026 -0.11797682 -0.0061574676 0.14763522 -0.098020226 -0.14302245 0.06823891 -0.07709342
-0.04687595 -0.0802616 -0.13523181 0.0092487335 -0.039484847 -0.12763464 -0.13952263 -0.1788811
-0.040378157 -0.053439148 -0.10406771 0.11911953 -0.076825194 -0.0154417595 -0.14205329 -0.06867638
0.023247365 0.11537671 0.027864732 0.060484197 -0.037470732 0.00019460548 0.0060441843 0.052339245
0.13309304 0.000296186 0.11397869 0.23120002 0.1451134 -0.20083189 0.093308136 -0.062153637
0.058144704 -0.04502866 -0.13171618 0.028300619 -0.06864865 0.07894757 0.1415366 -0.10780463
00000000: 0346 99bd 3bcc 4fbd de88 9c3d 229a 3a3e
00000010: 8e6f c3bc 6e14 6ebd 93df d0bc bb2a b2bd
00000020: 198e 18bd d123 f43d b60e cebd e569 a13d
00000030: 0719 6f3d 4da8 f23c 1b86 b6bc e860 5c3d
00000040: f959 06be d59d f1bd 95c4 c9bb b02d 173e
00000050: d4be c8bd 7a74 12be d7c0 8b3d 28e3 9dbd
00000060: ff00 40bd 3260 a4bd 357a 0abe 0088 173c
00000070: ddba 21bd a8b2 02be 05df 0ebe 9b2c 37be
00000080: 9163 25bd 02e3 5abd 7421 d5bd f1f4 f33d
00000090: 8756 9dbd 6fff 7cbc 6b76 11be 34a6 8cbd
000000a0: 4271 be3c a04a ec3d 9444 e43c 47be 773d
000000b0: e97a 19bd 030f 4c39 4b0e c63b ad61 563d
000000c0: 8b49 083e 6949 9b39 a96d e93d b3bf 6c3e
000000d0: 9b98 143e e0a6 4dbe 5618 bf3d d094 7ebd
000000e0: 2429 6e3d f96f 38bd 9be0 06be b3d6 e73c
000000f0: aa97 8cbd 43af a13d f8ee 103e adc8 dcbd

msg_layers.1.W_msg.weight f4 [64, 64]
0.041690357 -0.013540247 -0.23802797 0.0042517255 -0.029240618 -0.15036833 0.09296056 -0.03756155
-0.104298845 -0.0042931573 0.18443196 0.114358135 -0.012259414 -0.015617027 0.07049515 0.1459883
0.048258416 0.03904579 -0.13613258 0.06666193 -0.11696833 -0.0070876447 0.092603594 0.07621373
0.08081818 0.023805564 0.123732194 0.045093432 0.058023125 0.0028900022 0.043196276 0.086218394
-0.0815233 -0.1993185 -0.042210627 0.1476881 -0.13471729 -0.039582636 0.020415079 0.030469498
0.053264063 0.06240633 -0.07966941 -0.086377725 -0.15437219 0.015873637 0.04367016 0.10214465
-0.031995233 0.07911307 0.03725376 -0.11202272 -0.015567907 -0.07989623 -0.09636367 -0.038652565
0.06976569 0.0906152 0.14771439 0.07836457 0.12757231 -0.03762799 -0.114771895 0.1114931
0.09639111 -0.1345859 0.12110382 0.06406033 -0.03257893 -0.016852112 -0.15825945 -0.10004434
0.020118272 -0.16458607 -0.05768768 -0.05470728 0.13858227 0.024215152 0.08533327 0.08298413
0.0842697 -0.0843347 0.02172114 0.041220967 -0.09470988 -0.13689044 -0.24530637 0.033905562
0.03640312 -0.023398567 0.09668524 -0.21588656 -0.14627482 -0.055894267 0.08021695 -0.06786122
-0.01044584 -0.13469556 -0.073265046 0.009044602 0.065852806 -0.16212867 -0.045598578 -0.08604855
0.16033617 0.080789864 0.147236 0.048278425 0.016056163 -0.12504324 0.026261644 -0.084111795
0.026039869 0.017037613 0.05945315 -0.06588356 0.016086986 0.027010221 0.021478262 0.07133186
0.0752624 0.0037108413 0.12529612 0.050239068 0.0394897 -0.059891302 -0.1392046 -0.024424681
0.12723508 0.019165322 -0.14257075 -0.042285662 0.022902798 0.08482109 0.074750744 -0.13746206
-0.030370915 0.033895995 0.047322765 -0.0017231976 -0.055606388 0.016773501 0.021252606 0.06194456
-0.034838878 0.15707499 -0.11222823 -0.08135649 0.055545785 -0.0036388952 0.17755523 -0.10010533
0.11635894 -0.07312879 -0.018763812 0.113706276 0.15365745 0.004357977 0.15597841 -0.0576512
-0.08602942 0.1175639 0.020669874 -0.07921584 0.059978846 -0.051217653 0.112601176 0.14450964
0.09057398 -0.024370182 -0.03867794 -0.008600408 -0.05887223 0.07490891 0.0007768328 0.04225888
0.09458632 -0.06063451 -0.052485183 0.13734505 0.08029349 0.001408888 0.18116929 -0.23195307
0.14178857 -0.020651901 0.13232176 0.052670885 -0.010295839 0.037552506 0.05081083 0.111571886
0.09428077 0.0688993 -0.057855368 -0.020496834 0.15521969 0.17926729 -0.12652813 -0.13734983
-0.09311489 -0.09776925 0.12240701 0.20120981 -0.042702425 -0.0057355515 -0.068674885 -0.004341236
0.04322997 -0.052355506 -0.072062545 0.10272099 4.9438764e-05 -0.064888455 -0.089617796 0.0885636
-0.02263253 0.035491515 0.15621342 -0.088151604 0.07826151 0.17365083 0.06097398 -0.094165415
-0.022321075 -0.0039195037 0.08849764 -0.09783057 -0.11501745 -0.025500854 0.10795552 0.11002777
0.13269743 -0.15509728 -0.17161186 -0.16117886 -0.1242293 0.11830454 -0.02053904 0.08879842
-0.03930849 -0.021999676 -0.1827342 -0.04188462 0.16892658 0.05699169 -0.23014323 0.07848189
-0.08904002 0.11524663 0.09294461 0.17808223 0.13888821 0.0598494 -0.20722407 0.25789312
00000000: 82c3 2a3d ead7 5dbc 9bbd 73be 0f52 8b3b
00000010: 058a efbc 28fa 19be 1b62 be3d 24da 19bd
00000020: a29a d5bd 9dad 8cbb bbdb 3c3e 9934 ea3d
00000030: b6db 48bc 8fde 7fbc c35f 903d f57d 153e
00000040: 9eaa 453d 7aee 1f3d 5766 0bbe 0d86 883d
00000050: 188d efbd 793f e8bb f4a6 bd3d f215 9c3d
00000060: 0184 a53d e303 c33c 4e67 fd3d e4b3 383d
00000070: a8a9 6d3d 3166 3d3b 94ee 303d 4593 b03d
00000080: b0f5 a6bd 261a 4cbe 0de5 2cbd 8d3b 173e
00000090: 54f3 09be 6721 22bd 863d a73c 2b9b f93c
000000a0: 6b2b 5a3d c89d 7f3d b729 a3bd cee6 b0bd
000000b0: be13 1ebe 6e09 823c 7bdf 323d 3731 d13d
000000c0: 6f0d 03bd 0906 a23d 6697 183d 2b6c e5bd
000000d0: 8910 7fbc a2a0 a3bd 515a c5bd 2752 1ebd
000000e0: 50e1 8e3d 7694 b93d 7142 173e 9b7d a03d
000000f0: 51a2 023e cf1f 1abd 870d ebbd 7f56 e43d
00000100: b468 c53d e3d0 09be 4805 f83d 1032 833d
00000110: 7c71 05bd 710d 8abc c40e 22be 0ce4 ccbd
00000120: 13cf a43c 4089 28be eb49 6cbd be14 60bd
00000130: 83e8 0d3e db5e c63c 36c3 ae3d 95f3 a93d
00000140: 9895 ac3d acb7 acbd 88f0 b13c 51d7 283d
00000150: 41f7 c1bd 022d 0cbe 9831 7bbe 8fe0 0a3d
00000160: 701b 153d 5aae bfbc e902 c63d 5e11 5dbe
00000170: 11c9 15be 63f1 64bd c948 a43d d3fa 8abd
00000180: 0725 2bbc a2ed 09be fc0b 96bd cf2f 143c
00000190: d6dd 863d 0f05 26be 93c5 3abd 393a b0bd
000001a0: 2a2f 243e 2875 a53d 09c5 163e 99bf 453d
000001b0: 3788 833c 560b 00be a922 d73c ce42 acbd
000001c0: 9051 d53c 7792 8b3c 2585 733d f6ed 86bd
000001d0: dbc8 833c 8a44 dd3c 2ef3 af3c 7016 923d
000001e0: 2c23 9a3d 9631 733b a04d 003e 7bc7 4d3d
000001f0: f4bf 213d 9550 75bd a78b 0ebe 4516 c8bc
00000200: ea49 023e 9800 9d3c 11fe 11be bb33 2dbd
00000210: a69e bb3c aeb6 ad3d eb16 993d dbc2 0cbe
00000220: 6dcc f8bc 87d6 0a3d 84d5 413d ebdc e1ba
00000230: 86c3 63bd 9568 893c f219 ae3c 94b9 7d3d
00000240: 36b3 0ebd 44d8 203e ead7 e5bd 3b9e a6bd
00000250: fa83 633d 887a 6ebb 0ad1 353e 0604 cdbd
00000260: 994d ee3d 8cc4 95bd 91b6 99bc d6de e83d
00000270: 6158 1d3e 5ccd 8e3b ceb8 1f3e aa23 6cbd
00000280: 3130 b0bd 58c5 f03d de53 a93c ea3b a2bd
00000290: 61ac 753d 9ac9 51bd 729b e63d 56fa 133e
000002a0: da7e b93d faa3 c7bc c26c 1ebd bae8 0cbc
000002b0: 0224 71bd d869 993d 5ea4 4b3a a617 2d3d
000002c0: 79b6 c13d e45b 78bd b4fa 56bd 2ea4 0c3e
000002d0: ea70 a43d 70aa b83a 7184 393e 1b85 6dbe
000002e0: 0631 113e 2d2e a9bc 5b7f 073e 6dbd 573d
000002f0: e1af 28bc a8d0 193d 041f 503d cd7f e43d
00000300: 4716 c13d 141b 8d3d c0f9 6cbd fae8 a7bc
00000310: e9f1 1e3e d891 373e 9790 01be 6fa5 0cbe
00000320: 05b3 bebd 3f3b c8bd 87b0 fa3d f209 4e3e
00000330: bde8 2ebd 4bf1 bbbb 6ba5 8cbd ed40 8ebb
00000340: e911 313d ba72 56bd 8795 93bd 625f d23d
00000350: 785c 4f38 3de4 84bd 8989 b7bd d560 b53d
00000360: db67 b9bc 8d5f 113d 69f6 1f3e d488 b4bd
00000370: 9247 a03d 86d1 313e dabf 793d ccd9 c0bd
00000380: b0da b6bc 2e6f 80bb 403e b53d 655b c8bd
00000390: 458e ebbd 2be7 d0bc c917 dd3d 3d56 e13d
000003a0: d6e1 073e d2d1 1ebe 05bb 2fbe 120c 25be
000003b0: ee6b febd a749 f23d 7d41 a8bc f2db b53d
000003c0: f001 21bd aa38 b4bc ad1e 3bbe 358f 2bbd
000003d0: 17fb 2c3e 1e70 693d abaa 6bbe 1dbb a03d
000003e0: 9d5a b6bd 6d06 ec3d be59 be3d 305b 363e
000003f0: b638 0e3e a524 753d 8c32 54be 910a 843e
