QuantLaxmi_Research/dtrn/results/checkpoints/fold2_NIFTY/dtrn_final.pt (torch, 236213 bytes, 37 tensors)

embed.embed.0.weight f4 [32, 2]
0.16528304 -0.7367981 0.12584914 -0.3707678 0.6502882 -0.061727352 0.2830623 -0.7981495
0.16860835 0.6018519 -0.5566939 -0.41764742 0.80163294 -0.30526906 -0.7545123 0.6570115
0.23210883 0.27083018 -0.24643408 0.33875573 0.46989226 -0.26652148 0.013724937 -0.67870194
-0.5225466 -0.2544836 0.16568734 -0.06907367 -0.5268407 -0.4951675 -0.629113 0.24770005
0.026502335 0.46215054 -0.66510975 -0.4048714 -0.4912822 -0.206636 -0.29237837 0.6162591
-0.5559287 -0.3974368 -0.41571656 0.0022553646 0.6955949 -0.6863296 -0.11658742 -0.28916493
-0.6791251 -0.19631113 -0.17471485 0.37208173 0.10270535 -0.13239287 0.06383498 -0.061559346
0.25205576 -0.3686154 0.13637502 -0.327351 -0.31825364 -0.3868306 -0.4634613 -0.44683516
00000000: f53f 293e cd9e 3cbf 99de 003e 47d5 bdbe
00000010: 4a79 263f d2d5 7cbd 8bed 903e 8753 4cbf
00000020: aba7 2c3e f712 1a3f 7e83 0ebf e2d5 d5be
00000030: d137 4d3f 3a4c 9cbe b827 41bf e831 283f
00000040: f0ad 6d3e 41aa 8a3e 3759 7cbe 6471 ad3e
00000050: b895 f03e 8175 88be 8fde 603c 69bf 2dbf
00000060: 9dc5 05bf ad4b 82be f1a9 293e 7f76 8dbd
00000070: 08df 06bf 9886 fdbe 8d0d 21bf 15a5 7d3e
00000080: 6d1b d93c ff9e ec3e a244 2abf 4e4b cfbe
00000090: 5789 fbbe 6398 53be 9eb2 95be 28c3 1d3f
000000a0: 5851 0ebf d67c cbbe cdd8 d4be bdce 133b
000000b0: 8212 323f 4cb3 2fbf 63c5 eebd 6d0d 94be
000000c0: 24db 2dbf c905 49be 73e8 32be 7f81 be3e
000000d0: 2f57 d23d ff91 07be eabb 823d a725 7cbd
000000e0: 740d 813e 28bb bcbe e5a5 0b3e 8d9a a7be
000000f0: 24f2 a2be a90e c6be cd4a edbe 94c7 e4be

embed.embed.0.bias f4 [32]
0.4690778 -0.3225793 -0.05448519 0.5155571 0.28366786 -0.6851106 -0.27101293 -0.3281927
-0.5324697 -0.29485396 0.14083198 0.64946926 0.4638288 -0.10886976 0.015768321 -0.568203
-0.4450269 0.27180248 -0.35191238 -0.52503735 -0.11861667 0.05520771 0.077553436 0.46734384
-0.53457946 -0.17684431 -0.24008404 0.0423889 0.123694435 0.17722607 0.6070631 -0.42234865
00000000: f72a f03e 1d29 a5be dd2b 5fbd 8dfb 033f
00000010: ea3c 913e 6963 2fbf 35c2 8abe e008 a8be
00000020: ef4f 08bf 19f7 96be 4236 103e 9e43 263f
00000030: f87a ed3e 1cf7 debd 912c 813c c075 11bf
00000040: 91da e3be b229 8b3e dc2d b4be d968 06bf
00000050: 4ced f2bd 7b21 623d 56d4 9e3d b147 ef3e
00000060: 33da 08bf ad16 35be 97d8 75be fc9f 2d3d
00000070: 8253 fd3d c07a 353e 7d68 1b3f 153e d8be

embed.embed.2.weight f4 [32, 32]
0.18112127 0.08408016 -0.01619971 -0.16734964 0.13582565 0.13497733 -0.12737474 0.011257769
0.11496863 -0.015363303 -0.017426657 0.07223382 -0.16209957 -0.014908821 -0.08257949 -0.06678652
0.15308075 -0.1542385 -0.07753546 0.12782393 0.026824096 -0.1996658 0.025632957 0.12213817
0.07822891 -0.086675055 0.03187974 0.11420951 0.017829526 -0.13883184 -0.19857599 0.14000958
-0.11800888 -0.10048422 0.1366447 0.055568937 0.12452642 -0.050854832 -0.058392365 0.022239454
-0.1743559 0.07482587 -0.0050790063 0.00066749816 -0.06460349 0.117387936 -0.0687971 0.0014465619
0.03744576 -0.15772606 -0.21883397 -0.21966386 -0.064718194 -0.19716138 0.19681236 0.06180458
-0.06426212 -0.12442108 -0.22781113 0.06353616 0.096168816 0.09871761 0.13839936 0.05833865
0.008557988 0.10747557 -0.08953128 0.17966549 -0.07143006 0.15916471 0.12901258 -0.015851643
0.076075315 -0.04055197 0.1301859 0.21759059 0.0603946 -0.13888228 -0.02654867 0.008982101
-0.0027663775 0.04632256 -0.036172505 -0.058695506 0.19279557 0.16172706 0.012049372 -0.06012269
-0.08559963 0.1259841 -0.14597774 -0.15763637 0.01732399 0.0049954387 0.031760283 0.015334706
-0.32947895 0.07602078 0.064632155 -0.29228085 0.14088392 0.026799208 -0.22183806 0.049519178
-0.020977588 0.13714053 -0.27526304 -0.21869643 -0.17323746 -0.031835325 -0.15442656 -0.087318264
0.07838005 -0.3692958 -0.130665 0.28913537 0.052865904 -0.039244216 -0.23433053 -0.012304467
-0.018220788 0.12361358 0.08567855 0.10993574 -0.22337061 -0.14864887 -0.13106811 0.032532286
0.37032735 0.14587866 0.04409804 0.21740586 -0.11570366 -0.051876172 0.24328305 0.07318187
0.09541849 -0.32972652 0.2648011 0.2227206 0.059359353 -0.056272276 0.08984177 -0.002504134
0.13581313 0.33850858 0.02342341 -0.20173481 0.07318853 -0.17936945 0.22955039 0.0017748075
0.0027310352 -0.16716513 0.12393366 0.15670176 0.21717161 -0.03491214 0.12932485 0.12456948
-0.17184965 0.23133434 0.07592855 -0.1622571 -0.061579365 -0.030148624 0.07147577 -0.06145489
0.015511614 0.07077391 -0.10704745 -0.05556521 0.0030404446 0.1031523 -0.00020298664 -0.016970377
-0.09898755 0.2856735 0.052463967 0.015729388 0.057820022 0.11688368 0.027749658 -0.098002285
0.042668987 -0.10706078 0.07043708 0.06298906 -0.19834618 0.06245626 -0.20040154 0.044434123
-0.3157984 0.08761896 0.099407375 -0.065652005 -0.0146818105 0.107557684 0.02014271 0.10715854
-0.1183662 0.1588357 -0.13692755 -0.29012018 0.069374904 -0.11985402 0.03096468 0.108550124
0.0991591 0.013278473 0.032931816 0.20460784 0.050885875 -0.06830143 -0.09827988 -0.0616732
-0.025752196 0.22441381 -0.038729746 -0.12367521 -0.25521222 -0.2078036 0.10564683 -0.115994215
-0.24425307 -0.016176682 -0.2107915 -0.24539836 0.03850893 -0.13665162 -0.022655224 0.24727638
-0.033594087 0.31188813 -0.15472373 -0.19390382 0.06578017 -0.060600802 -0.106208846 -0.094470285
0.17591713 -0.24865185 -0.073117375 0.005204125 0.005758056 0.0013597325 -0.14611284 0.12848514
-0.1135722 0.10311748 0.026566574 -0.1752372 -0.13141859 0.027036233 -0.119999394 -0.11678392
00000000: db77 393e 3832 ac3d 41b5 84bc b45d 2bbe
00000010: e115 0b3e 7f37 0a3e 866e 02be 8172 383c
00000020: ac74 eb3d 5db6 7bbc 59c2 8ebc 53ef 933d
00000030: 6efd 25be 2144 74bc 701f a9bd 5fc7 88bd
00000040: 33c1 1c3e b3f0 1dbe e9ca 9ebd 47e4 023e
00000050: 35be db3c 3175 4cbe 35fc d13c 9423 fa3d
00000060: 7b36 a03d b182 b1bd 5594 023d ade6 e93d
00000070: 3a0f 923c ef29 0ebe 8157 4bbe ac5e 0f3e
00000080: a4ae f1bd acca cdbd 97ec 0b3e 419c 633d
00000090: b507 ff3d 284d 50bd d52c 6fbd 842f b63c
000000a0: 5a8a 32be 4e3e 993d cb6d a6bb 0bfb 2e3a
000000b0: d64e 84bd 1669 f03d 7ee5 8cbd 909a bd3a
000000c0: ba60 193d f182 21be 0316 60be 90ef 60be
000000d0: f98a 84bd ace4 49be 2e89 493e cd26 7d3d
000000e0: dc9b 83bd 7bd0 febd 5247 69be 3f1f 823d
000000f0: 28f4 c43d 752c ca3d 90b8 0d3e 82f4 6e3d
00000100: ce36 0c3c 271c dc3d 2d5c b7bd 3bfa 373e
00000110: ec49 92bd 13fc 223e e01b 043e 4edb 81bc
00000120: 60cd 9b3d d319 26bd 744f 053e 11d0 5e3e
00000130: 5460 773d 2837 0ebe 997c d9bc aa29 133c
00000140: 1d4c 35bb babc 3d3d 9f29 14bd b36a 70bd
00000150: 346c 453e c79b 253e bb6a 453c 3643 76bd
00000160: dc4e afbd fa01 013e 307b 15be 6e6b 21be
00000170: 0aeb 8d3c c7b0 a33b 1217 023d 6b3e 7b3c
00000180: 77b1 a8be c8b0 9b3d dd5d 843d d6a5 95be
00000190: e043 103e 038a db3c 8429 63be 9fd4 4a3d
000001a0: 31d9 abbc 916e 0c3e 47ef 8cbe f5f1 5fbe
000001b0: 2965 31be c265 02bd ff21 1ebe ebd3 b2bd
000001c0: b885 a03d 5714 bdbe 0ccd 05be 8d09 943e
000001d0: eb89 583d 8bbe 20bd 58f4 6fbe ad98 49bc
000001e0: c343 95bc 1e29 fd3d 3c78 af3d fd25 e13d
000001f0: 44bb 64be 6937 18be b836 06be 9340 053d
00000200: 8c9b bd3e 3761 153e 25a0 343d a49f 5e3e
00000210: 0af6 ecbd 1c7c 54bd 311f 793e 60e0 953d
00000220: c56a c33d ead1 a8be 0394 873e de10 643e
00000230: cb22 733d c27d 66bd f6fe b73d 661c 24bb
00000240: 9912 0b3e ff50 ad3e 73e2 bf3c 9293 4ebe
00000250: dee3 953d a0ac 37be 420f 6b3e a8a0 e83a
00000260: 2bfb 323b 562d 2bbe eed0 fd3d 6d76 203e
00000270: 3c62 5e3e 0800 0fbd bc6d 043e 491e ff3d
00000280: 5bf9 2fbe e9e2 6c3e 6d80 9b3d ba26 26be
00000290: a53a 7cbd 3ffa f6bc e361 923d 1fb8 7bbd
000002a0: 6d24 7e3c e9f1 903d b23b dbbd 5898 63bd
000002b0: 3242 473b 8341 d33d d0d8 54b9 7605 8bbc
000002c0: fcb9 cabd cc43 923e 75e4 563d ebda 803c
000002d0: b0d4 6c3d b660 ef3d 4053 e33c 6cb5 c8bd
000002e0: adc5 2e3d af42 dbbd 5141 903d 6900 813d
000002f0: 431b 4bbe 23d2 7f3d 1036 4dbe 8e00 363d
00000300: 54b0 a1be 9271 b33d 1896 cb3d 8f74 86bd
00000310: fa8b 70bc 3447 dc3d 5302 a53c f075 db3d
00000320: fa69 f2bd d3a5 223e bc36 0cbe a28a 94be
00000330: 6e14 8e3d 0676 f5bd a4a9 fd3c 874f de3d
00000340: ed13 cb3d f48d 593c 83e3 063d b884 513e
00000350: b56d 503d 9fe1 8bbd f646 c9bd 0a9d 7cbd
00000360: 45f6 d2bc bccc 653e 15a3 1ebd 6e49 fdbd
00000370: 2dab 82be 78ca 54be 5d5d d83d 608e edbd
00000380: 7a1d 7abe f684 84bc bad9 57be b549 7bbe
00000390: 8abb 1d3d 67ee 0bbe 7397 b9bc 0536 7d3e
000003a0: f499 09bd cdaf 9f3e e66f 1ebe b98e 46be
000003b0: c1b7 863d 8c38 78bd 0684 d9bd a379 c1bd
000003c0: 9f23 343e 979e 7ebe 90be 95bd 5d87 aa3b
000003d0: 13ae bc3b 0d39 b23a 9b9e 15be 9c91 033e
000003e0: 8b98 e8bd 422f d33d 25a2 d93c 6171 33be
000003f0: 9892 06be 177b dd3c 3ec2 f5bd 682c efbd

embed.embed.2.bias f4 [32]
0.08149528 -0.033394095 0.08260886 -0.005197004 -0.16715126 -0.29129395 0.19045249 -0.006842309
-0.05947219 0.15234755 0.085629456 -0.07003149 -0.0022757405 0.103088126 -0.07793703 -0.019644912
0.036037 -0.05428701 -0.04770518 0.0075612976 0.09356445 -0.21086153 0.07664512 0.016803442
-0.033310615 -0.26320565 0.03284156 0.12175413 0.054716215 -0.04946764 -0.18612856 0.1036362
00000000: ffe6 a63d 3fc8 08bd d62e a93d a14b aabb
00000010: b329 2bbe 7b24 95be fa05 433e 7335 e0bb
00000020: 1c99 73bd ff00 1c3e 7f5e af3d ab6c 8fbd
00000030: 9724 15bb de1f d33d 739d 9fbd 5eee a0bc
00000040: 899b 133d 0e5c 5ebd 8266 43bd c3c4 f73b
00000050: b89e bf3d 16ec 57be 1ef8 9c3d 5fa7 893c
00000060: b670 08bd e4c2 86be df84 063d 3b5a f93d
00000070: 1c1e 603d 959e 4abd 7c98 3ebe 373f d43d

input_proj.weight f4 [64, 32]
-0.024775913 -0.09536169 -0.05733631 -0.21716705 0.19565697 -0.080921225 0.022762403 -0.15322942
0.006553166 0.17135258 0.04259962 0.019858118 0.0585785 0.17645761 -0.14799425 0.13901451
0.18783185 0.13184291 0.009699428 -0.061780035 0.07774726 0.17355774 -0.16407874 0.035087097
0.09565806 -0.045586776 -0.20373094 -0.11706623 -0.01483092 -0.13259453 -0.004739697 0.09970171
-0.057978082 -0.1264652 -0.14495172 0.08265949 0.22840928 0.0028573638 -0.09176399 -0.19018903
-0.2134989 -0.20540741 -0.056070663 0.04050845 0.2108243 -0.083206214 0.106706485 -0.22160314
-0.10230215 0.12350533 0.07348028 0.21311806 0.20389532 0.17839177 0.017879654 -0.05044025
-0.14877048 0.11287809 -0.113593385 0.11291662 -0.051255837 0.071177684 0.0848837 -0.1447713
-0.2206627 -0.18230738 0.14946222 -0.14156479 -0.16995881 0.14925648 -0.038929116 -0.17867605
-0.12193395 0.12258148 0.12650226 0.050604746 -0.083000615 -0.12639177 0.060864445 -0.040264796
-0.19773623 -0.03226439 0.07601648 -0.1235432 0.21856214 0.03514783 -0.033897888 -0.053865533
0.09675272 -0.13776286 0.065192394 0.014596324 0.010869362 0.11506512 -0.33694014 0.06549591
0.1021479 0.010259896 0.11427104 -0.14948803 0.075782634 -0.059643872 0.22640951 0.0963216
-0.11683564 0.023419432 -0.11988235 -0.039914336 -0.2444718 0.18802507 -0.11942035 0.19039334
0.13629611 0.09539003 -0.025243783 -0.11100053 -0.23187512 -0.10018618 0.14445889 -0.30230537
-0.13299915 -0.031386297 -0.05997526 -0.15839893 0.050153956 0.028194778 -0.06667138 0.085686445
-0.01579759 0.080373205 0.103154495 0.048567716 0.06061002 -0.017225435 -0.04191351 0.023298765
-0.122572385 -0.021548726 -0.08787787 -0.15378584 0.15126526 0.090673625 -0.062242713 0.10900041
-0.115895815 0.1072527 0.021550287 0.076544024 0.1710742 -0.19900243 0.075779594 0.22288315
0.12389617 -0.13264056 0.16393559 -0.07824372 0.08341191 -0.11537839 0.014852707 0.17368264
-0.16968437 0.03726375 -0.07973739 -0.1484833 0.30646864 -0.020674929 -0.10116149 -0.12796162
-0.19520289 0.21254969 0.108678214 -0.15236418 0.06297218 -0.011024048 0.019204391 -0.061816208
-0.054258384 0.27900106 -0.021393342 0.11084522 -0.12224759 -0.0077033257 0.10125724 0.13846241
0.24784037 0.07245997 -0.23949276 0.07568381 0.27444714 -0.04562953 -0.03532973 -0.08766987
-0.14039768 -0.021420283 0.0704962 0.13946944 -0.12939116 -0.008399527 0.09837704 0.16748017
0.1985358 0.052511115 -0.034217816 0.2380119 0.053224728 -0.0722546 0.2807966 -0.09000513
-0.20863838 -0.04770217 0.13031559 -0.2990057 -0.015914178 0.026055342 0.17507385 -0.010731137
-0.14029211 -0.11879978 -0.015723387 0.2437039 -0.12944561 0.09716105 -0.09679851 0.15470971
0.15891981 0.09139361 0.19451022 0.03707802 0.18554594 0.10457808 -0.016983435 -0.012318156
-0.010344292 0.22071846 -0.020986993 0.052029967 -0.0018502771 0.18606536 0.013114001 0.04605812
0.047004055 -0.08350025 0.05291528 0.1968712 -0.13572568 -0.012861947 -0.08641494 -0.0614026
0.070516296 0.177823 0.14468332 -0.17835031 -0.08101714 0.13921407 0.09249033 0.09917383
00000000: dbf6 cabc fd4c c3bd 7bd9 6abd 0a61 5ebe
00000010: 4d5a 483e 07ba a5bd 3878 ba3c 2ce8 1cbe
00000020: f1bb d63b 0d77 2f3e f07c 2e3d 7ead a23c
00000030: 02f0 6f3d 4eb1 343e ce8b 17be d259 0e3e
00000040: fe56 403e d401 073e 5aea 1e3c 100d 7dbd
00000050: f539 9f3d 1fb9 313e 4204 28be 7db7 0f3d
00000060: 5fe8 c33d 33b9 3abd d89e 50be 6bc0 efbd
00000070: 63fd 72bc dcc6 07be 764f 9bbb 6930 cc3d
00000080: 6d7a 6dbd 1880 01be 396e 14be 6149 a93d
00000090: 1fe4 693e 9c42 3b3b c2ee bbbd eac0 42be
000000a0: 759f 5abe 5256 52be 5aaa 65bd 30ec 253d
000000b0: 53e2 573e 0568 aabd ee88 da3d efeb 62be
000000c0: ca83 d1bd 5df0 fc3d d47c 963d 9f3b 5a3e
000000d0: efc9 503e 55ac 363e 5a78 923c 709a 4ebd
000000e0: 4a57 18be a12c e73d a6a3 e8bd d440 e73d
000000f0: a4f1 51bd 9bc5 913d 81d7 ad3d ed3e 14be
00000100: 67f5 61be c9ae 3abe a00c 193e 5cf6 10be
00000110: af09 2ebe b1d6 183e 2374 1fbd dbf6 36be
00000120: 82b8 f9bd 000c fb3d cf89 013e ec46 4f3d
00000130: 3afc a9bd d86c 01be ff4c 793d b3ec 24bd
00000140: 5e7b 4abe aa27 04bd 87ae 9b3d 3804 fdbd
00000150: c1ce 5f3e 2cf7 0f3d 83d8 0abd 1ba2 5cbd
00000160: 4a26 c63d b511 0dbe 9783 853d 6c25 6f3c
00000170: 6915 323c 43a7 eb3d 6b83 acbe b822 863d
00000180: eb32 d13d 1f19 283c ef06 ea3d 6413 19be
00000190: ed33 9b3d 224d 74bd e5d7 673e 4244 c53d
000001a0: 8647 efbd 1cda bf3c e184 f5bd 377d 23bd
000001b0: d156 7abe a589 403e a892 f4bd 79f6 423e
000001c0: 3591 0b3e d95b c33d 0dcc cebc 3f54 e3bd
000001d0: ac70 6dbe 692e cdbd 08ed 133e c5c7 9abe
000001e0: ee30 08be eb8e 00bd 9ea8 75bd 5433 22be
000001f0: 3c6e 4d3d bcf8 e63c 018b 88bd 607c af3d
00000200: f369 81bc b59a a43d aa42 d33d f1ee 463d
00000210: 3642 783d 5b1c 8dbc 80ad 2bbd 0ddd be3c
00000220: 3b07 fbbd f486 b0bc 50f9 b3bd 097a 1dbe
00000230: 48e5 1a3e 18b3 b93d 37f2 7ebd 9b3b df3d
00000240: c95a edbd 4ea7 db3d 3a8a b03c 1dc3 9c3d
00000250: 132e 2f3e 4bc7 4bbe 5532 9b3d 7b3b 643e
00000260: 46bd fd3d edd2 07be bbde 273e 3e3e a0bd
00000270: ddd3 aa3d 814b ecbd c558 733c ddd9 313e
00000280: bdc1 2dbe e0a1 183d 5b4d a3bd 020c 18be
00000290: 75e9 9c3e 785e a9bc c12d cfbd 5f08 03be
000002a0: 44e3 47be a0a6 593e af92 de3d 5b05 1cbe
000002b0: 8ff7 803d 359e 34bc 8752 9d3c fe32 7dbd
000002c0: 0a3e 5ebd 3ad9 8e3e 1741 afbc d202 e33d
000002d0: f25c fabd 2e6c fcbb f55f cf3d 17c9 0d3e
000002e0: dec9 7d3e e565 943d 973d 75be 1d00 9b3d
000002f0: 5684 8c3e 08e6 3abd e8b5 10bd 438c b3bd
00000300: 69c4 0fbe 9779 afbc 5060 903d 14d1 0e3e
00000310: 1e7f 04be 2b9e 09bc e779 c93d ec7f 2b3e
00000320: f84c 4b3e e515 573d fb27 0cbd 64b9 733e
00000330: 2c02 5a3d 38fa 93bd 92c4 8f3e 9c54 b8bd
00000340: 4da5 55be 5a63 43bd 7371 053e 4617 99be
00000350: 735e 82bc 0372 d53c 8f46 333e a7d1 2fbc
00000360: bca8 0fbe 4d4d f3bd 55ce 80bc 848d 793e
00000370: 648d 04be 5ffc c63d 4c3e c6bd 396c 1e3e
00000380: e0bb 223e 932c bb3d b02d 473e 1fdf 173d
00000390: c1ff 3d3e 082d d63d d820 8bbc 17d2 49bc
000003a0: 1b7b 29bc 0504 623e eaec abbc 601d 553d
000003b0: ff84 f2ba eb87 3e3e 1bdc 563c 70a7 3c3d
000003c0: 5387 403d 2e02 abbd b1bd 583d 9b98 493e
000003d0: acfb 0abe eaba 52bc 51fa b0bd 4b81 7bbd
000003e0: d96a 903d 3c17 363e dd27 143e 77a1 36be
000003f0: 50ec a5bd 228e 0e3e 926b bd3d a61b cb3d

input_proj.bias f4 [64]
0.009893315 -0.056762893 0.08985052 0.15726165 -0.12086608 -0.05102287 0.029096289 -0.058879185
-0.079307094 0.27380258 -0.10482692 -0.10724823 -0.098508775 0.15121694 -0.15703025 -0.17015418
-0.22824931 0.052455667 -0.2030554 -0.13213964 -0.021760086 -0.10542561 0.22809115 -0.08852994
-0.11605206 -0.107913375 0.013036822 0.24709214 0.11472497 -0.17495479 -0.13477162 -0.06570083
-0.09932614 -0.070763156 -0.10247996 -0.06733126 -0.10440055 -0.0755468 -0.09764159 -0.019579448
0.07499941 0.18043798 0.028502496 -0.12013708 0.06527408 0.21005392 0.014045915 -0.146399
0.11753791 -0.19974199 -0.108055696 0.21805608 0.007990435 0.19580112 0.17137478 -0.19810066
-0.03613361 -0.09013102 0.08612436 -0.15633416 0.051731054 -0.15336059 0.083628416 0.036569975
00000000: 9217 223c 3580 68bd 8d03 b83d 3309 213e
00000010: a388 f7bd 5bfd 50bd 575b ee3c 4d2b 71bd
00000020: c26b a2bd da2f 8c3e 7faf d6bd f6a4 dbbd
00000030: f8be c9bd 9dd8 1a3e 8acc 20be e63c 2ebe
00000040: 30ba 69be c1db 563d c1ed 4fbe 9d4f 07be
00000050: 3542 b2bc 62e9 d7bd ba90 693e 2f4f b5bd
00000060: b4ac edbd b001 ddbd 6598 553c b905 7d3e
00000070: edf4 ea3d 5927 33be 9201 0abe 288e 86bd
00000080: 816b cbbd 46ec 90bd 03e1 d1bd f9e4 89bd
00000090: f5cf d5bd 48b8 9abd 50f8 c7bd 1465 a0bc
000000a0: 4a99 993d bcc4 383e 117e e93c 6e0a f6bd
000000b0: 6bae 853d 6018 573e d620 663c 9fe9 15be
000000c0: b7b7 f03d 2a89 4cbe 4e4c ddbd 184a 5f3e
000000d0: 50ea 023c 1780 483e df7c 2f3e e6da 4abe
000000e0: d600 14bd 9d96 b8bd f861 b03d 1016 20be
000000f0: f1e3 533d 8f0a 1dbe 6045 ab3d 66ca 153d

msg_layers.0.W_self.weight f4 [64, 64]
-0.1301384 -0.0027870391 0.18155448 0.07404079 0.087707385 -0.050607152 0.20440751 -0.09973464
0.1004948 -0.024270032 -0.08175394 -0.07867589 -0.16666144 0.17280075 -0.2200756 -0.15391997
0.07684408 0.22407334 -0.053832375 -0.10362951 0.14556631 0.061713986 0.0097026 -0.17743245
-0.1398432 -0.06020454 -0.045540266 0.14561069 0.0007903361 0.015227424 -0.14155579 -0.06518674
0.108932465 -0.0339947 -0.028562836 -0.13787772 0.044992425 0.11873414 -0.1141322 0.057322517
-0.1077122 0.016579611 -0.19658469 0.08026874 0.18070363 0.062349685 0.027031966 -0.15954855
-0.084942676 0.015641896 -0.050728284 0.031235006 -0.016525751 0.03975773 0.10364646 -0.017405024
-0.109016985 -0.14134419 -0.09612994 -0.1878075 0.12552588 -0.17903404 0.1451498 -0.15107282
-0.0491702 0.115976624 -0.07019414 0.09640506 -0.010017271 -0.14414869 -0.05315658 -0.017387498
0.07213734 -0.062605634 0.011098582 0.08599507 0.0844843 -0.0765366 -0.03761987 -0.13631591
-0.094871394 -0.06490881 -0.17266145 -0.20720688 0.11657867 0.14219056 0.1384269 -0.015546036
0.04863112 0.03749191 -0.10749304 0.1484081 -0.008498144 -0.099623196 0.121250205 -0.017314935
0.09722937 0.02957862 -0.014919129 0.040599648 -0.021288665 0.17243804 -0.07449293 -0.021585122
-0.16675487 -0.1221824 -0.24351303 -0.0145704 0.05566582 -0.024546431 0.078999676 -0.024375865
-0.13976076 0.026475005 0.16116562 -0.10583014 -0.16820234 -0.0012857979 -0.055068273 0.15699205
0.0118589755 0.10471459 0.17483935 0.0012453292 -0.13752861 0.074649215 -0.083962716 -0.12626766
0.08470827 0.07877664 -0.08823045 -0.09114533 0.06781728 -0.11599095 0.1171585 -0.06385418
0.024450425 -0.0868037 -0.07873696 0.008875088 -0.056131333 -0.034584682 0.03018664 -0.0031763758
0.11636619 0.06845982 -0.0045674895 0.022627888 -0.031645548 0.15598713 0.071231306 0.21294042
0.06059917 0.04216186 0.04227613 0.12864225 -0.12301071 0.13054511 0.12905209 -0.0230531
-0.043461688 0.007310448 0.051723346 -0.12540719 -0.079293124 -0.105125815 0.06962492 0.0019493715
0.10653884 -0.06196516 0.083761655 -0.026763896 -0.15279631 -0.117595606 -0.014169497 -0.051667448
0.09108374 -0.071106546 0.08080671 0.070758626 0.041206516 0.10623393 0.0015356957 -0.065279275
-0.13445522 -0.06936313 0.08140479 0.012476828 0.10326185 0.14545964 -0.09557688 -0.06398125
-0.0706706 0.021573272 0.05499524 -0.08474338 0.13075522 -0.00022700647 -0.091243215 0.03624401
0.027812421 -0.09175078 -0.08364096 -0.006187401 0.021456596 0.12395045 0.07672075 0.07509788
-0.06855536 -0.0063990047 -0.0065629645 -0.038780045 0.11176141 0.0264439 0.06011151 -0.013932826
-0.0021978074 0.09884487 0.08391396 0.008390944 -0.04782624 0.112740956 -0.13786083 -0.005794375
0.12819737 -0.10748016 0.102537796 -0.059504032 0.1345379 0.045650028 -0.072693855 0.032148995
0.094928876 -0.081785336 0.08179694 -0.113160774 -0.09604428 -0.06270986 0.0023299195 0.04360979
-0.15768248 0.022871712 -0.0032737916 -0.04022044 -0.087253936 0.056282096 0.04557569 -0.022492709
0.09729355 -0.021564698 -0.048448615 -0.010154331 0.04801011 0.052303806 -0.06225074 0.13357778
00000000: 0043 05be c2a6 36bb 6be9 393e b3a2 973d
00000010: ee9f b33d 7249 4fbd 3450 513e ad41 ccbd
00000020: 38d0 cd3d f2d1 c6bc 9c6e a7bd d320 a1bd
00000030: 4ca9 2abe aef2 303e 805b 61be 329d 1dbe
00000040: 6e60 9d3d 7b73 653e 567f 5cbd b53b d4bd
00000050: 560f 153e cec7 7c3d a7f7 1e3c dab0 35be
00000060: 0e33 0fbe 0999 76bd 6e88 3abd f81a 153e
00000070: 8f2e 4f3a 727c 793c 00f4 10be a080 85bd
00000080: fc17 df3d 073e 0bbd 9cfc e9bc d12f 0dbe
00000090: fa49 383d e32a f33d 25be e9bd 04cb 6a3d
000000a0: 3798 dcbd f7d1 873c 7f4d 49be f063 a43d
000000b0: 5f0a 393e 6262 7f3d 2472 dd3c b260 23be
000000c0: 6df6 adbd 6f23 803c 76c8 4fbd 8ee0 ff3c
000000d0: 0361 87bc 00d9 223d 9844 d43d fb94 8ebc
000000e0: 4c44 dfbd 88bc 10be c6df c4bd 9c50 40be
000000f0: db89 003e b354 37be 26a2 143e d5b2 1abe
00000100: b166 49bd 2785 ed3d f2c1 8fbd 0470 c53d
00000110: 7b1f 24bc b79b 13be b7ba 59bd 3a70 8ebc
00000120: bebc 933d 6237 80bd d4d6 353c 2f1e b03d
00000130: 1b06 ad3d 39bf 9cbd 4b17 1abd 6696 0bbe
00000140: ef4b c2bd e9ee 84bd 2ace 30be 0a2e 54be
00000150: ccc0 ee3d 679a 113e c8bf 0d3e cdb4 7ebc
00000160: 6d31 473d 1e91 193d 5025 dcbd 4bf8 173e
00000170: cd3b 0bbc 3f07 ccbd 0752 f83d 0dd8 8dbc
00000180: 3120 c73d dd4e f23c 5d6f 74bc d14b 263d
00000190: 9165 aebc 9993 303e c08f 98bd 48d3 b0bc
000001a0: cac1 2abe c43a fabd 7b5b 79be b0b8 6ebc
000001b0: d801 643d 9915 c9bc 95ca a13d e5af c7bc
000001c0: 721d 0fbe 1ce2 d83c 9a08 253e 79bd d8bd
000001d0: 3c3d 2cbe 3888 a8ba 458f 61bd 86c2 203e
000001e0: 264c 423c 9a74 d63d 1609 333e 503a a33a
000001f0: 4dd4 0cbe b0e1 983d a5f4 abbd 4f4c 01be
00000200: 887b ad3d a655 a13d 2bb2 b4bd 67aa babd
00000210: c9e3 8a3d aa8c edbd ccf0 ef3d fbc5 82bd
00000220: 424c c83c 23c6 b1bd d840 a1bd d168 113c
00000230: f8e9 65bd aba8 0dbd f949 f73c be2a 50bb
00000240: 6651 ee3d a934 8c3d e1aa 95bb 1f5e b93c
00000250: c39e 01bd 17bb 1f3e b8e1 913d 0e0d 5a3e
00000260: d636 783d eab1 2c3d bc29 2d3d cbba 033e
00000270: 0aed fbbd 9ead 053e 3b26 043e dbd9 bcbc
00000280: e204 32bd 7c8c ef3b dcdb 533d be6a 00be
00000290: 6f64 a2bd 344c d7bd 8397 8e3d 0e82 ff3a
000002a0: 0931 da3d 2ecf 7dbd 3b8b ab3d f53f dbbc
000002b0: a376 1cbe f7d5 f0bd 2e27 68bc 3fa1 53bd
000002c0: 1d8a ba3d 4fa0 91bd fd7d a53d e6e9 903d
000002d0: 2ac8 283d 2d91 d93d 6649 c93a 24b1 85bd
000002e0: a1ae 09be 420e 8ebd 8eb7 a63d 9c6b 4c3c
000002f0: f37a d33d 5ff3 143e d0bd c3bd 9a08 83bd
00000300: bfbb 90bd 6eba b03c b042 613d f08d adbd
00000310: b2e4 053e 9608 6eb9 b9dd babd 9974 143d
00000320: e0d6 e33c d5e7 bbbd f44b abbd aebf cabb
00000330: bec5 af3c bcd9 fd3d c51f 9d3d ebcc 993d
00000340: c166 8cbd beae d1bb 230e d7bb d3d7 1ebd
00000350: 2be3 e43d e1a0 d83c 7d37 763d 8246 64bc
00000360: 1709 10bb 2e6f ca3d 15db ab3d 2c7a 093c
00000370: 73e5 43bd bbe4 e63d 642b 0dbe bede bdbb
00000380: 2c46 033e 8f1e dcbd 56ff d13d 80ba 73bd
00000390: 4ec4 093e 86fb 3a3d 84e0 94bd aaae 033d
000003a0: 126a c23d 127f a7bd 2785 a73d d6c0 e7bd
000003b0: ddb2 c4bd 076e 80bd 90b1 183b 2ea0 323d
000003c0: 8477 21be 755d bb3c 1c8d 56bb 30be 24bd
000003d0: 31b2 b2bd 0e88 663d 93ad 3a3d a142 b8bc
000003e0: d741 c73d 73a8 b0bc 0e72 46bd 5a5e 26bc
000003f0: 40a6 443d 843c 563d a2fa 7ebd 9dc8 083e

msg_layers.0.W_self.bias f4 [64]
0.1539241 -0.11148127 -0.011318204 -0.067092575 -0.10420578 0.032960467 -0.07998456 0.0035995818
-0.1475394 -0.07754634 0.010926625 -0.10321734 -0.037610997 0.08357437 0.02837123 0.055297945
-0.1446881 0.07639923 -0.08698201 -0.005208666 -0.17585078 0.14787835 0.05269441 0.08238304
0.17518385 -0.2578962 0.10312348 0.07511134 0.045932308 -0.06155972 -0.00832666 0.010788211
-0.013943238 0.099584326 -0.009040026 -0.06591966 0.0015239586 0.026435032 -0.04131053 0.08819337
-0.076713145 0.009949591 0.08958536 -0.070022404 -0.13853322 0.04255481 0.094892815 0.025231767
0.1030097 0.038795892 -0.06109251 0.005237733 0.19014063 0.17856544 0.07128147 -0.15614396
0.03522631 0.11173223 -0.088868916 0.026629584 0.005526561 -0.033714242 -0.053175934 0.017440602
00000000: 479e 1d3e 4b50 e4bd fd6f 39bc d567 89bd
00000010: d769 d5bd 8e01 073d f2ce a3bd f6e6 6b3b
00000020: 9214 17be 9ed0 9ebd 9605 333c 9d63 d3bd
00000030: fd0d 1abd 0a29 ab3d c86a e83c 1980 623d
00000040: 1e29 14be 3377 9c3d a023 b2bd 75ad aabb
00000050: 3a12 34be 6c6d 173e 18d6 573d 70b8 a83d
00000060: 6563 333e f90a 84be 6732 d33d f9d3 993d
00000070: 8423 3c3d 0c26 7cbd 8b6c 08bc 09c1 303c
00000080: 2e72 64bc def2 cb3d 9e1c 14bc e300 87bd
00000090: 91bf c73a 488e d83c 3b35 29bd ba9e b43d
000000a0: c81b 9dbd 9c03 233c 8778 b73d e867 8fbd
000000b0: a7db 0dbe f44d 2e3d 2a57 c23d dab2 ce3c
000000c0: c0f6 d23d 71e8 1e3d 243c 7abd 4aa1 ab3b
000000d0: 3ab4 423e dcd9 363e 05fc 913d 34e4 1fbe
000000e0: 7749 103d ded3 e43d e800 b6bd 4926 da3c
000000f0: 2718 b53b f217 0abd 02cf 59bd 98df 8e3c

msg_layers.0.W_msg.weight f4 [64, 64]
-0.035347853 0.009397358 -0.08161515 0.08236157 -0.06490524 -0.12877665 0.14538978 -0.124360695
0.115391366 0.16437815 0.16493723 -0.104358785 -0.11036431 0.075215265 -0.16024354 -0.049950927
0.10341023 0.03196434 -0.18711208 -0.1569551 0.108246684 0.10037119 -0.006935145 -0.113737725
-0.11201442 0.011027875 -0.03731651 0.0050624073 0.15247409 -0.038707744 0.1485141 -0.03464454
0.10405271 0.081832364 -0.16598256 -0.20376217 0.068273656 0.13706028 0.058544815 0.10787283
-0.03779954 0.06499566 -0.026180489 -0.10333171 0.045839664 0.20846714 -0.005448586 0.06254336
-0.14953461 -0.13027495 -0.02721655 -0.03555371 -0.14552611 0.059913155 0.047538307 0.043870177
0.0036524294 -0.044731207 0.17141147 -0.060394224 0.093690224 -0.16092534 0.06983957 -0.16664943
0.030046267 0.040136836 -0.18350737 -0.010146232 0.01592906 0.12387629 -0.039970856 -0.07358337
-0.065668024 0.04657134 0.007321872 0.09614035 0.054750197 -0.09257228 -0.057236552 0.017127179
-0.048821773 0.07981416 -0.021398349 0.05954989 -0.030681884 0.049668957 -0.059623502 0.1505286
0.01830597 -0.077701144 -0.002912928 0.012115023 0.06342648 -0.005988767 -0.0043969788 -0.046804998
-0.095010474 -0.1976307 0.08554231 -0.036138006 -0.101132 0.012666107 -0.1686804 -0.1250966
0.033352945 -0.06358952 -0.021943018 -0.009455323 -0.060828727 0.06519243 0.041782092 0.020652283
-0.014051554 0.11353844 0.073197104 0.02984542 0.15405206 -0.11335329 0.040104017 0.06757123
-0.0847416 -0.0672656 0.19126888 0.010371045 -0.11344441 0.06882862 -0.14584072 0.028875334
-0.009537887 -0.09177037 0.12208881 -0.17551193 -0.026108332 -0.08720838 -0.058563396 -0.093238086
0.0027776612 -0.19095786 -0.054167572 0.00283006 -0.051534377 -0.026968475 0.110182434 -0.006712897
0.09293177 0.14152342 0.1622666 -0.061976656 0.015953142 -0.0014176477 -0.02983233 0.03994713
-0.034335054 0.1119847 -0.11235405 -0.14704995 0.034964703 -0.016625047 -0.038154483 0.028195921
0.11411141 -0.030063912 -0.0782561 -0.12067226 0.14949504 0.020858282 0.05075008 -0.01654609
0.16047175 0.034677222 -0.024089985 -0.019943818 -0.10136746 -0.004639765 0.070743494 -0.00770202
0.017642558 -0.0085410355 -0.09403272 -0.13941404 -0.048998922 0.09689582 -0.013244348 -0.11320139
0.08214524 0.026895542 -0.2709401 -0.049530726 -0.022228165 -0.039497618 0.09154812 -0.06900711
-0.055271808 0.11396557 -0.040730864 -0.07670438 0.09213242 -0.031559613 0.0141381025 0.13194476
-0.0013258506 -0.027519938 0.0050609536 0.11635046 0.011404709 0.042143386 -0.089078695 -0.02193522
0.027816541 -0.020609658 -0.02376822 0.12533538 0.122549914 -0.091396295 -0.061664283 -0.09723344
0.0735481 0.041824963 -0.043276977 -0.14631607 0.08297003 -0.015427792 0.075517446 0.014719408
-0.03628012 0.011163959 0.049905013 0.07293524 -0.15961656 0.0969482 0.007595625 0.024491984
0.09175091 0.08561439 0.038531993 0.01698123 -0.044339303 -0.08526128 0.10416362 0.10154128
0.052104667 -0.019688208 -0.11936544 -0.11528992 0.044282205 0.019043183 0.046617486 -0.14221014
0.09503579 0.0841831 -0.10728196 -0.07598065 -0.102224246 0.031605702 0.07517314 -0.07814978
00000000: e9c8 10bd 60f7 193c d825 a7bd 2fad a83d
00000010: 0aed 84bd 07de 03be 0fe1 143e d2b0 febd
00000020: 4f52 ec3d bf52 283e 4ee5 283e 0fba d5bd
00000030: af06 e2bd 760a 9a3d e216 24be 5899 4cbd
00000040: bec8 d33d 0aed 023d 4f9a 3fbe d6b8 20be
00000050: 70b0 dd3d 698f cd3d 3640 e3bb 53ef e8bd
00000060: d167 e5bd 43ae 343c 32d9 18bd 8de2 a53b
00000070: 2b22 1c3e 038c 1ebd 1514 183e 6fe7 0dbd
00000080: 9619 d53d ba97 a73d 55f7 29be 08a7 50be
00000090: 0fd3 8b3d 8859 0c3e b0cc 6f3d 6eec dc3d
000000a0: b1d3 1abd 721c 853d 7778 d6bc 939f d3bd
000000b0: 5fc2 3b3d 6978 553e 0d8a b2bb bc16 803d
000000c0: 9a1f 19be cc66 05be 3ef5 debc c4a0 11bd
000000d0: cc04 15be 7f67 753d 87b7 423d 37b1 333d
000000e0: 995d 6f3b 1238 37bd 7d86 2f3e ef5f 77bd
000000f0: a9e0 bf3d 9dc9 24be 0c08 8f3d 26a6 2abe
00000100: 9723 f63c 8666 243d 5be9 3bbe 623c 26bc
00000110: a97d 823c dab2 fd3d 7bb8 23bd e1b2 96bd
00000120: f57c 86bd 97c1 3e3d 50ec ef3b 3be5 c43d
00000130: be41 603d 8996 bdbd e070 6abd 4c4e 8c3c
00000140: 57f9 47bd 9b75 a33d 974b afbc 96ea 733d
00000150: 9358 fbbc ad71 4b3d c637 74bd 2b24 1a3e
00000160: 67f6 953c c721 9fbd d2e6 3ebb 177e 463c
00000170: bee5 813d 6b3d c4bb 8814 90bb 99b6 3fbd
00000180: da94 c2bd b45f 4abe ce30 af3d 7205 14bd
00000190: 4b1e cfbd 8185 4f3c 8eba 2cbe 5319 00be
000001a0: 199d 083d 393b 82bd d8c1 b3bc 80ea 1abc
000001b0: 8b27 79bd 9c83 853d b323 2b3d fa2e a93c
000001c0: 7d38 66bc d786 e83d 5de8 953d 627e f43c
000001d0: d3bf 1d3e c525 e8bd 1c44 243d c962 8a3d
000001e0: 018d adbd 8cc2 89bd fddb 433e 51eb 293c
000001f0: 8b55 e8bd 05f6 8c3d 4557 15be f78b ec3c
00000200: cc44 1cbc 1bf2 bbbd b309 fa3d 66b9 33be
00000210: 24e1 d5bc 4f9a b2bd 2ce0 6fbd 9cf3 bebd
00000220: 6c09 363b 758a 43be d1de 5dbd 8778 393b
00000230: b615 53bd feec dcbc 54a7 e13d ddf7 dbbb
00000240: 0353 be3d 84eb 103e 3729 263e 3cdb 7dbd
00000250: 2ab0 823c 5dd0 b9ba ee62 f4bc 9a9f 233d
00000260: eaa2 0cbd 3c58 e53d e119 e6bd 4394 16be
00000270: 2637 0f3d 4031 88bc e047 1cbd 22fb e63c
00000280: 3eb3 e93d 9848 f6bc bc44 a0bd 0523 f7bd
00000290: 3a15 193e fdde aa3c 51df 4f3d aa8b 87bc
000002a0: b552 243e b409 0e3d 5c58 c5bc 3861 a3bc
000002b0: be99 cfbd 2b09 98bb f7e1 903d 3a61 fcbb
000002c0: 2087 903c b3ef 0bbc 3a94 c0bd 8ec2 0ebe
000002d0: 18b3 48bd 5171 c63d d2fe 58bc 21d6 e7bd
000002e0: c33b a83d 0a54 dc3c a9b8 8abe bbe0 4abd
000002f0: d717 b6bc 41c8 21bd 957d bb3d 9a53 8dbd
00000300: b164 62bd c866 e93d 68d5 26bd 3017 9dbd
00000310: ecaf bc3d a744 01bd 80a3 673c 871c 073e
00000320: 2ac8 adba 7e71 e1bc 5bd6 a53b 2649 ee3d
00000330: d1da 3a3c 8b9e 2c3d e46e b6bd 7eb1 b3bc
00000340: 84df e33c 96d5 a8bc 92b5 c2bc eb57 003e
00000350: 73fb fa3d fb2d bbbd b093 7cbd 5322 c7bd
00000360: 63a0 963d a750 2b3d 3343 31bd e1d3 15be
00000370: 31ec a93d dac4 7cbc e4a8 9a3d ac29 713c
00000380: 779a 14bd 0ae9 363c 3369 4c3d 125f 953d
00000390: 8672 23be c78c c63d b8e4 f83b 6aa3 c83c
000003a0: e7e7 bb3d 9956 af3d b9d3 1d3d 381c 8b3c
000003b0: 219d 35bd 779d aebd bc53 d53d e0f4 cf3d
000003c0: b46b 553d 2a49 a1bc de75 f4bd 1f1d ecbd
000003d0: 4261 353d 7300 9c3c faf1 3e3d 899f 11be
000003e0: 20a2 c23d 3068 ac3d a5b6 dbbd be9b 9bbd
000003f0: f25a d1bd fb74 013d 60f4 993d fe0c a0bd

msg_layers.0.W_msg.bias f4 [64]
-0.039239578 0.08681172 -0.22336274 0.03757523 -0.12169043 0.03699449 0.15727662 0.12425802
-0.10711554 0.06441324 0.07057134 -0.010085119 0.12646858 -0.11652869 -0.12930152 -0.1247442
-0.019143991 0.10510244 -0.14498696 0.018701572 -0.061259326 0.2170573 0.027774354 0.11578764
-0.040242083 0.07607807 -0.017358601 0.1856194 0.022394555 -0.12376688 0.05611536 0.011013162
0.13098799 0.08398692 0.02860124 0.07038051 0.103122644 -0.069017336 -0.027963027 -0.07320126
0.07415665 -0.07539554 0.111388 -0.08125028 -0.07806275 -0.022444045 0.043216173 -0.054736167
-0.101065494 -0.1387263 0.07878446 0.023787923 0.14067821 0.14221346 0.08465345 -0.066293925
0.123982795 -0.059679314 -0.06394906 -0.055309847 0.052303407 0.19121827 -0.15152273 -0.10984891
00000000: aeb9 20bd 58ca b13d 34b9 64be 7ce8 193d
00000010: d538 f9bd 8987 173d 1f0d 213e fd7a fe3d
00000020: 645f dbbd 17eb 833d b587 903d 0e3c 25bc
00000030: fb80 013e 98a6 eebd 9e67 04be e379 ffbd
00000040: dcd3 9cbc f33f d73d 7677 14be 0a34 993c
00000050: 0feb 7abd 4544 5e3e 0b87 e33c 1222 ed3d
00000060: e2d4 24bd d2ce 9b3d a033 8ebc 0313 3e3e
00000070: c974 b73c 7d79 fdbd 38d9 653d 8d70 343c
00000080: b721 063e 5601 ac3d 264d ea3c a823 903d
00000090: f731 d33d f658 8dbd b812 e5bc 8bea 95bd
000000a0: 71df 973d fa68 9abd 641f e43d 8c66 a6bd
000000b0: 5ddf 9fbd 93dc b7bc 7103 313d 0833 60bd
000000c0: 6dfb cebd 440e 0ebe bf59 a13d e4de c23c
000000d0: f30d 103e 68a0 113e ca5e ad3d 1cc5 87bd
000000e0: b1ea fd3d 4c72 74bd baf7 82bd 948c 62bd
000000f0: 193c 563d b9ce 433e c628 1bbe 77f8 e0bd

msg_layers.0.norm.weight f4 [64]
1.0104761 1.1115142 1.0671003 0.8635338 0.93562484 1.0568618 1.124424 0.8817281
0.8303723 1.0879169 0.99285537 0.9620353 1.0118878 1.1142827 1.0282025 0.9175759
0.97940755 0.95123106 1.1394274 0.97400945 1.0157288 1.0319115 1.1903412 1.0578512
0.966179 0.9571298 0.9157377 1.1897196 1.0529205 0.9617942 0.9129353 0.9033057
0.96723104 1.1071342 0.9296589 0.95504904 0.94347453 1.0600948 0.93423295 0.9565736
1.1096864 0.92000735 1.1090109 0.9995185 0.98600596 0.97145087 1.0131874 0.99073726
1.0322118 0.92550445 1.0744936 1.1784158 0.9625417 1.0247442 1.1580322 0.9514634
1.0777302 0.9081262 1.020787 1.0260391 0.9871672 0.9162117 1.0318884 1.131761
00000000: 4857 813f 1946 8e3f be96 883f 8d10 5d3f
00000010: 1c85 6f3f 3f47 873f 20ed 8f3f efb8 613f
00000020: 4793 543f dc40 8b3f c52b 7e3f f247 763f
00000030: 8a85 813f d1a0 8e3f 249c 833f 41e6 6a3f
00000040: 74ba 7a3f e183 733f c2d8 913f af58 793f
00000050: 6703 823f ad15 843f 1a5d 983f ab67 873f
00000060: 8257 773f 7506 753f c96d 6a3f bb48 983f
00000070: 19c6 863f 2538 763f 21b6 693f 0b3f 673f
00000080: 749c 773f 93b6 8d3f 20fe 6d3f 187e 743f
00000090: 8c87 713f 30b1 873f e429 6f3f 02e2 743f
000000a0: 340a 8e3f 9a85 6b3f 12f4 8d3f 72e0 7f3f
000000b0: e36a 7c3f 01b1 783f 20b0 813f f5a0 7d3f
000000c0: 841f 843f dced 6c3f 0289 893f 54d6 963f
000000d0: 2269 763f d12a 833f 663a 943f 1b93 733f
000000e0: 10f3 893f f57a 683f 26a9 823f 4055 833f
000000f0: fdb6 7c3f da8c 6a3f eb14 843f 8bdd 903f

msg_layers.0.norm.bias f4 [64]
0.120115116 -0.040190216 -0.059682436 0.02047737 0.058218677 0.009749177 -0.096714996 0.058788106
-0.04443215 -0.00022171982 -0.01744569 0.08275518 0.12628986 -0.030175414 0.12932521 0.108943716
-0.09165162 0.05849709 -0.09796623 0.11197645 -0.03705605 0.03132843 -0.014173032 0.1125397
0.11323558 -0.07478926 0.071130015 -0.027351223 -0.018366164 0.06288271 0.069350176 0.014252226
-0.045390517 -0.050426055 0.09524341 0.05592309 -0.00066530023 -0.122015834 0.10868689 0.12517549
0.07150872 0.11399582 0.024549793 -0.102121726 -0.11251163 0.10568639 -0.075958274 0.07716174
-0.0046854247 -0.04997604 -0.07263012 0.007276508 0.1724236 0.10054775 0.031349234 -0.11607091
-0.0024443537 0.12582757 0.06377747 0.027470404 -0.03447875 0.20891376 0.078845724 0.060853753
00000000: eafe f53d 7f9e 24bd 9275 74bd 28c0 a73c
00000010: b576 6e3d 03bb 1f3c 8312 c6bd cccb 703d
00000020: 7cfe 35bd 767d 68b9 44ea 8ebc 8c7b a93d
00000030: 2152 013e 6e32 f7bc d46d 043e e21d df3d
00000040: d8b3 bbbd a59a 6f3d 85a2 c8bd e953 e53d
00000050: 16c8 17bd 3d52 003d 0136 68bc 377b e63d
00000060: 0ee8 e73d 1d2b 99bd 9dac 913d ac0f e0bc
00000070: a374 96bc a6c8 803d 7707 8e3d 2b82 693c
00000080: 68eb 39bd 8d8b 4ebd fa0e c33d 9c0f 653d
00000090: 8b67 2eba 70e3 f9bd 3b97 de3d 012e 003e
000000a0: 2a73 923d a476 e93d a61c c93c 3225 d1bd
000000b0: 7f6c e6bd 1b72 d83d 0390 9bbd f906 9e3d
000000c0: 3188 99bb adb3 4cbd 1abf 94bd c66f ee3b
000000d0: d08f 303e fbeb cd3d 0e68 003d 96b6 edbd
000000e0: 7331 20bb f1d8 003e c39d 823d 9d09 e13c
000000f0: 9739 0dbd 7ded 553e de79 a13d c941 793d

msg_layers.1.W_self.weight f4 [64, 64]
-0.08643523 -0.16842099 -0.09944041 -0.06711856 -0.025873719 -0.20459461 0.17419727 0.14310788
-0.09190231 0.17311397 -0.09954434 -0.005954154 -0.0073265117 -0.044268027 -0.036737785 -0.14631958
-0.018629245 -0.022924261 0.017182842 -0.08066177 0.01857232 0.058601864 -0.023636853 -0.059960727
-0.08014551 -0.06863256 -0.023871627 0.027128723 -0.1937302 -0.121546455 -0.069654755 -0.18567821
0.012522259 0.0943655 -0.0510757 0.09457602 0.08115693 0.06400334 -0.11720268 0.1667281
-0.054031476 -0.006210411 0.16609761 0.08175499 0.035923023 -0.040276747 -0.015930966 -0.004218881
-0.0988235 -0.14319634 0.08162995 -0.043813307 -0.014840069 0.06001809 0.17299472 0.094057165
-0.18530932 0.015883958 0.038162448 0.02933248 0.02602865 -0.18311636 -0.08257663 -0.07969511
-0.00016198416 -0.036588445 -0.021809801 -0.07383959 0.04109605 0.02525745 0.00047539096 0.15423095
0.020061387 0.08050442 0.031279027 -0.03743477 0.114011414 0.019388983 -0.10848598 0.014867302
-0.06250129 -0.054461796 -0.14767744 -0.035804786 0.06990559 -0.0027131792 -0.0011266868 0.07138066
0.10661214 0.0072044265 0.05845175 -0.112214275 -0.06568679 0.055142835 0.123921074 0.013862841
0.11076005 0.11270977 0.03381084 0.14354381 0.021445913 0.0763884 0.12271561 -0.018730493
-0.10651536 -0.0960631 -0.022570604 0.057456147 -0.010134433 -0.02158051 0.004036345 0.081459895
-0.12878141 -0.025197327 0.13582993 -0.059801906 0.060285807 -0.024633119 -0.009997308 -0.10920197
-0.10951954 -0.025873406 0.092827626 -0.074452735 -0.01931782 -0.12161258 -0.18279909 -0.010129562
0.026068088 0.012038092 0.044867977 0.05698267 -0.12348266 0.07652549 -0.084372215 0.05021599
0.16730161 0.026448164 -0.090706065 0.04376867 -0.12389122 0.05589894 -0.07827343 -0.08610481
0.10664857 0.021897845 0.04670778 0.07013369 0.0251939 0.0674724 -0.13093917 -0.16170155
0.0225907 -0.059819944 0.05127195 0.098849975 0.095539115 0.018842174 0.12553087 -0.012217099
0.01810488 0.037779365 0.065799676 0.02478885 -0.15181121 0.1201556 0.084811516 0.04708499
-0.041261114 0.08109149 -0.1012482 -0.04908031 -0.1632496 0.07990249 0.14743997 -0.07520341
0.1758375 -0.11240313 -0.06674245 -0.094047934 0.004305888 -0.14931925 -0.16715255 -0.035693217
0.033387937 0.1661292 0.04225413 0.08043869 -0.031623546 -0.040590823 -0.047068454 0.016384603
0.0456315 -0.1106801 0.13085583 -0.09716767 -0.10019672 -0.19070847 0.18351611 -0.13472989
-0.030074153 0.021770947 -0.035260785 0.027311971 -0.08843852 -0.0020747082 0.10348112 0.11517755
-0.20609295 0.07390915 -0.08474803 0.008031918 0.0059234565 -0.011217997 -0.007667921 -0.25014368
-0.013306423 0.08669775 -0.16232768 0.08659551 0.12786691 -0.05772876 -0.14712277 -0.06589823
-0.05543778 0.19331408 -0.1961841 -0.21937896 -0.007229438 0.025713043 0.02823016 0.13704765
-0.0925367 0.052751638 0.19612819 0.09511681 0.10717919 0.2085923 -0.07077287 -0.15242799
0.05706668 -0.06152201 0.028816164 0.06830277 -0.18609165 0.15694602 0.108080134 -0.1884793
0.03670391 -0.1026091 -0.051193107 -0.15745829 0.14962442 -0.056914665 0.19741246 -0.12530178
00000000: f404 b1bd 8d76 2cbe 6aa7 cbbd 7575 89bd
00000010: 1ff5 d3bc 4081 51be c560 323e df8a 123e
00000020: 4737 bcbd ca44 313e e7dd cbbd 101b c3bb
00000030: 3c13 f0bb 6452 35bd 5c7a 16bd cdd4 15be
00000040: 5c9c 98bc a9cb bbbc 08c3 8c3c 0032 a5bd
00000050: fa24 983c 8208 703d 13a2 c1bc 6199 75bd
00000060: 5423 a4bd 3a8f 8cbd 6e8e c3bc 0e3d de3c
00000070: 3661 46be 59ed f8bd 27a7 8ebd 6e22 3ebe
00000080: 292a 4d3c b342 c13d c134 51bd 13b1 c13d
00000090: 9b35 a63d 2f14 833d f507 f0bd c5ba 2a3e
000000a0: 1c50 5dbd b480 cbbb 7e15 2a3e 296f a73d
000000b0: 0524 133d 3bf9 24bd a881 82bc 8a3e 8abb
000000c0: fa63 cabd 10a2 12be 9a2d a73d 9575 33bd
000000d0: c323 73bc 87d5 753d 8725 313e 0ba1 c03d
000000e0: bac1 3dbe 131f 823c 3a50 1c3d ab4a f03c
000000f0: 093a d53c db82 3bbe f01d a9bd 3137 a3bd
00000100: 4bda 29b9 c4dd 15bd 78aa b2bc 3639 97bd
00000110: 5554 283d b6e8 ce3c e53d f939 b8ee 1d3e
00000120: c757 a43c 80df a43d 701e 003d 3455 19bd
00000130: d17e e93d a5d5 9e3c e62d debd fc95 733c
00000140: ad00 80bd 5513 5fbd c138 17be 0aa8 12bd
00000150: a92a 8f3d 98cf 31bb 56ad 93ba 0630 923d
00000160: 7757 da3d 1c13 ec3b 1a6b 6f3d 99d0 e5bd
00000170: cc86 86bd 74dd 613d 55ca fd3d f820 633c
00000180: 2ad6 e23d 61d4 e63d 3c7d 0a3d 26fd 123e
00000190: 57af af3c 8571 9c3d 5252 fb3d b170 99bc
000001a0: ba24 dabd bbbc c4bd fde5 b8bc 2357 6b3d
000001b0: e50a 26bc 9cc9 b0bc 5143 843b 72d4 a63d
000001c0: 46df 03be a06a cebc 0017 0b3e d8f2 74bd
000001d0: 40ee 763d 65cb c9bc c0cb 23bc 48a5 dfbd
000001e0: c84b e0bd 77f4 d3bc 691c be3d ad7a 98bd
000001f0: 6840 9ebc 0410 f9bd af2f 3bbe 76f6 25bc
00000200: be8c d53c 6b3b 453c 7cc7 373d a966 693d
00000210: 7ae4 fcbd 65b9 9c3d 57cb acbd 48af 4d3d
00000220: 1d51 2b3e d2a9 d83c 1ac4 b9bd c746 333d
00000230: aeba fdbd 49f6 643d d24d a0bd b857 b0bd
00000240: 916a da3d 1c63 b33c a850 3f3d 41a2 8f3d
00000250: 7063 ce3c f82e 8a3d eb14 06be 1795 25be
00000260: 2210 b93c c205 75bd 8902 523d db71 ca3d
00000270: 03aa c33d e75a 9a3c 2a8b 003e 3a2a 48bc
00000280: af50 943c 89be 1a3d fbc1 863d fd11 cb3c
00000290: 6674 1bbe 2414 f63d a9b1 ad3d 31dc 403d
000002a0: 6a01 29bd 4c13 a63d 375b cfbd 6f08 49bd
000002b0: e72a 27be eba3 a33d 81fa 163e 3f04 9abd
000002c0: bf0e 343e 9d33 e6bd 44b0 88bd 349c c0bd
000002d0: 6818 8d3b 25e7 18be 0a2a 2bbe 0d33 12bd
000002e0: cac1 083d c61d 2a3e ab12 2d3d 0abd a43d
000002f0: b187 01bd 9042 26bd daca 40bd 0139 863c
00000300: 19e8 3a3d 40ac e2bd 12ff 053e d8ff c6bd
00000310: f033 cdbd 1549 43be a6eb 3b3e a2f6 09be
00000320: 125e f6bc fc58 b23c 9d6d 10bd 5bbd df3c
00000330: 411f b5bd d4f7 07bb e9ed d33d 35e2 eb3d
00000340: 080a 53be ae5d 973d 6090 adbd 4e98 033c
00000350: 8e19 c23b b1cb 37bc 2f43 fbbb d512 80be
00000360: 2f03 5abc 978e b13d 3a39 26be fd58 b13d
00000370: 8bef 023e fe74 6cbd 5aa7 16be a7f5 86bd
00000380: ba12 63bd 20f4 453e 7ce4 48be e1a4 60be
00000390: ece4 ecbb 29a4 d23c f042 e73c 3856 0c3e
000003a0: e283 bdbd 1a12 583d d4d5 483e 9acc c23d
000003b0: c380 db3d 3899 553e 5ef1 90bd 1516 1cbe
000003c0: c0be 693d 81fe 7bbd e00f ec3c 53e2 8b3d
000003d0: cf8e 3ebe 75b6 203e 1e59 dd3d b800 41be
000003e0: d756 163d b824 d2bd ddaf 51bd bf3c 21be
000003f0: 2537 193e 5a1f 69bd 7e26 4a3e 1c4f 00be

msg_layers.1.W_self.bias f4 [64]
4.141364e-05 -0.08813199 -0.009288114 0.18284981 -0.06847846 -0.028151918 -0.04199267 -0.058882814
-0.046705265 0.14313108 -0.1451236 0.1429949 0.03072099 0.03730954 -0.023854144 0.005657494
-0.11422596 -0.097839884 -0.057651404 0.16136956 -0.16060336 -0.14761557 0.0724305 -0.0005467616
-0.0009814675 -0.090113886 -0.06296842 0.0206687 -0.096110515 -0.1208581 -0.10548493 -0.18656237
-0.0032460121 -0.043517213 -0.08502128 0.15963058 -0.07955799 -0.052277833 -0.16538022 -0.011628857
0.03590768 0.09367615 0.018975673 0.015901824 -0.057239633 0.015430355 0.015354047 0.08148232
0.15731171 -0.0069909305 0.087283015 0.1880498 0.21907105 -0.15811698 0.062102783 -0.07998078
0.025804684 -0.03718798 -0.12140628 0.08830229 -0.118850864 0.13128842 0.105965205 -0.10511989
00000000: 8fb3 2d38 8b7e b4bd 2c2d 18bc fb3c 3b3e
00000010: 6f3e 8cbd da9e e6bc 8200 2cbd 1b2f 71bd
00000020: 054e 3fbd f490 123e 489b 14be 416d 123e
00000030: 96aa fb3c e3d1 183d c469 c3bc 8062 b93b
00000040: 4def e9bd 4760 c8bd e123 6cbd 103e 253e
00000050: 3575 24be 8928 17be 7156 943d 8d54 0fba
00000060: 96a4 80ba a18d b8bd 96f5 80bd 6851 a93c
00000070: 97d5 c4bd 7484 f7bd 7c08 d8bd 350a 3fbe
00000080: 0cbb 54bb 1b3f 32bd a31f aebd 3376 233e
00000090: 4def a2bd 4821 56bd 6f59 29be f686 3ebc
000000a0: ee13 133d 48d9 bf3d df72 9b3c 8b44 823c
000000b0: 1b74 6abd 9acf 7c3c 8a8f 7b3c 34e0 a63d
000000c0: 5216 213e 2d14 e5bb 70c1 b23d 2090 403e
000000d0: 2954 603e 6be9 21be 7d5f 7e3d f7cc a3bd
000000e0: 5864 d33c 6c52 18bd dba3 f8bd d5d7 b43d
000000f0: 1568 f3bd 7970 063e 4904 d93d 1949 d7bd

msg_layers.1.W_msg.weight f4 [64, 64]
0.069245376 -0.08442392 -0.28942218 -0.052565098 -0.09283266 -0.21060994 0.12461572 0.008320879
-0.1648996 0.054226976 0.13193348 0.07599306 0.041441653 -0.036059383 0.13104232 0.094360985
-0.004570443 0.09584212 -0.19637734 0.017968502 -0.17734502 0.030640317 0.13182242 -0.010468629
0.08787771 -0.03703206 0.06264332 0.109014794 0.042481977 -0.015714696 -0.020582652 0.023739392
-0.022055814 -0.13980968 0.002077455 0.17640242 -0.06576452 -0.061719492 -0.044481777 0.08701474
-0.011395414 0.0096883 -0.020220224 -0.1476506 -0.21579707 0.07583446 0.010383336 0.09871798
-0.061576054 0.015239233 0.07995827 -0.0858352 0.029292997 -0.067905046 -0.023075191 -0.08400962
0.017245907 0.030341547 0.14838672 0.020244854 0.12744027 -0.068261474 -0.09125506 0.05361002
0.10492046 -0.09925644 0.09099791 0.040515188 -0.021044375 -0.045274798 -0.1347976 -0.08756998
0.0319663 -0.14997447 -0.0489206 -0.07258539 0.10961082 0.038627 0.08008188 0.09226933
0.068727925 -0.07089248 -0.0051890314 0.018493904 -0.08209059 -0.14677401 -0.19829148 0.054866016
0.024816561 -0.0138714 0.119687036 -0.2277188 -0.12468146 -0.047408804 0.08916119 -0.052238394
0.002410241 -0.11063632 -0.060369566 0.027763544 0.07160289 -0.14903192 -0.03939526 -0.073217966
0.1888534 0.09575856 0.11522537 0.032815866 -0.0077451835 -0.11470875 0.037796177 -0.077479504
0.029051842 0.002956452 0.06875905 -0.026360413 0.019892573 0.00992599 -0.0010016887 0.057962514
0.03816637 -0.00970751 0.109689325 0.02245375 0.059957888 -0.08080698 -0.13651447 -0.021379318
0.096243605 0.04050741 -0.0925408 -0.0010521461 0.0726435 0.12319847 0.08654377 -0.15486954
0.020081962 -0.004674651 0.09501801 0.019304559 -0.08287517 0.038979433 -0.045357775 0.096607454
0.0070861503 0.10652346 -0.062350493 -0.050025597 0.10574732 -0.028772607 0.14037442 -0.089126185
0.1239712 -0.0063180127 0.010159887 0.072189294 0.18673128 0.013209628 0.20491762 0.0030546496
-0.11463288 0.0876073 0.009614755 -0.07831579 0.028110031 -0.03482073 0.15909582 0.09275431
0.12169368 -0.0017672337 -0.059151847 0.047071744 -0.0055936757 0.030199153 0.027191594 0.034907725
0.09833478 -0.032617226 -0.06865332 0.12572782 0.02841522 -0.017511567 0.14800134 -0.20402502
0.18988638 0.0014962986 0.14517091 0.08861103 0.0016007881 0.05101591 0.05003075 0.15638812
0.09368599 0.03513681 -0.015597546 0.042118948 0.17453212 0.23965827 -0.14312431 -0.13285147
-0.08333134 -0.117528595 0.15638815 0.1992995 -0.05809411 0.0014980978 -0.08690529 0.012746562
0.056025717 -0.07165009 -0.022388307 0.12495667 0.010390356 -0.08943461 -0.10989818 0.108959384
-0.03061047 0.052100867 0.18028252 -0.1419535 0.097370826 0.1818263 0.071291074 -0.0722453
-0.030542886 -0.04704235 0.10188843 -0.09058517 -0.13009645 -0.020437632 0.118953 0.08399369
0.13351975 -0.13704817 -0.16487148 -0.11843641 -0.07731211 0.08794089 -0.017592646 0.10617985
-0.035002403 -0.015139652 -0.1998966 -0.04629433 0.15824886 0.042816807 -0.24348661 0.07748174
-0.029477002 0.11719939 0.085503586 0.24086925 0.14353268 0.067820705 -0.21016216 0.29699704
00000000: 85d0 8d3d 73e6 acbd 252f 94be 804e 57bd
00000010: 0d1f bebd 22aa 57be 8736 ff3d 4c54 083c
00000020: 71db 28be 1b1d 5e3d 9219 073e 40a2 9b3d
00000030: b9be 293d 01b3 13bd f52f 063e 5540 c13d
00000040: a8c3 95bb e048 c43d 2417 49be ae32 933c
00000050: ef99 35be 6701 fb3c 75fc 063e 9d84 2bbc
00000060: 3bf9 b33d eeae 17bd 244b 803d 2643 df3d
00000070: 9501 2e3d 1bbc 80bc f39c a8bc 1d79 c23c
00000080: 65ae b4bc 452a 0fbe e925 083b d6a2 343e
00000090: 8caf 86bd 94cd 7cbd 8632 36bd c934 b23d
000000a0: d5b3 3abc adbb 1e3c e2a4 a5bc b831 17be
000000b0: e8f9 5cbe 194f 9b3d de1e 2a3c a72c ca3d
000000c0: 2c37 7cbd faad 793c 29c1 a33d 5eca afbd
000000d0: def7 ef3c cd11 8bbd 2f08 bdbc 3c0d acbd
000000e0: 4a47 8d3c d68e f83c b0f2 173e 89d8 a53c
000000f0: b47f 023e accc 8bbd efe3 babd 2e96 5b3d
00000100: 8ae0 d63d f646 cbbd 1d5d ba3d 41f3 253d
00000110: 4165 acbc 1172 39bd 6208 0abe e457 b3bd
00000120: 18ef 023d e892 19be f860 48bd a6a7 94bd
00000130: a37b e03d 5837 1e3d f801 a43d b4f7 bc3d
00000140: 3ac1 8c3d 1430 91bd c008 aabb 8780 973c
00000150: 1c1f a8bd ed4b 16be ec0c 4bbe 30bb 603d
00000160: 1a4c cb3c de44 63bc 7a1e f53d 1e2f 69be
00000170: fe58 ffbd bc2f 42bd 249a b63d edf7 55bd
00000180: 22f5 1d3b 4c95 e2bd 1446 77bd 5f70 e33c
00000190: 89a4 923d d39b 18be ed5c 21bd 4df3 95bd
000001a0: c962 413e 101d c43d 47fb eb3d ee69 063d
000001b0: 4fcb fdbb 6cec eabd 2ad0 1a3d 93ad 9ebd
000001c0: 21fe ed3c 09c1 413b 8bd1 8c3d cbf1 d7bc
000001d0: c0f5 a23c 9fa0 223c 184b 83ba 1a6a 6d3d
000001e0: 5754 1c3d 3f0c 1fbc cca4 e03d edf0 b73c
000001f0: 6796 753d 217e a5bd 73ca 0bbe ae23 afbc
00000200: 5e1b c53d 19eb 253d 0886 bdbd 2ae8 89ba
00000210: 1ec6 943d 7b4f fc3d dc3d b13d 1f96 1ebe
00000220: ed82 a43c d12d 99bb cd98 c23d 9824 9e3c
00000230: 75ba a9bd e6a8 1f3d 13c9 39bd 21da c53d
00000240: f032 e83b f928 da3d 3b63 7fbd a4e7 4cbd
00000250: 0d92 d83d 88b4 ebbc 50be 0f3e ca87 b6bd
00000260: 9de4 fd3d 5507 cfbb a875 263c fbd7 933d
00000270: 7c36 3f3e 326d 583c edd5 513e 8430 483b
00000280: a5c4 eabd 756b b33d 3587 1d3c 0764 a0bd
00000290: 0247 e63c 2fa0 0ebd 04ea 223e f9f5 bd3d
000002a0: 893a f93d 86a2 e7ba 3549 72bd 4dce 403d
000002b0: 274b b7bb 3764 f73c e8c0 de3c 67fb 0e3d
000002c0: bf63 c93d a499 05bd 1d9a 8cbd cbbe 003e
000002d0: 09c7 e83c 6b74 8fbc aa8d 173e efeb 50be
000002e0: 9371 423e 731f c43a afa7 143e b379 b53d
000002f0: 89d1 d13a 0ff6 503d 0bed 4c3d 3524 203e
00000300: 71de bf3d 9eeb 0f3d d98c 7fbc eb84 2c3d
00000310: 8cb8 323e fa68 753e 2e8f 12be 370a 08be
00000320: 9fa9 aabd d5b2 f0bd 3724 203e 2b15 4c3e
00000330: 17f4 6dbd d25b c43a 67fb b1bd f5d6 503c
00000340: 397b 653d 48bd 92bd af67 b7bc 48e9 ff3d
00000350: 503c 2a3c 7e29 b7bd 4c12 e1bd 1926 df3d
00000360: cfc2 fabc b867 553d fb9b 383e 425c 11be
00000370: 5b6a c73d ac30 3a3e 0e01 923d 58f5 93bd
00000380: 1335 fabc 7baf 40bd e2aa d03d b884 b9bd
00000390: 0138 05be d26c a7bc a19d f33d e204 ac3d
000003a0: 67b9 083e 5b56 0cbe 12d4 28be ca8e f2bd
000003b0: d055 9ebd 5a1a b43d 741e 90bc d274 d93d
000003c0: ae5e 0fbd 4e0c 78bc b2b1 4cbe 209f 3dbd
000003d0: fd0b 223e ad60 2f3d 8e54 79be bfae 9e3d
000003e0: c179 f1bc 3c06 f03d 811c af3d 6ea6 763e
000003f0: 3bfa 123e 95e5 8a3d c034 57be ff0f 983e
