QuantLaxmi_Research/dtrn/results/checkpoints/fold2_NIFTY/dtrn_stage2.pt (torch, 232927 bytes, 37 tensors)

embed.embed.0.weight f4 [32, 2]
0	0x3e2a8af5	0.1665457
1	0xbf3d2f18	-0.73899984
2	0x3e067bc9	0.13133158
3	0xbebb2714	-0.36553252
4	0x3f253f35	0.6454957
5	0xbd912431	-0.07086981
6	0x3e8e929d	0.27846232
7	0xbf4dff70	-0.8046789
8	0x3e2afca0	0.16697931
9	0x3f1aaef2	0.60423195
10	0xbf0bdbb3	-0.5463211
11	0xbeceeff2	-0.4041744
12	0x3f4d883a	0.8028599
13	0xbeac1737	-0.33611462
14	0xbf2fe0f2	-0.68702614
15	0x3f2646eb	0.6495196
16	0x3e6fe800	0.23428345
17	0x3e8c86b9	0.27446535
18	0xbe39a7a6	-0.18130359
19	0x3ead2c6c	0.33822954
20	0x3eee1c5b	0.46506009
21	0xbe8c3cdb	-0.2739018
22	0xbb33d3f0	-0.0027439557
23	0xbf2dfac1	-0.67960745
24	0xbf0f3c2f	-0.5595121
25	0xbe8135c9	-0.25236347
26	0x3e3132f1	0.17304589
27	0xbd86bccb	-0.06578978
28	0xbf08f916	-0.53505075
29	0xbef3588e	-0.475285
30	0xbf1e28d4	-0.6178105
31	0x3e7b731f	0.24555634
32	0x3d120d14	0.035657004
33	0x3eed1cb6	0.46310967
34	0xbf2b46f8	-0.66905165
35	0xbecd05d7	-0.40043518
36	0xbef3979d	-0.4757661
37	0xbe66b1b1	-0.22528721
38	0xbe60c77b	-0.21951096
39	0x3f1d8ebe	0.6154593
40	0xbf0a8b2d	-0.54118615
41	0xbec89372	-0.39174992
42	0xbea3dd2d	-0.3200468
43	0x3b3960b0	0.002828639
44	0x3f311e33	0.69186705
45	0xbf348e9a	-0.7053009
46	0xbe237567	-0.15962754
47	0xbe94db66	-0.29073638
48	0xbf2b0b0b	-0.66813725
49	0xbe47919a	-0.19489136
50	0xbe0a0c04	-0.13481146
51	0x3ebf3fe8	0.37353444
52	0x3ddbc6f9	0.107313104
53	0xbe0474f1	-0.12935235
54	0x3d71a01d	0.058990587
55	0xbd7b7d9b	-0.061399084
56	0x3e7ffbd2	0.24998406
57	0xbebfa75a	-0.37432367
58	0x3e06601c	0.131226
59	0xbea764f4	-0.3269421
60	0xbec98d60	-0.39365673
61	0xbec5fb95	-0.38668504
62	0xbeedf204	-0.46473706
63	0xbed80f0a	-0.42198974

embed.embed.0.bias f4 [32]
0	0x3ef1ded2	0.4724031
1	0xbe9fab6e	-0.31185478
2	0xbd779346	-0.060443185
3	0x3f040a94	0.5157864
4	0x3e912804	0.28350842
5	0xbf2bdf9c	-0.67138076
6	0xbe94487d	-0.28961554
7	0xbeabc39b	-0.33547673
8	0xbf072c65	-0.52802116
9	0xbe97c6f3	-0.29643974
10	0x3e0bab7d	0.13639636
11	0x3f26d907	0.6517491
12	0x3ef133d8	0.47109866
13	0xbdd88dcc	-0.105739206
14	0x3cfd3537	0.030909164
15	0xbf11ad1f	-0.56904787
16	0xbee3b2bb	-0.44472298
17	0x3e902a83	0.28157434
18	0xbeb76aab	-0.3582357
19	0xbf06a55c	-0.5259607
20	0xbdcde988	-0.10054308
21	0x3d65b8af	0.05608433
22	0x3d9333f0	0.07187641
23	0x3eee9b1b	0.4660271
24	0xbf059286	-0.521767
25	0xbe353b38	-0.17698371
26	0xbe70fe1d	-0.23534437
27	0x3d361706	0.04445555
28	0x3dfa2819	0.12214679
29	0x3e3a47d1	0.18191458
30	0x3f1b893e	0.6075629
31	0xbec4fe20	-0.38475132

embed.embed.2.weight f4 [32, 32]
0	0x3e387df5	0.18016799
1	0x3dac4d31	0.084131606
2	0xbc906c8c	-0.017629884
3	0xbe2c3baa	-0.16819635
4	0x3e09bc75	0.13450797
5	0x3e0a4f3a	0.13506785
6	0xbe00991f	-0.12558411
7	0x3caef499	0.021356868
8	0x3dd2c817	0.1029207
9	0xbb1bea77	-0.0023790875
10	0xbca0716c	-0.019585334
11	0x3d95723d	0.0729718
12	0xbe13df70	-0.14440703
13	0xbd0769a8	-0.033059746
14	0xbd9ec8a5	-0.07753114
15	0xbd5f50ec	-0.054520532
16	0x3e1a0633	0.15041427
17	0xbe0391ca	-0.12848583
18	0xbd978041	-0.07397509
19	0x3e0b6923	0.13614325
20	0x3d017551	0.031606022
21	0xbe2a683e	-0.16641328
22	0x3ce018ad	0.027355516
23	0x3e01eee3	0.12688784
24	0x3da79728	0.08183128
25	0xbdadcf4a	-0.08486803
26	0x3d003b7c	0.03130673
27	0x3dc78f55	0.09744135
28	0x3c4bccb1	0.012438939
29	0xbe11f109	-0.14252104
30	0xbe3d3be2	-0.18479875
31	0x3e10da20	0.14145708
32	0xbe09edf1	-0.13469674
33	0xbdc87c49	-0.097893305
34	0x3e084c2f	0.13310312
35	0x3d47dfda	0.048797466
36	0x3df7e1dd	0.12103627
37	0xbd45ae2e	-0.048261814
38	0xbd7256f0	-0.05916494
39	0x3d1ab1e1	0.037767295
40	0xbe37065c	-0.1787352
41	0x3df480e2	0.11938645
42	0xbc14f7ef	-0.009092315
43	0xbbda5fd8	-0.0066642575
44	0xbd67b568	-0.056569487
45	0x3dd24571	0.10267151
46	0xbd7ca008	-0.061676055
47	0x3c52282e	0.012826962
48	0x3d05d0c1	0.032669786
49	0xbdd4d25e	-0.10391687
50	0xbe5a6ae9	-0.21329845
51	0xbe3a9170	-0.18219543
52	0xbd6dc834	-0.058052257
53	0xbe1c1bee	-0.1524503
54	0x3e48f6cb	0.19625394
55	0x3d759924	0.0599605
56	0xbd7160c0	-0.05893016
57	0xbdfa4060	-0.1221931
58	0xbe673837	-0.22580038
59	0x3d60e5ae	0.05490654
60	0x3db5f290	0.08884156
61	0x3da20fa8	0.079131424
62	0x3e102a90	0.14078736
63	0x3d7def35	0.061995704
64	0x3c7d94e5	0.015477394
65	0x3dddd95f	0.10832476
66	0xbdb76245	-0.0895429
67	0x3e3c5753	0.18392687
68	0xbd90828f	-0.07056152
69	0x3e1d032d	0.15333243
70	0x3e03f04a	0.12884632
71	0xbd0cbbe7	-0.034358885
72	0x3d999e4b	0.07500895
73	0xbd4fe5ca	-0.050756253
74	0x3e05925f	0.13044117
75	0x3e689556	0.22713217
76	0x3d7f42ee	0.06231969
77	0xbe0ab008	-0.13543713
78	0xbcfc3f36	-0.03079186
79	0xbbb85b39	-0.005626109
80	0xbc6748b5	-0.014116456
81	0x3d369dd6	0.044584118
82	0xbd35ddb7	-0.044400897
83	0xbd9083a0	-0.070563555
84	0x3e3e15ff	0.18563078
85	0x3e1927fb	0.14956658
86	0x3c451392	0.012028592
87	0xbd4be008	-0.0497742
88	0xbdbf4469	-0.0933922
89	0x3df73f40	0.12072611
90	0xbe15933f	-0.14606951
91	0xbe1d34a6	-0.15352115
92	0x3c9f9539	0.019480335
93	0x3c2a2d25	0.01038674
94	0x3d1bc31e	0.038027875
95	0x3c16dabc	0.009207424
96	0xbeaa3bf3	-0.33248863
97	0x3d916e64	0.071011335
98	0x3d91c936	0.07118456
99	0xbe951d3c	-0.29123867
100	0x3e162d49	0.14665712
101	0x3cd8ea70	0.026478976
102	0xbe634e88	-0.22197926
103	0x3c3e0d86	0.011599904
104	0xbca935bf	-0.020655511
105	0x3dcb84c6	0.09937434
106	0xbe89ebff	-0.26937863
107	0xbe5fd7ff	-0.2185974
108	0xbe50adea	-0.20378843
109	0xbcdcdf03	-0.026961809
110	0xbe286627	-0.16445218
111	0xbdd2417c	-0.102663964
112	0x3dad6e31	0.08468283
113	0xbeca9112	-0.39563805
114	0xbe0cdfd2	-0.13757256
115	0x3e818981	0.2530022
116	0x3d33ea4d	0.04392462
117	0xbdc09dee	-0.09405123
118	0xbe73a57f	-0.237936
119	0xbc8a1bbf	-0.016858933
120	0xbcc1a48c	-0.023638032
121	0x3df3a4d1	0.118966706
122	0x3da824a1	0.082101114
123	0x3df7869c	0.120862216
124	0xbe646aa1	-0.223063
125	0xbe1679b0	-0.14694858
126	0xbe1637bf	-0.14669703
127	0x3cedd58a	0.029032487
128	0x3ec26bb9	0.3797281
129	0x3e164061	0.14672996
130	0x3d1419e3	0.0361575
131	0x3e6a982b	0.2290961
132	0xbdf30852	-0.11866821
133	0xbd5d9ee2	-0.0541066
134	0x3e80dc93	0.25168285
135	0x3dba8783	0.09107878
136	0x3dc02d82	0.0938368
137	0xbe937a38	-0.28804183
138	0x3e863306	0.26210803
139	0x3e6f8897	0.23391949
140	0x3da91ef0	0.08257854
141	0xbd6bef46	-0.057601236
142	0x3dc72bb9	0.09725136
143	0x3bdffd42	0.0068356106
144	0x3df06520	0.11738038
145	0x3ec1402a	0.37744266
146	0x3cd761a9	0.026291685
147	0xbe36e9c1	-0.17862608
148	0x3da15cca	0.07879026
149	0xbdda1965	-0.10649375
150	0x3e786f17	0.24261127
151	0x3c270146	0.010193175
152	0x3b942137	0.004520561
153	0xbe28e3d5	-0.16493161
154	0x3dfda868	0.123856366
155	0x3e19f968	0.15036547
156	0x3e638918	0.22220266
157	0xbcf36371	-0.029710503
158	0x3e14c825	0.14529474
159	0x3dffae54	0.12484422
160	0xbe24149e	-0.1602349
161	0x3e6abe06	0.2292405
162	0x3da42a04	0.08015826
163	0xbe186003	-0.14880376
164	0xbd6e88df	-0.058236
165	0xbd046920	-0.032326818
166	0x3d94d6f3	0.07267561
167	0xbda14749	-0.07874925
168	0x3cd0cbb4	0.025487758
169	0x3cc016cb	0.023448369
170	0xbdd1037e	-0.10205744
171	0xbd352ff9	-0.044235203
172	0xbc42cd2a	-0.011889735
173	0x3df8dfc9	0.12152059
174	0xbbfac725	-0.0076531344
175	0xbd02457d	-0.03180455
176	0xbdbfb753	-0.09361138
177	0x3e7b747d	0.24556156
178	0x3d3e3ff0	0.046447694
179	0xbc2ae4de	-0.010430543
180	0x3d4f4867	0.050606158
181	0x3d718d3c	0.058972582
182	0x3ceec70d	0.02914765
183	0xbdc71ba0	-0.09722066
184	0x3d1685b3	0.0367486
185	0xbde23bf1	-0.11046589
186	0x3d8dc49c	0.06922266
187	0x3d996909	0.07490737
188	0xbe3f006e	-0.18652508
189	0x3db077c8	0.086165965
190	0xbe5401fc	-0.20703882
191	0x3d277875	0.04088636
192	0xbea45bf9	-0.3210142
193	0x3dbc9d08	0.09209639
194	0x3dc563a5	0.09638146
195	0xbd96fcbd	-0.07372425
196	0xbc7c7ee3	-0.0154111115
197	0x3de8a6a0	0.11359906
198	0x3c8f9cfd	0.017530913
199	0x3df3532c	0.11881098
200	0xbdf55f72	-0.119810954
201	0x3e29498f	0.16531967
202	0xbe110e8a	-0.14165702
203	0xbe9578ad	-0.2919363
204	0x3d976daa	0.07393964
205	0xbdff1cc7	-0.12456661
206	0x3d0702f6	0.03296181
207	0x3dfa3167	0.12216454
208	0x3dcb9c74	0.099419504
209	0x3c81df55	0.015853563
210	0x3d274dad	0.04084556
211	0x3e56425b	0.2092375
212	0x3d653071	0.0559544
213	0xbd6b4307	-0.05743697
214	0xbdd1d491	-0.10245622
215	0xbd834b38	-0.06410831
216	0xbc8eae62	-0.017417137
217	0x3e69b513	0.2282298
218	0xbd0d7657	-0.034536686
219	0xbe0a0847	-0.1347972
220	0xbe87b45f	-0.265048
221	0xbe5f360e	-0.21797964
222	0x3dd96020	0.106140375
223	0xbde06264	-0.109562665
224	0xbe7f7925	-0.24948557
225	0xbc842c09	-0.016134279
226	0xbe528925	-0.20560129
227	0xbe7b8a07	-0.24564372
228	0x3d2811eb	0.041032713
229	0xbe097305	-0.13422783
230	0xbcbd282a	-0.02309044
231	0x3e6acf9f	0.22930764
232	0xbcd18e9a	-0.025580693
233	0x3e843e00	0.25828552
234	0xbe1a0bbc	-0.15043539
235	0xbe4b0487	-0.19825946
236	0x3d2ded7a	0.042462803
237	0xbd454332	-0.048159786
238	0xbde7aee0	-0.11312652
239	0xbdd3b244	-0.10336736
240	0x3e40d2e2	0.18830445
241	0xbe936845	-0.2879049
242	0xbd9b514f	-0.07583868
243	0xbcae95b3	-0.021311617
244	0x39e3a624	0.00043420598
245	0xbd9d36b6	-0.07676451
246	0xbe1a8873	-0.15091114
247	0x3df5a63f	0.119945996
248	0xbdebaf76	-0.11508076
249	0x3dcde7c0	0.100539684
250	0x3ce3621b	0.027756741
251	0xbe272480	-0.16322517
252	0xbe03591b	-0.1282696
253	0x3cdef170	0.027214736
254	0xbe0b01e6	-0.13574943
255	0xbdef7de8	-0.116939366

embed.embed.2.bias f4 [32]
0	0x3da56a48	0.08076912
1	0xbd1641db	-0.0366839
2	0x3db2ad96	0.08724515
3	0xba9cbf48	-0.0011958862
4	0xbe2b432b	-0.16724841
5	0xbe938cb8	-0.28818297
6	0x3e3cd0d7	0.18439041
7	0xbbe324bf	-0.0069318707
8	0xbd767d95	-0.060178358
9	0x3e19cea2	0.1502023
10	0x3db69cb4	0.089166075
11	0xbd93dc3d	-0.072197415
12	0xbba1706e	-0.0049267327
13	0x3dccc617	0.0999872
14	0xbd961939	-0.073290296
15	0xbcd34584	-0.025789984
16	0x3d094d04	0.033520713
17	0xbd5a2198	-0.053254694
18	0xbd3d3d9c	-0.046201333
19	0x3c01dec9	0.007926651
20	0x3db41ce9	0.08794577
21	0xbe5612d6	-0.20905623
22	0x3da06607	0.0783196
23	0x3c9ad5c7	0.018900765
24	0xbcd58045	-0.02606214
25	0xbe85592e	-0.260446
26	0x3d153b49	0.03643349
27	0x3df6ad1e	0.12044738
28	0x3d7364cc	0.0594223
29	0xbd47f97a	-0.048821904
30	0xbe3c0ce6	-0.18364295
31	0x3dd42681	0.103589065

input_proj.weight f4 [64, 32]
0	0xbd3822d7	-0.0449551
1	0xbdd803ce	-0.10547601
2	0xbd94b178	-0.07260412
3	0xbe595064	-0.21222073
4	0x3e4c04d4	0.19923717
5	0xbd64033d	-0.05566715
6	0x3d11d1e8	0.035600573
7	0xbe16280c	-0.14663714
8	0x3c862f3b	0.016379943
9	0x3e1d8632	0.15383223
10	0x3ce73618	0.028224036
11	0x3c72148f	0.014775409
12	0x3d3bdcf0	0.045865
13	0x3e3151c4	0.17316347
14	0xbe0ca797	-0.13735805
15	0x3e052447	0.1300212
16	0x3e43aa8f	0.19108032
17	0x3e00b5de	0.12569377
18	0x3cdb9029	0.02680214
19	0xbd8c48af	-0.06849801
20	0x3d8299bf	0.06376981
21	0x3e3b3ff1	0.1828611
22	0xbe0b3dfc	-0.13597864
23	0x3cc115e7	0.023570014
24	0x3dd9b5dc	0.1063039
25	0xbcb065c1	-0.021532895
26	0xbe414929	-0.18875565
27	0xbe024322	-0.12720922
28	0xbc6cc7cf	-0.014451935
29	0xbdeef371	-0.116675265
30	0x3c11fb53	0.008910018
31	0x3dbd7f5b	0.09252807
32	0xbd877083	-0.06613257
33	0xbe06d5ca	-0.13167492
34	0xbe1d1a38	-0.15342033
35	0x3db88641	0.09009982
36	0x3e645399	0.22297515
37	0x3c0d98f1	0.008642421
38	0xbd9e4333	-0.07727661
39	0xbe2c8ad0	-0.16849828
40	0xbe3deb03	-0.18546681
41	0xbe587ac3	-0.2114058
42	0xbd927d5b	-0.07152816
43	0x3cf1ea74	0.029530741
44	0x3e48f7eb	0.19625823
45	0xbdaa7612	-0.083233014
46	0x3df6ffbe	0.12060498
47	0xbe5ec7e7	-0.21755944
48	0xbdc448d2	-0.09584202
49	0x3dd047a4	0.10169914
50	0x3dcd7a12	0.10033049
51	0x3e444e35	0.19170459
52	0x3e307f39	0.17236032
53	0x3e4c86d2	0.19973305
54	0x3cefa689	0.029254215
55	0xbd981cc7	-0.07427364
56	0xbe15e16b	-0.14636771
57	0x3df73e36	0.12072413
58	0xbdd86edf	-0.10568022
59	0x3daeeb04	0.085409194
60	0xbd7d9874	-0.06191297
61	0x3dbf03f9	0.093269296
62	0x3de1bcda	0.11022349
63	0xbe24976b	-0.16073386
64	0xbe542a0b	-0.20719163
65	0xbe380f96	-0.17974696
66	0x3e16334d	0.14668007
67	0xbdfbaec5	-0.12289194
68	0xbe3d1049	-0.18463244
69	0x3e15ff4a	0.14648166
70	0xbd1f7f8c	-0.038939998
71	0xbe268be4	-0.16264302
72	0xbde6a9c0	-0.11262846
73	0x3df9ce07	0.121975
74	0x3dfda703	0.123853706
75	0x3d9923fd	0.07477567
76	0xbda80c58	-0.082054794
77	0xbe03d2c6	-0.12873372
78	0x3d807e13	0.06274047
79	0xbd1cc998	-0.038278192
80	0xbe529e3d	-0.20568176
81	0xbd1ae17c	-0.037812695
82	0x3d9b6cbc	0.07589099
83	0xbe02c657	-0.12770973
84	0x3e71e238	0.23621452
85	0x3c9fac2e	0.019491281
86	0xbd168d33	-0.03675575
87	0xbd2a8339	-0.04162905
88	0x3dad28bc	0.08455035
89	0xbe161127	-0.1465498
90	0x3d84b45f	0.064797156
91	0x3d174753	0.036933254
92	0xbb4031be	-0.0029326524
93	0x3de1821a	0.11011143
94	0xbeb34e31	-0.35020593
95	0x3da119cb	0.07866248
96	0x3dc51087	0.09622293
97	0xbb6d3fbb	-0.0036201316
98	0x3ddaad35	0.10677568
99	0xbe168eb8	-0.1470288
100	0x3da1e8f9	0.07905764
101	0xbd1bbf8e	-0.038024478
102	0x3e6afff6	0.22949204
103	0x3dce8138	0.1008324
104	0xbde3176d	-0.110884525
105	0x3c470f46	0.012149638
106	0xbe02a373	-0.12757663
107	0xbd7f37c0	-0.062309027
108	0xbe7e7edd	-0.24853082
109	0x3e37d648	0.17952836
110	0xbde22e60	-0.110440016
111	0x3e3f16c2	0.18661025
112	0x3e136502	0.14394
113	0x3dbc239f	0.09186482
114	0xbc7a5d07	-0.0152809685
115	0xbdf3f204	-0.11911395
116	0xbe7d5943	-0.24741082
117	0xbdafe10f	-0.085878484
118	0x3e271616	0.16317019
119	0xbe9fa63a	-0.31181508
120	0xbdfd2d48	-0.12362152
121	0xbc4ede63	-0.012626263
122	0xbd39243b	-0.045200568
123	0xbe36a1b8	-0.17835128
124	0x3d52760d	0.051382113
125	0x3d168beb	0.03675453
126	0xbd61fea1	-0.055174474
127	0x3d993ad4	0.07481924
128	0xbd1ca71f	-0.038245317
129	0x3d9746cd	0.07386551
130	0x3e01434f	0.12623332
131	0x3d1943a3	0.03741802
132	0x3d887f21	0.06664873
133	0xbcbc75b2	-0.02300534
134	0xbd38ac44	-0.04508616
135	0x3c9476dd	0.018123085
136	0xbe01ff95	-0.12695153
137	0xbacf0bd2	-0.0015796369
138	0xbd97e29c	-0.07416269
139	0xbe216590	-0.157614
140	0x3e20083c	0.15628141
141	0x3dc57591	0.09641565
142	0xbd92ed91	-0.071742184
143	0x3ddd2d23	0.10799625
144	0xbdec297f	-0.11531352
145	0x3de243d8	0.110480964
146	0x3c5096ef	0.012731298
147	0x3da564d8	0.08075875
148	0x3e31dcef	0.17369436
149	0xbe4e0d94	-0.20122367
150	0x3d8b87ec	0.068130344
151	0x3e683bec	0.22679108
152	0x3e046535	0.12929232
153	0xbe03b324	-0.12861305
154	0x3e195b7c	0.14976305
155	0xbda45b10	-0.08025181
156	0x3db498ee	0.088182315
157	0xbe02b9d5	-0.12766202
158	0x3c1663a3	0.009179029
159	0x3e3637ed	0.17794771
160	0xbe44bef2	-0.19213465
161	0x3d012da9	0.031537686
162	0xbd8da42a	-0.069160774
163	0xbe2aaae7	-0.16666757
164	0x3ea7a02b	0.32739386
165	0xbca19c19	-0.019727753
166	0xbdf83848	-0.1212011
167	0xbe127ddc	-0.14305824
168	0xbe55cab0	-0.208781
169	0x3e5c10d8	0.214908
170	0x3df0b91e	0.11754058
171	0xbe26fdf2	-0.1630781
172	0x3d9fae6b	0.077969395
173	0xbc5e52f7	-0.013569585
174	0x3c477f1a	0.0121762995
175	0xbd91e601	-0.07123948
176	0xbd725e6e	-0.059172086
177	0x3e97a9a5	0.29621616
178	0xbce11654	-0.027476467
179	0x3dfa7f0a	0.12231262
180	0xbdf29d3e	-0.11846398
181	0xbc3903a0	-0.011292368
182	0x3dce0e97	0.100613765
183	0x3e16e7c5	0.1473685
184	0x3e8782b6	0.26466912
185	0x3da2f0b3	0.07956066
186	0xbe769e96	-0.24083933
187	0x3d9c99f0	0.07646549
188	0x3e974343	0.29543504
189	0xbd5d2a3d	-0.05399536
190	0xbd2dad6c	-0.042401716
191	0xbda45d46	-0.08025603
192	0xbdf8656f	-0.12128722
193	0xbc77d5c6	-0.015126651
194	0x3d4e6020	0.05038464
195	0x3e1d9f64	0.15392834
196	0xbe0bb491	-0.136431
197	0xbb92837e	-0.0044712415
198	0x3dcfd78a	0.10148533
199	0x3e318e69	0.17339481
200	0x3e502c37	0.20329367
201	0x3d2a1b08	0.041529685
202	0xbd461cb7	-0.04836723
203	0x3e795783	0.2434979
204	0x3d4b6e29	0.049665604
205	0xbd9e9ce6	-0.0774477
206	0x3e952499	0.29129484
207	0xbdb70e6e	-0.08938299
208	0xbe4d74c8	-0.2006408
209	0xbd505a1e	-0.050867192
210	0x3e0c66ae	0.13711044
211	0xbe9bcd28	-0.3042996
212	0xbcae4af8	-0.021275982
213	0x3d095699	0.03352985
214	0x3e37bdb9	0.17943467
215	0xbc8506e6	-0.016238641
216	0xbe15a0df	-0.14612149
217	0xbdfad1e0	-0.12247062
218	0xbc144be0	-0.009051293
219	0x3e793e67	0.24340211
220	0xbe0a7c13	-0.13523893
221	0x3de363ea	0.111030415
222	0xbdb4120f	-0.08792507
223	0x3e11c98b	0.14237039
224	0x3e2052c4	0.15656573
225	0x3db7fa40	0.08983278
226	0x3e48aafa	0.19596472
227	0x3d075f73	0.03305001
228	0x3e417a58	0.18894327
229	0x3de650e7	0.112459
230	0xbcdc14c4	-0.02686537
231	0xbc8ccb7c	-0.017186873
232	0xbc857a4b	-0.016293665
233	0x3e5b9a59	0.21445598
234	0xbc6d0649	-0.0144668305
235	0x3d4f1f5a	0.05056701
236	0x3c4295cf	0.011876537
237	0x3e3beabb	0.18351261
238	0x3c215d8a	0.009848962
239	0x3d1a8c7e	0.03773164
240	0x3d4c28da	0.049843647
241	0xbd9fc931	-0.07802046
242	0x3d2fc905	0.042916317
243	0x3e4d1782	0.20028499
244	0xbe0d9220	-0.13825274
245	0xbc18dae7	-0.009329534
246	0xbda71958	-0.08159131
247	0xbd645aad	-0.055750538
248	0x3d9648d9	0.07338113
249	0x3e3a8c21	0.18217517
250	0x3e16c511	0.14723612
251	0xbe38a612	-0.18032101
252	0xbd9eca2f	-0.07753407
253	0x3e0e3373	0.13886814
254	0x3dbe0daa	0.0927995
255	0x3dc32a18	0.09529513

input_proj.bias f4 [64]
0	0xbc1230ca	-0.008922765
1	0xbd785221	-0.0606252
2	0x3dbd2ddf	0.09237265
3	0x3e0dc7c6	0.13845739
4	0xbdedf2a1	-0.116185434
5	0xbd5c13d8	-0.053729862
6	0x3cdbe9c1	0.026844861
7	0xbd8809e8	-0.066425145
8	0xbda8bf94	-0.08239666
9	0x3e87bc4e	0.26510853
10	0xbdd7a507	-0.10529523
11	0xbddaf55f	-0.10691332
12	0xbdcb7a67	-0.09935456
13	0x3e19d5b8	0.15022933
14	0xbe1da57c	-0.15395159
15	0xbe207b8b	-0.15672128
16	0xbe691c6b	-0.22764747
17	0x3d501e98	0.050810426
18	0xbe4cd6a5	-0.20003755
19	0xbe096000	-0.13415527
20	0xbc5ffe7c	-0.013671514
21	0xbdde86ca	-0.10865553
22	0x3e6997d5	0.22811826
23	0xbda8d854	-0.08244386
24	0xbe01a2a4	-0.12659699
25	0xbdd938c9	-0.10606534
26	0x3ace4411	0.0015736838
27	0x3e7560f7	0.2396277
28	0x3dee99d1	0.11650432
29	0xbe2bf5e7	-0.16793023
30	0xbe09f7d7	-0.1347345
31	0xbd46621e	-0.048433416
32	0xbdd67d30	-0.10473096
33	0xbd8c8ce3	-0.068628095
34	0xbdcbccda	-0.09951182
35	0xbd8f4bdc	-0.06996891
36	0xbde289e9	-0.110614605
37	0xbd9bed61	-0.07613636
38	0xbdd42a93	-0.10359683
39	0xbcd4dbb3	-0.025983667
40	0x3d95083d	0.07276962
41	0x3e32dcfb	0.1746711
42	0x3cf83231	0.03029737
43	0xbdf081ce	-0.11743508
44	0x3d82d8cc	0.06389007
45	0x3e53a98b	0.20670144
46	0x3c9f5363	0.019448942
47	0xbe142f28	-0.14471114
48	0x3df46f70	0.119353175
49	0xbe4f996c	-0.2027337
50	0xbdc892b6	-0.09793608
51	0x3e627f4e	0.22118875
52	0x3a0d0925	0.0005380086
53	0x3e43efb0	0.19134402
54	0x3e2e5b15	0.17026933
55	0xbe52abf9	-0.20573415
56	0xbd0462f2	-0.032320924
57	0xbdb6667c	-0.08906266
58	0x3da6d2b7	0.081456594
59	0xbe200ada	-0.1562914
60	0x3d59344d	0.053028394
61	0xbe15b8c6	-0.14621267
62	0x3dae47ae	0.085097656
63	0x3cb5ad40	0.022177339

msg_layers.0.W_self.weight f4 [64, 64]
0	0xbe05679f	-0.1302781
1	0xb89fd2c2	-7.6209675e-05
2	0x3e30ec28	0.17277586
3	0x3d989ee6	0.074521825
4	0x3dafe71d	0.08589003
5	0xbd4830fa	-0.048874833
6	0x3e4f44e6	0.20241126
7	0xbdc0ebae	-0.09419952
8	0x3dcbdbc7	0.099540286
9	0xbcdf4ee2	-0.027259294
10	0xbd99806a	-0.07495196
11	0xbd9b70ae	-0.07589851
12	0xbe0ca832	-0.13736036
13	0x3e330320	0.17481661
14	0xbe5e9eb1	-0.21740223
15	0xbe1a4cd9	-0.15068378
16	0x3d9cfb61	0.07665134
17	0x3e5a8fbb	0.21343891
18	0xbd518794	-0.051154688
19	0xbdcb7ab0	-0.0993551
20	0x3e1290a2	0.14312986
21	0x3d5a9622	0.053365834
22	0x3bd2b3dc	0.0064301323
23	0xbe2c6b4d	-0.16837807
24	0xbe0cd0ba	-0.13751498
25	0xbd28cfba	-0.04121373
26	0xbd11d101	-0.035599712
27	0x3e1159b4	0.14194375
28	0xba4c8e6d	-0.00078032055
29	0x3c9fdc4d	0.019514227
30	0xbe191138	-0.14947975
31	0xbd7d5e53	-0.061857533
32	0x3deaeaae	0.11470543
33	0xbd0b13eb	-0.033954542
34	0xbcc6be8e	-0.024260785
35	0xbdef769c	-0.11692545
36	0x3d1aceb0	0.03779477
37	0x3dfa7fad	0.122313835
38	0xbdf1344d	-0.11777554
39	0x3d558378	0.05212733
40	0xbddd52cc	-0.10806808
41	0xbc56bde7	-0.0131068
42	0xbe4338c0	-0.19064617
43	0x3df31008	0.11868292
44	0x3e33b1b7	0.17548262
45	0x3d67a0d3	0.05654986
46	0x3cca51ad	0.02469715
47	0xbe20891a	-0.156773
48	0xbdb68341	-0.089117534
49	0x3c8b27dc	0.01698678
50	0xbd2a924a	-0.04164342
51	0x3ccc6c3d	0.024953956
52	0xbc95eb95	-0.01830081
53	0x3d08cc7d	0.03339814
54	0x3dcc4293	0.099736355
55	0xbca58b8e	-0.020208146
56	0xbdeee3a8	-0.11664516
57	0xbe107489	-0.14106955
58	0xbdc3e868	-0.09565812
59	0xbe3df181	-0.18549158
60	0x3df8197f	0.12114238
61	0xbe3352bd	-0.17512031
62	0x3e020646	0.12697706
63	0xbe1adf85	-0.15124328
64	0xbd32266d	-0.043493677
65	0x3dec1dc3	0.11529114
66	0xbd8db0c1	-0.06918479
67	0x3dcb9abf	0.09941625
68	0xbc1b8c8b	-0.009493957
69	0xbe119030	-0.1421516
70	0xbd6228d5	-0.05521472
71	0xbc75319a	-0.014965439
72	0x3d8ca2a5	0.068669595
73	0xbd8294d8	-0.06376046
74	0x3bb64f5e	0.0055636605
75	0x3dadb94b	0.084826075
76	0x3dc9d444	0.098549396
77	0xbd9d339b	-0.076758586
78	0xbd15ec45	-0.036602277
79	0xbe091b29	-0.13389267
80	0xbdc10ee1	-0.09426666
81	0xbd8b1448	-0.06790978
82	0xbe2f8ee3	-0.1714435
83	0xbe524419	-0.2053379
84	0x3de9e595	0.114207424
85	0x3e0b8ff6	0.13629135
86	0x3e0c2520	0.13686037
87	0xbc497d26	-0.012297904
88	0x3d4f9b7b	0.050685387
89	0x3d18298e	0.037149005
90	0xbdd5d065	-0.10440139
91	0x3e16a5a1	0.1471162
92	0xbc084ecf	-0.008319571
93	0xbdcaadb1	-0.0989641
94	0x3dceb6b5	0.10093442
95	0xbc7e372f	-0.0155160865
96	0x3dc394b1	0.09549845
97	0x3cd9a9cb	0.026570221
98	0xbc57a83f	-0.013162672
99	0x3d3a07d9	0.04541764
100	0xbcc1d85e	-0.023662742
101	0x3e299933	0.16562347
102	0xbd995cd9	-0.074884124
103	0xbcbbd588	-0.022928968
104	0xbe286714	-0.16445571
105	0xbdeee43d	-0.11664627
106	0xbe7747fd	-0.24148555
107	0xbc5c4821	-0.013444931
108	0x3d697c79	0.057003472
109	0xbccea88a	-0.02522685
110	0x3d9e5ef0	0.07732952
111	0xbcb3a2b1	-0.021928163
112	0xbe0df878	-0.13864315
113	0x3ce748e6	0.028233003
114	0x3e230d1e	0.15922973
115	0xbddbbf3c	-0.107298344
116	0xbe29802a	-0.16552797
117	0xbb36298c	-0.002779576
118	0xbd7076d4	-0.058707073
119	0x3e2479bd	0.16062064
120	0xbbf608d4	-0.0075083766
121	0x3dd6bca9	0.10485203
122	0x3e33f7e3	0.1757503
123	0x3b287773	0.0025705963
124	0xbe0d8c82	-0.1382313
125	0x3d99e900	0.07515144
126	0xbdb9a7bc	-0.09065196
127	0xbdfdcbda	-0.12392397
128	0x3dc33c39	0.09532971
129	0x3d8e0205	0.06933979
130	0xbdaa5344	-0.08316663
131	0xbd907461	-0.070534475
132	0x3d88dc04	0.0668259
133	0xbde7f119	-0.113252826
134	0x3dea3090	0.11435044
135	0xbd89b9d0	-0.06724894
136	0x3c877400	0.016534805
137	0xbda441e6	-0.08020382
138	0xbdb71aee	-0.08940683
139	0x38a9bf98	8.094235e-05
140	0xbd78d774	-0.060752347
141	0xbd10304d	-0.035202313
142	0x3ce0bf2d	0.02743491
143	0xbb8977a7	-0.004195172
144	0x3de291b7	0.11062949
145	0x3d9b3507	0.075784735
146	0xbc9162bf	-0.017747281
147	0x3c87dd5b	0.016585043
148	0xbd0b0236	-0.033937655
149	0x3e1f18df	0.15536831
150	0x3d9961aa	0.07489331
151	0x3e52b9cd	0.2057869
152	0x3d7de87b	0.06198929
153	0x3d05e192	0.032685824
154	0x3d1604f9	0.036625836
155	0x3e095048	0.13409531
156	0xbde7e116	-0.113222286
157	0x3dfa3692	0.1221744
158	0x3dedb5ee	0.11606966
159	0xbcf2dcc1	-0.02964628
160	0xbd55ae4b	-0.05216817
161	0xbabd8ba3	-0.0014461171
162	0x3d45d0f8	0.04829499
163	0xbe04a373	-0.12952976
164	0xbd981dd1	-0.07427562
165	0xbdec7ca6	-0.11547212
166	0x3d8ee3f8	0.06977075
167	0x3c1e245e	0.009652225
168	0x3deb2c98	0.11483115
169	0xbd4a34f5	-0.04936691
170	0x3da08164	0.07837179
171	0xbd1e04f4	-0.038578942
172	0xbe13c06f	-0.14428876
173	0xbddb7e31	-0.107174285
174	0xbc5667a4	-0.013086233
175	0xbd4e3056	-0.050339065
176	0x3dcaf9b9	0.09910912
177	0xbd8d1138	-0.0688805
178	0x3d8fcb93	0.070212506
179	0x3d9f7f40	0.07787943
180	0x3d4fcbe1	0.050731543
181	0x3de7c1c4	0.11316255
182	0x3ac5ffd4	0.001510615
183	0xbd6a1a2e	-0.057153873
184	0xbe16ebcb	-0.14738385
185	0xbd986069	-0.07440264
186	0x3db788db	0.0896165
187	0x3c0e1b25	0.008673464
188	0x3de30522	0.110849634
189	0x3e0e4505	0.13893516
190	0xbdbcfcb8	-0.0922789
191	0xbd65102d	-0.05592363
192	0xbda40731	-0.08009184
193	0x3d06ec90	0.032940447
194	0x3d294286	0.041323207
195	0xbdad3b7b	-0.084586106
196	0x3df331a0	0.118746996
197	0xbc077cf1	-0.008269534
198	0xbdaca17f	-0.084292404
199	0x3d30f514	0.043202475
200	0x3d14a00a	0.036285438
201	0xbdb6672f	-0.089063995
202	0xbd95991a	-0.073045924
203	0x3bc3e718	0.0059784763
204	0x3d1ae7fb	0.03781889
205	0x3e0c34fb	0.13692085
206	0x3d9536e6	0.07285862
207	0x3d8f1831	0.06987036
208	0xbda69829	-0.08134491
209	0xbcd10219	-0.025513696
210	0xbc33569c	-0.010945942
211	0xbd0dcb06	-0.034617446
212	0x3df1fb31	0.11815489
213	0x3cc98025	0.024597237
214	0x3d819d1d	0.06328795
215	0x3c02d2d7	0.007984838
216	0xbc151da8	-0.009101309
217	0x3de6eec5	0.112760104
218	0x3dd18220	0.102298975
219	0x3bf782cc	0.007553434
220	0xbd29710d	-0.04136758
221	0x3e062236	0.13098988
222	0xbe061c1b	-0.13096659
223	0xbc1ee411	-0.00969793
224	0x3e102c21	0.14079334
225	0xbdc91975	-0.09819309
226	0x3dd09a44	0.10185674
227	0xbd2e9f5e	-0.042632453
228	0x3df3f2ac	0.1191152
229	0x3d63c443	0.05560709
230	0xbdb14879	-0.08656401
231	0x3c69b21c	0.014263656
232	0x3daf170a	0.08549316
233	0xbdbde417	-0.0927202
234	0x3dc6f4b4	0.09714642
235	0xbdcdf5bf	-0.10056638
236	0xbde0ff23	-0.109861635
237	0xbda3642c	-0.07978091
238	0x3c202717	0.009774945
239	0x3d186913	0.03720958
240	0xbe2dacba	-0.16960421
241	0x3c5aedb0	0.013362333
242	0x3c0c6e78	0.00857126
243	0xbd6d6d7b	-0.057965737
244	0xbdc82e27	-0.09774428
245	0x3d1c4b03	0.038157474
246	0x3d56b0ce	0.052414708
247	0xbd115894	-0.035484865
248	0x3dd13f5d	0.10217164
249	0xbd06dde5	-0.03292646
250	0xbd26665d	-0.040624965
251	0xbc8501ce	-0.016236212
252	0x3cfbad95	0.030722419
253	0x3d801c2d	0.06255374
254	0xbd9c4513	-0.07630362
255	0x3dfe019f	0.12402653

msg_layers.0.W_self.bias f4 [64]
0	0x3e17aa7d	0.1481113
1	0xbde48e23	-0.11159923
2	0x3b5ba293	0.003351365
3	0xbda66341	-0.081244
4	0xbdca413e	-0.09875725
5	0x3d18b0de	0.03727805
6	0xbd94faed	-0.07274423
7	0x3a92b670	0.0011193287
8	0xbe0c7c68	-0.13719332
9	0xbd9622f2	-0.07330884
10	0x3c233d61	0.009963364
11	0xbdd7a22a	-0.10528977
12	0xbd5379d7	-0.051629867
13	0x3dad0421	0.08448053
14	0x3ccc8b95	0.024968902
15	0x3d7e498f	0.06208187
16	0xbe0ed9fd	-0.13950343
17	0x3d999b4c	0.07500324
18	0xbd99f5ef	-0.07517611
19	0xbc3c0032	-0.011474656
20	0xbe202d35	-0.15642245
21	0x3e161bc3	0.14659028
22	0x3d401a9f	0.046900388
23	0x3db5257d	0.08845041
24	0x3e2fb718	0.17159688
25	0xbe71ed9a	-0.23625794
26	0x3dba1958	0.09086865
27	0x3da36e4a	0.0798002
28	0x3d3548b3	0.044258785
29	0xbd838ff7	-0.064239435
30	0xbb66cd9c	-0.0035217768
31	0x3c8e15e8	0.01734443
32	0xbc48c72e	-0.012254519
33	0x3dd1fdc6	0.102534816
34	0xbc3f3f4b	-0.011672805
35	0xbd8fe991	-0.07026971
36	0x3b885f72	0.0041617686
37	0x3ce9e71e	0.028552588
38	0xbd89a141	-0.0672021
39	0x3dadfc35	0.0849537
40	0xbdaa3435	-0.08310739
41	0x3c2ff989	0.010740646
42	0x3dbac8d7	0.091203384
43	0xbd558726	-0.05213084
44	0xbdec81c5	-0.11548189
45	0x3d099481	0.03358889
46	0x3dd0e192	0.10199274
47	0x3cb19666	0.02167816
48	0x3ddff80c	0.10935983
49	0x3d1674c1	0.03673244
50	0xbd7a5f8f	-0.061126288
51	0x3b9c30e6	0.0047665713
52	0x3e3d4c1b	0.18486063
53	0x3e2fe16f	0.1717584
54	0x3d9c5102	0.076326385
55	0xbe28f537	-0.16499792
56	0x3ce1b5cb	0.027552506
57	0x3df05573	0.11735048
58	0xbdbe744a	-0.09299524
59	0x3d198b37	0.03748628
60	0x3b92b6d4	0.004477361
61	0xbd04d08c	-0.03242545
62	0xbd3abf03	-0.04559232
63	0x3c0d11c6	0.008610195

msg_layers.0.W_msg.weight f4 [64, 64]
0	0xbd1466fd	-0.03623103
1	0x3bbcb899	0.0057593104
2	0xbd97466c	-0.07386479
3	0x3dafae29	0.0857814
4	0xbd8d3a7f	-0.06895923
5	0xbe068fc2	-0.13140777
6	0x3e1b4d22	0.15166143
7	0xbdf8045d	-0.12110207
8	0x3df2a51c	0.11847898
9	0x3e29cd40	0.16582203
10	0x3e33f7db	0.17575018
11	0xbde11c5d	-0.10991738
12	0xbdc9a8ef	-0.09846675
13	0x3da27902	0.07933237
14	0xbe291eb3	-0.16515617
15	0xbd4b1509	-0.049580608
16	0x3dced934	0.10100022
17	0x3cbc4323	0.022981232
18	0xbe3fd36e	-0.18732998
19	0xbe201ffe	-0.15637204
20	0x3de66173	0.11249056
21	0x3dab36ae	0.08360039
22	0xbb9dce4a	-0.0048158513
23	0xbdd93db0	-0.10607469
24	0xbdea796d	-0.114489414
25	0x3c9da75b	0.01924484
26	0xbcddffb3	-0.027099466
27	0x3bd8f460	0.0066209286
28	0x3e1f1600	0.15535736
29	0xbd227e53	-0.039671253
30	0x3e0e7d88	0.13915074
31	0xbd0f1a6d	-0.03493731
32	0x3df3fb94	0.11913219
33	0x3db81b38	0.089895666
34	0xbe2c359a	-0.16817322
35	0xbe4cd87d	-0.20004459
36	0x3d81fd3a	0.06347127
37	0x3e0f93bc	0.140212
38	0x3d5cdc4f	0.05392104
39	0x3ddbcded	0.107326366
40	0xbd46e82f	-0.04856127
41	0x3d6ba69c	0.057531938
42	0xbcc95d6a	-0.024580676
43	0xbdb6fd0c	-0.089349836
44	0x3d49dc1a	0.04928217
45	0x3e547d55	0.20750935
46	0xbb7f92c2	-0.0038997387
47	0x3d77a92c	0.06046407
48	0xbe23176d	-0.15926905
49	0xbe0734af	-0.13203691
50	0x3ba3f5e6	0.0050036786
51	0xbd19d253	-0.037554096
52	0xbe1ff1db	-0.15619604
53	0x3d6ed3dd	0.058307517
54	0x3d31bfba	0.043395735
55	0x3d80b614	0.06284729
56	0xb8b43c51	-8.594304e-05
57	0xbd46027d	-0.048342217
58	0x3e314e31	0.17314984
59	0xbd824394	-0.06360546
60	0x3dc1aa06	0.094562575
61	0xbe27b045	-0.16375835
62	0x3d828eaa	0.06374867
63	0xbe31cc5a	-0.1736311
64	0x3d00ddca	0.031461515
65	0x3cfa73cd	0.030572796
66	0xbe390a39	-0.18070306
67	0xbb38f677	-0.0028223076
68	0x3bd036e7	0.006354201
69	0x3deae664	0.11469725
70	0xbcfc88a3	-0.030826872
71	0xbd94cb55	-0.07265345
72	0xbd7c2367	-0.0615572
73	0x3d5cc715	0.053900797
74	0x3c36ec70	0.0111647695
75	0x3daba387	0.083808
76	0x3d87281f	0.06599449
77	0xbdaa21fc	-0.08307263
78	0xbd8e9a0f	-0.06962978
79	0x3c4fa4bb	0.012673552
80	0xbd667701	-0.056265835
81	0x3d93415d	0.071902014
82	0xbcddd7b9	-0.027080404
83	0x3d6084a4	0.054813996
84	0xbcd72085	-0.026260624
85	0x3d3107bf	0.043220278
86	0xbd512016	-0.05105599
87	0x3e209281	0.15680887
88	0x3c237871	0.009977446
89	0xbd9a2828	-0.075271904
90	0x3bdad416	0.0066781146
91	0x3ca1b070	0.019737452
92	0x3d9368c6	0.07197718
93	0xbc4d51f0	-0.012531742
94	0xbc6da9bc	-0.0145058
95	0xbd56aed0	-0.052412808
96	0xbd8cb3e4	-0.06870249
97	0xbe41fbba	-0.18943682
98	0x3da4b9a8	0.080432236
99	0xbcf88938	-0.030338868
100	0xbdd6265a	-0.10456534
101	0x3c60c541	0.013718904
102	0xbe3643f3	-0.17799358
103	0xbdf71606	-0.120647475
104	0x3cb47ee4	0.022033162
105	0xbd85d07f	-0.06533908
106	0xbcc412af	-0.02393469
107	0xbb539ecc	-0.0032290695
108	0xbd52d760	-0.05147493
109	0x3d8e6d16	0.069544
110	0x3d4a0155	0.049317677
111	0x3c6a851c	0.014313962
112	0xbd07b17c	-0.033128247
113	0x3dd8cb1b	0.10585614
114	0x3db7c9a9	0.089740105
115	0x3d03f01e	0.032211415
116	0x3e127709	0.14303221
117	0xbde2847c	-0.11060426
118	0x3d1fe9f2	0.039041467
119	0x3dbefcc2	0.093255535
120	0xbdba8e95	-0.091092266
121	0xbd9cc2cc	-0.07654342
122	0x3e4a10db	0.19732992
123	0xb72f8ba4	-1.0463325e-05
124	0xbddb4fb0	-0.107085586
125	0x3d74e177	0.059785333
126	0xbe1d41cc	-0.15357131
127	0x3c7c3aed	0.015394908
128	0x3befec01	0.007321835
129	0xbdd83b79	-0.105582185
130	0x3ddd8d04	0.10817912
131	0xbe216bdc	-0.15763801
132	0xbd2ef920	-0.042718053
133	0xbdb69934	-0.0891594
134	0xbd8c050b	-0.06836899
135	0xbda7d6b9	-0.08195252
136	0xbc25054f	-0.010072066
137	0xbe3934fe	-0.18086621
138	0xbd8e1280	-0.06937122
139	0xbbf1f20e	-0.0073835915
140	0xbd05ffee	-0.032714777
141	0xbc31a897	-0.010843418
142	0x3de339b3	0.1109499
143	0xbc0c217d	-0.008552906
144	0x3d9d816b	0.076907
145	0x3e0e9f42	0.1392794
146	0x3e16fbf1	0.14744546
147	0xbd8dc810	-0.069229245
148	0x3b479621	0.0030454474
149	0xbc99e21d	-0.018784577
150	0xbced32a6	-0.028954815
151	0x3d2e056e	0.042485647
152	0xbcf54830	-0.029941648
153	0x3dc7e5f7	0.09760659
154	0xbdcb0b9f	-0.09914326
155	0xbe116566	-0.14198837
156	0x3d48b4ff	0.049000736
157	0xbcd777ff	-0.026302336
158	0xbd687910	-0.05675608
159	0x3cb3fbc4	0.021970637
160	0x3df40e7a	0.11916824
161	0xbd2a2bee	-0.0415458
162	0xbd8b0143	-0.0678735
163	0xbdd3475d	-0.10316346
164	0x3e0c33f7	0.13691698
165	0x3ba06914	0.004895339
166	0x3d0999cd	0.03359394
167	0xbc2741ad	-0.010208529
168	0x3e2e8211	0.17041804
169	0x3d50e63c	0.05100082
170	0xbc9cc2c9	-0.01913585
171	0xbd0d28f0	-0.03446287
172	0xbdbac988	-0.0912047
173	0x3c0e451d	0.00868347
174	0x3da1c8c8	0.07899624
175	0x3a193d08	0.0005845581
176	0x3bf6ef5c	0.007535858
177	0xbc895d3b	-0.016768089
178	0xbdd42b10	-0.10359776
179	0xbe0b27d0	-0.13589406
180	0xbd205c0c	-0.039150283
181	0x3dc8d713	0.09806647
182	0xbc382ef0	-0.0112416595
183	0xbdd874d3	-0.105691575
184	0x3d82a882	0.063797966
185	0x3c46515e	0.01210436
186	0xbe81bb7a	-0.25338346
187	0xbd58d74c	-0.052939698
188	0xbc5f5495	-0.013631006
189	0xbd336704	-0.043799415
190	0x3d95d0a6	0.07315187
191	0xbd819623	-0.063274644
192	0xbd6afb70	-0.057368696
193	0x3de09ee3	0.10967805
194	0xbd1c64d3	-0.03818209
195	0xbd9fbd60	-0.07799792
196	0x3db041f5	0.0860633
197	0xbd0d1020	-0.034439206
198	0x3c8aedc1	0.016959073
199	0x3e04d4e2	0.12971833
200	0x3a802b9f	0.0009778625
201	0xbcc3c93a	-0.023899663
202	0x3c01d784	0.007924918
203	0x3de7b28d	0.11313353
204	0x3c2f4bed	0.010699254
205	0x3d3bda97	0.04586276
206	0xbdbc2540	-0.091867924
207	0xbcc91a3b	-0.02454864
208	0x3cebbf02	0.028777603
209	0xbc9774af	-0.018488256
210	0xbceafbe6	-0.028684568
211	0x3dfab1cd	0.12240944
212	0x3dffb7b9	0.12486214
213	0xbdb63907	-0.08897596
214	0xbd70fb03	-0.058833133
215	0xbdcc31f5	-0.09970466
216	0x3d9206c9	0.071302004
217	0x3d389289	0.04506162
218	0xbd3b448d	-0.045719672
219	0xbe12abf1	-0.14323403
220	0x3db2bec3	0.08727791
221	0xbc99c690	-0.01877144
222	0x3d9c8399	0.07642288
223	0x3c42eba6	0.011897003
224	0xbd04a2ac	-0.0323817
225	0x3c634394	0.013871092
226	0x3d42cfbe	0.0475614
227	0x3d921b17	0.07134073
228	0xbe214567	-0.15749131
229	0x3dcbbe77	0.09948438
230	0x3bd5f5b6	0.006529535
231	0x3ce1ba87	0.027554763
232	0x3db65bb0	0.08904207
233	0x3da9ef0c	0.08297548
234	0x3d127920	0.035760045
235	0x3ca2821f	0.019837437
236	0xbd2ac9b9	-0.041696284
237	0xbda5e1b1	-0.08099688
238	0x3ddc745f	0.107643835
239	0x3dcad616	0.09904115
240	0x3d467bd8	0.04845795
241	0xbcb52c60	-0.022115886
242	0xbdedc89e	-0.1161053
243	0xbde768b8	-0.112992704
244	0x3d2b3ac0	0.041804075
245	0x3cb0f31f	0.021600304
246	0x3d4619b5	0.04836436
247	0xbe0b12e8	-0.13581431
248	0x3dc54aeb	0.0963343
249	0x3da2bfc8	0.079467356
250	0xbdde7bab	-0.108634315
251	0xbda146de	-0.07874845
252	0xbdca8a7f	-0.09889697
253	0x3cef495a	0.029209781
254	0x3d9b65c9	0.07587773
255	0xbda5b6e2	-0.08091523

msg_layers.0.W_msg.bias f4 [64]
0	0xbd2535e6	-0.040334605
1	0x3dba1f7e	0.09088038
2	0xbe54a63b	-0.20766537
3	0x3d17578b	0.03694872
4	0xbe02f73a	-0.12789622
5	0x3d0f9e2c	0.035062954
6	0x3e26ce18	0.16289556
7	0x3e032d9f	0.12810372
8	0xbdafc38e	-0.08582221
9	0x3d88712d	0.066622116
10	0x3d95ec53	0.07320466
11	0xbbef6ea2	-0.0073068896
12	0x3deb0506	0.114755675
13	0xbdf4f103	-0.11960032
14	0xbe0531ed	-0.13007326
15	0xbdf874b1	-0.12131632
16	0x3a76dfbf	0.0009417496
17	0x3ddad1b7	0.10684531
18	0xbdeee235	-0.11664239
19	0x3d017dff	0.0316143
20	0xbd49e71f	-0.04929268
21	0x3e5eae0a	0.21746078
22	0x3cbf19ea	0.023327786
23	0x3de96511	0.1139623
24	0xbd2fa741	-0.042884115
25	0x3db5b46e	0.08872305
26	0xbcaf1802	-0.021373753
27	0x3e3e66bc	0.18593878
28	0x3c9d3754	0.019191422
29	0xbdfd0d5b	-0.12356063
30	0x3d6c6867	0.057716753
31	0x3cad1134	0.021126367
32	0x3e064d29	0.13115372
33	0x3dad89c5	0.08473543
34	0x3cba1c2e	0.022718515
35	0x3d8c1952	0.06840767
36	0x3dd2c4a5	0.10291413
37	0xbd8f9f9b	-0.07012864
38	0xbd49aa05	-0.04923441
39	0xbda22a4c	-0.07918224
40	0x3d94b2f8	0.07260698
41	0xbda25034	-0.07925454
42	0x3de1466f	0.10999762
43	0xbd8cee45	-0.06881384
44	0xbd8eaef4	-0.069669634
45	0xbc84da1d	-0.016217286
46	0x3d73324a	0.05937413
47	0xbd617a6e	-0.0550484
48	0xbdc3339c	-0.09531328
49	0xbe0b6ee0	-0.13616514
50	0x3d9ac538	0.07557148
51	0x3c9d1e2d	0.019179428
52	0x3e0c4410	0.13697839
53	0x3df9d45c	0.121987075
54	0x3db03878	0.086045206
55	0xbd880d2b	-0.066431366
56	0x3dd15d81	0.102229126
57	0xbd7273d2	-0.059192486
58	0xbd87fa4e	-0.06639539
59	0xbd38eabd	-0.04514574
60	0x3d48dc49	0.049038205
61	0x3e3a913b	0.18219464
62	0xbe07adb7	-0.1324986
63	0xbde6fa78	-0.11278242

msg_layers.0.norm.weight f4 [64]
0	0x3f8124df	1.0089377
1	0x3f8e740e	1.1129167
2	0x3f886513	1.0655845
3	0x3f5d955a	0.8655602
4	0x3f7091c0	0.93972397
5	0x3f87fdc9	1.0624324
6	0x3f90109d	1.125507
7	0x3f617d5d	0.88081914
8	0x3f54c3e2	0.83111393
9	0x3f8b5c48	1.0887537
10	0x3f7d515c	0.9895227
11	0x3f7637a6	0.9617866
12	0x3f7f7c63	0.99799174
13	0x3f8ea180	1.1143036
14	0x3f838b2b	1.0276846
15	0x3f6a7099	0.9157806
16	0x3f7c682b	0.9859645
17	0x3f737b36	0.9510988
18	0x3f910ebe	1.1332624
19	0x3f79ad48	0.9753003
20	0x3f817e45	1.0116659
21	0x3f84986f	1.0359019
22	0x3f95042a	1.1641896
23	0x3f88b729	1.0680896
24	0x3f788196	0.9707273
25	0x3f728b48	0.94743776
26	0x3f6e9489	0.93195397
27	0x3f98983c	1.1921458
28	0x3f8684b0	1.0509243
29	0x3f76d4bd	0.9641836
30	0x3f67c7df	0.90539354
31	0x3f6841aa	0.90725195
32	0x3f7752a6	0.96610487
33	0x3f8cfd2d	1.1014763
34	0x3f6a60cb	0.91553944
35	0x3f75404f	0.9580125
36	0x3f71e47b	0.9448926
37	0x3f86157b	1.0475305
38	0x3f6d2b4b	0.92644185
39	0x3f74fe30	0.9570036
40	0x3f8e41aa	1.1113789
41	0x3f6c0949	0.9220167
42	0x3f8eadc5	1.114678
43	0x3f7ebe3c	0.99509025
44	0x3f7c5c9a	0.985788
45	0x3f7b01a1	0.9804936
46	0x3f8211f8	1.0161734
47	0x3f7db0a2	0.99097645
48	0x3f842b06	1.032563
49	0x3f6e1d98	0.93013906
50	0x3f89281d	1.0715367
51	0x3f945b36	1.1590335
52	0x3f75a649	0.95956856
53	0x3f7d0681	0.9883805
54	0x3f954c58	1.1663923
55	0x3f73a63c	0.9517553
56	0x3f895072	1.0727675
57	0x3f69cc6a	0.91327536
58	0x3f8404ad	1.0313927
59	0x3f83c8db	1.0295671
60	0x3f798f85	0.9748462
61	0x3f69c2ed	0.9131306
62	0x3f84708e	1.0346849
63	0x3f8ec130	1.1152706

msg_layers.0.norm.bias f4 [64]
0	0x3df16166	0.117861554
1	0xbd24f3a1	-0.040271405
2	0xbd66cb4e	-0.05634623
3	0x3c860fd0	0.016364962
4	0x3d8408cf	0.064469926
5	0x3c0d9a03	0.008642676
6	0xbdc5a843	-0.09651234
7	0x3d68a0c3	0.05679394
8	0xbd3694ed	-0.04457562
9	0xbac9c3d9	-0.001539345
10	0xbbfff4d7	-0.0078111696
11	0x3dad7418	0.08469409
12	0x3dfbafd6	0.122893974
13	0xbcf4a27f	-0.02986264
14	0x3e049b37	0.12949835
15	0x3df7519e	0.12076114
16	0xbdb3ce91	-0.08779634
17	0x3d75ea9f	0.060038205
18	0xbdb22c68	-0.08699876
19	0x3de7692a	0.11299355
20	0xbd06f295	-0.032946188
21	0x3ce872ce	0.028375056
22	0xbc3eb8ea	-0.011640767
23	0x3ddb788a	0.107163504
24	0x3ddeec93	0.10884967
25	0xbd869794	-0.0657188
26	0x3d886b94	0.06661144
27	0xbcf4f1ea	-0.02990051
28	0xbc86432e	-0.016389456
29	0x3d8091b4	0.06277791
30	0x3d9d0e02	0.076686874
31	0x3ca8db33	0.020612335
32	0xbd4877fe	-0.04894256
33	0xbd49dbc0	-0.049281836
34	0x3dbe6d88	0.09298235
35	0x3d5e9dbf	0.054349657
36	0xbb4bd6aa	-0.0031103292
37	0xbdf2b71a	-0.1185133
38	0x3ddfa4fb	0.109201394
39	0x3df62c04	0.12020114
40	0x3d909dad	0.07061324
41	0x3de628c8	0.11238247
42	0x3cbcb6b1	0.023036333
43	0xbdcdc3db	-0.10047122
44	0xbde1a345	-0.11017469
45	0x3dd25bba	0.10271402
46	0xbd9a83a6	-0.07544641
47	0x3da3601c	0.07977316
48	0xba65e1e0	-0.0008769315
49	0xbd5895f0	-0.052877367
50	0xbd97b8c3	-0.074082874
51	0x3c2112d7	0.009831152
52	0x3e2db551	0.16963698
53	0x3dcb2317	0.09918802
54	0x3cfc0e9b	0.030768683
55	0xbdf53d7b	-0.11974617
56	0x3b00e099	0.001966512
57	0x3e01514b	0.12628667
58	0x3d7d31f4	0.061815217
59	0x3cddf65f	0.027095018
60	0xbcf2d7c3	-0.029643899
61	0x3e4c692f	0.19962
62	0x3d9eab08	0.07747465
63	0x3d717fcc	0.058959767

msg_layers.1.W_self.weight f4 [64, 64]
0	0xbdb628ba	-0.08894487
1	0xbe2cfd19	-0.16893424
2	0xbdcacfce	-0.09902917
3	0xbd47b1b9	-0.048753474
4	0xbcbc5b58	-0.022992775
5	0xbe337f81	-0.17529108
6	0x3e2ea99f	0.17056893
7	0x3e0f9637	0.14022146
8	0xbdbdbf0a	-0.092649534
9	0x3e190b25	0.14945658
10	0xbdb2c8c9	-0.08729703
11	0xbc2f518e	-0.0107005965
12	0xbc51da09	-0.012808331
13	0xbd29677e	-0.041358463
14	0xbd1dde7d	-0.03854226
15	0xbdf8e482	-0.121529594
16	0x39951079	0.00028431768
17	0xbd218ec0	-0.039442778
18	0x3ca91d20	0.02064377
19	0xbd8fa16c	-0.07013211
20	0x3c8c1dd7	0.017104072
21	0x3d44cac0	0.04804492
22	0xbcb2e5e1	-0.02183813
23	0xbd5f5b6d	-0.05453055
24	0xbda8f487	-0.08249765
25	0xbd8983bb	-0.06714579
26	0xbc9d83bb	-0.019227853
27	0x3bb34595	0.0054709413
28	0xbe3e156e	-0.18562862
29	0xbdfd8e29	-0.123806305
30	0xbd8daafb	-0.069173776
31	0xbe20db38	-0.15708625
32	0xbbdc45e7	-0.0067222
33	0x3dadc54d	0.08484898
34	0xbd53b84f	-0.051689442
35	0x3dc0d4f2	0.09415616
36	0x3d796a34	0.0608923
37	0x3d81a79a	0.063307956
38	0xbdea6dd4	-0.11446729
39	0x3e1d9a51	0.15390898
40	0xbcb9194d	-0.022595072
41	0x3a944c33	0.0011314213
42	0x3e2f1dca	0.17101207
43	0x3da656f6	0.08122055
44	0x3d15a680	0.03653574
45	0xbd4d1476	-0.05006834
46	0xbc81b473	-0.015833115
47	0xbba2e519	-0.004971158
48	0xbdbbc024	-0.09167507
49	0xbe040977	-0.12894236
50	0x3d824ebf	0.06362676
51	0xbd1a01a3	-0.037599217
52	0xbc90900a	-0.017646808
53	0x3d409f8f	0.047027167
54	0x3e1db727	0.15401898
55	0x3dc8a759	0.09797544
56	0xbe350889	-0.17679037
57	0x3cc9420a	0.024567623
58	0x3d014369	0.031558428
59	0x3d2a0931	0.04151267
60	0x3cdbc7fe	0.026828762
61	0xbe337a57	-0.17527138
62	0xbda81eee	-0.08209024
63	0xbd4c88f4	-0.049935296
64	0xbc13ba16	-0.009016534
65	0xbd0ae68b	-0.03391127
66	0xbc2424ce	-0.010018541
67	0xbd857e46	-0.06518225
68	0x3d51df94	0.05123861
69	0x3d14cc6f	0.036327776
70	0xbc1c17cd	-0.009527159
71	0x3e0cbba3	0.13743453
72	0x3cb5f8dd	0.022213394
73	0x3d8c3bcf	0.06847345
74	0x3d012196	0.03152617
75	0xbcdd847e	-0.027040716
76	0x3dd38c2d	0.10329471
77	0x3cb2cf53	0.021827376
78	0xbdf0da4b	-0.11760386
79	0x3d060f94	0.0327297
80	0xbd4f71da	-0.050645687
81	0xbd7f62da	-0.06235013
82	0xbe0f1aa1	-0.13975002
83	0xbcc50a3e	-0.024052735
84	0x3d8e4173	0.06946077
85	0xbc3ca8bc	-0.011514839
86	0xbccd2a5a	-0.025044609
87	0x3da9fccb	0.083001696
88	0x3dd151e9	0.10220701
89	0x3c2af39f	0.01043406
90	0x3d6e1c2c	0.058132336
91	0xbdf72331	-0.12067259
92	0xbd778bb4	-0.060435966
93	0x3d171c5b	0.036892276
94	0x3e046852	0.1293042
95	0x3cd3a939	0.025837528
96	0x3dbf2604	0.09333423
97	0x3dc527d1	0.09626735
98	0x3ccbd032	0.024879549
99	0x3e0a119d	0.13483281
100	0x3c14bd1c	0.00907829
101	0x3d944479	0.072396226
102	0x3e1337c2	0.14376739
103	0xbcdffb07	-0.027341379
104	0xbdb6ecb5	-0.08931867
105	0xbdae9a6f	-0.085255496
106	0xbd288f19	-0.041152094
107	0x3d5c7f70	0.05383247
108	0x3a8867ac	0.0010406873
109	0xbcf533c9	-0.02993192
110	0x3c8b5d86	0.017012369
111	0x3d92b480	0.07163334
112	0xbddc3e3f	-0.1075406
113	0xbc2ba186	-0.010475522
114	0x3df94da3	0.12173011
115	0xbd578265	-0.05261459
116	0x3d58b2cc	0.05290489
117	0xbcb37495	-0.021906177
118	0xbc9e1109	-0.019295232
119	0xbdb820b9	-0.08990616
120	0xbdc1f9dd	-0.09471486
121	0xbc1f8b2f	-0.009737774
122	0x3db039bc	0.08604762
123	0xbd8226a3	-0.063550256
124	0xbc792232	-0.015205907
125	0xbdd9d496	-0.10636251
126	0xbe21ac4a	-0.1578838
127	0x3c214a1d	0.00984433
128	0x3d2aee66	0.04173126
129	0xba080de8	-0.00051900605
130	0x3d383088	0.044968158
131	0x3d37d85e	0.04488408
132	0xbdf753dc	-0.12076542
133	0x3db79f33	0.08965912
134	0xbdcad834	-0.09904519
135	0x3d116c18	0.035503477
136	0x3e1abb37	0.1511048
137	0x3c49fbd3	0.012328106
138	0xbddad657	-0.10685413
139	0x3d1cb2de	0.03825652
140	0xbe0c1e3b	-0.13683407
141	0x3d1e32c3	0.03862263
142	0xbd8a1a2e	-0.06743275
143	0xbd9bc785	-0.07606415
144	0x3dfab236	0.12241022
145	0x3d1b286c	0.037880346
146	0x3cfa3e64	0.030547328
147	0x3dadba95	0.08482853
148	0x3c0bd7d5	0.008535345
149	0x3d77bdf5	0.06048389
150	0xbe1493f9	-0.14509572
151	0xbe187ae1	-0.14890625
152	0x3d3f147d	0.0466504
153	0xbd9b38b6	-0.07579176
154	0x3d0ee641	0.034887556
155	0x3dc3b2b9	0.09555573
156	0x3d9e75c9	0.077373095
157	0x3a9a3e43	0.0011767823
158	0x3ddf8a32	0.109150305
159	0x3ab5a8b6	0.0013859484
160	0x3b2d6caf	0.0026462486
161	0x3cb88e05	0.022528658
162	0x3d485aca	0.04891471
163	0x3c0067af	0.00783722
164	0xbe2a3ee6	-0.16625556
165	0x3dd5bea0	0.104367495
166	0x3dcdaa5e	0.100422606
167	0x3d817c9e	0.06322597
168	0xbccaff88	-0.02478005
169	0x3db6f1e3	0.08932855
170	0xbdf15d30	-0.11785352
171	0xbd85b512	-0.06528677
172	0xbe2aeae8	-0.16691172
173	0x3dc64e83	0.09682944
174	0x3e144d77	0.14482675
175	0xbd8398a6	-0.064256
176	0x3e4270ae	0.18988296
177	0xbdc17b0d	-0.09447298
178	0xbda80354	-0.0820376
179	0xbdae36e0	-0.0850656
180	0x3ca4de41	0.02012551
181	0xbe05596c	-0.13022393
182	0xbe38809c	-0.1801781
183	0xbc337aa6	-0.010954535
184	0x3d44cebf	0.04804873
185	0x3e3c92b0	0.18415332
186	0x3d3b6b20	0.04575646
187	0x3dbb5529	0.091471024
188	0xbd4d66dc	-0.050146922
189	0xbccd4b71	-0.025060387
190	0xbd58bfe5	-0.05291738
191	0x3d03cc7e	0.03217744
192	0x3d632fc6	0.055465482
193	0xbdf759d7	-0.120776825
194	0x3df8cf2a	0.121488884
195	0xbddce9fb	-0.10786816
196	0xbddf72b0	-0.10910547
197	0xbe49b856	-0.19699225
198	0x3e1f4ba0	0.15556192
199	0xbe042e00	-0.12908173
200	0xbd4632fc	-0.048388466
201	0x3cedb649	0.029017584
202	0xbd588ead	-0.05287044
203	0x3ce7eb4a	0.028310437
204	0xbda3adf9	-0.07992167
205	0xbc951da2	-0.018202607
206	0x3de4ad74	0.11165896
207	0x3dd207cc	0.102553934
208	0xbe587bed	-0.21141024
209	0x3da977c8	0.082747996
210	0xbdc215e1	-0.09476829
211	0x3a97df29	0.0011586893
212	0xbc8ba1f3	-0.017044997
213	0xba65dfa0	-0.00087689795
214	0xbcc2489f	-0.023716269
215	0xbe8260fb	-0.25464615
216	0x3b201494	0.0024426328
217	0x3d93e726	0.072218224
218	0xbe30d5ad	-0.17269011
219	0x3dc29816	0.09501664
220	0x3debd9b4	0.11516133
221	0xbd613c5e	-0.05498921
222	0xbe2605b8	-0.16213119
223	0xbd940099	-0.072266765
224	0xbd4f38c5	-0.05059125
225	0x3e498306	0.19678888
226	0xbe4f6334	-0.20252687
227	0xbe66e8cc	-0.22549742
228	0x3a12ea6d	0.000560439
229	0x3b80b169	0.003927399
230	0x3cc601d7	0.0241708
231	0x3e14f5df	0.14546917
232	0xbdc3bca2	-0.09557463
233	0x3d31f574	0.043446973
234	0x3e45ee72	0.19329241
235	0x3d933b5e	0.07189058
236	0x3dc8320a	0.09775169
237	0x3e5ed78a	0.21761909
238	0xbda3f41e	-0.08005546
239	0xbe13e21e	-0.14441726
240	0x3d5731e2	0.052537806
241	0xbd846c61	-0.06465984
242	0x3d04bfd5	0.032409508
243	0x3d69d1b2	0.057084747
244	0xbe334c79	-0.17509641
245	0x3e36f976	0.178686
246	0x3dea3404	0.114357024
247	0xbe4007c9	-0.1875297
248	0x3cfa5227	0.030556751
249	0xbdd4a698	-0.10383338
250	0xbd231cc0	-0.03982234
251	0xbe299194	-0.1655944
252	0x3e0d2b2a	0.13785997
253	0xbd74db4f	-0.05977946
254	0x3e3aeccb	0.18254392
255	0xbe045e88	-0.12926686

msg_layers.1.W_self.bias f4 [64]
0	0xba65f2d6	-0.0008771842
1	0xbdbe54d9	-0.09293527
2	0x3bf4aee6	0.0074671386
3	0x3e490594	0.19631034
4	0xbd8f0e48	-0.06985146
5	0xbcaf5e7b	-0.021407356
6	0xbd14ae62	-0.036299117
7	0xbd7e41fe	-0.062074654
8	0xbd530a4f	-0.051523503
9	0x3e0da345	0.13831814
10	0xbe0cfa02	-0.13767245
11	0x3e02db81	0.12779047
12	0x3cfe39be	0.031033393
13	0x3d0f955e	0.035054557
14	0xbce90498	-0.028444573
15	0x3c39555d	0.011311856
16	0xbdf2b112	-0.1185018
17	0xbdbfe3da	-0.09369631
18	0xbd673efa	-0.056456544
19	0x3e3850df	0.179996
20	0xbe19136d	-0.14948817
21	0xbe1e507c	-0.1546039
22	0x3d8dc4c1	0.069222935
23	0xbcaae9f0	-0.020863503
24	0x3ab7a428	0.0014010714
25	0xbdb7385d	-0.08946297
26	0xbd98e75b	-0.074660026
27	0x3d30bb2b	0.043147247
28	0xbdc40eb5	-0.09573118
29	0xbdf9a074	-0.12188807
30	0xbdca2f1f	-0.09872269
31	0xbe3e5608	-0.18587506
32	0xbbc1df0c	-0.005916482
33	0xbd23ef58	-0.040023178
34	0xbdabb778	-0.08384603
35	0x3e220d72	0.15825441
36	0xbda2142d	-0.079140045
37	0xbd85d0c4	-0.065339595
38	0xbe29b4fa	-0.16572943
39	0xbc581443	-0.0131884245
40	0x3d159ee2	0.036528476
41	0x3dc598f8	0.09648317
42	0x3c0de68d	0.008660925
43	0x3c9e9fee	0.01936337
44	0xbd4ff75a	-0.050773002
45	0x3cb7108e	0.022346761
46	0x3cb3c7ae	0.0219458
47	0x3dcb7043	0.099335216
48	0x3e2c05ed	0.16799136
49	0xbc73b3e7	-0.014874435
50	0x3db53030	0.08847082
51	0x3e49532a	0.19660631
52	0x3e4f2b21	0.20231296
53	0xbe18fe09	-0.14940657
54	0x3d84cc84	0.06484321
55	0xbda529e9	-0.08064634
56	0x3d1d7edb	0.038451057
57	0xbcf228c5	-0.029560456
58	0xbdff32cd	-0.12460861
59	0x3d9f3b64	0.07775
60	0xbddff77d	-0.109358765
61	0x3de8ae83	0.113614105
62	0x3dd97af2	0.10619153
63	0xbdd58f31	-0.10427702
