QuantLaxmi_Research/dtrn/results/checkpoints/fold3_NIFTY/dtrn_final.pt (torch, 236213 bytes, 37 tensors)

embed.embed.0.weight f4 [32, 2]
000000 c2 80 e6 bb 7c 17 96 3e 87 ea 9d be b6 bd 88 be
       -0.007034392 0.29314792 -0.30842993 -0.26707238
000010 58 98 cd 3d c5 00 f2 be db 42 06 bf 0c b1 10 3f
       0.10038823 -0.47266212 -0.52445763 0.5652015
000020 70 31 e7 3e f3 27 28 bd 6c 64 14 3e b7 6c 70 3e
       0.45154905 -0.041053724 0.14491433 0.23478971
000030 fa 7f 6b bc 06 b4 2f 3f 1d 84 83 be c2 88 39 3e
       -0.014373774 0.6863407 -0.25686732 0.18118575
000040 05 74 88 be 99 55 11 3d 89 78 b3 be 98 e7 16 bf
       -0.26651016 0.035482023 -0.350529 -0.58947134
000050 f6 e6 10 3f 78 cd 07 3f fc ee 39 bf 16 25 33 3f
       0.5660242 0.53047895 -0.72630286 0.69978464
000060 3e c9 a1 bd 5f 86 03 3f 3c ff af be 55 ad ea 3e
       -0.07899712 0.5137691 -0.34374416 0.45835367
000070 db 13 36 be 36 4c 36 3f 04 05 10 bf 25 51 0e 3f
       -0.17781012 0.7121004 -0.56257653 0.55592567
000080 1a 5a f6 3d fe 4e 46 3f 09 71 4c bf 57 a3 01 bf
       0.12028904 0.7746428 -0.7985998 -0.5063986
000090 ea fb fc 3e 2f a8 8e bd 7f 9b ce bc d0 2b ab 3e
       0.49410945 -0.06965672 -0.02522063 0.33431864
0000a0 cc 6a da 3c 76 88 b9 bc df b3 16 bf 8f e1 ca 3e
       0.026662253 -0.022648077 -0.5886821 0.39625213
0000b0 6b 22 9d be ba b8 3c bf be 00 1e bf 9b cc f5 3e
       -0.3069032 -0.7371937 -0.6171988 0.48007664
0000c0 2f 19 d5 3e d0 08 ee be 51 14 9c be 0c b4 51 be
       0.41620776 -0.46491098 -0.3048425 -0.20478839
0000d0 52 50 8f be 46 f8 dc be dc 5e 1c bc c7 9d 3c bf
       -0.27990967 -0.43158168 -0.009544101 -0.7367825
0000e0 35 5b 3d 3f 2f 1f 02 3e f8 2e 65 3e 1c 89 0e bf
       0.73967296 0.12707208 0.22381198 -0.5567796
0000f0 53 15 fb be 77 65 9d be 47 bb 23 3e e0 fb 31 be
       -0.49039707 -0.30741474 0.1598941 -0.17381239

embed.embed.0.bias f4 [32]
000000 85 11 49 be bd 7a f7 bd 4a e3 0b bf 8d 3a a5 3e
       -0.1963559 -0.12083957 -0.5464369 0.32271233
000010 8d d0 9f bd db 24 a3 be df de fc 3d e4 6e e8 bd
       -0.0780345 -0.31864056 0.12347197 -0.11349276
000020 a6 0f c5 be cc ed 8c 3e 31 fc 23 3f ea aa e2 3e
       -0.384885 0.27525175 0.6405669 0.44271022
000030 7e c5 f3 3e 6e 58 1f bf 11 c7 e4 be 1e 76 2e bf
       0.47611612 -0.6224431 -0.44683126 -0.6814898
000040 30 5a 48 3e f0 80 90 3e 53 38 95 be 55 10 00 be
       0.19565654 0.28223372 -0.29144534 -0.1250623
000050 d5 7f 12 3f f6 42 f8 3e d9 fb 1f bf 07 f2 0c bf
       0.57226306 0.48488587 -0.62493664 -0.55056804
000060 be 1c e3 3c 78 73 b8 3c e4 d8 b5 3d d6 df 95 be
       0.027723666 0.022515997 0.08879259 -0.29272336
000070 a2 6c 1b 3f 98 4d 6f bd f2 33 a3 3e c6 c6 c1 3c
       0.60712636 -0.05842361 0.3187557 0.023654353

embed.embed.2.weight f4 [32, 32]
000000 6b 3f 0b 3e bd c2 03 3e b8 6f 11 bd 0b fc ef bd
       0.13598411 0.12867256 -0.035506934 -0.11717995
000010 ff b8 be bc 12 68 2e 3d ae 54 4d be f4 dc 08 bd
       -0.023281572 0.042579718 -0.20051834 -0.033413842
000020 31 1e 0b be 64 7c b6 bc 27 f1 0a 3e bd 42 34 be
       -0.13585736 -0.022276111 0.13568555 -0.17603584
000030 20 d9 ac 3d 43 f3 66 bd a6 9d 84 3c 9a b6 1b be
       0.08439851 -0.056384336 0.016188454 -0.15206376
000040 a2 89 e5 bd d1 2f 9c 3c 10 f8 29 3e 1b fd 0d be
       -0.11207892 0.01906577 0.16598535 -0.13866083
000050 10 3b 85 bc 67 df 17 3c af 8d cb 3d d5 27 14 be
       -0.016263515 0.009269572 0.099391334 -0.1446832
000060 f7 0b e3 3d 76 06 35 be e3 83 83 bb da 3c 43 3e
       0.110862665 -0.17678246 -0.004013525 0.19066182
000070 cc 14 ad bd 45 d9 a0 bd b5 ed 35 bd d8 2a 47 3d
       -0.08451232 -0.07853941 -0.04441615 0.048624843
000080 bf 81 c3 bd 1a bd db bd 06 2d da 3d aa 4f 11 be
       -0.095462315 -0.10729428 0.10653119 -0.14190546
000090 28 26 7d 3d 76 d5 1c bd 9a 18 d6 3d 03 0c f7 3c
       0.061803967 -0.03828951 0.10453911 0.030157095
0000a0 c7 54 44 3e 1e 3a 3e 3d bc a5 b5 3d be 2b ee bd
       0.19172965 0.046442144 0.08869502 -0.11629437
0000b0 7e cc b1 bd fa 6d dd bd 38 87 42 be 0d 26 15 be
       -0.08681582 -0.10811992 -0.18996894 -0.14565296
0000c0 65 8c 47 be 88 38 03 3e 0d 3f 52 3e 3b 67 54 be
       -0.1948715 0.12814534 0.20531864 -0.20742504
0000d0 a6 bd 8a bd 4c c8 fd bd 09 49 98 3b cb 44 0f 3d
       -0.06774454 -0.12391719 0.0046473783 0.034977715
0000e0 22 a8 f2 3b 33 00 d2 3b 06 93 4f 3e 12 95 e4 3d
       0.007405297 0.006408715 0.20270929 0.111612454
0000f0 f7 07 38 be e4 68 1f 3e 85 e1 51 bd c2 ea 09 be
       -0.17971788 0.15567356 -0.051240463 -0.13468459
000100 2e e6 fa 3c f7 44 5f be 36 80 9e 3c 1a 9e 24 3e
       0.030627336 -0.21803652 0.019348245 0.16075936
000110 83 37 ed bd f4 f7 d5 bd 3f b7 ed 3d 90 eb 09 be
       -0.11582854 -0.10447684 0.11607217 -0.13468766
000120 82 fc bb 3d 96 5b 96 3d 29 53 70 3d c9 77 74 3d
       0.091790214 0.073416874 0.058673058 0.05968455
000130 6e be 16 bd 55 97 a3 3c aa f3 59 bc 78 06 b6 bc
       -0.0368027 0.019969622 -0.013302723 -0.022219881
000140 74 7a f1 bc 97 1b 21 be 50 d2 c1 be 21 73 f3 bd
       -0.029477336 -0.15733181 -0.37855768 -0.118871935
000150 ab b4 b2 3d fa 68 9e bc 5f d5 1c 3d 20 b8 38 bd
       0.08725866 -0.019337166 0.038289424 -0.04509747
000160 e7 43 dc bc ca 44 85 bd bd 2c bb 3d 45 83 50 bd
       -0.026887847 -0.06507261 0.091393925 -0.05090644
000170 11 61 fa bc 3e fd 73 be 9d 36 94 3b dd e5 1e bc
       -0.030563863 -0.23827073 0.004523112 -0.009698358
000180 b5 37 9e 3d 95 98 a4 bd 23 ce 1b 3e 18 5c 4a bd
       0.07725469 -0.08036915 0.15215354 -0.049404234
000190 cd 0e b9 3d 4d 96 81 3d 29 f4 22 3e bd 9d 70 ba
       0.09036026 0.06327496 0.15913452 -0.0009178778
0001a0 43 d9 f4 3d 42 5b 95 be 28 f9 5f 3d 66 9d 18 be
       0.11955502 -0.29171187 0.054680973 -0.14903793
0001b0 b7 5b 14 be 51 b3 6f bd de 25 15 3e e4 26 8e 3d
       -0.14488111 -0.05852062 0.14565226 0.069410115
0001c0 f1 17 32 bd 39 4a a3 be 42 c4 52 3c f8 63 2c 3e
       -0.043479864 -0.31892565 0.012864174 0.1683501
0001d0 aa d3 f9 3d c9 2f b9 bd 4b 50 6c 3d 89 d8 11 3c
       0.12198575 -0.090423174 0.05769376 0.008901724
0001e0 cf 92 0d 3e e3 80 45 3c 7d 8f 66 be f2 cf 06 3e
       0.13825534 0.012054655 -0.22515674 0.13165262
0001f0 4f 29 26 3e 42 dd da 3d 2d d5 ba be 34 e8 9f bc
       0.16226695 0.10686733 -0.36490765 -0.019519903
000200 a3 58 cf bb 22 fa 10 3d f4 d1 c4 3b 81 7c 43 3e
       -0.006327705 0.035394795 0.0060064737 0.19090463
000210 06 60 45 bd ca 9c ed 3d 12 a9 30 3d 49 07 3b 3e
       -0.04818728 0.11602171 0.043129988 0.18264498
000220 35 37 b8 bd 98 e6 36 bc ce eb 51 be e4 f0 14 bd
       -0.08994905 -0.011163376 -0.20500109 -0.036362544
000230 18 4c c9 3d 43 f6 2a bd 5e 6c a9 bd 58 40 c2 3d
       0.09828967 -0.04173876 -0.082726225 0.09484929
000240 8a 53 3d be dc c3 64 3e e9 dd 33 be 5f a1 3b bd
       -0.18488899 0.2234034 -0.17565121 -0.045808192
000250 c5 49 c5 3d 93 2c 0f 3e 35 8d 15 be 23 94 54 3e
       0.09633211 0.13981847 -0.14604647 0.20759635
000260 cb c7 8d bd 1c 36 c8 bd a1 dd 66 bd 56 36 72 3d
       -0.06922873 -0.097759455 -0.056363706 0.05913385
000270 95 d2 10 3d 65 80 a0 bd 8f e1 4c 3d 66 20 20 be
       0.035357077 -0.07836989 0.050019797 -0.15637359
000280 ef cd 22 be fa b1 2f bd a1 5c 10 3e 96 ea 67 bd
       -0.1589887 -0.04289434 0.14097835 -0.056620203
000290 2c 6f f0 bd 29 97 ba 3d b2 24 30 bc 88 54 f9 3d
       -0.11739954 0.09110863 -0.010750936 0.12174326
0002a0 b4 50 1e be ac 90 20 3e f0 7e df 3d 35 cd f8 bd
       -0.15460473 0.15680188 0.10912883 -0.12148515
0002b0 14 f2 a7 bd cc 5f 69 be de ce 50 be 13 9a cf bd
       -0.082004696 -0.2279045 -0.20391414 -0.10136809
0002c0 e5 a8 89 3c aa db 26 3e 7f 9b bb 3d f6 15 3e 3d
       0.016804168 0.16294733 0.09160518 0.046407662
0002d0 9b 23 03 be 6c dc da bd f1 9c 23 3c 70 2b fd 3d
       -0.12806551 -0.106865734 0.009986148 0.12361801
0002e0 0c d6 23 be d3 d5 eb bd 1f 1b 22 3e 8c 48 9d bd
       -0.15999621 -0.11515393 0.15830658 -0.07679853
0002f0 74 ec c1 bd 0e 01 1d 3e a9 85 eb 3d a8 02 92 3d
       -0.09468928 0.15332434 0.11500103 0.07129413
000300 37 a7 bf bb 1d 4b 1d be 15 e1 61 3e b3 da b9 3b
       -0.005848791 -0.15360685 0.22058518 0.005671823
000310 a0 7a 2e 3e c1 39 11 3e 16 ec 15 bd e0 02 d9 bd
       0.17038965 0.14182188 -0.036602102 -0.105962515
000320 bf 83 f5 bd aa 12 dc 3d e5 28 d0 bd 9b 06 09 be
       -0.11988019 0.107457474 -0.1016405 -0.13381426
000330 00 51 82 bc 28 af b2 bd 07 70 45 bc e5 35 38 3e
       -0.015907764 -0.08724815 -0.012050635 0.17989309
000340 86 2a 7b 3c d3 87 d9 bc aa 4e 39 3e 37 10 2a be
       0.015329963 -0.026554024 0.18096414 -0.16607748
000350 a6 b9 ac bd 90 4e 0e 3e 9e db 34 bd 79 9c 90 3d
       -0.08433847 0.13897157 -0.044154756 0.07061095
000360 08 55 46 3e 9d e5 08 be b1 0a 7c b9 ce 1f 47 bd
       0.19368374 -0.1336884 -0.00024036576 -0.048614316
000370 f2 e7 c7 3d 59 93 73 3d c1 70 c9 bd 16 38 e7 3d
       0.09761037 0.059466694 -0.09835959 0.112899944
000380 c8 c4 25 3e 8c 53 31 bd e4 06 c8 bc 62 30 2e bd
       0.16188347 -0.043292567 -0.024417348 -0.04252661
000390 29 de 3f 3d 88 d9 42 3e e9 d9 3b 3e 4f 9b 51 3d
       0.046842728 0.19028294 0.18344845 0.051173504
0003a0 54 47 cc 3b 93 d2 13 3d a3 40 17 3e db 97 fd bd
       0.006234089 0.03608949 0.1477075 -0.1238248
0003b0 3a 24 5f bd 8b 49 b3 bd 84 24 5a 3e 4d 5c f6 3d
       -0.054477908 -0.087542616 0.21302992 0.12029324
0003c0 56 c7 69 3d 2b 35 30 be 2b 4a 90 3e 71 0b 54 3e
       0.057074867 -0.17207782 0.28181586 0.2070749
0003d0 fc 07 3c be dc 17 4d be 3f f0 c7 3d 8f 09 c9 bd
       -0.18362421 -0.20028633 0.0976262 -0.09816276
0003e0 e8 51 33 3e bf 59 13 be 0b 65 ab bd 47 cc 31 be
       0.17511714 -0.14389704 -0.08368882 -0.17363082
0003f0 43 f3 fb 3d 92 6a 7c 3d 7d 6e f8 bd ce c0 d2 3d
       0.12302258 0.06162507 -0.12130449 0.10290681

embed.embed.2.bias f4 [32]
000000 20 b7 cc 3d ad 7b c1 bd 72 f5 1f 3d c9 6f f3 bd
       0.09995866 -0.094474174 0.039052434 -0.11886556
000010 7c c8 d5 bd e5 5b 12 be 42 cc f2 3d c4 be ed 3d
       -0.1043863 -0.14292867 0.11855365 0.11608651
000020 5b d2 9b 3d e9 33 4a be cb e9 72 3d 0f 5b 32 bd
       0.076084815 -0.19746365 0.059304994 -0.04354387
000030 75 c3 32 be 80 d5 9d 3d be 05 30 3e 1c 85 d0 bd
       -0.17457373 0.077067375 0.1718969 -0.101816386
000040 bf 37 77 3d 16 cd e3 bd c4 87 4a 3d 18 e9 d2 bd
       0.060355898 -0.111231014 0.049445882 -0.10298365
000050 e1 16 c1 3d 43 90 b0 3d a1 ff 05 bd 85 8a 64 3e
       0.09428192 0.08621266 -0.03271449 0.22318466
000060 0c d8 17 3d 09 41 be bd fb 67 3a 3d 48 4b 58 3e
       0.037071273 -0.09289748 0.04550932 0.21122468
000070 1d 79 f9 3d 18 aa 2a bd 2f 5f 91 bd 3f 18 b2 3b
       0.12181304 -0.04166612 -0.07098233 0.0054350193

input_proj.weight f4 [64, 32]
000000 aa 01 c0 3d 71 e1 42 bd 96 e8 97 3d 79 95 62 bd
       0.093753174 -0.04757828 0.07417409 -0.05531833
000010 5f 62 0e bd 88 b0 27 3c 04 3c 96 ba 00 35 2a 3e
       -0.034761783 0.010234959 -0.0011461978 0.1662178
000020 4c 2a 92 3e d6 ae d7 bd 9b 47 72 bd ce a5 ea bc
       0.28547895 -0.10531394 -0.05915032 -0.028643515
000030 bb d1 0a bd 0b 94 8b 3d 1a e9 93 bd 0a f1 d7 3d
       -0.03389142 0.06815346 -0.07222195 0.105440214
000040 34 6d d6 bd b5 19 5e 3d 20 24 5d be 43 cd 3e 3d
       -0.104700476 0.054223735 -0.21595812 0.04658247
000050 c8 26 3e 3d f3 4f 8f 3d 1e cf 38 3e f9 31 73 3e
       0.046423703 0.06997671 0.18047759 0.23749532
000060 51 c5 8d 3e 83 93 d4 bd 97 16 e3 3c 67 d4 8b 3d
       0.27689603 -0.10379698 0.027720733 0.06827622
000070 b9 31 3d 3d 5c 5a a6 3c 91 76 de bd 98 ac 5c 3d
       0.046189997 0.020306759 -0.108624585 0.053875536
000080 76 40 2c bd a3 49 ac 3d e5 85 06 be 93 e6 8f be
       -0.042053662 0.084124826 -0.13137014 -0.28105602
000090 bd 6a 25 3e 42 04 fa 3b 7b 14 99 bd 9f e9 16 bd
       0.16153999 0.007629902 -0.074746095 -0.036843892
0000a0 84 25 8d 3d 39 ac d8 bd 35 7c db bd 01 51 09 3d
       0.06891921 -0.10579724 -0.1071705 0.033524517
0000b0 a3 d8 33 be d8 37 01 3e 57 55 0a 3e ac bb ab bd
       -0.17563109 0.12618959 0.13509117 -0.08385405
0000c0 65 65 36 3e 2c b2 d7 3b 50 af f5 bd 9e 8d 09 3e
       0.17812116 0.006582519 -0.11996329 0.13432929
0000d0 67 f1 c4 bc 64 b5 d3 3d 6e 08 23 be 41 d7 29 bd
       -0.02404089 0.10337332 -0.15921184 -0.041465048
0000e0 1f e6 a1 3d 5d 32 85 3d 30 87 0b be e2 39 c6 3c
       0.0790522 0.06503747 -0.13625789 0.024197523
0000f0 4a 07 1d 3e d4 46 77 3d 82 76 00 bd cc 91 4b bd
       0.15334812 0.06037028 -0.031363018 -0.04969959
000100 51 7c 1c 3e a1 8b 2c bc bd 8c 62 be 2e 4b 3c 3e
       0.15281798 -0.010531337 -0.22124 0.18388054
000110 c8 fb a6 3d a8 9a aa 3d ee 2d 61 3c 7d 6f 34 3e
       0.08153492 0.083302796 0.013743861 0.17620654
000120 82 74 68 bd 4d f2 1f 3e 4d 82 3b bd 63 ed 11 bd
       -0.056751736 0.15619774 -0.04577856 -0.03562678
000130 fc 56 fe 3c 2b 56 64 3d fa 78 3a be d6 ab fc 3d
       0.031047337 0.05574624 -0.18210211 0.123374626
000140 cd 9f 0d 3c 9b 4e c9 3d d5 7a 26 bc c8 fd d6 3d
       0.0086440565 0.09829446 -0.010161121 0.10497624
000150 b1 99 34 be 4c 3b 01 3e da bc 66 be e4 7d aa bd
       -0.17636754 0.12620276 -0.22532979 -0.08324793
000160 07 5d 93 3c 5d 84 22 be dd e9 01 bc f8 20 30 3e
       0.017988695 -0.15870805 -0.0079292925 0.17200077
000170 be 96 66 3c f9 aa af bc 75 93 d3 3c 23 23 2a 3d
       0.014074026 -0.02144383 0.025827149 0.041537415
000180 61 ad 87 3d e8 af ac bd 19 66 03 3e 24 66 8b bd
       0.06624866 -0.08431989 0.12831916 -0.06806591
000190 5f 3a 41 be e6 14 6c bc 43 da 05 bc 1c 04 9a 3d
       -0.18869923 -0.014409279 -0.008169713 0.07520315
0001a0 76 8c f6 3d 42 cd ac bc 2e 2c 1b be 4d b2 29 3e
       0.120385095 -0.021093968 -0.15153572 0.16571923
0001b0 d4 36 1a 3d ce eb eb bc 39 70 a9 3d e2 2a 97 3d
       0.037649944 -0.028798964 0.08273358 0.07381226
0001c0 54 db dd bd cf da 18 3e 45 9a ad 3c 68 18 99 bd
       -0.10832849 0.14927219 0.021191726 -0.07475358
0001d0 cc b4 c7 3d 22 63 bc 3c 2b 06 5c 3e 75 e3 fd 3b
       0.09751281 0.022996489 0.21486728 0.0077480623
0001e0 63 e4 8e 3d 08 16 04 be 64 16 0b be fe a7 29 be
       0.06977155 -0.12899029 -0.1358276 -0.1656799
0001f0 8d 93 25 be 1e e9 2c 3e 61 a3 12 3e fb 1e ae 3d
       -0.16169567 0.16885802 0.14320137 0.08502003
000200 55 3d 9f ba c1 66 75 3e 38 05 5c bd 92 61 b1 3d
       -0.0012149016 0.23964979 -0.053715914 0.08661188
000210 ad 0f 15 3e 9b ad 6d 3e 3d 1e 22 be a5 3f b6 bd
       0.14556761 0.23210756 -0.15831847 -0.08898858
000220 f6 80 da bd 42 51 18 3e d0 8e 02 3e fd 05 bb 3c
       -0.106691286 0.14874747 0.12749791 0.022830004
000230 31 76 0e 3e de 54 a2 3d 42 52 2d 3e ad a5 92 bd
       0.13912274 0.079263434 0.1692591 -0.071605064
000240 98 2f 9d bd 23 79 c9 bd 55 90 b6 3d 10 d7 dc 3d
       -0.076750934 -0.09837558 0.08914248 0.107832074
000250 11 2f b4 3d fa 21 ff 3d 5a 33 4e bd fc e8 2a be
       0.0879804 0.124576524 -0.05034194 -0.16690439
000260 3e ef ee bd 5e 1b ac 3d a1 32 87 3d 95 23 2f be
       -0.116667256 0.084036574 0.066014536 -0.17103417
000270 45 19 aa bd 67 bd 6c bd 25 db 08 3e 68 b6 a4 3c
       -0.08305601 -0.057797816 0.13364847 0.02010651
000280 dc 39 fa bc a9 e5 42 3e d6 ba 9e 3c 4c 2a 21 bd
       -0.030545168 0.19032921 0.0193762 -0.039346978
000290 a7 06 f7 3d bc 18 8f 3d 3b ae 5a 3d 0c 87 2b 3d
       0.12061816 0.069871396 0.053388815 0.041876838
0002a0 0a 3e 45 be 26 b0 71 3d fc 4a 2e 3e 72 27 9d bb
       -0.19261947 0.05900588 0.17020792 -0.004795962
0002b0 b3 a6 dc 3c 4a 81 e2 bc 8e 14 2b 3e e8 40 23 3e
       0.026934957 -0.02764954 0.1670706 0.15942729
0002c0 9c 37 d1 3d ce 87 02 3e 2d 36 29 3b 62 80 74 3d
       0.10215685 0.12747118 0.0025819645 0.059692748
0002d0 a6 42 35 be 6e cf 19 3e 8a ef 21 be c1 a0 f8 3b
       -0.17701206 0.15020534 -0.15814033 0.0075875227
0002e0 cf 15 52 bd 26 de 1e 3e 57 4a 42 bd 01 97 c0 bd
       -0.05129033 0.1551443 -0.047434177 -0.09403802
0002f0 8f 53 47 3c b2 6a 04 be 22 b6 7d bd 0e 5f 77 3d
       0.012165918 -0.12931326 -0.061941274 0.060393386
000300 6d 14 62 3e 1f 02 b5 3d 2e a2 e2 bb 14 8b ea 3d
       0.22078104 0.08838295 -0.006916306 0.11452308
000310 d6 50 b1 3d c0 ef 0d bd 16 5d 86 3c 3c 6f e1 3d
       0.08657996 -0.03465247 0.016401809 0.110075444
000320 7d 4a a6 3d e8 7f 12 be 1e 1b a9 3d 55 07 e7 bc
       0.08119676 -0.14306605 0.08257125 -0.028201738
000330 33 5b f3 bb df 7c 05 be fe 85 f1 bd e9 fd 5e bd
       -0.0074266433 -0.13035916 -0.11793135 -0.054441366
000340 4b 85 a3 bd a1 c5 d7 bc 0e 36 f3 bd 4f 19 3a be
       -0.07984408 -0.026339354 -0.118755445 -0.18173717
000350 14 32 ca bd 7f 39 04 3e dc 7a ce 3d 83 28 d8 bc
       -0.09872833 0.12912558 0.10082027 -0.026386505
000360 21 9f 0b be 43 62 f5 3c 19 6c 04 3e 41 66 5d 3e
       -0.13634922 0.029954081 0.12931861 0.21621038
000370 b5 0b 0a be c4 b7 3a 3e bf 17 af 3d f6 2d ac 3d
       -0.13481028 0.18234164 0.08549451 0.08407204
000380 fe 08 85 bd a0 af 03 be 28 52 0a be f5 97 fb 3d
       -0.06495856 -0.12859964 -0.13507903 0.12284843
000390 20 9e 11 be 16 54 55 be 68 f5 39 3c 95 2a ea 3c
       -0.14220476 -0.20832857 0.011350013 0.028584758
0003a0 fe 50 89 3d c3 50 c8 3d f3 ca 68 3e 46 46 a3 3d
       0.06704901 0.09781029 0.22733669 0.07972388
0003b0 cf 10 56 bd 5e 02 f9 bd a5 02 4c be ac a9 d5 3c
       -0.052262124 -0.12158655 -0.19922884 0.026081882
0003c0 27 49 4f bd b8 f8 0f 3e 4b 7d 9d bc 70 91 16 3e
       -0.050606873 0.14059722 -0.019224783 0.14703918
0003d0 db 24 9d 3d e2 73 d0 bd 7f fe 1e bd 39 39 3a 3d
       0.07673045 -0.10178353 -0.038816925 0.045464728
0003e0 5a c0 ca bd 08 ce 20 3e b5 0d 45 3d 9a 88 93 3d
       -0.098999694 0.15703595 0.048108775 0.07203789
0003f0 db 5f 7b be f8 ee 1d 3e 43 e2 b0 3b 84 7b 52 3e
       -0.24548285 0.1542319 0.0053980662 0.2055493

input_proj.bias f4 [64]
000000 34 44 18 3d b3 0e 96 bd a6 7b 2d be ea 97 22 3e
       0.03717442 -0.073270224 -0.169417 0.15878263
000010 6c 99 d9 bc 4a b7 8c 3d 70 26 a1 bc 5e 8d 1b 3e
       -0.026562415 0.06870897 -0.019671649 0.15190646
000020 bd d6 41 3e e9 51 23 be cb 95 7a bd 87 44 fa bc
       0.18929572 -0.15949215 -0.06117801 -0.030550255
000030 92 00 9a 3d 3d f9 b8 bd 71 bf 69 bd 68 7a b8 bd
       0.0751964 -0.090319134 -0.05706734 -0.09007722
000040 cf 73 85 bd 29 57 1d be 22 3f ce 3d 71 d8 0b 3e
       -0.06516229 -0.1536528 0.100706354 0.13656785
000050 a6 fe 99 3d 10 c6 e4 bd 80 87 c5 3d 63 40 cb bd
       0.075192735 -0.1117059 0.09644985 -0.0992439
000060 68 39 87 3d 83 bd 1b be 68 31 5b 3e 22 f1 1f be
       0.06602746 -0.15209012 0.21405566 -0.15619329
000070 76 ca 79 3d 79 14 f3 bd 32 d7 58 be 31 ba 58 3d
       0.060984097 -0.11869139 -0.2117584 0.05291194
000080 99 bc 71 be df c0 66 3c 50 d4 b0 bd 4f ca 2b be
       -0.236071 0.01408407 -0.086342454 -0.16776393
000090 92 2c 88 bd fa 6c 1b be e7 77 69 bc 00 4c 62 3d
       -0.06649126 -0.1517829 -0.014249778 0.05524826
0000a0 65 96 0e be 0b d7 23 3e 07 c9 50 3e 87 45 df 3d
       -0.13924558 0.16000001 0.20389186 0.10901933
0000b0 ca 19 dd 3d 18 55 83 3d 5c a3 ac 3c 61 d7 db 3b
       0.107959345 0.06412715 0.02107399 0.006709025
0000c0 7f d4 fa bd 01 29 a8 bd b2 71 34 3e 91 e9 16 3e
       -0.12247562 -0.08210946 0.17621496 0.14737536
0000d0 32 ca ad bd e8 27 04 bc a5 b8 e0 bd 7f cd 7d be
       -0.08485831 -0.008066155 -0.10972718 -0.24785422
0000e0 ac 55 b0 3a 6a 94 2d bd b3 6e b0 bd 49 31 54 be
       0.0013453267 -0.042377867 -0.08614864 -0.20721926
0000f0 80 8e e7 bd 12 42 3a be 8e 19 62 be 75 7a a2 bd
       -0.113064766 -0.18189266 -0.22080061 -0.07933513

msg_layers.0.W_self.weight f4 [64, 64]
000000 e0 8a aa bc 5d ab 23 bd 8c a5 85 bd 5f 1f c2 bd
       -0.020818174 -0.039958347 -0.06525716 -0.0947864
000010 d2 66 94 bc 13 35 c5 3d 91 57 8d 3d 03 26 97 bd
       -0.018115435 0.09629264 0.069014676 -0.07380297
000020 50 31 93 bb 71 ae 22 bd 62 86 84 ba 88 b6 ed 3d
       -0.0044919625 -0.03971714 -0.001011085 0.11607081
000030 8b ad cf bd 2f b9 3d bd 8a 62 09 bd 14 85 73 bd
       -0.101405226 -0.046319183 -0.03354124 -0.059453085
000040 4b 6e d2 bd 05 2d ee bd df 27 a7 3d be 8d 92 3c
       -0.10274943 -0.116296805 0.08161902 0.017889854
000050 c2 22 c5 3b 00 15 6f bd 0e 98 92 3d 94 74 d8 bd
       0.0060161063 -0.058369637 0.071579084 -0.105691105
000060 e3 87 03 bd 02 07 a4 bd a5 d1 1d bd 54 a3 10 3e
       -0.032112014 -0.08009149 -0.03853001 0.14124805
000070 8c a8 6a 3c be 27 80 bc a8 f9 31 3d 53 4f 0e bc
       0.014322411 -0.01564395 0.04345098 -0.008685905
000080 70 c3 34 3d ef 3e 17 be 79 f3 21 bd 63 42 11 be
       0.044131696 -0.14770101 -0.039538834 -0.14185481
000090 83 d5 c3 bd 10 fc bf bc 9d 3e 8d bc 9b c1 be bd
       -0.095622085 -0.023435622 -0.01724177 -0.09314271
0000a0 57 0c 62 bd 87 37 44 bd 34 b1 8d 3a 9a c8 1b 3e
       -0.05518755 -0.047904518 0.0010810257 0.15213242
0000b0 a4 3d 56 3d c4 e0 ae bd ed 00 03 be 44 66 02 3e
       0.05230488 -0.085389644 -0.12793322 0.12734324
0000c0 ec b8 87 3c ef b0 b0 3d 8d 50 5c 3d b6 e0 e5 3b
       0.01656767 0.086274974 0.053787757 0.007015313
0000d0 19 c6 81 bc 67 cd b6 3d 2f a1 6a bc 4b 12 66 bd
       -0.01584153 0.08925896 -0.014320656 -0.05616979
0000e0 37 c4 13 bd e6 36 a9 bd 35 25 31 bd 9d 4e 0e be
       -0.036075797 -0.08262424 -0.043248374 -0.13897176
0000f0 3f e8 ee 3c ab ed 72 3d 1a 34 d7 3d 3b cb 4b bd
       0.029163478 0.05930869 0.105079845 -0.049754363
000100 e8 7d 9b bd 9f 69 a7 3c ba 89 eb 3d e6 2c 9d bd
       -0.07592374 0.020436106 0.11500879 -0.07674579
000110 76 1b 07 3e 53 9c b4 bd f9 86 8a 3d 62 39 6a bd
       0.1319407 -0.08818879 0.06764025 -0.05718363
000120 8d 03 a1 3d 09 52 b4 bd 4d 2a 1c bd f4 71 a5 bc
       0.078620054 -0.088047095 -0.03812628 -0.020195939
000130 c0 a4 fc bd 19 cc 3b bd da ff ff bd 43 3a c4 3c
       -0.12336111 -0.04584894 -0.12499972 0.023953563
000140 6a 42 f1 bd ba bc 3c 3e 44 3b 2b bc 02 0e bb bd
       -0.117802456 0.18431368 -0.010451142 -0.09133531
000150 32 05 0d bb 81 45 5c bb 1c 75 b1 bd 69 f7 d7 3c
       -0.002151799 -0.0033610763 -0.08664915 0.026363092
000160 2c f0 28 be af ba c4 3d 9f 16 01 be dc b6 87 3d
       -0.16497868 0.096059196 -0.12606286 0.066266745
000170 b7 34 77 3d b5 fd 8b 3d 18 99 d7 3d 0d 6f 41 bc
       0.060353007 0.068355 0.10527247 -0.011806262
000180 a8 5c d5 bc 49 bb 34 bd d9 58 58 3c 8a b4 72 3c
       -0.026045159 -0.04412392 0.013204777 0.014813552
000190 25 ca 98 3d d9 1e 14 3e 63 39 80 bc b7 18 24 bd
       0.07460431 0.14464892 -0.015652364 -0.040062632
0001a0 0a b2 97 3d 8e 6e 02 be 2b 6b 31 be a1 c3 6f 3d
       0.07407005 -0.12737486 -0.17326038 0.058536176
0001b0 6a 2f 5e bd cf 36 a9 3d 6d 0d 39 3e 4f d3 9b 3d
       -0.054244436 0.08262407 0.18071528 0.07608663
0001c0 c6 09 db 3d 8f d5 31 3e 08 a6 8f bc ff 4c 37 3d
       0.106952235 0.17366622 -0.017535225 0.044751164
0001d0 b4 c0 5a 3c 6d d1 f0 3c df fe b4 3d 58 b5 2e 3e
       0.013351608 0.029396737 0.08837675 0.17061365
0001e0 ba 65 57 3b bc 6a e2 bd a8 07 f2 3c e2 86 8e 3d
       0.003286703 -0.11055514 0.029544666 0.069593206
0001f0 aa 59 2d bb 18 e9 be 3c e6 60 73 3d 42 62 86 3d
       -0.002645115 0.023304507 0.05941858 0.0656171
000200 fc 37 da bd 38 7c 10 3e db 90 1f be ad a4 d0 bd
       -0.106552094 0.14109886 -0.15582602 -0.101876594
000210 cc b2 2b 3d c0 8f e0 3d c2 da f6 3d a0 d2 03 3c
       0.04191856 0.10964918 0.120534435 0.008045822
000220 89 a7 cc bd 94 12 76 3c a7 70 a1 3c 34 58 88 3d
       -0.09992892 0.015019078 0.019707037 0.066574484
000230 cc 69 91 3d f8 87 6b 3d e8 b8 61 bc 0a d8 0a bd
       0.07100257 0.057502717 -0.013776995 -0.033897437
000240 51 38 89 3c 7f ad ed 3b a5 16 02 3e ac 6a d7 bc
       0.016750487 0.0072533484 0.1270395 -0.026295982
000250 40 57 b2 3c f2 89 a7 3d aa 80 9c 3d 6c de 51 3e
       0.02177012 0.08180608 0.07641728 0.20495003
000260 8c 3c e3 3c 44 e4 7c bd fa 9e d5 bd 8c 48 1b 3e
       0.027738832 -0.06174113 -0.10430713 0.15164393
000270 5f 7e 3e 3d 88 ed 80 3d eb 7e 53 bd 55 db 69 3e
       0.046507236 0.062953055 -0.05163471 0.22837575
000280 88 11 ad 3d 8b 89 c3 bd 36 d8 39 bd c1 77 6a 3c
       0.084506094 -0.095477186 -0.04537221 0.014310778
000290 9e 8f 3e bd 81 73 3d 3e 8f 98 22 3c 49 cd 14 bd
       -0.046523683 0.18501092 0.009924068 -0.036328588
0002a0 01 69 35 bd ba 4a 54 bd 00 52 5b bd 9b 49 ed bd
       -0.044289593 -0.051829077 -0.053545 -0.11586305
0002b0 5d de 05 bd a9 c3 ee 3d b4 65 cf bd 6f 6d a4 bd
       -0.032682765 0.11658413 -0.1012682 -0.08028685
0002c0 e1 74 b1 bd 2c f2 db 3d 10 e7 a9 bb 09 48 f6 bd
       -0.08664871 0.1073955 -0.0051850155 -0.12025458
0002d0 d4 21 9d bd 9a e7 94 bd e9 c5 ee bd ef 7f 42 3d
       -0.07672468 -0.07270737 -0.11658842 0.04748529
0002e0 8b 69 fc bd f3 f1 45 bd c4 8d 6d 3d 3f 9c 20 3d
       -0.12324818 -0.048326444 0.057996526 0.039211508
0002f0 b7 04 09 bd 2a 6a 0b 3e 8a f8 44 3c 9b a2 fc 3d
       -0.033451762 0.13614717 0.012022147 0.12335702
000300 72 01 9d 3d a2 6a 48 bd a4 dc f4 bc 7b 21 02 3d
       0.07666291 -0.048929818 -0.029890366 0.03177021
000310 99 85 dd 3d 7d a5 c6 3c 2b b8 a7 3d c3 d0 6e 3c
       0.10816497 0.024248833 0.08189424 0.01457614
000320 9b de c5 3c c6 48 f7 3d 26 d3 04 3c b5 26 fb 39
       0.024153998 0.12074427 0.008106982 0.0004790329
000330 9a 6c 5e bd 97 4a 47 3d 97 c9 00 be 82 5d 9d 3d
       -0.05430279 0.04865512 -0.125769 0.07683851
000340 19 e6 04 bd 5e 0d 93 3b 8d 77 49 3d 44 34 48 bd
       -0.032446 0.0044876775 0.049186278 -0.04887797
000350 bb 79 f7 bd c4 fb ca 3d e7 cd 06 3e 97 a9 34 3e
       -0.12083765 0.09911302 0.13164483 0.17642818
000360 d1 f0 b9 bb db bf 73 bc 50 51 a2 bd c6 fc e8 3d
       -0.0056744595 -0.014877285 -0.079256654 0.11376338
000370 92 32 1a 3d dd 72 97 bd 42 87 8e bd 81 57 f5 3c
       0.037645884 -0.07394955 -0.06959392 0.029948952
000380 34 ff 95 bd 2e a6 09 bd ce e0 1f 3d b3 86 59 bd
       -0.07324067 -0.033605747 0.03903275 -0.053106975
000390 25 f9 fb 3b 22 ee d3 3d 66 a8 99 bd bd cb 9a 3d
       0.0076896125 0.103481546 -0.075028226 0.07558391
0003a0 f2 42 af 3d b7 5f 36 bd 72 29 dc bd 6e 2d f4 3d
       0.08557691 -0.044524875 -0.107500926 0.119227275
0003b0 63 b1 c5 bd 86 f3 0e be 1a 91 04 3d ec 2c 32 3d
       -0.096529745 -0.13960084 0.032364942 0.043499872
0003c0 67 43 16 bc bf 7b 81 3d ba 47 31 3d ee 02 f2 3a
       -0.009171343 0.06322431 0.043281294 0.0018464008
0003d0 0f 80 61 3d 3e 6e 23 be cf b7 19 bb 38 7e cf 3d
       0.055053767 -0.15960023 -0.0023455506 0.10131496
0003e0 34 6e de bd a4 fa e7 bd f0 2c 1d be 51 74 44 3e
       -0.10860863 -0.11327103 -0.15349174 0.19184996
0003f0 99 eb 56 3d 18 ba 92 3d b8 a5 01 bd 2e 6a ce 3d
       0.052470777 0.07164401 -0.031652182 0.10078846

msg_layers.0.W_self.bias f4 [64]
000000 e2 74 22 bd 69 8e 1e be 7e 5f 14 be e2 d0 a6 3d
       -0.03966225 -0.15484013 -0.14489552 0.0814531
000010 ce 2d 7d bc 75 ca 4c bd cb 0e a1 3c f4 ea f1 bc
       -0.015452815 -0.049997766 0.019660374 -0.02953098
000020 5a 58 ed bc 34 61 42 3d 5c 2f 09 3e 03 82 10 3e
       -0.028972793 0.04745598 0.13396972 0.14112096
000030 60 51 1c be 37 2e 99 3b 30 33 3c 3a c1 a6 11 3e
       -0.15265417 0.0046746987 0.00071792584 0.14223768
000040 d4 87 04 bd f6 92 44 be 52 e3 3e bd 57 8e 85 bd
       -0.0323561 -0.19196686 -0.04660351 -0.0652129
000050 ae 88 1c 3c 31 e0 cb bd cc bd 3a bd 95 b5 17 be
       0.009554071 -0.099548705 -0.04559116 -0.14815362
000060 c6 2d b0 bc f5 d1 c8 bd 77 94 a1 3d e8 11 d1 bc
       -0.021506201 -0.09805671 0.078896455 -0.025521234
000070 8c 39 98 3d 89 98 b6 bd ba bc a5 bc 44 b2 85 3d
       0.07432851 -0.089158125 -0.020231593 0.06528142
000080 d3 cc fb bd 34 e1 f6 3c 49 f3 50 bc 27 91 d4 bd
       -0.122949265 0.030136682 -0.012753316 -0.10379248
000090 1a 5d 35 3c fe 62 f9 3d 16 f8 8f bd 57 28 0f bd
       0.01106956 0.121770844 -0.070297405 -0.03495058
0000a0 09 01 66 3d 0f 23 19 3a 73 c5 15 bd a0 49 93 3d
       0.05615333 0.0005841711 -0.036565255 0.07191777
0000b0 dd 01 b6 bb bf 43 be 3d d1 d7 84 3b 06 52 b5 3d
       -0.0055544213 0.09290265 0.0040540476 0.08853535
0000c0 61 37 8f 3d 2f ff 14 be 86 20 17 3d 86 a9 c1 bc
       0.069929846 -0.1455047 0.03689625 -0.023640405
0000d0 b5 88 d3 3d 87 b5 81 3d d2 2c 3d 3d 7c 09 b3 bd
       0.10328809 0.06333452 0.046185322 -0.087420434
0000e0 4a 6d e7 3d 42 c0 61 3d 1d 52 ad 3c cb 0b b5 bc
       0.11300142 0.055114992 0.021157319 -0.02210035
0000f0 e6 b7 bf bd f7 ff 33 bd d9 7c 88 3d 6f 43 e0 3c
       -0.09361248 -0.04394528 0.06664438 0.027375905

msg_layers.0.W_msg.weight f4 [64, 64]
000000 34 bc a8 3d 81 6a 09 3d b8 48 ca bd 1d 97 08 bd
       0.08239022 0.033548836 -0.09877151 -0.033347238
000010 fa dd 29 3d 57 d7 d7 3a fc 41 b8 3a 3c f1 9a 3d
       0.04147146 0.0016467375 0.0014057751 0.07565543
000020 fc 5b 8b bd 9c 89 89 bd 32 dd c8 3d ea 41 cc 3c
       -0.06804654 -0.067157 0.09807815 0.024933774
000030 f4 03 9b 3d b4 b5 1d 3d 7b e5 1c 3e af 30 03 3e
       0.075691134 0.038503364 0.15321915 0.1281154
000040 04 fa 73 3d 71 93 ab bc 8e da 31 3d 11 d7 90 3d
       0.059564605 -0.020944329 0.04342132 0.07072271
000050 0a 79 4d bd 7b 5c 31 3d 98 88 6e bd 38 ff d9 bd
       -0.05016426 0.043301087 -0.058235735 -0.10644382
000060 99 e9 50 bd fc 13 a2 3d 11 2b 96 bc 37 36 38 3d
       -0.051004026 0.07913968 -0.018331083 0.04497358
000070 2f 92 2e 3d 22 94 0b bd f6 e8 87 3d bb b9 f8 3c
       0.04261988 -0.034076817 0.06636231 0.030362
000080 65 d3 9f bc 4f 0b f4 3d a2 d7 76 bd 19 a0 de bd
       -0.01950998 0.119162194 -0.060264237 -0.1087038
000090 36 dd 8b 3c be f6 9a bc 69 09 e0 3d 13 03 04 3e
       0.017073255 -0.018916484 0.10939295 0.12891798
0000a0 8b e1 65 bd da d2 dd 3d c3 66 70 bd 68 db 49 3d
       -0.056123298 0.10831232 -0.05869175 0.049281508
0000b0 66 2a a8 3c 5d d6 53 3d ef 3a 2c be 81 14 1e bc
       0.02052803 0.051718105 -0.16819356 -0.009648443
0000c0 d3 6e 7d bb 2a 3e 86 3c d1 2d 97 bd 7f ee 73 3d
       -0.0038670793 0.016387064 -0.07381786 0.05955362
0000d0 b6 42 1c be 0b 8b bb bb 5d f1 f0 bd d1 60 07 bd
       -0.15259823 -0.0057233623 -0.117647864 -0.033051316
0000e0 00 df c8 3c 73 f5 e6 bc 82 57 ba 3d eb 08 55 bd
       0.024520397 -0.028193211 0.09098722 -0.052010458
0000f0 df b4 c2 bd 70 24 f2 bd 49 f8 ae bd e8 cd 27 3d
       -0.09507155 -0.11823356 -0.085434504 0.040967852
000100 74 6d 0f be 1b f8 86 3d 58 ce b0 3d 47 fa 62 be
       -0.14006597 0.06590291 0.08633107 -0.22165786
000110 f0 73 dd 3c ee 20 8b bd d9 06 a3 3d 9f b7 90 bd
       0.027032822 -0.0679339 0.079602905 -0.07066273
000120 d0 46 e7 bd e0 63 4a be c3 af db bd 37 df db bc
       -0.11292803 -0.19764662 -0.10726883 -0.026839836
000130 8f 79 d3 bd df 7a 11 bd 33 8f e8 3d cd b0 c9 3d
       -0.1032592 -0.03551757 0.11355438 0.09848175
000140 94 4a 3a 3d bf b9 fa bc 0d ec c1 3d a7 db 4e bd
       0.04548128 -0.030606149 0.09468851 -0.050502446
000150 3e 78 fa bd b2 94 53 3d ba 1b 3f bb ee fb b5 bd
       -0.122299656 0.05165548 -0.0029160813 -0.088859424
000160 a3 47 c4 bd 0d 6a 86 bd 55 cc 74 3d 5d 8e 03 3e
       -0.09583976 -0.06563196 0.05976518 0.12847276
000170 41 a9 bb bd bb d5 f5 3d 9e 34 06 3d a4 a1 1f be
       -0.09163142 0.120036565 0.032765023 -0.15589005
000180 e9 f1 3d 3e c5 df 4b bd 8f 14 56 bd 5d 00 cf 3b
       0.18549313 -0.04977395 -0.0522657 0.006317182
000190 75 43 8f 3c 80 90 a1 3d 74 bc b0 ba b5 4a f0 bd
       0.01748822 0.07888889 -0.0013483898 -0.11732999
0001a0 c2 52 06 3d ae 5d 21 be 2f 34 bc bd 81 0c 26 bd
       0.032793768 -0.15758392 -0.09189641 -0.04053927
0001b0 9c fe d0 3c 34 28 f5 3b 2d 78 74 3d a5 a3 57 3d
       0.025512032 0.007481599 0.05968492 0.052646298
0001c0 6b 8c ab bd 54 09 1d 3d 00 00 07 be 98 96 e3 3c
       -0.08376392 0.038338974 -0.13183594 0.02778177
0001d0 c4 a3 f6 bd 25 d5 a4 bc 0b 21 f5 3d ea 01 23 3c
       -0.120429546 -0.020121166 0.11969193 0.009949187
0001e0 c3 aa b0 3d 4e 42 22 3d ca a9 4f 3e da b8 12 3e
       0.0862632 0.039614014 0.20279613 0.14328328
0001f0 d7 d5 0f bd d6 26 06 3e bf 79 40 3e 24 c8 1c 3e
       -0.035116043 0.13100752 0.18796442 0.15310723
000200 b1 24 f0 bd 42 d8 9b bd 61 69 1d bc b8 42 d7 3d
       -0.11725748 -0.07609607 -0.009607644 0.105107725
000210 af b3 8e bd f7 6c 40 3c df 1a c7 bc ca 27 da 3d
       -0.06967866 0.011744729 -0.024304805 0.106521204
000220 78 01 fa 3d 81 28 ce bd fd 63 7f 3d fa 4e 72 bc
       0.122073114 -0.10066319 0.062351216 -0.014789337
000230 54 aa 15 bc e6 8b cf bc 16 97 5c bd eb 2a a4 bd
       -0.009134848 -0.025335263 -0.053855024 -0.080159985
000240 ee 88 9d 3d f6 aa a7 3c f4 ef ca 3c 22 49 57 3d
       0.07692133 0.020467263 0.024772622 0.05255998
000250 3d bd d4 3d cc da 3b 3d 38 84 c4 3d 14 05 0d 3e
       0.10387657 0.045862958 0.09595531 0.13771468
000260 fb 26 a6 3d 04 b5 22 3d b0 c7 be bd ec 75 2b 3d
       0.08112904 0.03972341 -0.09315431 0.041860506
000270 95 3a 93 bd 82 99 70 3d 98 61 d8 3c 0c a3 38 3d
       -0.07188908 0.058740146 0.026413724 0.04507737
000280 a4 f3 e4 bd ee 71 14 be 10 dd 6b 3d 16 47 86 bd
       -0.11179283 -0.14496586 0.05758387 -0.06556527
000290 8c 8e 13 3e 7b 2f 0b bd 1c dd be 3d d0 7e d6 bd
       0.14409846 -0.033980828 0.09319517 -0.10473406
0002a0 87 a1 1b 3b 18 72 4a bc ad 5d 6f bd 23 98 d9 3d
       0.00237474 -0.012356304 -0.058438946 0.10624721
0002b0 69 b8 12 bb cb 43 82 bd 3b f8 d5 bd 53 7d 12 3e
       -0.002238775 -0.06360587 -0.10447737 0.1430562
0002c0 4c e7 17 bc 41 23 5c 3d 3a 7c dc bd 37 09 b4 3d
       -0.009271454 0.05374456 -0.10765882 0.0879082
0002d0 82 55 ea 3d b5 7a 46 bd da dd 44 3d 56 dc 87 bd
       0.114420906 -0.048456866 0.048063137 -0.066338226
0002e0 f8 ff 28 3c 7d a9 ce bd 27 be ae 3d cb d8 13 3d
       0.010314934 -0.10090921 0.085323624 0.03609542
0002f0 ee f1 c7 bd 6c 9d 04 be 9e de 12 be f7 c3 41 bd
       -0.09762941 -0.12950677 -0.14342734 -0.047306027
000300 cb c7 56 3c 9e b9 1f bd 80 88 18 be b3 ce 62 bd
       0.013109158 -0.038995378 -0.1489582 -0.055372905
000310 ed bb 44 bc ae 97 b6 bd c3 6a e6 bd 54 b9 2d 3d
       -0.012007696 -0.08915649 -0.11250832 0.04241307
000320 c1 58 99 3d 42 f2 e7 ba 2b 47 e4 bd e0 27 dc 3d
       0.074876316 -0.00176961 -0.11146387 0.10749793
000330 f1 2c 4f 3c db b0 85 bd 58 4b 09 bd b9 90 93 bd
       0.012644992 -0.06527873 -0.03351912 -0.07205338
000340 86 ac 07 3d d9 48 5a bd f1 3b 99 3c 37 66 9c 3d
       0.033123516 -0.05329213 0.01870534 0.076366834
000350 97 d6 dd 3d 3b dc cd bd 7b e8 ca 3d fa 24 8f bc
       0.108319454 -0.10051771 0.099076234 -0.017473686
000360 20 b1 91 bd 03 98 a1 bb bb 58 af 3d ab 44 06 3d
       -0.07113862 -0.0049314513 0.08561846 0.03278033
000370 43 d7 e3 bc 80 32 1c bd 5c c6 ea 3c f9 a0 27 3d
       -0.027812606 -0.038134098 0.028659038 0.040925
000380 3f 71 52 bd ae 5f 37 3e 3f 8e 37 3d 10 30 a7 3d
       -0.05137753 0.17907593 0.04481339 0.08163464
000390 05 5e 9f 3b f9 9e 1f be bd f9 d8 3c 4b 1d fe bc
       0.004863503 -0.15587987 0.026486272 -0.031019827
0003a0 26 41 89 3c 14 ea 45 bd ef 8f 84 3c a3 10 10 3d
       0.016754698 -0.048318937 0.016181914 0.035172116
0003b0 2f aa a9 bd e8 fa 75 3d 2f c7 03 3e a9 46 d1 3c
       -0.08284413 0.060053736 0.12868951 0.025546389
0003c0 c3 dc 93 3d ff 44 5a bd e9 51 dc 3b 84 b3 96 bd
       0.07219841 -0.053288456 0.0067236316 -0.07358459
0003d0 07 75 a1 bb 6d 05 0c 3d a9 e2 fa bc c9 b9 e0 3d
       -0.004927281 0.034184862 -0.030625658 0.10972936
0003e0 59 cc 04 3e 92 e5 b0 3d 8d 42 b2 3d f1 9e f0 bd
       0.12968577 0.08637537 0.087041 -0.11749066
0003f0 87 c3 c0 bd e0 d9 9e bc 2c 38 b8 bd c4 f4 44 3d
       -0.09412294 -0.019391 -0.08995089 0.04808499

msg_layers.0.W_msg.bias f4 [64]
000000 30 fa 73 bb e2 83 2f 3b 73 31 ae 3d 1a c2 b8 3d
       -0.003722798 0.002678149 0.085055254 0.09021397
000010 9e 60 0a be 5f 7a 26 3d ce 18 0b bd f2 d1 28 bd
       -0.13513419 0.040644046 -0.033959202 -0.041215844
000020 c4 f7 f8 3d dd c4 8c bd aa a0 06 be 70 43 1f bb
       0.121566325 -0.06873486 -0.13147226 -0.002430167
000030 c0 98 52 bd 22 d3 17 3e 7c 7a cc bd 8f 4f e7 bb
       -0.051415205 0.14826635 -0.099842995 -0.0070590447
000040 17 77 13 3e cb e5 a7 bd 92 42 cd 3d bd af e4 3d
       0.14400898 -0.081981264 0.10022463 0.11166332
000050 01 b0 75 3d 0c df db 3d 9d bc ea bc 5e 02 57 3d
       0.059982304 0.10735902 -0.028654391 0.052492492
000060 b6 65 74 3d 50 5b 3e 3b 6d 60 e1 bc 07 c1 37 bc
       0.05966731 0.0029046126 -0.0275118 -0.011215455
000070 a0 34 7c 3d 8c b6 1b be f3 bf 69 bc e2 71 ee bd
       0.061573625 -0.15206355 -0.014266956 -0.11642815
000080 51 89 ce 38 60 1d 99 3c 7a 62 22 3d c2 5c 5e bd
       9.8484226e-05 0.018690765 0.039644696 -0.05428768
000090 75 ad c2 3d 01 67 e0 bd 6b 9a a5 3d b1 a1 0b bd
       0.095057406 -0.109571464 0.080860935 -0.034089748
0000a0 1c b9 71 3c b9 dd 8e bd aa 91 54 3d 4f 8e 78 bc
       0.014753606 -0.06975884 0.05189673 -0.015170648
0000b0 1b 56 18 3d e3 a7 fb 3d e2 90 c9 bc 25 8c 8f bd
       0.03719149 0.12287881 -0.024605218 -0.07009152
0000c0 21 a8 29 bd b0 38 6c 3c ff cc aa bd b0 35 d0 bc
       -0.041420106 0.014417812 -0.08339881 -0.025416225
0000d0 3b b2 dc 3d 10 75 0b be fa c9 86 3c 53 97 95 bb
       0.10776182 -0.13618875 0.016453732 -0.0045651584
0000e0 e9 22 58 bd d9 7d a4 bc 89 81 03 be e2 45 28 3d
       -0.052767668 -0.02007954 -0.12842382 0.04108227
0000f0 5f d0 77 3d 2d 42 4f 3d 2e 0d 9c 3d 9e 38 b9 3b
       0.060501453 0.05060022 0.07619701 0.0056525012

msg_layers.0.norm.weight f4 [64]
000000 2d 65 4a 3f 4e 77 7a 3f 89 b1 7e 3f 2a 2e 74 3f
       0.7906063 0.97838295 0.9948965 0.9538294
000010 0e 64 6d 3f 93 04 73 3f 21 2d 75 3f 4e 90 85 3f
       0.92730796 0.94928855 0.95771986 1.0434663
000020 af 40 7f 3f 82 a2 81 3f 48 7e 61 3f 3c b4 67 3f
       0.99708074 1.0127718 0.88083315 0.9050939
000030 e4 ed 83 3f 82 3b 7f 3f 58 4a 85 3f 5e 73 78 3f
       1.0306973 0.99700177 1.0413313 0.97051036
000040 0b c0 80 3f 64 26 72 3f f4 77 80 3f 2b ef 6e 3f
       1.0058607 0.9458983 1.0036607 0.9333369
000050 dc 53 74 3f c6 16 86 3f 26 fc 8a 3f 88 72 7f 3f
       0.9544046 1.04757 1.08582 0.99784136
000060 19 bf 79 3f aa d3 7f 3f 26 17 8b 3f a5 f7 61 3f
       0.97557217 0.9993235 1.0866439 0.882685
000070 55 c5 86 3f 5a 45 87 3f fc 32 87 3f 0e 41 65 3f
       1.0528971 1.056804 1.0562434 0.8955239
000080 c9 98 82 3f da 06 5d 3f 0c d9 73 3f ed 3b 87 3f
       1.0202876 0.8633858 0.9525306 1.0565163
000090 97 38 84 3f c1 a7 63 3f 94 00 67 3f 41 f4 83 3f
       1.032977 0.8892785 0.9023526 1.0308915
0000a0 df 7d 7c 3f 96 7f 88 3f be a1 87 3f a6 a7 86 3f
       0.98629564 1.0663936 1.0596235 1.0519912
0000b0 3b 34 79 3f 8a 6e 88 3f 38 f5 85 3f 8a ae 68 3f
       0.9734532 1.0658734 1.046546 0.90891325
0000c0 9f e6 87 3f 7e 87 89 3f cf 02 80 3f 43 3b 81 3f
       1.0617255 1.0744474 1.0000857 1.009621
0000d0 b5 24 87 3f ef 28 82 3f ea b7 7b 3f aa d2 85 3f
       1.0558077 1.0168742 0.98327506 1.0454915
0000e0 96 99 85 3f 09 d0 82 3f 8e 61 81 3f b8 45 75 3f
       1.0437496 1.0219737 1.0107896 0.9580951
0000f0 d8 69 87 3f d2 d9 71 3f d4 dd 98 3f f7 26 7a 3f
       1.0579176 0.9447299 1.1942697 0.97715706

msg_layers.0.norm.bias f4 [64]
000000 e8 57 f1 3c c4 8c a4 bd 39 10 a5 bd e7 ce d0 3c
       0.029460862 -0.080346614 -0.08059735 0.025489284
000010 f7 c9 c6 3c 7a cb 0b 3c b5 a5 d2 3d e0 1e 90 3d
       0.024266226 0.008532399 0.10285512 0.07037139
000020 cb 65 02 bc 34 db 7d 3d 03 7e 8f 3d ac f8 56 3d
       -0.00795884 0.061976627 0.07006457 0.052483246
000030 2f 02 66 3d 14 9b 98 bd 2f 8b 5e 3d f5 73 1b 3d
       0.056154426 -0.07451454 0.054331955 0.037952382
000040 a0 68 47 bd 4e fc 03 be 92 61 56 bd fc 69 c1 3c
       -0.048683763 -0.12889215 -0.052339144 0.023610108
000050 16 dc ea 3c 8a 74 6b 3d 4e d2 de 3c fb aa 20 bc
       0.028669398 0.057484187 0.02719989 -0.00980639
000060 c6 fa 20 bc 8e 90 8a bd 4f 2f 5a 3d e8 11 96 3d
       -0.009825414 -0.06765853 0.053267773 0.07327634
000070 dd ed db 3b 71 c1 1d 3c 76 1d 9f bd 5d 4d 69 3d
       0.006711705 0.00962864 -0.07769291 0.056958545
000080 fc b9 11 bd 2a c2 9b bd 2b 7f a9 bd 47 62 44 bd
       -0.03557776 -0.07605393 -0.082762085 -0.047945287
000090 bf 2f 86 bc fc ae 02 3e b7 c4 cc 3c 8b 63 95 3c
       -0.016380189 0.12762064 0.024996145 0.018235942
0000a0 0c 4f 41 3d 31 05 99 3d 01 48 16 3d a2 23 de 3c
       0.047194526 0.07471693 0.036689762 0.0271166
0000b0 55 3d 6e 3d b1 cf 2f 3d 09 40 d5 3c ec 20 9e 3d
       0.05816396 0.04292268 0.02603151 0.07721123
0000c0 b5 e5 de 3d 4b a7 a9 bd 5b 67 93 3d 95 5e 58 3d
       0.10883657 -0.08283862 0.07197448 0.052824575
0000d0 96 af 90 bc 44 88 df 3d be e9 e6 bc e2 62 ce bd
       -0.01766185 0.109146625 -0.028187629 -0.10077454
0000e0 7a d9 89 3d f6 9e 2a 3c 1c 62 f6 3c 19 10 e6 bd
       0.067309335 0.010413876 0.03007608 -0.11233539
0000f0 e2 c0 a2 3b 6f f2 80 3d ca b3 39 bd f6 56 24 3c
       0.004966841 0.062962405 -0.045337476 0.010030499

msg_layers.1.W_self.weight f4 [64, 64]
000000 cc d3 5c be 78 fa 43 3d 46 4f e0 3d 15 ec 79 3d
       -0.21565169 0.047846287 0.1095262 0.06101616
000010 84 d3 33 3e 7a f7 4c 3d d5 34 fe bc c8 3c 42 3b
       0.17561156 0.0500407 -0.031031052 0.002963828
000020 2e 10 82 3d 0c 36 8c bd 61 f4 d3 bc 6b 73 75 3c
       0.06350742 -0.06846246 -0.025873365 0.014981131
000030 dd a4 48 bb d3 56 39 3e 78 6c 55 bd 76 0d 2c be
       -0.0030615844 0.18099527 -0.052105397 -0.1680201
000040 75 06 f2 3d e2 17 aa bd ae e9 d9 bc 13 4b b2 3d
       0.11817638 -0.083053365 -0.026600685 0.087057255
000050 6c b1 1d 3e 9a 84 5d bd 08 a9 90 bd 95 25 12 bd
       0.15399712 -0.054081537 -0.0706349 -0.035680372
000060 c5 a3 c5 3d 28 f3 85 3b 60 1f 02 bb ca 30 2d bd
       0.09650377 0.0040878244 -0.0019855127 -0.042282857
000070 f2 52 9f 3d f0 17 ff 3d 4b 59 84 3d 43 94 1c 3d
       0.077794924 0.124557376 0.06462344 0.03822733
000080 9b de 37 bd f6 a1 d8 bd 1f 13 40 3b 11 9f 56 3d
       -0.044890027 -0.105777666 0.0029308272 0.05239779
000090 45 cc f0 3d 33 9c 26 bc 14 fa 8e 3b f6 84 03 bd
       0.11757711 -0.010169077 0.0043633077 -0.032109223
0000a0 8c 38 61 3d 99 c5 38 3d 91 d6 b9 ba be 47 c4 bd
       0.054985568 0.04511032 -0.0014178326 -0.09583996
0000b0 cb 6d 9a bd ab 5c 29 bd 9f 24 3d bd 8e a3 45 bd
       -0.075404726 -0.04134814 -0.046177503 -0.04825168
0000c0 8e 59 07 be eb 04 1f 3d f9 42 b0 bd 0b 9e ab bd
       -0.13217756 0.03882305 -0.08606524 -0.08379754
0000d0 f5 d0 08 bc 1e b8 0e 3d ef 5d b3 3c d6 b7 a9 3d
       -0.0083506005 0.034843557 0.021895377 0.08287017
0000e0 1e 9a a8 3d 39 d9 29 3b 98 36 0c bd 11 86 48 bd
       0.082325205 0.0025916828 -0.034231752 -0.04895598
0000f0 3e 33 de 3c cc 64 28 bc cb 28 15 bd 5c 65 10 3e
       0.027124044 -0.010277938 -0.036415856 0.14101166
000100 f9 fd 92 3d dd cb 22 3b d5 7e 37 3d 85 6f 8b 3d
       0.07177348 0.002484075 0.04479869 0.0680838
000110 16 ec 60 3d 43 ff 12 3d bf ce 58 bd cf f3 ef bd
       0.05491265 0.035887968 -0.052931543 -0.11716425
000120 47 e9 37 3d f2 f9 d6 3d 2c 44 4e bd 34 a9 a9 bc
       0.044900205 0.10496892 -0.050357983 -0.020710565
000130 70 da 81 bc 98 b0 31 3d ce dc dd bc c0 01 bc bd
       -0.01585123 0.043381304 -0.027082827 -0.09180021
000140 55 32 f1 bc 91 ad 35 bd a2 8e 2f be 26 7d 87 3d
       -0.029442945 -0.04435498 -0.17144254 0.06615667
000150 77 32 a3 3b bb bb 2c bd 72 35 54 bd 46 b6 2c be
       0.004980381 -0.04217122 -0.051808782 -0.16866407
000160 e7 ba 2e 3d 57 1e 81 3c bd 8e 4b 3d 20 3e 46 3d
       0.042658713 0.015761537 0.049696673 0.04839909
000170 67 18 83 bd 35 13 b7 bc 55 46 89 bd d6 20 00 3d
       -0.06401139 -0.022348026 -0.06702868 0.031281315
000180 e2 e8 3f bd b5 4a 3b 3c 51 0a 90 bd 17 71 a5 bc
       -0.046852954 0.011431386 -0.07033218 -0.020195527
000190 f1 18 08 3e 1e 7a 0c be 9f d7 5b bd d0 98 9a bc
       0.13290764 -0.13718459 -0.05367243 -0.018871695
0001a0 a7 79 f3 3c af 86 37 bc f6 34 6d 3d 82 4e a9 3c
       0.029721094 -0.011201545 0.057911836 0.020667318
0001b0 5c 43 c8 3d b4 fb b4 3d ba e3 de 3d 69 9f f6 3c
       0.09778473 0.08837071 0.10883279 0.03010531
0001c0 11 bf e6 3c dd 53 49 3c 52 61 ef bc f5 d6 47 bd
       0.02816728 0.012288061 -0.02922121 -0.048788983
0001d0 2b 46 38 be e0 25 50 3e 0e 75 f4 bb 92 25 8a bc
       -0.17995517 0.20326948 -0.007460243 -0.016863618
0001e0 5a 9e 14 3e 00 81 1e 3e 6a ae 3d 3d 82 53 14 be
       0.14513531 0.15478897 0.046308912 -0.1448498
0001f0 f0 8d c9 3d bc 15 2e 3d 44 d1 22 bc ba 3c 05 be
       0.098415256 0.042501196 -0.009937588 -0.13011447
000200 31 58 b7 3c a8 44 5d bc ed ca 94 3c fd b9 73 3d
       0.02238092 -0.013505138 0.018163169 0.059503544
000210 d6 c8 36 3e b5 58 d6 3d 6d 2d ac bd ad aa 97 3d
       0.1785005 0.10466138 -0.08407102 0.07405601
000220 ff 40 98 3b 9e 2e 88 bd cc 80 3c 3e c1 74 54 3e
       0.00464642 -0.066495165 0.18408507 0.20747663
000230 23 71 86 bd 77 20 a3 ba a1 d7 f6 3d 90 0c 2b be
       -0.06564548 -0.0012445588 0.12052847 -0.16704011
000240 29 e7 8f bd ca 3b e5 3c dc 9f ab 3d c6 12 9a bc
       -0.07026512 0.027982611 0.083801 -0.01880778
000250 6c 54 2f 3d a4 54 ba 3c a1 e9 20 be 03 6f 1e bc
       0.04280512 0.022745438 -0.15714122 -0.009670022
000260 f9 48 d1 3b ff 2e d1 3d 92 2a af 3d 6e 9b 81 3d
       0.006386873 0.10214042 0.085530415 0.06328474
000270 08 a2 8e bc 40 cb eb 3c 05 27 07 be bc b7 e5 3c
       -0.017411247 0.02878344 -0.13198479 0.028041713
000280 86 6b 81 bc f2 7e 2f be 05 bb 5b 3b f7 8e 75 3c
       -0.015798341 -0.1713827 0.003352822 0.014987699
000290 ce 7e 07 3e a0 02 65 bd fa ec 0b 3d 64 cf 0f be
       0.13231966 -0.055910707 0.034161545 -0.14043957
0002a0 c9 23 79 3d 18 1f 8c 3d 41 36 35 be 80 65 c5 bd
       0.060825143 0.06841868 -0.17696477 -0.096385
0002b0 bd 59 ae bd f3 3a 09 be bf 96 ad 3d f0 1f 87 3c
       -0.0851321 -0.13401394 0.08476018 0.016494721
0002c0 1c f9 ed bc 46 cf 92 3d 5a 14 a1 3d 76 99 ed bd
       -0.029049449 0.071684405 0.0786521 -0.11601536
0002d0 d2 fb 80 3d 2e 58 a9 3c da 3f a7 3d d4 a3 fe 3c
       0.06298031 0.02067193 0.081664756 0.031083979
0002e0 3b 63 11 be 68 ad 99 bd 6c 50 7f 3c 8c fa a6 3d
       -0.1419801 -0.07503778 0.015583139 0.08153257
0002f0 ee 6f 80 3d 47 f4 8b bd e7 5d a3 3c 26 19 53 bb
       0.06271349 -0.068337016 0.019942237 -0.0032211035
000300 fc 31 db bc 8b 48 f8 bd 5c 86 bd 3d ef 04 99 bd
       -0.026757233 -0.121232115 0.09254143 -0.07471644
000310 06 3c 10 be ce 10 4c be 88 6c 35 3d 01 37 0e bd
       -0.14085397 -0.19928285 0.044292957 -0.034720425
000320 dd 6b da 3d a0 82 fc 3d 21 89 c8 3d a3 25 45 bc
       0.106651045 0.12329602 0.0979178 -0.012032899
000330 6c 63 e9 3d e4 cf 36 3d bc 7f 20 3d f4 df 8a 38
       0.11395916 0.044631854 0.039184317 6.622067e-05
000340 d0 0e 07 bd 09 24 c8 bc cd 40 65 3d bc 98 e5 bb
       -0.03297311 -0.024431245 0.055970002 -0.0070067327
000350 2b fb c4 bd 5a aa 3e 3d a0 7e 32 3e e9 c1 50 3e
       -0.09618219 0.04654918 0.17431116 0.20386471
000360 c5 66 d0 3d c6 95 8b bd d3 c3 ae bd 63 bd 24 3d
       0.10175852 -0.068156764 -0.08533444 0.040219676
000370 40 19 29 3e 90 9e 14 be 8d 66 31 be 6f 92 9c bc
       0.16513538 -0.14513612 -0.17324276 -0.019112794
000380 06 36 8e bd 34 39 ca 3c 38 da 7e 3d 8a f9 f8 ba
       -0.06943898 0.02468548 0.06221983 -0.0018995267
000390 a1 8f 17 be 45 53 ec 3d dc 0d 03 3d d7 88 cd 3d
       -0.14800884 0.1153932 0.03199564 0.10035866
0003a0 79 9a 17 3d 8d 9e 73 bd e4 9d d8 3c ef 78 78 bc
       0.03701255 -0.059477378 0.026442476 -0.015165552
0003b0 81 41 d2 bc 70 4e 18 be 6e 06 9e 3d 2c 36 a3 bd
       -0.025666 -0.14873672 0.0771607 -0.07969317
0003c0 94 17 95 3d 9c 58 0a be 35 9b 17 3d bc 46 d2 bc
       0.07279888 -0.13510364 0.03701325 -0.025668494
0003d0 22 0c b0 3d 9a ef 0c 3e 83 bd c3 3d d6 db 0c 3d
       0.08596064 0.13763276 0.09557631 0.03438934
0003e0 ce de 28 3d 92 c0 bf bc 8d 7e 98 3b fe fb 91 bc
       0.041228108 -0.023407254 0.004653758 -0.017820355
0003f0 09 33 0b bd 8f 33 31 3d fe 1d 03 3d ad 47 cf bd
       -0.033984218 0.04326206 0.032011025 -0.10121093

msg_layers.1.W_self.bias f4 [64]
000000 ec 48 1e be 05 03 be bc ae 1a 53 be 9b 07 97 3d
       -0.15457505 -0.0231948 -0.20615646 0.073744975
000010 a5 aa e5 bd bc 96 ad 3d a9 c9 8a bd ef 62 81 3d
       -0.112141885 0.08476016 -0.06776745 0.06317698
000020 ac 8e 3f bc 01 a4 b2 bc 42 1b de 3d ba ae 5c bd
       -0.0116917305 -0.021806719 0.10845043 -0.05387757
000030 db 4c 30 bd b1 ee c5 3d c0 08 a6 3d 5d 75 79 bd
       -0.043042045 0.096646674 0.08107138 -0.060902942
000040 2e 92 9d 3d ba 41 01 3d 74 69 8f 3d 67 d4 ad 3c
       0.07693897 0.031556822 0.070025355 0.021219445
000050 c9 00 17 be 8f 92 e6 bc d7 75 3a 3e 2c ff 21 be
       -0.14746393 -0.028146056 0.18209015 -0.15819997
000060 f2 08 13 be e4 8d 2f be 25 07 5c bd 72 43 93 bd
       -0.14358881 -0.1714397 -0.05371775 -0.071905985
000070 93 09 20 3e 88 22 2b bc 70 f3 7c 3c 6d 85 88 3d
       0.15628652 -0.010445245 0.015438899 0.06666074
000080 13 65 b5 bc 57 37 d9 3d 05 c7 1f be 80 83 1f 3c
       -0.022142923 0.10606258 -0.15603264 0.009735942
000090 fa a1 c1 bd 5f ba c8 3d 70 bc d3 bd f8 43 57 3d
       -0.09454723 0.098011725 -0.10338676 0.052555054
0000a0 75 86 55 3c e5 50 77 3d c6 2e d0 bd 88 e9 11 3e
       0.013032545 0.06037988 -0.10165171 0.14249241
0000b0 2c 22 3c 3e 34 f0 65 3d ca e4 e6 3d c0 78 56 3d
       0.1837241 0.05613728 0.11274107 0.05236125
0000c0 5d 7f 46 3e d6 a9 9d 3d ed 04 84 3d 25 00 b4 3d
       0.19384523 0.07698409 0.06446252 0.0878909
0000d0 89 ad 4a 3d 8e c3 62 bd 28 b4 35 3d f0 00 d7 bc
       0.049481902 -0.055362277 0.044361264 -0.026245564
0000e0 02 1e 05 be 50 be 20 3b bf 50 88 3c 36 6a dd 3d
       -0.12999728 0.0024527498 0.016640065 0.10811274
0000f0 3f 00 9b bd 75 ee 81 3d 6f e7 e3 bd a6 2e 0a bd
       -0.07568406 0.0634431 -0.11128127 -0.033735894
