QuantLaxmi_Research/dtrn/results/checkpoints/fold3_NIFTY/dtrn_stage1.pt (torch, 232927 bytes, 37 tensors)

embed.embed.0.weight f4 [32, 2]
0	0x3d105978	0.035241574
1	0x3ea2aa1f	0.31770417
2	0xbeb27dc1	-0.34861568
3	0xbe75c36a	-0.24000326
4	0x3d950160	0.07275653
5	0xbef9e3f0	-0.48806715
6	0xbf0b208c	-0.5434654
7	0x3f0ad704	0.5423434
8	0x3ef91ef0	0.48656416
9	0xbc9e8680	-0.019351244
10	0x3e3ee8d4	0.18643504
11	0x3e86eb39	0.26351336
12	0xbbc2847f	-0.005936205
13	0x3f2fb1c9	0.68630654
14	0xbe8dfaac	-0.2773031
15	0x3e291d97	0.16515194
16	0xbe90c6c6	-0.28276652
17	0x3d430ecd	0.047621537
18	0xbec1ff67	-0.3789017
19	0xbf1cb700	-0.61216736
20	0x3f17f6a6	0.5936073
21	0x3f0ceb71	0.55046755
22	0xbf3e1043	-0.74243563
23	0x3f2e4a53	0.6808216
24	0xbded8e89	-0.11599452
25	0x3efdee47	0.49595854
26	0xbe9a8f12	-0.3018728
27	0x3ef60c09	0.48056057
28	0xbdf36f9f	-0.118865244
29	0x3f3b4b42	0.7316171
30	0xbf0f608e	-0.56006706
31	0x3f0a9dcc	0.5414703
32	0x3e0c7785	0.13717468
33	0x3f4799f2	0.77969277
34	0xbf528ef3	-0.82249373
35	0xbf06f02f	-0.5271024
36	0x3f0782df	0.5293407
37	0xbd58c46e	-0.052921705
38	0xbcb0227c	-0.021500818
39	0x3eae3380	0.34023666
40	0x3cb10c37	0.02161227
41	0xbd1975d4	-0.037465885
42	0xbf1c5d44	-0.6107981
43	0x3ebe71e4	0.37196267
44	0xbea1ed2a	-0.31626254
45	0xbf3da24c	-0.7407577
46	0xbf2ae1ca	-0.66750777
47	0x3ef31fad	0.47485104
48	0x3ee745db	0.45170483
49	0xbee0567c	-0.43815982
50	0xbea38556	-0.31937665
51	0xbe68bc4d	-0.22728081
52	0xbea9372f	-0.33049914
53	0xbee539f7	-0.44770786
54	0xbd37614c	-0.044770524
55	0xbf43456c	-0.76277804
56	0x3f447809	0.7674566
57	0x3e1b7dcd	0.15184708
58	0x3e7a6de7	0.24455987
59	0xbf07653f	-0.52888864
60	0xbf007053	-0.50171393
61	0xbea8ee9e	-0.3299455
62	0x3e481b38	0.19541633
63	0xbe1e7616	-0.15474734

embed.embed.0.bias f4 [32]
0	0xbe311006	-0.17291269
1	0xbd9fd1cb	-0.07803687
2	0xbf0db341	-0.55351645
3	0x3e992f85	0.29919067
4	0xbd6127be	-0.05496954
5	0xbe93c095	-0.28857866
6	0x3db6ac65	0.089196004
7	0xbdfb4920	-0.12269807
8	0xbebdf5e1	-0.37101653
9	0x3e8d8c52	0.27646118
10	0x3f28cdf0	0.65939236
11	0x3ed97654	0.4247309
12	0x3eea9649	0.45817783
13	0xbf19d337	-0.60087913
14	0xbedb2a60	-0.42805767
15	0xbf31da1b	-0.6947343
16	0x3e4438e4	0.19162327
17	0x3e908398	0.28225398
18	0xbe8c4549	-0.2739661
19	0xbe0112ad	-0.1260478
20	0x3f0eeb22	0.55827534
21	0x3eecd557	0.46256515
22	0xbf205513	-0.6262981
23	0xbf0d8010	-0.5527353
24	0x3d2c2335	0.042025764
25	0x3b975753	0.004618564
26	0x3dd75d2b	0.10515817
27	0xbe9b4217	-0.3032386
28	0x3f21b881	0.63172156
29	0xbd3c613e	-0.045991175
30	0x3e9c5f5b	0.305415
31	0x3d1d874b	0.038459104

embed.embed.2.weight f4 [32, 32]
0	0x3e17af1a	0.1481289
1	0x3ddabba0	0.10680318
2	0xbd6f8f80	-0.05848646
3	0xbdc10b6f	-0.09426009
4	0xbd0701f6	-0.032960854
5	0x3d524ac9	0.051340852
6	0xbe372488	-0.1788503
7	0xbc1964ce	-0.009362413
8	0xbe216254	-0.15760165
9	0xbd0ab3d9	-0.033862922
10	0x3e21f826	0.15817317
11	0xbe1cb7f1	-0.15304543
12	0x3ddaa156	0.10675304
13	0xbd78ec22	-0.06077207
14	0x3d0f5cd0	0.035000622
15	0xbe205339	-0.15656747
16	0xbdb904de	-0.090341315
17	0x3bcac70a	0.006188278
18	0x3e1798c1	0.14804365
19	0xbdf5c140	-0.1199975
20	0x3bc070cb	0.005872821
21	0x3d054cf7	0.032544103
22	0x3da3fd63	0.08007314
23	0xbe0b670d	-0.1361353
24	0x3dbb9721	0.09159685
25	0xbe47815d	-0.19482942
26	0xbcb590d4	-0.022163786
27	0x3e2bd118	0.16778982
28	0xbd81e54a	-0.063425615
29	0xbdcd087a	-0.100113824
30	0xbca63da6	-0.020293068
31	0x3ceb15ee	0.02869698
32	0xbd8d4bdb	-0.06899234
33	0xbe1334ca	-0.14375606
34	0x3d8ec871	0.06971825
35	0xbde0d7bb	-0.10978647
36	0x3daa5c6b	0.083184086
37	0xbce974bf	-0.028498052
38	0x3e0ef9eb	0.13962524
39	0x3d0a7d7e	0.033811085
40	0x3e1e7654	0.15474826
41	0x3cbb89ac	0.022892796
42	0x3e022acc	0.12711638
43	0xbdace2d2	-0.084417
44	0xbd5412d6	-0.051775776
45	0xbe13c906	-0.14432153
46	0xbe29c818	-0.16580236
47	0xbe390a74	-0.18070394
48	0xbe22d77b	-0.15902512
49	0x3dd8956c	0.10575375
50	0x3e4c405e	0.19946429
51	0xbe35225d	-0.1768889
52	0xbcfff227	-0.031243397
53	0xbdbce5ff	-0.09223556
54	0xbce97bb9	-0.028501378
55	0x3c36aac6	0.011149114
56	0xbb7e44fa	-0.0038798437
57	0xbced1039	-0.0289384
58	0x3e2d156d	0.16902705
59	0x3d9b441c	0.0758135
60	0xbe0bf1c3	-0.13666444
61	0x3df7aae9	0.120931454
62	0xbd445c98	-0.047939867
63	0xbe151d95	-0.14562066
64	0x3c01a0ee	0.007911904
65	0xbe3f9c6f	-0.18712018
66	0x3d55ddbd	0.05221342
67	0x3e067e23	0.13134055
68	0xbe02395f	-0.12717198
69	0xbdac6637	-0.084179334
70	0x3daed717	0.08537119
71	0xbe0a78a0	-0.13522577
72	0x3df9ed01	0.12203408
73	0x3dbaa3e6	0.091132924
74	0x3cfe8f0c	0.03107407
75	0x3cf8b44b	0.030359408
76	0xbd89bb19	-0.06725139
77	0x3d4623e6	0.04837408
78	0xbd08f86d	-0.033440042
79	0x3c080a0f	0.008303179
80	0xbd7296ee	-0.05922597
81	0xbe0b0667	-0.13576661
82	0xbeb0c726	-0.34526938
83	0xbe16de29	-0.14733185
84	0x3d6bac3b	0.0575373
85	0xbd458e42	-0.04823137
86	0x3d89a65f	0.06721186
87	0xbc6f5473	-0.014607537
88	0x3a00ddce	0.0004915864
89	0xbd14ef26	-0.036360882
90	0x3df7d4e2	0.12101151
91	0xbca9e022	-0.020736758
92	0xbd795dcd	-0.06088047
93	0xbe4daf5f	-0.2008643
94	0x3c0488ef	0.008089288
95	0x3c6f7cae	0.014617128
96	0x3db8d907	0.0902577
97	0xbdca3c64	-0.098748
98	0x3e02fc09	0.12791456
99	0xbcc107ea	-0.023563344
100	0x3deb503d	0.114899136
101	0x3dae9a78	0.08525556
102	0x3e381463	0.17976527
103	0x3caec5ce	0.021334555
104	0x3dcb719b	0.09933778
105	0xbe987949	-0.29780033
106	0x3d960c93	0.07326617
107	0xbdfbad00	-0.122888565
108	0xbdfbcc42	-0.122948185
109	0xbd91d611	-0.07120908
110	0x3e2b415a	0.16724148
111	0x3d6608fa	0.056160904
112	0xbcc3f7ed	-0.023921931
113	0xbea9ff65	-0.33202663
114	0x3b819b2a	0.0039552646
115	0x3e3f0cd9	0.18657245
116	0x3e14fbcd	0.1454918
117	0xbd8272cb	-0.06369551
118	0x3d061ff5	0.03274532
119	0x3c4ee340	0.012627423
120	0x3dfc47be	0.12318371
121	0x3b58e3db	0.0033094797
122	0xbe7435a1	-0.23848583
123	0x3ddf49da	0.10902758
124	0x3e3f5e19	0.18688239
125	0x3db0da1f	0.08635353
126	0xbeb52eb9	-0.3538721
127	0xbd1aedcb	-0.037824433
128	0xbc11220a	-0.008858213
129	0x3d31510f	0.043290194
130	0x3b9bb8db	0.004752261
131	0x3e39ea5e	0.1815581
132	0xbc96cfc6	-0.018409621
133	0x3ddb85f4	0.10718909
134	0x3d0bfdb1	0.034177486
135	0x3e356378	0.17713726
136	0xbdbc34b8	-0.09189743
137	0xbc1fc8d1	-0.009752468
138	0xbe5446fb	-0.20730202
139	0xbd3b20a6	-0.045685433
140	0x3dbb28ab	0.09138616
141	0xbd55d794	-0.052207544
142	0xbdb80d8f	-0.08986961
143	0x3db4ef2b	0.0883468
144	0xbe45ae70	-0.19304824
145	0x3e6c29b6	0.23062786
146	0xbe210f5e	-0.15728518
147	0xbd5f0827	-0.054451134
148	0x3dca70e2	0.09884812
149	0x3e07bb25	0.13254984
150	0xbe182f3b	-0.14861767
151	0x3e4a2726	0.19741496
152	0xbd51d43e	-0.0512278
153	0xbdb698bc	-0.089158505
154	0xbd458bc2	-0.048228987
155	0x3d779daf	0.060453113
156	0x3d29776b	0.04137365
157	0xbd891cda	-0.06694956
158	0x3d55669c	0.05209981
159	0xbe107167	-0.1410576
160	0xbe43e402	-0.19129947
161	0xbc816469	-0.01579495
162	0x3e2238a2	0.15841916
163	0xbd9d342f	-0.07675969
164	0xbddc3f7c	-0.10754296
165	0x3d9c4631	0.076305754
166	0xbd1c70e5	-0.038193602
167	0x3e094287	0.13404284
168	0xbe08da92	-0.13364628
169	0x3e4722fb	0.19446938
170	0x3db38f86	0.08767609
171	0xbe104a30	-0.140908
172	0xbdd41223	-0.10355022
173	0xbe5389b7	-0.20658003
174	0xbe6c351a	-0.23067132
175	0xbd88b191	-0.06674493
176	0xbc1bcb43	-0.009508911
177	0x3e61aa4d	0.22037621
178	0x3de16adb	0.11006709
179	0x3c899baf	0.016797869
180	0xbe14bfd2	-0.14526299
181	0xbdfb7022	-0.12277247
182	0x3cc5e04e	0.024154808
183	0x3e28060e	0.1640856
184	0xbdfffa50	-0.12498915
185	0xbd9f89a8	-0.07789928
186	0x3e46e15b	0.19421904
187	0xbd6f9791	-0.058494154
188	0xbdec0d77	-0.11526006
189	0x3e3ae2ef	0.18250631
190	0x3e455eee	0.19274494
191	0x3dc26a52	0.09492935
192	0x3bbe731c	0.005812062
193	0xbe39f4b7	-0.18159758
194	0x3e4863c7	0.19569312
195	0x3cfad0dd	0.030617172
196	0x3e207044	0.15667826
197	0x3e0d46e3	0.13796572
198	0xbc245268	-0.010029413
199	0xbdcf7de9	-0.10131437
200	0xbe142fa5	-0.144713
201	0x3dc2a9c0	0.095050335
202	0xbd98fa85	-0.07469658
203	0xbddf3b1b	-0.10899945
204	0x3c2cd2e7	0.01054833
205	0xbdde73a0	-0.108618975
206	0x3a856edf	0.0010180137
207	0x3e20238d	0.15638562
208	0x3d2c8cf3	0.042126607
209	0xbd1f5532	-0.038899608
210	0x3e216f51	0.1576512
211	0xbe19033c	-0.1494264
212	0xbd7824a1	-0.060581807
213	0x3e27712b	0.16351764
214	0xbd85f35c	-0.06540558
215	0x3d6219f6	0.05520054
216	0x3e2c9dba	0.16857043
217	0xbe2581b5	-0.1616276
218	0xbca5f96a	-0.020260531
219	0xbd980353	-0.07422509
220	0x3df9ce18	0.121975124
221	0x3d01910d	0.03163247
222	0xbdb61938	-0.08891529
223	0x3db61032	0.08889808
224	0x3e35d9dd	0.1775889
225	0xbd7dbeb6	-0.061949454
226	0xbd070ba9	-0.032970104
227	0xbced924e	-0.029000428
228	0x3d02d3c0	0.03194022
229	0x3e501d2d	0.2032363
230	0x3e4d72c0	0.20063305
231	0x3d5864e0	0.052830577
232	0xbb54c2df	-0.0032464785
233	0x3c99cc03	0.018774038
234	0x3e2702b6	0.16309628
235	0xbde28798	-0.11061019
236	0xbd21a630	-0.03946513
237	0xbdb6bc12	-0.0892259
238	0x3e69b6e6	0.22823676
239	0x3decb709	0.11558349
240	0x3d97fbb8	0.074210584
241	0xbe455a14	-0.19272643
242	0x3e88a17f	0.26685712
243	0x3e644f84	0.22295958
244	0xbe34e082	-0.17663768
245	0xbe41f1ac	-0.18939847
246	0x3dc3106d	0.09524617
247	0xbdc48d31	-0.095972426
248	0x3e192f3c	0.14959425
249	0xbe28f7d6	-0.16500792
250	0xbdd2cf9d	-0.10293505
251	0xbe3cb816	-0.18429598
252	0x3e0ac993	0.13553457
253	0x3d2a2f8e	0.041549258
254	0xbe064b5d	-0.13114686
255	0x3da62931	0.081133254

embed.embed.2.bias f4 [32]
0	0x3dfb1dd5	0.122615494
1	0xbd6fc83c	-0.058540568
2	0x3c1588e7	0.009126878
3	0xbdc388d5	-0.09547583
4	0xbdd32fef	-0.10311877
5	0xbe241ef0	-0.16027427
6	0x3e1242bb	0.14283268
7	0x3dfd61df	0.12372183
8	0x3cb73eee	0.022368874
9	0xbe2626fb	-0.16225807
10	0x3dac7af5	0.0842189
11	0xbd29d16e	-0.041459493
12	0xbe18f1fb	-0.14936058
13	0x3d4ab734	0.049491122
14	0x3e1c0cdb	0.15239279
15	0xbddbe917	-0.10737818
16	0x3d254590	0.040349543
17	0xbdbd499c	-0.092425555
18	0x3d21fa8c	0.03954558
19	0xbd936a4b	-0.07198008
20	0x3cfaeb53	0.03062979
21	0x3d862192	0.06549372
22	0xbd03b781	-0.032157425
23	0x3e47a765	0.1949745
24	0xbbb2b5ca	-0.0054538
25	0xbd477fb8	-0.048705786
26	0xbb9ca5a9	-0.0047804904
27	0x3e665329	0.2249266
28	0x3e002466	0.12513885
29	0xbcd40b5d	-0.025884325
30	0xbd450952	-0.04810459
31	0x3bd49fef	0.006488792

input_proj.weight f4 [64, 32]
0	0x3de9f982	0.11424543
1	0xbae8f981	-0.0017774553
2	0x3d3c51d1	0.045976464
3	0xbcf8ed11	-0.03038648
4	0xbc9f7308	-0.01946403
5	0x3d5f0819	0.054451082
6	0xbd0be843	-0.03415705
7	0x3e012805	0.12612922
8	0x3e728c78	0.23686397
9	0xbd70ab32	-0.058757015
10	0xbd5bc184	-0.053651348
11	0xbb528994	-0.003212546
12	0xbd898d86	-0.067164466
13	0x3ce4340b	0.027856847
14	0xbdb3b167	-0.08774071
15	0x3da67ec3	0.08129647
16	0xbd6a6e5c	-0.057234153
17	0x3cfb3434	0.03066454
18	0xbe3cf5a6	-0.18453082
19	0x3c1d7d37	0.009612373
20	0x3a99edb3	0.0011743814
21	0x3ccb2ac1	0.02480066
22	0x3e231c74	0.15928823
23	0x3e431baf	0.19053529
24	0x3e6b335c	0.22968811
25	0xbdfd2ac1	-0.1236167
26	0x3b328f82	0.0027246182
27	0x3cd35416	0.025796931
28	0x3d0440a0	0.032288194
29	0x3cfd596d	0.03092643
30	0xbd849959	-0.06474561
31	0x3dc6406e	0.09680258
32	0xbc0fc8f4	-0.008775938
33	0x3df4077c	0.1191549
34	0xbe30958c	-0.17244548
35	0xbe811885	-0.2521402
36	0x3e27973c	0.16366285
37	0x3d2961d9	0.04135308
38	0xbd8ac702	-0.06776239
39	0xbd781706	-0.06056883
40	0x3d0a1f60	0.033721328
41	0xbd8e0cee	-0.0693606
42	0xbd9eb079	-0.07748503
43	0x3d7cecc4	0.061749235
44	0xbe252e58	-0.1613096
45	0x3db76c27	0.08956175
46	0x3dc4cdd8	0.09609574
47	0xbdd7eb9b	-0.10542985
48	0x3e51de0d	0.20494862
49	0xbcd3adf2	-0.02583978
50	0xbdc951a2	-0.09830023
51	0x3dc7d7c0	0.09757948
52	0xbd719e1e	-0.058988683
53	0x3d8c6589	0.06855304
54	0xbe512f5e	-0.20428225
55	0xbd9b9582	-0.07596876
56	0x3d3e10d1	0.046402756
57	0x3d73d02d	0.059524704
58	0xbe1af47a	-0.15132323
59	0xbc1d7e93	-0.009612697
60	0x3dfd5835	0.1237034
61	0x3daea942	0.08528377
62	0x3bd58aa5	0.006516772
63	0xbc8a4e19	-0.016882943
64	0x3ddb5749	0.10710008
65	0xbce9b2e1	-0.028527679
66	0xbe3fc6bd	-0.18728156
67	0x3e15c819	0.14627112
68	0x3da69f80	0.08135891
69	0x3d84effa	0.064910844
70	0xba9d2d2a	-0.0011991609
71	0x3e3a7c5e	0.18211505
72	0xbd24830d	-0.040164042
73	0x3e084de7	0.13310967
74	0xbd8fa71e	-0.07014297
75	0xbd4e6413	-0.050388407
76	0x3d0c75d4	0.034292057
77	0x3d9de59c	0.0770981
78	0xbe0c6c71	-0.13713242
79	0x3dfd87ed	0.123794414
80	0x3873e734	5.815104e-05
81	0x3dcc97a0	0.09989858
82	0xbc0afa5a	-0.00848254
83	0x3dd4118f	0.103549115
84	0xbe1e357a	-0.15450087
85	0x3e1488aa	0.14505258
86	0xbe426b72	-0.189863
87	0xbd840c13	-0.064476155
88	0x3d1f31bd	0.038865793
89	0xbe0f0bed	-0.13969393
90	0xbb09cd04	-0.002102674
91	0x3e378305	0.17921074
92	0x3d3d32fe	0.046191208
93	0xbd37bd2c	-0.044858143
94	0xbbb1738e	-0.0054153865
95	0x3d1cdc1d	0.038295854
96	0x3da49d79	0.08037848
97	0xbda2a199	-0.079409786
98	0x3dfc71a2	0.12326361
99	0xbd5bab21	-0.053629998
100	0xbe35ed64	-0.17766339
101	0xbc221ff3	-0.009895313
102	0xbb2daeec	-0.0026501967
103	0x3d9dec51	0.077110894
104	0x3de994a6	0.114053056
105	0xbc8686d5	-0.016421715
106	0xbe10d36e	-0.14143154
107	0x3e3fb7a0	0.18722391
108	0x3d2de618	0.042455763
109	0xbd13ec7e	-0.03611421
110	0x3d9d6fb9	0.07687325
111	0x3d59c582	0.053166874
112	0xbdd32f3b	-0.10311743
113	0x3e3526b1	0.17690541
114	0x3c32e953	0.010919887
115	0xbd6d0c27	-0.057872918
116	0x3dba86ce	0.09107743
117	0x3cc145f4	0.023592927
118	0x3e51b274	0.2047823
119	0x3b8369b7	0.004010405
120	0x3d8304c6	0.06397395
121	0xbda9698e	-0.08272086
122	0xbe363132	-0.17792204
123	0xbe28fb83	-0.16502194
124	0xbe1f5e0e	-0.15563223
125	0x3e244890	0.16043305
126	0x3e16bfb4	0.14721566
127	0x3daa4839	0.08314557
128	0x3b3bfced	0.002868469
129	0x3e5b67c3	0.214263
130	0xbd09005c	-0.03344761
131	0x3e259061	0.16168357
132	0x3dbb596f	0.091479175
133	0x3e54085e	0.20706317
134	0xbdecae03	-0.115566276
135	0xbcffd2b6	-0.031228404
136	0xbd8e8412	-0.06958784
137	0x3e073afa	0.13206092
138	0x3e10d419	0.14143409
139	0xbc0190ea	-0.007908085
140	0x3e5229df	0.20523785
141	0x3dd3bfb6	0.103393
142	0x3e11181c	0.14169353
143	0xbe10005f	-0.14062642
144	0xbdee7cba	-0.116448835
145	0xbd9ab178	-0.07553381
146	0x3cebc75b	0.028781584
147	0x3e173f32	0.14770201
148	0x3df7d9cd	0.12102089
149	0x3e1af191	0.15131213
150	0xbd0b6700	-0.034033775
151	0xbe149a0b	-0.14511888
152	0xbda8645b	-0.08222266
153	0x3d96eca0	0.073693514
154	0x3da274b0	0.079324126
155	0xbe089873	-0.13339405
156	0xbdfc734e	-0.1232668
157	0x3c077240	0.008266985
158	0x3df24f86	0.11831574
159	0xbcbe8d38	-0.023260698
160	0xbcce1d0e	-0.025160339
161	0x3e24d5d9	0.16097201
162	0x3d32d6d6	0.043661915
163	0xbc03a4f8	-0.008034937
164	0x3d5c6be1	0.05381382
165	0x3d12ae5a	0.035810806
166	0x3db40e32	0.0879177
167	0x3dcd9845	0.10038809
168	0xbe133c38	-0.1437844
169	0x3d35bf75	0.04437204
170	0x3e3b8806	0.18313608
171	0xbcf5e110	-0.030014545
172	0x3d8b1a47	0.067921214
173	0xbb59e364	-0.0033247108
174	0x3e102244	0.14075571
175	0x3dfc990b	0.12333878
176	0x3d63a383	0.05557586
177	0x3e242f40	0.1603365
178	0xbd8202de	-0.06348203
179	0x3dd80aef	0.105489604
180	0xbe0c420f	-0.13697074
181	0x3e3cf721	0.18453647
182	0xbe0b5a54	-0.13608676
183	0x3ce93ac7	0.02847041
184	0xbc596fe5	-0.013271307
185	0x3e06884c	0.1313793
186	0xbcdb1a41	-0.026745917
187	0xbd30e544	-0.043187395
188	0xbc84b351	-0.016198786
189	0xbdab6d26	-0.08370428
190	0xbda8b9c8	-0.0823856
191	0x3bae51fe	0.005319833
192	0x3e5f544d	0.21809502
193	0x3d89c25a	0.06726523
194	0x3c6b5ea3	0.014365825
195	0x3e1751cb	0.14777295
196	0x3d34a51f	0.044102784
197	0xbd675039	-0.05647299
198	0x3cc59240	0.024117589
199	0x3e1381c6	0.14404973
200	0x3dd4c918	0.10389918
201	0xbe1bfbff	-0.15232848
202	0x3de1e19a	0.11029358
203	0xbd2bc0f4	-0.04193206
204	0x3cc8e548	0.024523392
205	0xbdf10e43	-0.11770298
206	0xbdee8e7d	-0.11648271
207	0xbdcd20e4	-0.10016039
208	0xbdd3950e	-0.10331164
209	0xbc2f90eb	-0.0107157035
210	0xbe2600a9	-0.1621119
211	0xbe2168ce	-0.15762636
212	0xbd9429ed	-0.07234559
213	0x3e1611bb	0.14655201
214	0x3de95541	0.11393214
215	0xbc5339f1	-0.012892232
216	0xbde3681e	-0.11103843
217	0x3d29015e	0.04126107
218	0x3de397dc	0.11112949
219	0x3e70cdfe	0.2351608
220	0xbe1d5d19	-0.15367545
221	0x3e5b4392	0.21412495
222	0x3d8b73b1	0.06809176
223	0x3d6f86cf	0.058478173
224	0xbd5b9cc3	-0.053616296
225	0xbe1283b9	-0.1430806
226	0xbde5c6dc	-0.1121957
227	0x3e14ae4e	0.14519617
228	0xbe484f19	-0.19561423
229	0xbe64b2c2	-0.22333816
230	0x3d464d58	0.048413604
231	0x3d6c8b19	0.05774984
232	0x3dafba84	0.08580497
233	0x3db00381	0.08594418
234	0x3e733dc5	0.23754032
235	0x3d9fcc8f	0.07802688
236	0xbc15fd2d	-0.0091546
237	0xbddbb2df	-0.10727476
238	0xbe4945b4	-0.19655496
239	0xbc4567d2	-0.0120486785
240	0xbd853ed0	-0.06506121
241	0x3e3efd6a	0.18651357
242	0xbd945822	-0.072433725
243	0x3e39cb36	0.18143925
244	0x3dbfec23	0.093712114
245	0xbdab2c58	-0.08358067
246	0xbcfa0060	-0.030517757
247	0x3d6d7f5f	0.0579828
248	0xbda91fca	-0.082580164
249	0x3e40c82f	0.18826364
250	0x3cfa5e21	0.030562462
251	0x3dc533d5	0.09629027
252	0xbe8045d8	-0.25053287
253	0x3e2cd118	0.16876638
254	0xbc2b8b43	-0.010470214
255	0x3e435073	0.19073658

input_proj.bias f4 [64]
0	0xbbeef3df	-0.0072922553
1	0xbddd8600	-0.10816574
2	0xbe1aaa75	-0.15104087
3	0x3e20d8e9	0.15707745
4	0xba721a28	-0.0009235465
5	0x3dc71dfe	0.097225174
6	0xbbaafa6c	-0.005217841
7	0x3e2cd1c8	0.168769
8	0x3e242e9f	0.1603341
9	0xbe0efb7d	-0.13963123
10	0xbd9ba74c	-0.07600269
11	0xbda2781b	-0.079330646
12	0x3de7c3af	0.113166206
13	0xbd6941b9	-0.056947444
14	0xbdc2e185	-0.09515671
15	0xbdd21dde	-0.10259603
16	0xbd682985	-0.05668022
17	0xbe0a115b	-0.13483183
18	0x3e070e0c	0.13188952
19	0x3e0e7875	0.13913138
20	0x3d4d8f3a	0.05018542
21	0xbd8f4de6	-0.0699728
22	0x3dfb188b	0.122605406
23	0xbd73923f	-0.059465643
24	0x3cbdfeb3	0.02319274
25	0xbe41a04a	-0.18908802
26	0x3e463ac8	0.19358361
27	0xbdfd49ce	-0.12367593
28	0x3da4867d	0.08033464
29	0xbdf07b16	-0.11742227
30	0xbe60b18e	-0.21942732
31	0x3d9cc315	0.076543964
32	0xbe5f5c84	-0.21812636
33	0x3bfe21a9	0.0077554774
34	0xbdf6b275	-0.12045757
35	0xbe43b58b	-0.19112222
36	0xbd9c056f	-0.07618224
37	0xbe0407a3	-0.12893538
38	0x3cfc54e1	0.030802192
39	0x3ca1e72a	0.019763548
40	0xbdb6d3de	-0.08927129
41	0x3e472814	0.19448882
42	0x3e361784	0.17782408
43	0x3e013ca3	0.12620787
44	0x3e2192c2	0.1577864
45	0x3d0472d0	0.032336056
46	0x3cb8ec0a	0.02257349
47	0x39a9ca9e	0.00032385153
48	0xbe1096fb	-0.14120094
49	0xbddd1b00	-0.107961655
50	0x3e34a470	0.17640853
51	0x3e1d6907	0.15372096
52	0xbd846856	-0.06465213
53	0xbd18adb7	-0.037275042
54	0xbd914a20	-0.07094216
55	0xbe71df6b	-0.23620383
56	0xbd1ac293	-0.037783217
57	0xbd82e249	-0.06390817
58	0xbd47c60a	-0.04877285
59	0xbe3f3dfb	-0.18675987
60	0xbe190a56	-0.14945349
61	0xbe3a1527	-0.18172131
62	0xbe65d0df	-0.22442959
63	0xbd173fcf	-0.036926087

msg_layers.0.W_self.weight f4 [64, 64]
0	0xbd5367cf	-0.05161267
1	0xbd58ee2a	-0.052961506
2	0xbcf85ee4	-0.030318685
3	0xbd9cdfae	-0.07659851
4	0x3c98b7f7	0.018642409
5	0x3db0cf84	0.086333305
6	0x3dd18bc1	0.10231734
7	0xbd3ea5dc	-0.046544895
8	0xbc0ecd86	-0.008715993
9	0xbb9acb6d	-0.0047239573
10	0x3aa9c853	0.0012953378
11	0x3dda9810	0.10673535
12	0xbd8f8e04	-0.07009509
13	0xbb01ccb3	-0.0019805848
14	0xbd8462bc	-0.064641446
15	0xbdbf8099	-0.093507
16	0xbe05ae45	-0.1305476
17	0xbdba03ed	-0.0908278
18	0x3df034fc	0.11728856
19	0x3cf68264	0.030091472
20	0x3c564373	0.013077605
21	0xbc86ddef	-0.016463248
22	0x3ddd4e25	0.108059205
23	0xbd8f5a48	-0.06999642
24	0xbd11746a	-0.03551141
25	0xbd479e6e	-0.048735075
26	0xbd8f14bf	-0.06986379
27	0x3e040a9c	0.12894672
28	0x3d4712d4	0.04860194
29	0xbd735712	-0.05940921
30	0x3c7cb2d7	0.015423498
31	0xbbe49374	-0.0069755856
32	0x3d104d69	0.035230074
33	0xbe21a81e	-0.15786788
34	0xbae3bd62	-0.0017375166
35	0xbdd6107a	-0.104523614
36	0xbe035717	-0.12826191
37	0x3c2c8b89	0.010531315
38	0xbd56e689	-0.05246595
39	0xbe020d44	-0.12700373
40	0xbd892ce4	-0.06698015
41	0xbda001c1	-0.078128345
42	0xbcedfbe4	-0.029050775
43	0x3dfc54e8	0.12320882
44	0x3c85d2da	0.016335893
45	0xbde6874e	-0.11256276
46	0xbdafc416	-0.08582322
47	0x3dc2b154	0.09506479
48	0x3d6d9599	0.058003996
49	0x3d50c107	0.050965335
50	0x3c3e9c81	0.011633993
51	0xbce0668c	-0.027392648
52	0x3c856866	0.016285133
53	0x3d99668b	0.07490262
54	0xbd331fd5	-0.04373153
55	0xbc91348c	-0.017725252
56	0xbd937511	-0.07200063
57	0xbdf3a1d5	-0.118961014
58	0xbcfd5dcb	-0.030928513
59	0xbddbcc8a	-0.10732372
60	0x3b00cd61	0.0019653665
61	0x3db3063d	0.08741424
62	0x3dcafe8b	0.099118315
63	0xbc915665	-0.017741391
64	0xbd6aeb8d	-0.057353545
65	0xbcb25e7b	-0.021773567
66	0x3dbd12b2	0.092320815
67	0xbd6001c7	-0.054689195
68	0x3ded7199	0.11593933
69	0xbe028dae	-0.12749359
70	0x3d8f41ef	0.06994998
71	0xbd07b59d	-0.033132184
72	0x3dc916e8	0.09818822
73	0xbd49d380	-0.049273968
74	0xbd91f7ce	-0.07127343
75	0x3c4d523a	0.012531811
76	0xbe05d33e	-0.13068864
77	0xbd7e5f37	-0.062102523
78	0xbdd557a6	-0.10417108
79	0x3d29b011	0.041427676
80	0xbdcc2663	-0.09968259
81	0x3e320ba3	0.17387252
82	0xbcefbff4	-0.029266335
83	0xbdf9b383	-0.12192442
84	0x3c7984ed	0.015229446
85	0xbcab1a22	-0.020886485
86	0xbd017b58	-0.03161177
87	0x3c1eb3ea	0.00968645
88	0xbe1ae47a	-0.1512622
89	0x3def898a	0.11696155
90	0xbde92d2c	-0.11385569
91	0x3d0009ba	0.031259276
92	0x3daa684c	0.08320674
93	0x3d71a3ce	0.058994107
94	0x3d88d472	0.06681146
95	0xbd40752c	-0.046986744
96	0xbd3829f3	-0.04496188
97	0xbcad1ac9	-0.021130936
98	0x3c182959	0.009287202
99	0xb824098c	-3.910954e-05
100	0x3db3e9a4	0.08784798
101	0x3df96b32	0.12178649
102	0xbce6d796	-0.028178971
103	0xbcb84583	-0.022494083
104	0x3d7c78a1	0.06163848
105	0xbe0a2cc4	-0.13493639
106	0xbe1fda70	-0.15610671
107	0x3d9b0e8a	0.075711325
108	0xbd44f074	-0.048080876
109	0x3d9bf130	0.07614362
110	0x3e471bdf	0.19444226
111	0x3db1ef7c	0.08688256
112	0x3dd2dcf3	0.10296049
113	0x3df868f6	0.12129395
114	0xbb37205a	-0.0027942867
115	0x3d4c9de7	0.049955275
116	0x3b913797	0.0044316757
117	0x3d803dec	0.06261811
118	0x3d92522e	0.07144581
119	0x3e1f76de	0.15572688
120	0x3cb9d061	0.02268237
121	0xbdbeb8ff	-0.09312629
122	0x3c5a798c	0.013334643
123	0x3d5ecee0	0.05439651
124	0x3c8486d7	0.016177578
125	0x3bf32fd8	0.007421475
126	0x3d16a1d8	0.03677544
127	0x3d4a4f9c	0.049392328
128	0xbd813b3f	-0.063101284
129	0x3d9f2203	0.07770159
130	0xbe1f72e5	-0.15571173
131	0xbd785a3d	-0.060632933
132	0x3bf4c437	0.0074696797
133	0x3da9f300	0.08298302
134	0x3e365c65	0.17808683
135	0x3d910e23	0.070827745
136	0xbd678924	-0.056527272
137	0x3da93883	0.08262732
138	0x3d2d13c2	0.04225517
139	0x3de68674	0.11256114
140	0x3df535dc	0.119731635
141	0x3c86b4e8	0.016443685
142	0x3b78c337	0.0037958154
143	0xbc3af5fe	-0.011411188
144	0x3d62e665	0.055395503
145	0x3cace194	0.021103658
146	0x3defbb71	0.117056735
147	0xbb07e032	-0.0020732996
148	0x3d868abf	0.065694325
149	0x3d40dee9	0.047087584
150	0x3e0fcbae	0.14042541
151	0x3e34a877	0.17642389
152	0x3d911bb9	0.07085366
153	0xbd990b3c	-0.07472846
154	0xbe066620	-0.13124895
155	0x3df6663c	0.120312184
156	0x3de487ee	0.11158739
157	0x3bd68047	0.0065460536
158	0xbdd6d89a	-0.10490532
159	0x3e3ad082	0.18243602
160	0x3d2ab50e	0.041676573
161	0xbd74c536	-0.059758388
162	0xbd88a3e6	-0.06671886
163	0xbcdf6191	-0.027268203
164	0xbdb0562b	-0.08610185
165	0x3e1c3170	0.15253234
166	0xbcfaca1a	-0.030613948
167	0xbd1b24d9	-0.037876938
168	0xbdad8c27	-0.084739976
169	0xbb2f36be	-0.002673551
170	0xbc4b00e2	-0.012390347
171	0xbd95c3d6	-0.07312743
172	0xbc12e1e9	-0.008964994
173	0x3d948f14	0.072538525
174	0xbd858250	-0.06518996
175	0xbddc4fde	-0.10757421
176	0xbd44a5d1	-0.048009697
177	0x3d35a391	0.044345442
178	0x3cefea60	0.029286563
179	0xbde63226	-0.11240034
180	0xbd2c6d5c	-0.04209648
181	0xbd683807	-0.056694057
182	0xbe19fb0d	-0.15037175
183	0x3c0ea4a6	0.008706247
184	0xbddba713	-0.10725226
185	0xbd0aedb6	-0.033918105
186	0x3c856a01	0.016285898
187	0x3cd3989f	0.025829611
188	0x3bfcdfe8	0.0077171214
189	0x3dc3098d	0.09523306
190	0xbd0f0181	-0.034913544
191	0x3da75891	0.081711896
192	0x3d94889d	0.072526194
193	0xbd491d02	-0.04909993
194	0x3c4e4b69	0.012591221
195	0x3cbdf1b0	0.023186535
196	0x3dec4ac8	0.11537701
197	0x3d277d47	0.04089096
198	0x3dae360c	0.085064024
199	0x3c7a3086	0.015270358
200	0x3ca9be19	0.020720528
201	0x3dfdeec8	0.123990595
202	0x3d070b98	0.03297004
203	0xbbbc6a00	-0.005749941
204	0xbd2e733a	-0.042590357
205	0x3d5a4d66	0.05329647
206	0xbe07c852	-0.1326001
207	0x3d7e9ad5	0.062159378
208	0xbd80477a	-0.06263633
209	0x3c77cc83	0.015124443
210	0x3d8c60a2	0.06854369
211	0xbc2c75c4	-0.010526124
212	0xbdfeb8bd	-0.1243758
213	0x3de0959f	0.10966038
214	0x3e082e33	0.13298874
215	0x3e3b121b	0.18268625
216	0xbc041901	-0.008062602
217	0xbcc5924e	-0.024117615
218	0xbde31c94	-0.11089435
219	0x3e0a55ed	0.1350934
220	0x3d302cc8	0.043011457
221	0xbd92bd94	-0.071650654
222	0xbd8e3ce3	-0.06945207
223	0x3d1723f0	0.036899507
224	0xbd8fee8f	-0.07027923
225	0xbd4e05aa	-0.05029837
226	0x3d57bd59	0.05267081
227	0xbd506d63	-0.05088557
228	0xbba5cc03	-0.0050597205
229	0x3dea5b80	0.114432335
230	0xbd941b2c	-0.07231745
231	0x3d86fd6a	0.06591304
232	0x3dbc0e39	0.091824
233	0xbcfea0b5	-0.03108249
234	0xbdeb6265	-0.11493377
235	0x3deed755	0.11662165
236	0xbdfc08e3	-0.123063825
237	0xbe31976a	-0.17342916
238	0x3cc43bde	0.023954328
239	0x3c9613e9	0.01832004
240	0xbc7e06ba	-0.015504533
241	0x3d7aea1d	0.061258424
242	0x3cd32efc	0.02577924
243	0xbb9540b9	-0.0045548347
244	0x3d810b34	0.06300965
245	0xbe2e8bd3	-0.17045526
246	0x3c7bb453	0.015362817
247	0x3de8ec24	0.11373165
248	0xbdf8f387	-0.12155824
249	0xbe02a320	-0.1275754
250	0xbe196882	-0.14981273
251	0x3e4dc3a1	0.20094158
252	0x3d2c0c39	0.042003844
253	0x3d9f44b6	0.077767774
254	0xbcf98036	-0.030456644
255	0x3ddfc8ed	0.109269954

msg_layers.0.W_self.bias f4 [64]
0	0xbda543ce	-0.08069573
1	0xbe10c447	-0.14137374
2	0xbdd7e1af	-0.105410926
3	0x3d9e6972	0.07734956
4	0x3b2ab1e6	0.0026045977
5	0xbd0c1268	-0.03419724
6	0x3cafd7f4	0.02146528
7	0x3c0e6b81	0.008692623
8	0xbd746a7e	-0.05967187
9	0x3d99bab8	0.07506317
10	0x3dfb1988	0.12260729
11	0x3e09e758	0.13467157
12	0xbe0808d0	-0.13284612
13	0x3c66ea5e	0.014093963
14	0xbd0d527a	-0.034502484
15	0x3de868d7	0.113481216
16	0xbd4135df	-0.047170516
17	0xbe370d3c	-0.17876142
18	0xbc1f9d48	-0.009742089
19	0xbd1849f1	-0.03717989
20	0xbd1edd99	-0.03878555
21	0xbdf10f2d	-0.11770473
22	0xbc900054	-0.017578281
23	0xbe0661bb	-0.13123219
24	0xbcf12bbe	-0.029439803
25	0xbd959e02	-0.07305528
26	0x3d6be1d2	0.057588406
27	0xb9bfe209	-0.00036598768
28	0x3dcc82c2	0.099858776
29	0xbda24c95	-0.07924763
30	0x3c3a7dec	0.011382561
31	0x3d9ab890	0.07554734
32	0xbdb1fa16	-0.08690278
33	0x3d60cccf	0.05488282
34	0xbbb3658b	-0.0054747513
35	0xbdbcdb58	-0.09221524
36	0x3ca5d4cf	0.020243077
37	0x3e01b4a6	0.12666568
38	0xbcb293c4	-0.021798976
39	0xbd90821a	-0.07056065
40	0x3d8a1554	0.06742349
41	0x3c33ac9f	0.010966449
42	0xbdcd2f7b	-0.10018822
43	0x3dd749ff	0.105121605
44	0xbcba053a	-0.02270757
45	0x3d81d177	0.063387804
46	0x3c8929b1	0.016743513
47	0x3dab49c2	0.083636776
48	0x3d845db1	0.06463183
49	0xbe2cfc5b	-0.16893141
50	0x3c5bb17b	0.013409014
51	0xbd0c881c	-0.03430949
52	0x3e231540	0.15926075
53	0x3ca48a19	0.020085381
54	0x3d49bf74	0.04925485
55	0xbd371677	-0.04469916
56	0x3d8a6f0c	0.06759462
57	0x3ca296e2	0.019847337
58	0x3d867008	0.06564337
59	0x3c98e6d4	0.018664755
60	0xbe0c0d5d	-0.13676973
61	0xbce1a200	-0.027543068
62	0x3d73089a	0.059334375
63	0x3d232d61	0.0398382

msg_layers.0.W_msg.weight f4 [64, 64]
0	0x3d3efad5	0.04662593
1	0x3d8c0b88	0.06838137
2	0xbd95f296	-0.0732166
3	0xbd846bf7	-0.06465905
4	0x3d8f9b69	0.07012064
5	0x3d3c55df	0.04598033
6	0x3c38559d	0.011250881
7	0x3d49d4d4	0.049275234
8	0xbdd48adb	-0.10378047
9	0xbdc1e582	-0.09467603
10	0x3dfd0246	0.12353949
11	0xbc27462a	-0.0102095995
12	0x3d93c558	0.07215375
13	0x3d90a7a1	0.07063223
14	0x3dfa78d1	0.12230075
15	0x3dcd0fe9	0.100128
16	0x3ceba68f	0.028765945
17	0xbbaa06c6	-0.0051887957
18	0x3d950c9e	0.07277797
19	0x3dba0605	0.090831794
20	0xbdaf13e2	-0.08548714
21	0x3d932608	0.07184988
22	0xbda5e00e	-0.08099376
23	0xbd9b7294	-0.075902134
24	0xbdb60d33	-0.08889236
25	0x3dc913a2	0.09818198
26	0xbd186689	-0.03720716
27	0x3d96d712	0.0736524
28	0x3d01fc2f	0.03173464
29	0xbcf4711b	-0.02983909
30	0x3dc880a8	0.09790164
31	0x3d96ad35	0.07357255
32	0x3c17a774	0.0092562325
33	0x3dc1d862	0.094651
34	0xbcdac166	-0.026703548
35	0xbd935cd5	-0.07195441
36	0x3b82d652	0.003992834
37	0x3be26ad2	0.0069097066
38	0x3e01461a	0.12624398
39	0x3dc7a9ce	0.097491845
40	0xbcd531de	-0.026024755
41	0x3d9f647e	0.07782839
42	0xbdbc4570	-0.09192932
43	0x3c60e8c8	0.013727374
44	0xbc012bd7	-0.007883987
45	0x3d39e9ee	0.04538911
46	0xbdfe3ea9	-0.12414295
47	0xbcf7c33b	-0.03024446
48	0x3bfc5b12	0.007701286
49	0x3d2eac07	0.042644527
50	0xbdd25dcb	-0.10271796
51	0x3cfd7a58	0.030942127
52	0xbe0a8285	-0.13526352
53	0xbd3732e0	-0.044726253
54	0xbde8845f	-0.11353373
55	0xbabd6499	-0.0014449536
56	0xbbcdac77	-0.006276663
57	0xbd600acd	-0.0546978
58	0x3e012ef1	0.12615563
59	0xbcab996c	-0.02094718
60	0xbe007b05	-0.12546928
61	0xbdac00ae	-0.08398567
62	0xbd57b6db	-0.05266462
63	0x3d982d35	0.074304976
64	0xbdf4dd5d	-0.11956284
65	0x3c1f25b4	0.009713579
66	0x3d9f72ff	0.07785606
67	0xbe47f711	-0.19527842
68	0x3c440802	0.0119648
69	0xbde0c062	-0.10974194
70	0x3dcfe57c	0.101511925
71	0xbce6ec47	-0.028188838
72	0xbdb6e3c7	-0.08930164
73	0xbe23c06b	-0.1599137
74	0xbddbcd48	-0.10732514
75	0x3a9b305f	0.0011839977
76	0xbdc35ac9	-0.095388
77	0xbd579e31	-0.052641097
78	0x3e05c0a9	0.13061775
79	0x3de2ec66	0.11080246
80	0x3d80b5e3	0.06284692
81	0xbd220e5e	-0.039564483
82	0x3daea5f3	0.08527746
83	0xbd6c8be5	-0.0577506
84	0xbdc6f0f2	-0.097139254
85	0x3d1e429a	0.038637735
86	0x3d6204e6	0.055180453
87	0xbdd9699c	-0.106158465
88	0xbd9739ef	-0.07384097
89	0xbd6de22b	-0.05807702
90	0x3d8a6852	0.06758179
91	0x3dba85ce	0.091075525
92	0xbd829458	-0.063759506
93	0x3db893cc	0.09012565
94	0xbcac63ac	-0.021043621
95	0xbe41f73c	-0.18941969
96	0x3e1ce20d	0.15320607
97	0xbca9c99f	-0.020726023
98	0xbd762643	-0.060095083
99	0xbc5c4654	-0.013444502
100	0x3c8132c4	0.015771277
101	0x3d759cb2	0.05996389
102	0xbc8b8544	-0.01703132
103	0xbdba216a	-0.090884045
104	0x3c4ec962	0.012621256
105	0xbe0a1eb2	-0.13488272
106	0xbd9bbb3a	-0.0760407
107	0xbca49055	-0.020088354
108	0x3ceda584	0.029009588
109	0xba9752b1	-0.001154503
110	0x3db116f4	0.08646956
111	0x3d68ce38	0.05683729
112	0xbd9d604b	-0.07684382
113	0xbca8bde1	-0.020598354
114	0xbdf86ade	-0.12129758
115	0x3d01e390	0.03171116
116	0xbdf310f8	-0.11868471
117	0x3c2a35f1	0.010388837
118	0x3dba7b31	0.09105528
119	0xbaf2fadb	-0.0018537896
120	0x3dd5f933	0.104479216
121	0x3d560811	0.052253786
122	0x3e3701aa	0.17871729
123	0x3df53f9a	0.11975022
124	0xbca98cef	-0.020697085
125	0x3deac2dd	0.114629485
126	0x3e1e8be9	0.15483059
127	0x3e0e2415	0.13880952
128	0xbd971ceb	-0.073785625
129	0xbe0455a3	-0.12923293
130	0x3bf6d133	0.0075322627
131	0x3e1a52b1	0.15070607
132	0xbdc9649f	-0.09833645
133	0xbd074be6	-0.033031367
134	0x3d2971a8	0.041368157
135	0x3e2467d9	0.1605524
136	0x3e2c8f7f	0.16851614
137	0xbd215a09	-0.039392505
138	0x3de22723	0.11042621
139	0x3cfbd89c	0.030742936
140	0x3d80cfc3	0.062896274
141	0xbd832efb	-0.06405445
142	0xbd34d1d9	-0.04414544
143	0xbd8a01d8	-0.06738633
144	0x3dd5b256	0.104344055
145	0x3d1b2625	0.037878174
146	0x3ceeb979	0.029141175
147	0x3dd7c0ac	0.10534796
148	0x3e1cd2a7	0.15314732
149	0x3ca33f71	0.019927712
150	0x3e184880	0.14871407
151	0x3df13bbe	0.11778973
152	0x3e0373b1	0.12837102
153	0x3d8c4ec7	0.06850963
154	0xbe192e21	-0.14959003
155	0xbbe87589	-0.0070940894
156	0xbbbd8e03	-0.0057847514
157	0xbb874f54	-0.0041293297
158	0xbcd9cc5f	-0.02658671
159	0xbbe1aebc	-0.006887285
160	0xbe2556f5	-0.16146453
161	0xbdf67fa3	-0.120360635
162	0x3d629154	0.055314377
163	0xbde32dad	-0.11092696
164	0x3d9f1837	0.077682905
165	0xbd6fb1a2	-0.058519013
166	0x3d250adc	0.04029356
167	0xbdbb19d2	-0.09135784
168	0xbd3f0e25	-0.04664435
169	0x3cdccde9	0.026953654
170	0xbca1909c	-0.019722275
171	0x3e1a13d7	0.15046631
172	0xba8f3c6c	-0.0010928041
173	0xbdec2107	-0.11529737
174	0xbd42dccc	-0.04757385
175	0x3da3485d	0.079727866
176	0x3d6bc0b6	0.05755683
177	0xbaa0052a	-0.001220857
178	0xbda7f3ee	-0.08200823
179	0x3d05afe4	0.032638445
180	0x3e3a6d51	0.18205763
181	0xbc8f3758	-0.017482445
182	0xbba832d2	-0.0051330114
183	0xbdcbcd89	-0.09951312
184	0x3cc5dce8	0.024153188
185	0xbdcbc0a2	-0.09948851
186	0x3d1f306f	0.03886455
187	0x3cc59bb6	0.0241221
188	0xbd89384e	-0.067001924
189	0xbe2e0c32	-0.1699684
190	0xbe460197	-0.19336544
191	0xbdab0bcf	-0.08351862
192	0x3c8fdec1	0.017562272
193	0xbd24713a	-0.040147044
194	0xbe23a63f	-0.15981387
195	0xbd7d1f2e	-0.061797313
196	0xbc9c6f1a	-0.019095946
197	0xbd77e155	-0.060517628
198	0xbe061fc0	-0.13098049
199	0x3d136d63	0.03599299
200	0x3d97d921	0.07414461
201	0xbbf691da	-0.007524711
202	0xbde59c36	-0.112114355
203	0x3ddd0a76	0.10793011
204	0x3c251ca0	0.0100776255
205	0xbd9283e5	-0.07154063
206	0xbcd0f3eb	-0.025506934
207	0xbd8222ab	-0.06354269
208	0x3d1ce7fd	0.03830718
209	0xbcaf80fd	-0.021423811
210	0x3c021ea9	0.00794188
211	0x3db4f6d9	0.08836145
212	0x3dd77ff3	0.10522451
213	0xbde05f4d	-0.10955677
214	0x3da5f0c6	0.081025645
215	0xbcd5e800	-0.026111603
216	0xbd8e9bae	-0.06963287
217	0xbd16aa7a	-0.036783673
218	0x3d9978d9	0.07493753
219	0x3d8ac96f	0.06776702
220	0xbd299e9c	-0.041411027
221	0xbc9667c5	-0.018360028
222	0x3d06c60a	0.03290371
223	0x3d4a8ef5	0.04945274
224	0xbd205026	-0.039138936
225	0x3e2544d5	0.16139539
226	0x3cbe0e42	0.023200158
227	0x3d9ed176	0.07754795
228	0x3c071d25	0.008246695
229	0xbe22b031	-0.15887524
230	0x3d16fa8c	0.036860034
231	0xbd57e57f	-0.0527091
232	0x3ce81c9d	0.028333956
233	0xbcde87df	-0.027164398
234	0x3cb894bc	0.02253186
235	0x3d1fc9c3	0.039010774
236	0xbd85f48a	-0.06540783
237	0x3d78d602	0.06075097
238	0x3d8c0824	0.0683749
239	0x3c926b98	0.01787357
240	0x3d6d33d6	0.057910763
241	0xbd298680	-0.041388035
242	0x3c7d62c2	0.01546544
243	0xbd4773ed	-0.04869454
244	0xbc1737dc	-0.0092296265
245	0x3c8c909b	0.017158797
246	0xbb8c2d26	-0.004277843
247	0x3dcef45b	0.10105201
248	0x3e0c64c2	0.13710311
249	0x3dc46da8	0.09591228
250	0x3db68320	0.08911729
251	0xbde2d555	-0.11075846
252	0xbdaf4f71	-0.08560074
253	0xbccc0a5c	-0.024907283
254	0xbdad5624	-0.08463696
255	0x3d2511ee	0.040300302

msg_layers.0.W_msg.bias f4 [64]
0	0xbd106e13	-0.035261225
1	0x3c9125c0	0.017718196
2	0x3dfc1874	0.123093516
3	0x3dc581da	0.09643908
4	0xbdc5f8c7	-0.09666591
5	0x3d072177	0.0329909
6	0xbd910df3	-0.07082739
7	0xbd25cda3	-0.040479314
8	0x3dde62fa	0.10858722
9	0xbd87bf23	-0.06628253
10	0xbe02e5e2	-0.12783006
11	0x3c339eb1	0.010963128
12	0xbd98e1f1	-0.0746497
13	0x3e10aa4e	0.14127466
14	0xbdeed32f	-0.11661374
15	0xbd3023c0	-0.043002844
16	0x3e1d81d9	0.15381564
17	0xbd8b4321	-0.06799913
18	0x3df0d26a	0.11758883
19	0x3e007faa	0.125487
20	0x3d5bb59a	0.053639986
21	0x3d9d0be0	0.076682806
22	0xbb6057cc	-0.0034232019
23	0x3d78f5d3	0.06078131
24	0x3d96d0b2	0.07364024
25	0x3d4197c8	0.04726389
26	0xbd3efe17	-0.046629038
27	0xbbbc06ff	-0.0057381387
28	0x3da5cdd3	0.080958985
29	0xbe0eec54	-0.1395734
30	0xbc2d20c0	-0.01056689
31	0xbe0f4863	-0.13992457
32	0x3cd12701	0.025531294
33	0x3d55cdba	0.05219815
34	0x3d4714e3	0.048603904
35	0xbd64cd16	-0.055859648
36	0x3dc8e926	0.098100945
37	0xbdc0ef57	-0.094206505
38	0x3ddf6a2d	0.10908923
39	0xbda8bfbb	-0.08239695
40	0x3c35be00	0.011092663
41	0xbdcf084c	-0.101090044
42	0xbbe0bead	-0.006858668
43	0xba972249	-0.0011530604
44	0x3d0e494c	0.03473787
45	0x3dc54315	0.096319355
46	0xbd0687c4	-0.03284432
47	0xbda21abb	-0.07915255
48	0xbd6ef877	-0.058342423
49	0x3c65660c	0.014001381
50	0xbd8bd8b7	-0.068284445
51	0xbd5b99fa	-0.05361364
52	0x3e131abe	0.1436567
53	0xbe3062e8	-0.1722523
54	0x3c34dc13	0.011038798
55	0x3d0d58ca	0.034508504
56	0xbda46452	-0.08026947
57	0xbd8110cf	-0.06302034
58	0xbda7b2b9	-0.081883855
59	0x3dc3a59b	0.09553071
60	0x3c993e8c	0.018706582
61	0x3d8d6d51	0.06905616
62	0x3d91a367	0.07111245
63	0x3c959bba	0.018262733

msg_layers.0.norm.weight f4 [64]
0	0x3f41a480	0.7564163
1	0x3f812d2c	1.009191
2	0x3f78a980	0.97133636
3	0x3f6b1ed9	0.91843945
4	0x3f78bcae	0.971629
5	0x3f69ebaa	0.9137522
6	0x3f773e95	0.9657987
7	0x3f874c7f	1.057022
8	0x3f810f7c	1.008285
9	0x3f822611	1.0167867
10	0x3f60131a	0.87529147
11	0x3f795166	0.9738983
12	0x3f7d5939	0.9896427
13	0x3f7386fd	0.9512785
14	0x3f81c915	1.013949
15	0x3f7148ff	0.9425201
16	0x3f865bab	1.0496725
17	0x3f73412d	0.95021325
18	0x3f723447	0.9461102
19	0x3f753759	0.9578758
20	0x3f7e2794	0.9927914
21	0x3f8051d8	1.0024977
22	0x3f8ea15d	1.1142994
23	0x3f76282e	0.9615506
24	0x3f7f72dd	0.9978464
25	0x3f81e67f	1.0148467
26	0x3f88c231	1.0684263
27	0x3f6e6926	0.93129194
28	0x3f88e359	1.0694381
29	0x3f896d6d	1.0736519
30	0x3f896851	1.073496
31	0x3f6dfc53	0.9296314
32	0x3f879f9e	1.0595586
33	0x3f63ea33	0.89029235
34	0x3f6f16d3	0.933942
35	0x3f8b902b	1.0903372
36	0x3f89b32b	1.0757803
37	0x3f6b5e0d	0.91940385
38	0x3f673624	0.9031699
39	0x3f7efe39	0.99606663
40	0x3f8138d9	1.0095474
41	0x3f8907c3	1.0705494
42	0x3f7f2afd	0.9967497
43	0x3f8a6f33	1.0815185
44	0x3f7eeca5	0.9957984
45	0x3f8751c7	1.0571831
46	0x3f87060d	1.0548722
47	0x3f668dd7	0.9006018
48	0x3f85ce41	1.0453569
49	0x3f89ecab	1.077535
50	0x3f77b3a5	0.9675849
51	0x3f814ac3	1.010094
52	0x3f8d0ba1	1.1019174
53	0x3f7b04c2	0.98054135
54	0x3f81e716	1.0148647
55	0x3f81621b	1.0108064
56	0x3f80652d	1.0030876
57	0x3f7cb609	0.98715264
58	0x3f848041	1.035164
59	0x3f7e00ff	0.9922027
60	0x3f827b2f	1.0193843
61	0x3f798bf5	0.9747918
62	0x3f9d3093	1.2280449
63	0x3f715fb2	0.94286644

msg_layers.0.norm.bias f4 [64]
0	0xbbacfa62	-0.0052788714
1	0xbddfefe3	-0.10934427
2	0xbcb82f74	-0.022483565
3	0x3d4c0879	0.049812768
4	0xbcb782f2	-0.022401307
5	0x3d33d056	0.043899857
6	0x3dab30ac	0.08358893
7	0x3dd6831b	0.10474225
8	0xbce58d04	-0.028021343
9	0x3dc1f819	0.09471149
10	0x3d772730	0.060340106
11	0x3b7a8376	0.003822533
12	0x3da97003	0.08273318
13	0xbd1499f6	-0.03627964
14	0x3c4290af	0.011875316
15	0xbc1b484c	-0.009477686
16	0xbd05122b	-0.03248803
17	0xbde073f2	-0.10959615
18	0xbc6402c3	-0.013916674
19	0x3d2e2515	0.042515833
20	0x3c617d3a	0.0137627665
21	0x3da8000f	0.08203136
22	0x3d50caa4	0.050974503
23	0x3ccbde88	0.024886385
24	0xbc6d18ee	-0.014471276
25	0xbd2ec504	-0.042668357
26	0x3c321c9c	0.010871079
27	0x3d3d50b2	0.046219535
28	0x3ccf092c	0.025272928
29	0xbb337fa9	-0.0027389324
30	0xbdb5b50d	-0.08872423
31	0x3d2f7cfc	0.042843804
32	0xbd8113ff	-0.06302642
33	0xbd05cb5b	-0.032664638
34	0xbd3e3d6e	-0.046445303
35	0xbda72cd7	-0.081628494
36	0xbd05a08e	-0.03262382
37	0x3d88fbab	0.06688627
38	0x3d1e9157	0.038712826
39	0xbca13901	-0.019680502
40	0x3cb0bbeb	0.021573981
41	0x3db03e57	0.086056404
42	0xbc9412c9	-0.018075364
43	0x3d80be74	0.06286326
44	0x3d677dae	0.056516342
45	0xbb6930c6	-0.003558205
46	0x3d3b3859	0.045708034
47	0x3d56917c	0.05238484
48	0x3db3cba6	0.08779077
49	0xbdd2fac7	-0.10301738
50	0x3d3d626c	0.04623644
51	0x3ca40516	0.020021956
52	0x3c9f796b	0.019467076
53	0x3d6c18a5	0.05764069
54	0xbd8099bf	-0.06279325
55	0xbd838fc6	-0.06423907
56	0x3ccb7c86	0.02483965
57	0xbcaf6645	-0.02141107
58	0x3cd6428f	0.026154784
59	0xbd6924ba	-0.05691979
60	0xbd35677c	-0.044288144
61	0x3d01fedd	0.031737197
62	0xbd92425a	-0.07141562
63	0x3cb01593	0.021494662

msg_layers.1.W_self.weight f4 [64, 64]
0	0xbe4fd74b	-0.20296971
1	0x3b35e3e6	0.0027754246
2	0x3e1b9402	0.15193179
3	0x3d8e00d3	0.06933751
4	0x3e05595d	0.1302237
5	0x3b1ad992	0.0023628217
6	0xbc025755	-0.007955392
7	0x3d14d39e	0.036334626
8	0x3dd6f20f	0.10495388
9	0xbd5d60ab	-0.054047268
10	0xbd78cf2a	-0.060744442
11	0xbd038e69	-0.032118235
12	0x3d209a12	0.039209433
13	0x3e2a22ab	0.16614787
14	0xbdab4e72	-0.08364572
15	0xbe08838d	-0.13331433
16	0x3e2dbb90	0.1696608
17	0xbdaba1a5	-0.083804406
18	0xbcbdde96	-0.023177426
19	0x3db5669b	0.08857461
20	0x3e366128	0.178105
21	0xbcd3fd70	-0.025877684
22	0xbd1e2694	-0.03861101
23	0xbd27103d	-0.04078697
24	0x3e17673a	0.14785472
25	0x3cd0b596	0.025477212
26	0xbd498363	-0.049197566
27	0xbdb433c7	-0.08798938
28	0x3de7b6eb	0.11314186
29	0x3da9456f	0.082651965
30	0x3ca1303e	0.019676324
31	0xbc80bf71	-0.015716286
32	0xbdba5f55	-0.091002144
33	0xbde5188a	-0.11186321
34	0xbaf2201c	-0.0018472704
35	0x3bfe8ea4	0.007768469
36	0x3d9bd7bd	0.07609508
37	0xbd0972d5	-0.033556778
38	0xbd1297af	-0.035789188
39	0xbcc69bd9	-0.024244236
40	0x3c5a8ed7	0.01333972
41	0x3d8574b2	0.065163985
42	0x3d082f2d	0.033248115
43	0xbd73b3d0	-0.059497654
44	0xbdfc020d	-0.12305079
45	0xbdb2ea75	-0.087361254
46	0xbcbddb9d	-0.023176009
47	0xbda10bf5	-0.07863609
48	0xbdd6c749	-0.104872294
49	0xbb8a82bd	-0.004227011
50	0xbdd70999	-0.104998775
51	0xbdf1142f	-0.11771428
52	0x3d08f6be	0.033438437
53	0x3d7808cc	0.060555264
54	0xbcb5eb35	-0.022206882
55	0x3d8d9eaf	0.06915032
56	0x3d25f1ee	0.040513925
57	0xbd2cf1ba	-0.042222716
58	0xbda3c2f0	-0.07996166
59	0xbd347ffd	-0.04406737
60	0xbcad0f3e	-0.021125432
61	0xbd5bf9e5	-0.053705115
62	0xbd9ce6f6	-0.0766124
63	0x3dc80583	0.09766676
64	0x3d282eb5	0.04106017
65	0x3cd07bbd	0.025449628
66	0x3d970b60	0.073752165
67	0x3dc86140	0.09784174
68	0x3da5ae94	0.08089939
69	0x3d83e208	0.064395964
70	0xbcb3f75f	-0.021968542
71	0xbdf36963	-0.11885335
72	0xbbd85351	-0.006601729
73	0x3dcb7b3b	0.09935614
74	0xbd92a6e9	-0.07160742
75	0xbd5d7cce	-0.0540741
76	0x3c79108e	0.015201701
77	0x3d96cbea	0.07363112
78	0xbd7ef1e7	-0.062242415
79	0xbdd8e24b	-0.10590037
80	0xbd4c3eb1	-0.049864475
81	0xbcb883f6	-0.022523861
82	0xbe10390d	-0.14084263
83	0x3d7517ee	0.059837274
84	0xbc97fdd6	-0.018553656
85	0xbc2cfd85	-0.010558491
86	0xbd2bcdb4	-0.04194422
87	0xbe0eb7bc	-0.13937277
88	0x3d25db0f	0.040492114
89	0x3d29c693	0.04144914
90	0x3c9bb140	0.019005418
91	0x3d201a93	0.039087843
92	0xbcf28239	-0.02960311
93	0xbc818a37	-0.015812976
94	0xbd38da96	-0.045130335
95	0x3cc0c0dd	0.023529464
96	0xbd106467	-0.035252
97	0x3c9f627b	0.019456139
98	0xbd2a5923	-0.041588914
99	0x3abb860e	0.0014306919
100	0x3dc2f0fa	0.09518619
101	0xbddcc1b2	-0.10779132
102	0xbd08c680	-0.03339243
103	0xbd3eca42	-0.046579607
104	0x3c2fd981	0.010733009
105	0xbca2fc20	-0.019895613
106	0x3cfd9644	0.030955441
107	0x3ad5a284	0.0016299044
108	0x3d7165e7	0.058935072
109	0x3d543199	0.051805113
110	0x3daa3348	0.08310562
111	0x3b314667	0.002705002
112	0x3d2d35ea	0.042287745
113	0x3c86b221	0.01644236
114	0xbd6bd3f2	-0.057575174
115	0xbd94aaf8	-0.07259172
116	0xbe11d978	-0.14243114
117	0x3e375f4a	0.17907444
118	0xbd1c9ca2	-0.038235314
119	0x3c4d1f84	0.012519721
120	0x3df59448	0.11991173
121	0x3e01894b	0.1265003
122	0x3d933aeb	0.07188972
123	0xbe0430be	-0.12909219
124	0x3d83f6b1	0.06443537
125	0x3d8c5655	0.06852404
126	0xbd189986	-0.037255786
127	0xbdd581ad	-0.10425124
128	0x3c22f436	0.00994592
129	0xbcf230f2	-0.029564355
130	0x3d484ea0	0.048903108
131	0x3d7602ff	0.06006145
132	0x3e319343	0.17341332
133	0x3db7e2ea	0.08978827
134	0xbdaa3376	-0.08310597
135	0x3ddc0cc9	0.10744626
136	0x39d0ad3b	0.00039801918
137	0xbcc5023d	-0.024048919
138	0x3dd822e2	0.10553528
139	0x3e156175	0.14587958
140	0x3b9695b1	0.0045954813
141	0x3c6517f7	0.013982764
142	0x3d889979	0.066698976
143	0xbe4512e5	-0.19245489
144	0xbd430fe5	-0.04762258
145	0x3db2cf10	0.087309
146	0x3e1d240b	0.1534578
147	0x3ca19244	0.019723065
148	0x3d78d3e0	0.060748935
149	0x3d6ee839	0.058326934
150	0xbe0ee741	-0.13955404
151	0x3adb8adf	0.0016749761
152	0x3d8caf3d	0.068693615
153	0x3e2d86f7	0.16946016
154	0x3d3da059	0.046295498
155	0x3d56633f	0.052340742
156	0x3c84b46c	0.016199313
157	0x3c044ad7	0.008074484
158	0xbe14c9a3	-0.14530043
159	0xbd2682e8	-0.040652186
160	0xbccc8ed9	-0.024970459
161	0xbdf21775	-0.1182088
162	0x3d54ca19	0.051950548
163	0x3c103abb	0.008803065
164	0x3da82a6b	0.082112156
165	0xbd7fb68a	-0.062429942
166	0x3c71cf7b	0.01475894
167	0xbe16ea99	-0.1473793
168	0x3d270795	0.040778715
169	0x3d882236	0.0664715
170	0xbe2f59d9	-0.17124118
171	0xbd8065fc	-0.06269452
172	0xbe10347f	-0.14082526
173	0xbe2d3524	-0.16914803
174	0x3d946079	0.07244963
175	0xbc4a2775	-0.012338509
176	0xbd43bad6	-0.047785603
177	0x3d51b5cc	0.051198766
178	0x3d6db972	0.058038183
179	0xbe08f906	-0.13376245
180	0x3e0bf530	0.1366775
181	0xbc8279a6	-0.015927147
182	0x3c576cc8	0.013148494
183	0x3d5670a8	0.05235353
184	0xbe243ea1	-0.16039516
185	0xbdc40be2	-0.09572579
186	0x3b0a367f	0.002108961
187	0x3e1e53e0	0.15461683
188	0x3ce837a9	0.028346853
189	0xbda8683c	-0.08223006
190	0xbd052de2	-0.03251446
191	0xbbbfedc1	-0.0058572
192	0xbd52b4fb	-0.051442128
193	0xbdb34345	-0.08753065
194	0x3dd68a7d	0.10475633
195	0xbdb1a3c3	-0.08673813
196	0xbde6092e	-0.1123222
197	0xbe22ff11	-0.15917613
198	0x3d03552e	0.032063656
199	0xbd6187f0	-0.05506128
200	0x3dbeec96	0.09322469
201	0x3dbb7337	0.09152835
202	0x3e01f294	0.12690192
203	0x3bc05f0e	0.0058707064
204	0x3db240f6	0.087037966
205	0x3d87afab	0.06625303
206	0x3d610d0c	0.054944083
207	0xbcdc3527	-0.026880814
208	0xbd92cf0e	-0.07168399
209	0xbbc267b5	-0.005932773
210	0x3d5f77ad	0.05455749
211	0xbcf83bbd	-0.030301923
212	0xbde3f52a	-0.11130746
213	0x3d4041d5	0.046937782
214	0x3e1fade6	0.1559368
215	0x3e684bbe	0.22685143
216	0x3d50593b	0.050866347
217	0xbd6d5c99	-0.057949636
218	0xbd90b13a	-0.07065053
219	0x3d5bd94f	0.05367404
220	0x3e15362d	0.14571448
221	0xbdedc6c9	-0.11610181
222	0xbe0c1591	-0.13680102
223	0x3c2b6832	0.010461854
224	0xbd1c9ccd	-0.038235474
225	0x3c90478d	0.017612243
226	0x3d90ef37	0.070768766
227	0x3cfeef84	0.03112007
228	0xbe046ee8	-0.12932932
229	0x3e0761c7	0.13220893
230	0x3d8ff233	0.07028618
231	0x3d8be02b	0.06829866
232	0x3d4fa806	0.05069735
233	0xbd9d01a0	-0.076663256
234	0xbc685b99	-0.014181995
235	0xbd103ffb	-0.035217267
236	0xbc462aa1	-0.012095124
237	0xbe086cf4	-0.13322812
238	0x3d3c3c3d	0.045955885
239	0xbdae1f94	-0.08502117
240	0x3d81d9c2	0.06340362
241	0xbdea1ab6	-0.11430876
242	0x3cd0b833	0.025478458
243	0xbc8a3803	-0.016872412
244	0x3d83027d	0.06396959
245	0x3de10341	0.10986949
246	0x3e01658a	0.1263639
247	0x3d584058	0.052795738
248	0x3d2cc29a	0.042177774
249	0xbc9e28d1	-0.019306572
250	0x3d304721	0.043036584
251	0xbc1ef0ce	-0.009700967
252	0xbcc0f6fc	-0.023555271
253	0x3d9e8e1c	0.07741949
254	0x3d2b5f0f	0.0418387
255	0xbd9fa818	-0.07795733

msg_layers.1.W_self.bias f4 [64]
0	0xbdde0dda	-0.10842486
1	0xbd444420	-0.04791653
2	0xbe3fd321	-0.18732883
3	0x3d0fad1b	0.035077196
4	0xbdb2c7f6	-0.08729546
5	0x3d859f5f	0.06524538
6	0xbd9f27c2	-0.07771255
7	0x3dc5065f	0.09620356
8	0xbca73dae	-0.020415153
9	0x3b9e3aa6	0.004828769
10	0x3df3abaa	0.11897977
11	0xbd8136b7	-0.06309264
12	0xbd047f5c	-0.032348022
13	0x3dc5e91c	0.09663603
14	0x3d66d21f	0.05635273
15	0xbda41b91	-0.080130704
16	0x3d1407a8	0.036140114
17	0x3c2190d8	0.009861194
18	0x3d4a3b3c	0.049372897
19	0x3c44cda9	0.012011924
20	0xbe049a19	-0.12949409
21	0xbd0db6e6	-0.034598254
22	0x3e23ca83	0.15995221
23	0xbe00beeb	-0.1257283
24	0xbe2b2856	-0.16714606
25	0xbe19cb90	-0.15019059
26	0xbcee6f0f	-0.029105691
27	0xbd1adbeb	-0.037807386
28	0x3e11c4e7	0.14235269
29	0xbccdb949	-0.025112765
30	0x3d2befef	0.041976865
31	0x3d9701c9	0.07373387
32	0xbce46cf2	-0.02788398
33	0x3e0bd4b1	0.13655354
34	0xbe019935	-0.126561
35	0x3d3ebdfe	0.04656791
36	0xbdd8159d	-0.105509974
37	0x3e1022bc	0.1407575
38	0xbe06aab2	-0.13151053
39	0x3ccc2957	0.024922056
40	0x3d0842d1	0.033266846
41	0x3d2bdb18	0.04195699
42	0xbe15aad8	-0.14615953
43	0x3e208b1a	0.15678063
44	0x3e198a36	0.1499413
45	0x3c90b96b	0.01766654
46	0x3e14a69f	0.14516686
47	0x3d8b21ec	0.067935795
48	0x3e2e07de	0.16995189
49	0x3d6dd6da	0.058066227
50	0x3d35ca7d	0.04438256
51	0x3da825e9	0.08210356
52	0x3d8f9b2b	0.07012018
53	0xbd0b2d08	-0.033978492
54	0x3d90ae59	0.07064504
55	0xbb9c6c5b	-0.004773659
56	0xbdd9578f	-0.106124036
57	0xbcd18d03	-0.025579935
58	0x3d8eaa4a	0.06966074
59	0x3e217d56	0.15770468
60	0xbde9dfb5	-0.11419622
61	0x3dad0510	0.08448231
62	0xbd9e0c09	-0.07717139
63	0xbd39a86e	-0.045326643
