QuantLaxmi_Research/dtrn/results/checkpoints/fold3_NIFTY/dtrn_stage2.pt (torch, 232927 bytes, 37 tensors)

embed.embed.0.weight f4 [32, 2]
000000 5f f7 83 bc ea fa 92 3e e3 0d a7 be e6 c1 84 be
       -0.016109167 0.28707057 -0.32627782 -0.25929183
000010 b0 f4 cf 3d 64 2b e9 be 47 95 fc be 7f e9 12 3f
       0.10154092 -0.45540917 -0.4933264 0.57387537
000020 0b bc e6 3e 16 cf 65 bd 1c 62 13 3e 5b c7 67 3e
       0.4506534 -0.056105696 0.14392895 0.22634642
000030 bd ff 91 bc c4 13 30 3f f7 81 6e be 82 07 42 3e
       -0.01782214 0.6878016 -0.23291765 0.18948177
000040 b5 b3 86 be 4d ae 09 3d 93 4b b2 be 2f 1f 15 bf
       -0.2630898 0.03361349 -0.34823284 -0.5825071
000050 5f 07 0c 3f 0f 4c 05 3f b1 36 32 bf 89 1e 36 3f
       0.5469875 0.5206918 -0.696147 0.7114034
000060 fa 65 92 bd a4 08 07 3f 1f c6 a5 be 41 f8 e5 3e
       -0.07148357 0.5274756 -0.32377717 0.44915965
000070 3a 33 2b be 59 8c 34 3f d5 9b 0a bf 9b 77 0b 3f
       -0.1671876 0.70526654 -0.5414403 0.5447938
000080 1a 02 e4 3d a9 98 43 3f 32 a9 4c bf 3a 13 01 bf
       0.11133213 0.76404816 -0.7994567 -0.5041996
000090 e6 82 fc 3e 90 88 bd bd 1e b4 8a bd b3 c7 a7 3e
       0.49318618 -0.09254563 -0.06772636 0.32769546
0000a0 ee 68 d4 3c e4 fd fd 39 fb 9c 12 bf 23 44 d0 3e
       0.02592894 0.00048445084 -0.57270783 0.40676984
0000b0 01 1c 99 be 31 5a 34 bf 64 22 1e bf f5 2a f8 3e
       -0.29904178 -0.7045012 -0.61771226 0.48470274
0000c0 61 a4 d1 3e 99 3c f4 be 9e e9 90 be b6 c1 4b be
       0.40945724 -0.47702482 -0.28303236 -0.19898114
0000d0 2b 40 95 be ab d0 d8 be 50 d2 22 bb 2e 9f 3a bf
       -0.2915052 -0.423467 -0.0024844594 -0.7289914
0000e0 78 a1 39 3f b2 35 f0 3d f9 57 65 3e 4e bf 11 bf
       0.72512007 0.117289916 0.2239684 -0.5693253
0000f0 bd b0 ee be da 78 99 be 76 ac 20 3e d7 ae 40 be
       -0.46619216 -0.29975015 0.15690789 -0.18816696

embed.embed.0.bias f4 [32]
000000 19 a1 4e be 1a 37 e2 bd 7e 51 07 bf 03 cd a8 3e
       -0.20178641 -0.11045666 -0.5285872 0.32968912
000010 8d a1 b9 bd 71 ca a6 be 7d 82 fd 3d 33 f7 da bd
       -0.090640165 -0.32576326 0.12378404 -0.10691681
000020 f0 67 c5 be 1d bb 8f 3e 70 c9 21 3f 88 96 e7 3e
       -0.3855586 0.28072444 0.63197994 0.45232034
000030 5e 43 fa 3e 76 9e 21 bf f5 41 e8 be 36 4e 31 bf
       0.48879522 -0.6313242 -0.4536282 -0.69259965
000040 de 0f 3b 3e 20 cd 8f 3e 30 03 a0 be d7 01 09 be
       0.18267772 0.28086185 -0.31252432 -0.13379608
000050 01 ee 18 3f eb 23 fd 3e af 15 17 bf 84 e5 0b bf
       0.59738165 0.49441466 -0.5901746 -0.5464709
000060 84 55 a5 3c 9e a5 d5 3c 68 01 c5 3d ca e5 8e be
       0.020182379 0.026079949 0.09619409 -0.2790969
000070 29 0d 19 3f 58 cd 80 bd 67 3c a6 3e c2 48 39 3c
       0.59785706 -0.06289166 0.32467958 0.011308851

embed.embed.2.weight f4 [32, 32]
000000 77 c1 f7 3d 0e 9e 0a 3e 9b c3 0a bd 4f 32 f3 bd
       0.12097447 0.13536856 -0.03387795 -0.1187483
000010 ac da 98 bc 1a ca 27 3d 14 dc 52 be c0 1d e2 bc
       -0.018658958 0.040964223 -0.20591766 -0.027602077
000020 e3 e3 06 be 62 82 b9 bb 6b 53 05 3e 05 a1 35 be
       -0.1317287 -0.005661295 0.13020103 -0.17737205
000030 b7 a5 a4 3d 0d 80 53 bd f9 04 17 3c 75 19 13 be
       0.0803942 -0.05163579 0.009217494 -0.1436518
000040 64 48 f1 bd 24 99 13 3d 73 16 2f 3e 1b 1e 16 be
       -0.117813855 0.03603472 0.17098407 -0.14659922
000050 bb 5d 93 bc 24 7a 11 3c b6 c2 ca 3d 77 15 09 be
       -0.01798903 0.008879218 0.099004194 -0.13387094
000060 5d 6c f2 3d ee 71 28 be be eb d1 3b 61 22 46 3e
       0.11837075 -0.1644971 0.0064062765 0.19349052
000070 da b7 b7 bd f4 77 94 bd 7d 17 21 3c a4 a6 5e 3d
       -0.08970614 -0.07249442 0.00983226 0.05435814
000080 03 1e d2 bd bc b7 d3 bd 88 2d dc 3d d3 95 13 be
       -0.102596305 -0.10337779 0.10750872 -0.14412622
000090 82 24 93 3d ec 46 0f bd ba ac cf 3d ac ff e7 3c
       0.07184698 -0.034979746 0.10140367 0.028320156
0000a0 c8 ca 46 3e 13 02 61 3d 6e 56 b4 3d 99 79 f2 bd
       0.19413292 0.05493362 0.08805548 -0.11839599
0000b0 c1 6d b7 bd 02 57 da bd f7 aa 47 be d8 be 12 be
       -0.08956481 -0.10661127 -0.19498812 -0.14330614
0000c0 cf 27 4a be 8e 68 0d 3e 57 9e 5a 3e 41 b6 59 be
       -0.19741748 0.13809416 0.21349464 -0.2126093
0000d0 10 97 8c bd 16 83 00 be 00 b3 9f 3b 20 18 16 3d
       -0.068647504 -0.12550005 0.0048736334 0.0366441
0000e0 69 52 84 3c 12 5e 4c 3c b0 4a 55 3e 2a 3b e8 3d
       0.016152577 0.0124736 0.20829272 0.1133941
0000f0 ca e7 33 be 0f d6 24 3e 06 5d b8 bc 4d 9c 02 be
       -0.1756889 0.16097282 -0.022505295 -0.12754937
000100 2d 4e 22 3d dc d2 6a be e4 c7 4d 3c 6e b6 2a 3e
       0.039625335 -0.22931999 0.012559865 0.16671154
000110 64 17 ed bd 46 66 d7 bd ec 1c 00 3e 34 0b 0b be
       -0.11576727 -0.10517554 0.12511033 -0.13578492
000120 aa 6f a5 3d 82 ed 75 3d 9d cf 92 3d 2f dc 85 3d
       0.08077939 0.06004096 0.07168505 0.06536137
000130 76 ee e5 bc a7 ce aa 3b 22 eb df bb 23 e4 15 bd
       -0.028067809 0.005212623 -0.00683345 -0.03659452
000140 e5 e2 9d bc 22 10 2c be c0 aa c2 be 04 89 e1 bd
       -0.01927323 -0.16803029 -0.38020897 -0.11012462
000150 4e 78 c5 3d 7e 68 63 bc 9d 23 fe 3c 32 9f 73 bd
       0.09642087 -0.013879893 0.031022841 -0.059477992
000160 e1 e6 f3 bc 5d f9 a4 bd 35 84 a2 3d 02 c3 74 bd
       -0.029773178 -0.08055375 0.07935373 -0.059756286
000170 92 b9 9f bc 30 bc 79 be 8a 47 9d bc c6 e8 4e bc
       -0.019497667 -0.24388194 -0.019199152 -0.01262874
000180 9e b2 69 3d 94 a9 7c bd 74 b3 26 3e 65 74 62 bd
       0.05705511 -0.06168516 0.16279393 -0.055286784
000190 a3 97 c2 3d 7a 53 85 3d e9 3b 14 3e 8d 0a 0d 3c
       0.09501579 0.065100625 0.14475979 0.0086084725
0001a0 7b 6b 0b 3e 28 99 86 be f3 8d 11 3d 12 16 1e be
       0.1361522 -0.26288724 0.035535764 -0.15438107
0001b0 5a 59 21 be 49 2a 13 bd 2e 66 0b 3e e7 7f c0 3d
       -0.15756741 -0.035929 0.13613197 0.093993954
0001c0 4a a2 74 bd 34 b7 97 be 97 2d a9 3c 4a 85 1d 3e
       -0.059725083 -0.2963196 0.020651622 0.15382877
0001d0 56 de e1 3d 8b 30 c2 bd 70 5b 84 3d 31 1a 18 3d
       0.11028735 -0.09481915 0.06462753 0.037134353
0001e0 c8 9d 18 3e 60 59 2b 3d 56 28 4f be 37 68 13 3e
       0.14903939 0.04183328 -0.2023023 0.14395224
0001f0 59 ea 15 3e fe 0c f6 3d f2 28 a4 be e8 b8 34 bc
       0.14640178 0.12014197 -0.3206249 -0.011030413
000200 1f 94 d1 3b 49 c1 c7 3c 87 ea 63 bb b4 0c 4c 3e
       0.0063958312 0.024384158 -0.003477724 0.19926721
000210 b3 da 0d bd 79 84 f8 3d 38 5c 5c 3d 77 ac 3e 3e
       -0.034632396 0.12134642 0.053798884 0.18620478
000220 88 c3 cd bd 17 73 cc bc a7 5c 44 be 75 a3 e6 bc
       -0.1004706 -0.024957223 -0.19175969 -0.028154114
000230 98 d5 dd 3d 88 07 59 bd 57 d4 95 bd fa 83 aa 3d
       0.108317554 -0.052985698 -0.07315891 0.08325954
000240 0c 82 31 be 49 42 59 3e 80 9b 30 be eb 89 0f bd
       -0.17334765 0.21216692 -0.17246819 -0.03504364
000250 58 d4 d9 3d 2b 45 17 3e 57 5f 1d be c0 12 49 3e
       0.106362045 0.14772479 -0.153684 0.19636059
000260 10 82 91 bd fc 76 e3 bd b6 57 8c bd 24 f8 48 3d
       -0.071048856 -0.11106679 -0.06852667 0.04906477
000270 d3 aa 54 3d 40 8a b0 bd 69 d9 03 3d 0f 87 23 be
       0.051920723 -0.08620119 0.03218976 -0.1596949
000280 e8 e1 20 be 7d 4b 2b bd b4 bb 0f 3e 1f 7c 59 bd
       -0.15711176 -0.041820038 0.14036447 -0.053096887
000290 b4 65 d5 bd a9 81 e6 3d 6a cf 0f bc 8d a4 15 3e
       -0.10419789 0.112551995 -0.008777479 0.14613552
0002a0 10 40 1d be 24 ad 22 3e fc ce e4 3d 92 59 f1 bd
       -0.15356469 0.1588636 0.11172292 -0.11784662
0002b0 32 27 a4 bd 00 82 63 be 7d 27 4c be 23 24 ab bd
       -0.080152884 -0.2221756 -0.19936939 -0.08356502
0002c0 0f 0b 9c 3c 75 e0 3d 3e 38 98 ec 3d 92 82 48 3d
       0.019048242 0.18542655 0.11552471 0.048952647
0002d0 8d 83 01 be 26 33 d3 bd 64 bd 14 3c 94 a1 21 3e
       -0.12647839 -0.1031249 0.009078357 0.15784293
0002e0 85 a0 05 be 46 b8 e3 bd 7e 0d 23 3e 6f d5 a0 bd
       -0.13049515 -0.11119132 0.15923116 -0.07853209
0002f0 bc 7d ba bd 98 43 22 3e 46 19 23 3e 81 72 b6 3d
       -0.09106013 0.15846097 0.1592761 0.08908559
000300 33 16 6b bc e2 ca 17 be 29 22 65 3e 15 74 c3 3a
       -0.014348554 -0.14823487 0.22376312 0.0014911914
000310 64 aa 2a 3e 6f 9d 0d 3e dd a1 2b bd fe 65 e1 bd
       0.16666561 0.13829587 -0.04190241 -0.110057816
000320 7d dd ec bd a1 c9 ee 3d b8 30 dc bd 51 3c 0d be
       -0.11565683 0.116595514 -0.1075148 -0.1379254
000330 c8 d3 a8 bc 21 0e ab bd d2 f8 96 bc b6 2b 3d 3e
       -0.020608798 -0.08352304 -0.018429194 0.18473706
000340 b0 55 1f 3c 9c d8 86 bc 91 44 39 3e e0 bd 30 be
       0.009725019 -0.01646071 0.18092562 -0.17259932
000350 bc 8a b4 bd 3c 7a 0a 3e 10 9a 29 bd c5 be 9b 3d
       -0.08815524 0.13523191 -0.04140669 0.07604746
000360 da 9f 48 3e a7 9f 01 be cb 54 d8 3b ae de 35 bd
       0.19592229 -0.12658559 0.006601905 -0.044401817
000370 97 2e ba 3d 81 5b 81 3d 80 90 8c bd a9 6b ec 3d
       0.090909176 0.06316281 -0.06863499 0.11543972
000380 cd ec 19 3e 3e 76 0d bd ad 52 8e bc ef 30 4d bd
       0.15031739 -0.034536593 -0.017373407 -0.050095495
000390 a7 69 d0 3c 23 22 32 3e 3e 6c 32 3e 30 28 3d 3d
       0.025441004 0.17395835 0.17424104 0.046180904
0003a0 31 7d 68 3c 19 e1 42 3d c0 bd 0b 3e 35 69 06 be
       0.014190004 0.04757795 0.13646603 -0.13126071
0003b0 7c fd 80 bd c4 02 a4 bd a5 98 50 3e 1b 6d 02 3e
       -0.06298348 -0.0800834 0.2037073 0.12736933
0003c0 d8 bb 40 3d 93 6b 26 be 67 80 89 3e 91 f4 49 3e
       0.04705414 -0.16251974 0.26855776 0.19722201
0003d0 5e 65 44 be a7 61 54 be e6 fc d4 3d 5b ec ba bd
       -0.19179294 -0.20740376 0.10399799 -0.091271125
0003e0 c9 94 2b 3e 72 fc 08 be a5 db 96 bd aa 41 29 be
       0.16755976 -0.1337755 -0.073661126 -0.16528955
0003f0 5f 78 e0 3d cc fc 86 3d 2a 84 ce bd fd 32 cb 3d
       0.10960459 0.06591186 -0.10083802 0.099218346

embed.embed.2.bias f4 [32]
000000 bd 45 c9 3d 9b 9d c3 bd 2c a0 43 3d 3d 42 05 be
       0.09827755 -0.09551545 0.047760174 -0.13013549
000010 0d bd c1 bd af 03 11 be 52 3d eb 3d d2 90 dd 3d
       -0.09459887 -0.14161561 0.11486305 0.10818638
000020 41 22 76 3d ae d7 4c be 85 56 55 3d f7 82 72 bd
       0.06009126 -0.2000415 0.052084465 -0.05920693
000030 d9 5b 39 be ba a2 aa 3d 5f 56 41 3e 62 58 bc bd
       -0.18101443 0.08331819 0.18880604 -0.09196545
000040 4c 8d 82 3d d0 97 f9 bd e7 03 6a 3d d7 1c b5 bd
       0.063746065 -0.12187159 0.057132628 -0.088433914
000050 01 62 9c 3d f0 03 b8 3d 9c f9 f1 bc 46 d3 69 3e
       0.0763588 0.08985126 -0.029537968 0.228345
000060 a2 5d 1c 3d 18 c0 b4 bd 74 44 35 3d 16 47 56 3e
       0.038175233 -0.088257015 0.044254735 0.20925555
000070 c7 d2 19 3e aa 4f 6c bd 05 0f a1 bd c5 64 95 3c
       0.15021811 -0.05769316 -0.07864193 0.018236527

input_proj.weight f4 [64, 32]
000000 a6 71 cd 3d b0 93 3e bd 66 29 9e 3d 98 99 24 bd
       0.10031442 -0.046527565 0.0772274 -0.04018554
000010 54 f1 2f bd fc 18 33 3c 86 b0 96 bc 4c a3 2c 3e
       -0.042954758 0.01093125 -0.01839472 0.16859168
000020 41 59 92 3e 4b 3d d4 bd 57 9b 99 bd 0a 26 fc bc
       0.2858372 -0.10363253 -0.07500332 -0.030779857
000030 4e bf 1a bd 40 ad 89 3d 49 66 96 bd e3 37 a9 3d
       -0.0377801 0.06722498 -0.07343728 0.08262613
000040 c4 ff cf bd 7a c6 68 3d 8b 59 65 be e8 f7 5e 3d
       -0.10156205 0.056829907 -0.22397439 0.05443564
000050 4f a3 40 3d 29 76 8f 3d 46 fe 3d 3e 7d d3 70 3e
       0.047030743 0.07004959 0.18554029 0.23518176
000060 51 73 8d 3e 62 bc d6 bd 57 1d eb 3c 3d 8d 91 3d
       0.27627042 -0.1048515 0.028700514 0.07107017
000070 b3 91 46 3d ab 60 e6 3c 03 b5 de bd 29 86 63 3d
       0.048478793 0.028122267 -0.10874369 0.055547867
000080 59 9f 09 bd 18 67 b8 3d dc fc 0f be 33 be 87 be
       -0.03359923 0.090040386 -0.14061302 -0.26512298
000090 30 95 1b 3e 49 43 54 3c 8e 1c 62 bd e1 bd e0 bc
       0.1519363 0.012955495 -0.055203013 -0.027434291
0000a0 5c e7 86 3d 0b 9b c7 bd f8 34 c2 bd 9d 83 16 3d
       0.06587097 -0.09746369 -0.09482759 0.03674661
0000b0 f9 d4 13 be 44 e8 f2 3d cc 41 f8 3d b9 54 b9 bd
       -0.14436711 0.118607074 0.12121925 -0.09049363
0000c0 ff 3c 33 3e ff 22 56 3b a2 c6 03 be 13 aa 02 3e
       0.17503737 0.0032674668 -0.12868741 0.1276019
0000d0 23 a1 eb bc f4 72 c8 3d c9 3f 2f be 57 fd 42 bd
       -0.02876336 0.097875506 -0.17114176 -0.047604885
0000e0 73 a1 9b 3d dd 28 82 3d 39 ef 10 be d0 62 b4 3c
       0.07599153 0.0635545 -0.14153756 0.022019774
0000f0 fb 7c 0b 3e 38 94 a5 3d c9 72 b0 bc 96 b3 4d bd
       0.13621895 0.08084911 -0.021539109 -0.050220095
000100 4a 6a 00 3e ee f3 df bc 5f 07 55 be b1 a4 19 3e
       0.12540546 -0.027337994 -0.20803593 0.15004231
000110 4a bc bc 3d e3 c3 87 3d cd 9c 87 3c 73 52 30 3e
       0.09215601 0.06629159 0.01655426 0.17218952
000120 2e 8e 41 bd e4 87 07 3e 89 33 37 bd fe 8b 0f bd
       -0.047254734 0.13235432 -0.044726882 -0.035045616
000130 48 57 e8 3c fb 10 98 3d 79 a8 25 be ef 86 27 3e
       0.028361931 0.07425114 -0.16177548 0.16360067
000140 a8 f4 ce 3a 15 71 dd 3d 8d 1b c3 39 c8 94 ce 3d
       0.0015789466 0.10812584 0.00037213825 0.100869715
000150 74 5e 2a be 5b a7 14 3e c1 78 65 be 76 fd 7d bd
       -0.16637594 0.14516966 -0.22409345 -0.062009297
000160 99 63 ee 3c 52 e1 27 be 4a 02 68 3b 8e ea 36 3e
       0.029100226 -0.16394547 0.0035401755 0.17862913
000170 a5 52 a8 3c b0 55 05 bd d2 54 86 3b 7d f2 14 3d
       0.02054722 -0.03255242 0.004099467 0.036364067
000180 64 b2 c7 3d 86 04 50 bd 39 26 d0 3d 00 49 6b bd
       0.09750822 -0.050785564 0.101635404 -0.057442665
000190 75 7a 28 be 23 7e 99 3c f4 8d 33 bc f5 04 38 3d
       -0.16452964 0.018736904 -0.010959137 0.044926602
0001a0 f2 b2 ae 3d 4b a1 00 3c 14 e2 0d be 9c 97 51 3e
       0.08530225 0.007850955 -0.13855773 0.2046799
0001b0 d6 7d 89 3c 14 98 76 bd ae 4e 89 3d 73 1b 58 3d
       0.016783636 -0.060203627 0.0670446 0.052760553
0001c0 c5 b4 90 bd b0 7f 15 3e dc 49 36 3d 13 8a b6 bd
       -0.07065729 0.1459949 0.04450403 -0.08913054
0001d0 10 ac 7d 3d 42 c5 de bb a2 0d 3f 3e ed dc bf bc
       0.06193167 -0.0067984173 0.18657544 -0.023420775
0001e0 4b 7f 0c 3d 08 92 c3 bd 3f 7c 2c be fa 67 48 be
       0.034301084 -0.095493376 -0.16844271 -0.19570914
0001f0 0d e0 1f be cf eb 29 3e df 41 2f 3e 70 e3 f3 3d
       -0.15612812 0.1659386 0.17114972 0.11908615
000200 d0 92 ba 3c 72 5e 7c 3e 6f 5a 82 bd 7a 29 18 3e
       0.022775084 0.24645403 -0.06364905 0.14859572
000210 a9 91 eb 3d 26 70 74 3e 75 04 fa bd 01 08 87 bd
       0.11502392 0.23870906 -0.12207881 -0.065933235
000220 89 9a d7 bd 3d bb 24 3e 9d 71 0f 3e 5a 88 bf 3c
       -0.10527522 0.1608705 0.14008184 0.023380447
000230 1b 71 35 3e 9b 38 92 3d b2 4b 09 3e e5 7e 03 be
       0.17718928 0.07139703 0.13407782 -0.12841375
000240 b2 5c a8 bd 9b 06 bf bd 66 2a 78 3d 9b f8 ea 3d
       -0.08220805 -0.09327432 0.06058731 0.11473199
000250 65 46 b0 3d 54 fa f3 3d a6 40 8a bd c3 24 34 be
       0.08607177 0.11912981 -0.06750612 -0.17592148
000260 b4 16 f2 bd 12 94 9b 3d 15 d8 82 3d bb 15 2a be
       -0.118207365 0.075966015 0.063888706 -0.16609852
000270 2f 67 e5 bd 97 69 2c bc a8 bd 16 3e de b0 26 3c
       -0.11201321 -0.010523221 0.14720786 0.010174004
000280 27 f0 f7 bc fb f1 3c 3e 44 dc cd 3c e6 fa 1d bd
       -0.03026588 0.18451683 0.025129445 -0.038569354
000290 c6 9c cf 3d aa a7 81 3d 10 6a 52 3d d2 af 69 3d
       0.10137324 0.063308075 0.05137068 0.05705244
0002a0 3b df 3c be 45 70 58 3d e0 c7 25 3e 82 39 12 bc
       -0.1844453 0.052841444 0.16189528 -0.008924844
0002b0 c1 cc f7 3c 68 77 b3 bc ca 16 2e 3e c8 9e 1e 3e
       0.030249001 -0.021907523 0.17000881 0.15490258
0002c0 56 97 ba 3d 0a 4b 0c 3e aa 3a 84 bc 8b 2d 87 3d
       0.09110896 0.137005 -0.016141254 0.066004835
0002d0 3b c9 2e be ec 6c 22 3e e4 96 1e be 7d 75 65 3c
       -0.17068951 0.15861863 -0.15487248 0.014005062
0002e0 6a 66 36 bd c7 93 12 3e 7d 0c 22 bd f4 d8 a9 bd
       -0.044531263 0.14314185 -0.03956269 -0.08293334
0002f0 5a da 4d 3c 93 e4 00 be df 22 89 bd 61 d1 3e 3d
       0.012564266 -0.12587194 -0.06696104 0.046586398
000300 38 81 6a 3e b8 53 c1 3d eb 0d 39 bc 13 53 fa 3d
       0.22900856 0.09439796 -0.011294822 0.122228764
000310 24 fc a9 3d 34 d1 ee bc 64 d3 92 3c a9 df d9 3d
       0.08300045 -0.02915249 0.017923065 0.10638363
000320 66 ec 9a 3d 43 9c 0c be 4a 5e ab 3d e1 5e c0 bc
       0.07564621 -0.13731484 0.083675936 -0.023482742
000330 73 35 60 bc cb b2 0b be 11 46 fc bd 64 21 87 bd
       -0.013684618 -0.13642423 -0.123180516 -0.06598166
000340 d9 35 95 bd d7 08 af bc f9 58 f9 bd ee d8 3c be
       -0.07285661 -0.02136652 -0.12175173 -0.18442127
000350 68 46 d5 bd f1 59 fe 3d 29 4f c5 3d dd 0c 06 bd
       -0.104138196 0.12419499 0.09634239 -0.03272711
000360 3c 9d 11 be b9 7f 0c 3d 24 20 ff 3d 34 aa 59 3e
       -0.14220136 0.034301493 0.12457302 0.21256334
000370 4b c0 0b be dc c7 3f 3e d2 0c ba 3d ce 3f b9 3d
       -0.13647573 0.18728584 0.090844765 0.09045373
000380 97 fa 24 bd 07 f0 d9 bd 20 e3 16 be 09 b0 10 3e
       -0.040278044 -0.10641485 -0.14735079 0.14129652
000390 7a 7b 14 be ae f2 3e be 45 95 80 3c 3e a3 11 3c
       -0.14500228 -0.18647262 0.015696177 0.008889018
0003a0 82 ff 30 3d ca 7c f4 3d 29 e5 68 3e bd c0 cd 3d
       0.04321242 0.11937864 0.22743668 0.100465275
0003b0 c7 6b 70 bd 8e 96 12 be f8 8d 5a be d2 d6 ba 39
       -0.058696534 -0.14315245 -0.2134322 0.00035636738
0003c0 14 0a cb bc d8 84 16 3e da 5f a9 bc 2b 17 11 3e
       -0.024785079 0.14699113 -0.020675588 0.14168994
0003d0 db f0 5f 3d b4 ab f8 bd ed 4e 59 bd 9d 96 bb 3c
       0.054673057 -0.12142125 -0.053053785 0.022898966
0003e0 8b c9 f8 bd 02 84 37 3e ff 3f d8 3c 3e f6 64 3d
       -0.12147816 0.1792145 0.026397703 0.055898897
0003f0 89 cf 7f be 58 a2 27 3e fc 10 c1 3c 30 72 70 3e
       -0.24981512 0.16370523 0.02356767 0.23481059

input_proj.bias f4 [64]
000000 3b 10 18 3d 4b 5c a2 bd e9 8e 1a be 15 3a 04 3e
       0.037124854 -0.0792776 -0.15093578 0.12912782
000010 18 42 03 bd 59 b6 9d 3d e5 d3 cb bc a9 40 07 3e
       -0.032045454 0.07700796 -0.024881313 0.1320826
000020 5e 52 31 3e a1 c4 27 be 91 9b 7b bd 28 e0 21 bd
       0.17316577 -0.16383602 -0.061427657 -0.039520413
000030 04 eb 97 3d 10 82 b7 bd 5d 40 6e bd d0 da c3 bd
       0.074178725 -0.08960354 -0.05816685 -0.095632195
000040 db 46 eb bc 9a 42 1c be 62 7c c9 3d 47 06 fa 3d
       -0.02872031 -0.15259781 0.09838177 0.122082286
000050 02 39 78 3d 68 04 dd bd 98 35 b9 3d a8 a4 c2 bd
       0.060601242 -0.10791856 0.09043425 -0.09504062
000060 8c 67 79 3d c0 8c 33 be 01 4d 63 3e 99 f8 23 be
       0.060889766 -0.1753416 0.22197343 -0.16012801
000070 e3 a1 6e 3d 29 05 e2 bd 07 da 4c be 08 8c 48 3d
       0.058259856 -0.110361405 -0.20005046 0.04896167
000080 29 ba 6b be 37 2f b8 3c be e0 d9 bd 1c ae 2c be
       -0.23020233 0.022483451 -0.10638569 -0.16863292
000090 00 a6 83 bd 5f de 1f be 3c 0e 62 bc 4f 25 61 3d
       -0.06428146 -0.15612172 -0.013797339 0.05496722
0000a0 d1 6b f0 bd 02 0d 20 3e 7b 8d 4f 3e fb 78 e7 3d
       -0.11739314 0.15629962 0.20268814 0.11302372
0000b0 c8 d2 f7 3d df 70 89 3d 77 9d bb 3c 86 0c 05 3c
       0.1210075 0.067109816 0.022902234 0.008120662
0000c0 61 6b 08 be 2b 41 ae bd 9a 0b 3d 3e 1a 0d 22 3e
       -0.13322212 -0.085085236 0.18461457 0.1582531
0000d0 83 66 cd bd 4c 57 78 ba e1 d3 cc bd 4f 45 80 be
       -0.10029318 -0.00094734575 -0.1000135 -0.25052878
0000e0 f0 57 12 3b 36 2f e3 bc e3 06 b7 bd c7 1c 55 be
       0.0022330247 -0.027732473 -0.089368604 -0.20811759
0000f0 ff c9 ec bd f9 74 3e be a5 c2 57 be fd 6f 81 bd
       -0.11561965 -0.18599309 -0.21070345 -0.06320188

msg_layers.0.W_self.weight f4 [64, 64]
000000 e7 dc a4 bc 8c 70 42 bd ed 7a 84 bd 8e 60 b6 bd
       -0.020124866 -0.047470614 -0.06468759 -0.08905135
000010 10 fc 97 bc bd 53 c3 3d 4d 3c 9c 3d f2 ee 83 bd
       -0.01855281 0.09537456 0.07628689 -0.064420596
000020 11 4f 4f bb b7 2a cc bc 68 15 99 3a f5 d0 ef 3d
       -0.003163282 -0.024922712 0.0011679353 0.11709777
000030 f7 47 c8 bd 4b 84 3e bd 50 f5 08 bd 59 f8 71 bd
       -0.09779351 -0.046512883 -0.033437073 -0.059074733
000040 80 37 d5 bd 78 ba ef bd a1 36 a8 3d 98 49 9d 3c
       -0.104109764 -0.11705488 0.08213545 0.019200131
000050 11 28 09 3c af d0 6e bd 8e d7 bd 3d f3 96 d8 bd
       0.008371369 -0.058304485 0.092696294 -0.10575666
000060 09 9d 00 bd f4 1d 9b bd eb e9 23 bd 34 64 0e 3e
       -0.03139976 -0.075740725 -0.040018003 0.13905412
000070 b1 89 cd 3c d4 27 06 bd 68 c2 d3 3c 7e 6b 1a bc
       0.02509007 -0.032752827 0.025849536 -0.009425042
000080 3a 32 28 3d 58 d0 16 be bd 3c 11 bd be 9e 12 be
       0.041063525 -0.14727914 -0.035458315 -0.14318368
000090 d5 34 ca bd 5a e6 be bc 9b 90 c2 bc ca a2 bd bd
       -0.09873358 -0.0233032 -0.023750594 -0.09259565
0000a0 a7 a6 68 bd 00 54 3e bd 4f 3f d4 3a e7 13 1d 3e
       -0.056799557 -0.046466827 0.0016193184 0.15339623
0000b0 f2 b4 4e 3d b0 25 b2 bd 45 76 dc bd 14 8b 00 3e
       0.05046553 -0.086985946 -0.107647456 0.12553054
0000c0 b2 37 d5 3c f1 aa 8a 3d 2a dd 59 3d 2e fe 8b 3b
       0.026027534 0.06770886 0.053189434 0.004272244
0000d0 45 26 5f bc 59 b6 b7 3d aa da 8f bc f1 f0 65 bd
       -0.013619964 0.08970327 -0.017560322 -0.056137983
0000e0 3f 6d 14 bd 4c d9 a9 bd 04 d1 37 bd 88 92 0e be
       -0.036236998 -0.08293399 -0.044877067 -0.13923085
0000f0 58 8f ef 3c 8f f5 71 3d 3d 6c d1 3d 5a 95 4b bd
       0.029243156 0.059072074 0.10225723 -0.04970298
000100 f4 8c 8a bd 16 a8 7f bb d0 7a e2 3d b1 3a 7a bd
       -0.06765166 -0.00390101 0.11058581 -0.06109113
000110 a9 01 00 3e c8 1d ca bd d2 72 94 3d ff a3 07 bd
       0.12500633 -0.098689616 0.07248463 -0.033115383
000120 7d 26 b6 3d 1c 9a 84 bd 1a cb 27 bd 27 58 3a bc
       0.0889406 -0.064747065 -0.040965177 -0.011373556
000130 37 92 f9 bd 02 82 58 bd 79 68 f3 bd 8e 57 fe 3c
       -0.121860914 -0.05285836 -0.11885161 0.031047609
000140 3a e7 e9 bd e7 75 35 3e e7 b5 7e bc 55 05 c2 bd
       -0.11421056 0.17720757 -0.015546299 -0.09473673
000150 7f 27 41 3c 10 4a 18 bc ef 5e 16 bd 41 00 a3 3c
       0.011789202 -0.009295002 -0.03671163 0.019897582
000160 d3 cd 1f be d5 55 f0 3d 92 ab fc bd 58 20 62 3d
       -0.1560586 0.11735121 -0.12337412 0.055206627
000170 e6 ab 8f 3d 8b b8 3d 3d ab 8c 8c 3d 04 d2 af bc
       0.07015209 0.046318572 0.06862768 -0.021462448
000180 61 83 2b bd 58 e7 1a bd 3e b7 84 3c c3 14 a0 3b
       -0.04187334 -0.037818283 0.016200658 0.0048852875
000190 2a c7 97 3d 3e ca 0d 3e 7a 58 4d bd 9b 5c 06 bd
       0.074110344 0.1384668 -0.050133206 -0.03280316
0001a0 c7 7d 7d 3d bd 58 08 be 78 ba 29 be 59 4a 8c 3d
       0.06188753 -0.13315101 -0.16575038 0.06850118
0001b0 ce 08 5c bd 5e 86 ab 3d 07 df 4a 3e 0e c9 9e 3d
       -0.053719334 0.08375238 0.1981164 0.07753192
0001c0 21 7f f3 3d 2a 8b ff 3d ad 32 50 bc 61 2c 33 3d
       0.11889482 0.12477715 -0.012707395 0.043743495
0001d0 8b 74 55 3c 7e e8 15 3d 42 95 8a 3d 3b a4 28 3e
       0.013028274 0.036598675 0.0676675 0.16468899
0001e0 da f7 16 3c cc d5 d7 bd b1 0b 9b 3c b5 8b 81 3d
       0.009214366 -0.105388254 0.018926473 0.06325475
0001f0 2d 16 86 3b d0 d0 85 3c 81 bb 30 3d e8 41 71 3d
       0.004091999 0.016334921 0.043147568 0.058900744
000200 cd cc ea bd 57 e2 00 3e ce 34 0e be 3c b1 d9 bd
       -0.11464844 0.12586342 -0.13887331 -0.10629508
000210 86 0c 53 3d 64 57 ea 3d 29 b8 10 3e 65 5e da 3c
       0.051525615 0.1144245 0.14132752 0.026656339
000220 fc 85 d9 bd a3 29 1b 3d d9 46 1e 3d 87 f7 68 3d
       -0.106212586 0.037881505 0.038641784 0.056876685
000230 f4 66 bc 3d 09 3d 88 3d 91 d2 cc bc 6f ab 2f bd
       0.09199324 0.066522665 -0.02500275 -0.0428881
000240 50 33 2a 3b f0 6e 90 3c 37 45 0d 3e 38 b9 5c bc
       0.0025970526 0.017631024 0.13795935 -0.013471894
000250 11 76 8f 3c a5 f8 bd 3d 1e ac bf 3d 98 7d 5b 3e
       0.017512353 0.09275941 0.093590006 0.21434629
000260 b8 2a b0 3c f7 7b 24 bd eb bb f4 bd bd 05 22 3e
       0.021504745 -0.040157285 -0.11949905 0.15822501
000270 dc 01 8e 3d 24 34 2e 3d 3b 85 74 bd 70 e2 6f 3e
       0.069339484 0.042530194 -0.05969737 0.23426223
000280 09 76 b4 3d d3 7d e4 bd 68 13 e2 bc dd 5a a6 3c
       0.08811576 -0.111568116 -0.027597144 0.020306999
000290 a6 84 88 bd 98 f9 4a 3e 7b 28 b9 3a 07 c4 3d bd
       -0.06665926 0.19821775 0.0014126444 -0.046329524
0002a0 fc 77 1f bd c6 85 3d bd 1d 78 80 bd 4f bd f8 bd
       -0.038932785 -0.046270154 -0.0627291 -0.12145483
0002b0 4e da 4c bd 6a 07 cf 3d 36 7b ad bd 53 2e ca bd
       -0.05001288 0.10108836 -0.08470766 -0.09872117
0002c0 5f e1 82 bd f2 e9 b9 3d 43 e4 92 bc 98 cf 0d be
       -0.063906424 0.09077825 -0.01793111 -0.13848722
0002d0 61 c3 6c bd 2d be aa bd ee 76 ea bd 5f e6 6c 3d
       -0.057803515 -0.083370544 -0.11448465 0.057836886
0002e0 e9 2d 09 be f5 c9 76 bd 62 cd 84 3d a5 3f 54 3d
       -0.1339642 -0.060251195 0.06484486 0.05181851
0002f0 88 27 30 bd 7c 62 14 3e d7 e1 5a 3c 8b c0 06 3e
       -0.04300645 0.14490694 0.0133595085 0.13159387
000300 3d 29 8d 3d 02 2d 52 bd d7 18 76 3c b3 da d9 3c
       0.06892631 -0.051312454 0.015020571 0.026593542
000310 de 18 f2 3d 6b 4b eb 3c dd c0 bc 3d 19 37 8c 3c
       0.11821149 0.028722486 0.09216473 0.017116116
000320 36 d7 99 3c 2d a4 02 3e af 19 d7 3c be a8 2d bc
       0.018779378 0.1275794 0.026257364 -0.010599313
000330 f7 46 13 bd 2f 95 6e 3d 73 89 11 be ae 23 89 3d
       -0.03595635 0.05824774 -0.14212589 0.066962585
000340 c8 1e 98 bd c0 0a 83 3c a8 86 87 3d 09 65 0e bc
       -0.07427746 0.015996337 0.066174805 -0.008691081
000350 1c 65 fe bd b9 af ea 3d 3a 95 08 3e be 65 3f 3e
       -0.12421629 0.11459298 0.13338175 0.18691155
000360 d6 fd 2a bc 7e 98 33 bc 76 4c 03 be 81 23 f3 3d
       -0.010436496 -0.01096165 -0.12822136 0.11872006
000370 08 81 3f 3d 59 38 a2 bd 41 bc 91 bd 22 12 10 3d
       0.046753913 -0.07920904 -0.07115985 0.035173543
000380 d2 f5 91 bd 27 b1 84 bd 5f fd 7f 3d 45 44 4b bd
       -0.07126965 -0.06479102 0.062497493 -0.049625654
000390 f9 e2 74 bc 20 ea fb 3d 17 9d a1 bd e5 85 83 3d
       -0.014946693 0.12300515 -0.07891291 0.06422023
0003a0 8e 00 b7 3d 9a 74 19 bd 4c d1 ef bd 58 f0 eb 3d
       0.08935653 -0.037464716 -0.11709842 0.11520451
0003b0 4a 47 07 be 47 02 3b be 5b 05 1a 3d e0 eb 54 3b
       -0.13210788 -0.18262587 0.037602764 0.0032489225
0003c0 be 47 e8 ba 33 ec 76 3d 61 88 9a 3c 05 ee 8d bc
       -0.0017721576 0.06028385 0.018863859 -0.01732541
0003d0 aa a5 a2 3d 0e de 30 be e7 ce 31 ba ff 96 ee 3d
       0.07941754 -0.17272207 -0.0006782845 0.11649894
0003e0 04 73 fb bd ee 23 09 be 23 59 18 be b5 44 57 3e
       -0.12277797 -0.13392612 -0.14877753 0.21022303
0003f0 8f 76 26 3d 34 d4 a6 3d 64 f0 f8 bc cd 52 e0 3d
       0.04064041 0.08145943 -0.030388065 0.10953293

msg_layers.0.W_self.bias f4 [64]
000000 24 6a 20 bd 66 18 17 be 00 d3 1d be 35 77 94 3d
       -0.039163724 -0.14755401 -0.15412521 0.072492994
000010 6d a0 8b bc 61 ee 42 bd 90 e3 79 3c c1 40 be bc
       -0.01704427 -0.047590617 0.015252009 -0.023224236
000020 2e aa 2f bd cb 3a 40 3d 13 6b 08 3e 12 71 09 3e
       -0.042886905 0.04693107 0.13322096 0.13422039
000030 d4 cc 2e be 61 ea a6 bc a0 83 02 3b 25 f4 0e 3e
       -0.17070323 -0.020375432 0.001991488 0.13960321
000040 46 d7 c5 bc 69 a8 43 be af 17 34 bd 81 d1 79 bd
       -0.024150502 -0.19107212 -0.0439679 -0.060990814
000050 08 6d 03 bd 21 4c da bd f5 3f 1f bd 34 52 24 be
       -0.032086402 -0.10659052 -0.038879354 -0.16046983
000060 28 e5 e7 bc 0b 4f cb bd ae 8b b4 3d 56 34 24 bd
       -0.028307512 -0.099271856 0.08815704 -0.040088974
000070 9e 90 a4 3d a1 57 a4 bd bd f4 b9 bc f6 61 98 3d
       0.08035396 -0.080245264 -0.022699708 0.074405596
000080 5e ff e7 bd 32 58 f4 3c bf 48 b5 bc 99 4e ce bd
       -0.11328004 0.029827211 -0.022129415 -0.10073585
000090 19 8d 6c 3c 69 69 f2 3d e3 1e 79 bd ac 70 12 bd
       0.014437937 0.11836512 -0.06082047 -0.035751984
0000a0 86 f7 45 3d 51 77 80 bb 5b 44 4f bd bc 0e 98 3d
       0.04833176 -0.0039204736 -0.0506023 0.07424685
0000b0 e1 f7 30 bd 4a f4 cc 3d 0d 47 db 3a 40 c6 af 3d
       -0.043205146 0.10007532 0.0016729549 0.08582735
0000c0 0d 12 96 3d 6e 6a 15 be a9 59 09 3d 1a 53 f4 bb
       0.07327662 -0.14591381 0.033532772 -0.0074561955
0000d0 4e 0e ee 3d ea 36 8a 3d ab ac 6c 3d 4b d9 86 bd
       0.11623822 0.06748755 0.057781857 -0.06584414
0000e0 6b 15 e1 3d 1a 1f 6d 3d c4 43 ce 3c 33 36 9c bb
       0.10990413 0.05789099 0.025178798 -0.0047672032
0000f0 61 a6 ce bd 60 9a 5e bd 93 5c 85 3d 76 47 96 3c
       -0.10090328 -0.054346442 0.06511798 0.018344622

msg_layers.0.W_msg.weight f4 [64, 64]
000000 95 02 a7 3d 20 1c 0a 3d 97 0f c6 bd 94 4f 0c bd
       0.08154789 0.03371823 -0.09670942 -0.03425558
000010 62 16 2f 3d 6c 8b 9c 3a bb a9 9b 3c 5a 44 a0 3d
       0.042745955 0.0011943406 0.019001832 0.07825537
000020 d6 97 8b bd 9b 5d 89 bd 58 2c ce 3d b7 5c db 3c
       -0.0681607 -0.06707307 0.10067052 0.026777608
000030 21 7b 9d 3d e7 18 22 3d 9a 93 1b 3e 0b 20 00 3e
       0.076895006 0.03957453 0.15193024 0.12512223
000040 2d 1b 76 3d a5 03 a0 bc 0a 7f 3e 3d 6e 29 9a 3d
       0.06008451 -0.019532988 0.046507873 0.07527433
000050 7b aa 52 bd ec f3 37 3d d5 18 4e bd 3d 7c d6 bd
       -0.051432114 0.044910356 -0.05031665 -0.10472915
000060 44 2b 56 bd 76 7d 99 3d 58 6a b0 bc fa 8d 2b 3d
       -0.052287355 0.07494633 -0.021535084 0.041883446
000070 6b c4 59 3d 76 b3 1e bd de ce 89 3d 98 fa f7 3c
       0.053165834 -0.038745366 0.0672891 0.03027086
000080 e7 71 ae bc b3 e4 04 3e 10 29 5c bd 4d 52 da bd
       -0.021294547 0.12977867 -0.053750098 -0.10660229
000090 90 b2 3a 3c f5 b9 ab bc d1 33 eb 3d 37 db 02 3e
       0.011395112 -0.020962695 0.114844926 0.12778936
0000a0 69 c2 61 bd bf cf e3 3d d7 67 78 bd 34 de 43 3d
       -0.055117045 0.11123609 -0.060645904 0.04781933
0000b0 ce ab 72 3c 96 e4 34 3d d4 5f 0e be 1d d1 42 bc
       0.014811469 0.04416331 -0.13903743 -0.011890677
0000c0 28 c0 58 bb b0 f9 4b 3c 32 bf 9a bd 20 4c 5b 3d
       -0.0033073518 0.012449667 -0.07555999 0.053539395
0000d0 68 fb 16 be 9f df ae bb 6c 9a f1 bd c3 66 f8 bc
       -0.14744341 -0.0053367163 -0.11797032 -0.030322438
0000e0 d6 63 bf 3c d3 34 f1 bc 1e 39 ba 3d 9e e9 57 bd
       0.023363035 -0.029444134 0.090929255 -0.05271303
0000f0 0f fe c6 bd 2e d7 ee bd d3 91 b0 bd b5 fe 33 3d
       -0.097164266 -0.11662136 -0.08621564 0.04394408
000100 78 a9 10 be a1 11 f7 3c 0a 4c bf 3d 75 6b 5a be
       -0.14127147 0.030159773 0.09340675 -0.21330054
000110 e4 1a f5 3c 64 75 93 bd 79 91 c3 3d 5e b1 33 bd
       0.029920049 -0.07200125 0.09549231 -0.043870322
000120 e5 25 e3 bd aa 34 33 be eb fa c5 bd 92 0a d5 bc
       -0.11091212 -0.17500558 -0.096669994 -0.026006017
000130 43 d9 bb bd d4 0b 07 bd 1a cd df 3d ff 3c c0 3d
       -0.09172299 -0.032970265 0.10927792 0.09386634
000140 50 50 24 3d ac dd df bc c5 39 ce 3d 5d 95 2f bd
       0.040115654 -0.027327381 0.100696124 -0.042867053
000150 ca 9c f2 bd 93 d8 65 3d c8 2e 23 3d 0a a9 ae bd
       -0.118463114 0.056114744 0.039839536 -0.085283354
000160 62 5e c4 bd 54 3b 2a bd 72 d3 53 3d 45 02 f7 3d
       -0.095883146 -0.041560486 0.05171532 0.1206098
000170 38 94 96 bd 17 be c2 3d ff 31 70 bb 83 e5 21 be
       -0.07352489 0.09508913 -0.0036650894 -0.15810208
000180 d0 45 2d 3e 57 a5 40 bd 5f 61 2b bd ee 76 cb 3b
       0.16921163 -0.04703268 -0.041840907 0.006209246
000190 1d a2 be 3b 6b ed a5 3d 2c 93 37 bc f8 94 f6 bd
       0.0058176653 0.081019245 -0.011204522 -0.12040132
0001a0 b6 05 f7 3c 71 f2 1c be d0 38 c3 bd 53 2d 23 bd
       0.03015409 -0.15326859 -0.095323205 -0.039838146
0001b0 0a de 79 3c 4e 4b 5c bb 0f 57 ae 3d 80 f7 32 3d
       0.015250692 -0.003361422 0.08512699 0.043693066
0001c0 53 f6 86 bd 1f b7 a8 bb de e5 0c be 64 46 8d 3c
       -0.06589951 -0.005148783 -0.13759562 0.017245479
0001d0 7d 04 e1 bd 48 06 b3 bc e5 64 d3 3d dd ba 7b 3c
       -0.10987184 -0.021853581 0.103219785 0.015364376
0001e0 fb 9d a8 3d 88 a1 0e 3d 01 a6 4c 3e 20 b5 15 3e
       0.082332574 0.034822017 0.199852 0.14619875
0001f0 43 4b 21 bd cd 73 09 3e e6 90 31 3e 44 64 21 3e
       -0.039378416 0.1342308 0.1734043 0.15760905
000200 54 1e f1 bd f5 80 ae bd e5 f5 f9 ba 20 66 d9 3d
       -0.11773363 -0.0852069 -0.0019070475 0.10615182
000210 ec e2 8c bd 08 ae 36 3c 57 dd 03 bc f7 90 ed 3d
       -0.068792194 0.011149891 -0.008048377 0.115999155
000220 aa 54 fb 3d 7b 6b ac bd 7e f6 b2 3d 8d 16 9d bc
       0.12272008 -0.08418938 0.08738421 -0.019175792
000230 5a e3 8a 3c 68 aa c4 bc 9a 0a 6a bd 1b fa a2 bd
       0.016954113 -0.024007037 -0.057139017 -0.0795786
000240 aa b5 82 3d 9c 7a b4 3c c9 26 db 3c 5b 80 69 3d
       0.06382306 0.022031121 0.026751893 0.057007175
000250 2b a8 da 3d 09 50 47 3d 4c dd cf 3d 03 fa 0d 3e
       0.10676607 0.04866031 0.10149631 0.13864903
000260 81 8e a9 3d e8 92 4b 3d ef b6 ce bd 1d 78 2e 3d
       0.082791336 0.049700648 -0.100934856 0.042595018
000270 67 b7 5a bd 3d 53 3a 3d fb 94 94 3c 42 32 38 3d
       -0.053397562 0.04548954 0.018137446 0.044969805
000280 62 82 e9 bd 68 57 29 be 89 8c 9d 3d 4e 0e 8d bd
       -0.11401822 -0.16537249 0.076928206 -0.06887494
000290 1f 7a 01 3e 7a dd d6 bc ee b4 a5 3d 89 4b da bd
       0.12644242 -0.026228655 0.0809115 -0.106589384
0002a0 fc 17 28 39 ae 08 5c bc 15 5f 70 bd 5e 47 df 3d
       0.00016030663 -0.013429804 -0.058684427 0.10902284
0002b0 72 03 5a bc 75 74 88 bd 44 7f ca bd 7c 91 03 3e
       -0.0133064855 -0.066628374 -0.09887555 0.12848467
0002c0 43 fd 20 3c 4f bf 3a 3d 93 ae e6 bd 3d 56 8a 3d
       0.009826007 0.045592602 -0.11263766 0.0675473
0002d0 e0 dd 06 3e 38 0e 57 bd 1f 86 37 3d ae 18 84 bd
       0.13170576 -0.052503794 0.044805642 -0.0645002
0002e0 ac 6a f1 3b 5e 3a d8 bd a0 e8 ac 3d 23 2c 2d 3d
       0.0073674526 -0.10558008 0.08442807 0.04227842
0002f0 5b a9 ca bd c8 da 03 be 34 89 16 be 4b bb 44 bd
       -0.09895583 -0.12876427 -0.14700776 -0.04803018
000300 2b f0 39 3b 58 19 fa bc e3 cf 0e be 7d b3 84 bd
       0.002837191 -0.030529663 -0.1394649 -0.06479547
000310 d4 d6 1b bb 80 c5 9c bd 97 9b 00 be 0c 54 05 3d
       -0.002377917 -0.07654858 -0.12559353 0.032550856
000320 ec f7 81 3d 1a 0e 1a bc 38 2f e4 bd d6 93 bc 3d
       0.063461155 -0.009402776 -0.11141819 0.09207885
000330 71 20 68 3c 22 4a 61 bd df 15 32 bd c6 0c a1 bd
       0.014167891 -0.05500234 -0.04347789 -0.078637645
000340 6e 62 98 3c 40 55 34 bd 5d 89 d2 3c 1b 38 a4 3d
       0.018601622 -0.044026613 0.025700266 0.08018514
000350 cc af cb 3d 35 53 ba bd b9 af 9f 3d ad e9 06 bc
       0.0994564 -0.09097902 0.07797188 -0.008234424
000360 2d da a4 bd 02 1e 1c bc 58 6b 9f 3d e5 08 45 3d
       -0.08049426 -0.009528639 0.07784146 0.048104186
000370 dd 4f 23 bd 20 32 c9 bc 67 49 16 3d 88 db 58 3d
       -0.039871085 -0.024560034 0.036691096 0.052943736
000380 25 6a 19 bd 7a 8a 15 3e e6 11 34 3d bd 9a b6 3d
       -0.037454743 0.14603606 0.04396238 0.08916233
000390 12 67 6e 3b bf af 0d be 14 84 dd 3c af d1 27 bd
       0.0036377353 -0.13836573 0.027040519 -0.040971454
0003a0 4e f9 db 3c ba 77 25 bd 2d f0 fd 3b 80 47 d7 3c
       0.026852276 -0.040397383 0.0077495784 0.026279211
0003b0 e4 d4 ad bd 4a 52 78 3d d0 e8 af 3d 1a a3 7d 3c
       -0.08487871 0.060625352 0.08589327 0.015480781
0003c0 10 0a 86 3d 08 ec 1c bd cf b2 52 bb d8 68 93 bd
       0.06544888 -0.038311034 -0.0032150035 -0.07197732
0003d0 ba d6 68 bb 13 3b af 3c 0e a1 9c bc 9f de ef 3d
       -0.0035528378 0.021390473 -0.019119766 0.117123835
0003e0 60 17 f4 3d 22 43 9b 3d b8 51 c9 3d 48 6a d3 bd
       0.11918521 0.07581164 0.0983004 -0.10323006
0003f0 e9 27 d2 bd 6e ee 28 bc 2c 88 9f bd c5 d2 61 3d
       -0.102615185 -0.010310752 -0.077896446 0.055132646

msg_layers.0.W_msg.bias f4 [64]
000000 2a 39 a9 bb 0e 01 e1 37 d7 05 ad 3d 25 9b a5 3d
       -0.005164285 2.6822581e-05 0.084483795 0.08086232
000010 d8 5e ff bd dc 04 34 3d fe 1c 22 bd 62 1d 15 bd
       -0.12469262 0.043949947 -0.03957843 -0.036404975
000020 74 81 dc 3d 7f 7b 8c bd 1a f2 fd bd 60 9e 90 bc
       0.10766879 -0.068594925 -0.12399693 -0.017653644
000030 43 67 9b bd 1d 9b 02 3e 02 84 e1 bd db ae 58 bc
       -0.07588055 0.12754484 -0.110115066 -0.013225283
000040 08 26 15 3e c5 c7 96 bd 19 58 d9 3d 90 9f f0 3d
       0.14565289 -0.07362322 0.106125064 0.11749184
000050 03 b3 62 3d 9c 6c d5 3d 09 43 82 bc e6 bf 4b 3d
       0.0553465 0.10421106 -0.015901105 0.049743555
000060 21 65 5d 3d d7 9f 1b 3c 3a b5 bb bc f4 48 7e bc
       0.054051522 0.009498558 -0.022913564 -0.015520323
000070 9e d6 8b 3d 11 1d 0d be de a9 88 bc 79 7a e3 bd
       0.06828044 -0.13780619 -0.016682561 -0.11107344
000080 df cb fd 3b 9a 8b a3 3c ca 3f e5 3c 4b ea 4f bd
       0.0077452506 0.019964028 0.027984519 -0.05076055
000090 8b af d0 3d ad ed e2 bd 14 b7 c1 3d 52 e7 24 bd
       0.10189732 -0.11080489 0.094587475 -0.040259667
0000a0 4c aa 89 3c 54 07 af bd 43 02 22 3d 11 6c 2b bc
       0.016804837 -0.085463196 0.03955294 -0.010462777
0000b0 ca 0e e6 3c 76 44 f9 3d 19 7a c7 bc 8f 58 8b bd
       0.028083224 0.12171261 -0.024350213 -0.068040006
0000c0 9d 18 f4 bc 13 b4 97 3c ee e7 a3 bd 4a de 01 bd
       -0.029796893 0.018518483 -0.080032215 -0.031706132
0000d0 cc 6b 00 3e 3e 08 13 be ab 48 cb 3c e6 99 a2 3c
       0.12541121 -0.14358613 0.024814924 0.019848775
0000e0 84 45 56 bd 52 72 8c bc ae 9a ec bd 85 50 48 3d
       -0.05231239 -0.017144356 -0.1155294 0.048904914
0000f0 12 b3 62 3d 56 36 3f 3d 11 86 9f 3d 34 58 ef 3b
       0.055346556 0.04668268 0.07789243 0.007304216

msg_layers.0.norm.weight f4 [64]
000000 09 59 4b 3f b6 14 7d 3f 40 c1 7b 3f bc 07 74 3f
       0.7943273 0.9885973 0.9834175 0.953243
000010 f7 4f 71 3f 82 a7 70 3f fb 71 77 3f 08 46 85 3f
       0.9426264 0.94005597 0.96658295 1.0411997
000020 d5 5e 7b 3f 5d 23 80 3f cd 5a 61 3f da c6 70 3f
       0.9819158 1.0010792 0.88029176 0.94053423
000030 3d 27 84 3f 17 26 7e 3f ed 89 84 3f 83 5c 77 3f
       1.0324475 0.9927687 1.0354592 0.96625537
000040 8a 66 81 3f e7 77 71 3f d4 9f 7d 3f 00 1b 71 3f
       1.0109417 0.9432358 0.99072003 0.94181824
000050 64 54 78 3f 57 51 86 3f 8f 9e 8b 3f af 25 7f 3f
       0.9700377 1.0493573 1.0907763 0.99666876
000060 c1 b5 76 3f d2 e4 7d 3f c2 eb 8a 3f ba 2a 64 3f
       0.96371084 0.9917728 1.0853198 0.89127696
000070 79 ac 87 3f 30 80 87 3f 7a c9 86 3f fd b4 67 3f
       1.059951 1.0585995 1.0530236 0.9051054
000080 09 f6 82 3f 62 11 5b 3f e8 eb 70 3f 6c 81 87 3f
       1.0231334 0.855734 0.94109964 1.0586371
000090 ca 17 85 3f f2 55 66 3f 01 a0 66 3f cb d5 83 3f
       1.0397885 0.8997489 0.90087897 1.029962
0000a0 3c 96 7b 3f 33 2f 89 3f 14 39 86 3f 55 6f 86 3f
       0.98276114 1.0717529 1.0486169 1.0502726
0000b0 0b 6d 77 3f f2 d7 88 3f a8 27 85 3f 44 64 68 3f
       0.9665076 1.0690901 1.0402727 0.90777993
0000c0 54 01 8a 3f 66 4f 8a 3f b9 c9 7f 3f 6c c9 82 3f
       1.0781655 1.080548 0.9991718 1.0217719
0000d0 4b 0c 88 3f 36 05 83 3f 83 66 7a 3f da 03 85 3f
       1.0628752 1.0235965 0.9781267 1.03918
0000e0 78 a3 85 3f 96 75 83 3f 43 98 81 3f f0 cb 73 3f
       1.0440512 1.0270259 1.0124592 0.9523306
0000f0 70 bf 86 3f 40 c2 70 3f b8 83 97 3f ad 53 79 3f
       1.0527172 0.940464 1.1837072 0.97393304

msg_layers.0.norm.bias f4 [64]
000000 ce ed f1 3c ca 0c b9 bd 89 22 8a bd 71 55 a4 3c
       0.02953234 -0.090356424 -0.06744868 0.020060273
000010 ad fa fd 3b 4a 41 6a 3c f5 d7 c5 3d 71 ad 96 3d
       0.00775083 0.014297793 0.09660331 0.073573
000020 bc 8d 88 bc 6b 31 8c 3d a5 5b 8e 3d cd 91 2d 3d
       -0.016669147 0.06845363 0.069510736 0.042375375
000030 12 65 61 3d e6 b8 98 bd fd 69 4f 3d a6 a7 fb 3c
       0.05502803 -0.074571416 0.050638188 0.03071959
000040 57 b8 35 bd 55 86 00 be 93 fc 40 bd 67 38 e8 3c
       -0.044365253 -0.12551244 -0.047115874 0.028347207
000050 f4 8e aa 3b ad 0d 82 3d 17 00 ac 3c d7 a9 06 bc
       0.0052050296 0.06350265 0.020996137 -0.008219204
000060 2c 2d 2c bc 86 24 74 bd 65 5b 45 3d 77 71 32 3d
       -0.010508817 -0.059605144 0.048182864 0.04356524
000070 75 b9 83 3b 0b 6d 82 3c 0a fe 98 bd 73 fd 5e 3d
       0.004019911 0.015921136 -0.07470329 0.054440927
000080 70 af 0e bd ea 6c 92 bd 5f 62 a6 bd e0 2b 4d bd
       -0.03483528 -0.0714968 -0.081242315 -0.05009067
000090 f7 5e 56 bc ab 35 e9 3d d1 9d df 3c a1 1c 80 3c
       -0.013084165 0.113871895 0.027296932 0.015638651
0000a0 f7 c0 37 3d 1a 42 8f 3d 27 ba ed 3c 69 6d fd 3c
       0.04486176 0.0699503 0.029019428 0.03093596
0000b0 16 d7 66 3d 56 48 26 3d 91 02 07 3d ce e8 9a 3d
       0.056357466 0.04059633 0.032961432 0.07563935
0000c0 0c d6 e3 3d c5 3e a8 bd a7 ca 94 3d 75 1e 89 3d
       0.111248106 -0.08215097 0.07265215 0.06695262
0000d0 c1 cd a6 bc 56 76 e0 3d de 8d a3 bc d0 8d bf bd
       -0.020361783 0.10960071 -0.019965108 -0.093532205
0000e0 41 b9 88 3d c1 2f 5a 3c 4a 2c ed 3c 2f ff d5 bd
       0.066759594 0.0133170495 0.028951783 -0.10449063
0000f0 eb a3 f3 bb 71 eb 86 3d 75 51 44 bd d7 e2 54 3c
       -0.007435312 0.06587876 -0.047929246 0.012993536

msg_layers.1.W_self.weight f4 [64, 64]
000000 c6 cd 52 be 90 a8 46 3d 89 9c e0 3d 70 88 7d 3d
       -0.20586309 0.048500597 0.10967357 0.061897695
000010 ff 1f 33 3e eb 8b 53 3d 68 6a f7 bc 2a c5 a9 3b
       0.17492674 0.051647108 -0.030202106 0.0051809745
000020 ee 76 85 3d 67 0c 88 bd 51 7a b5 bc 42 ac 96 3c
       0.06516825 -0.066429906 -0.022153052 0.018392686
000030 ae 42 60 bc 8f 1b 2c 3e 38 07 0e bd da be 2d be
       -0.013687773 0.16807388 -0.034674853 -0.16967335
000040 7a 8f ef 3d b0 91 aa bd 7a 9f 0d bd ec c4 be 3d
       0.11697288 -0.08328569 -0.034575917 0.093149036
000050 b6 28 1e 3e 78 68 84 bd 28 a1 8c bd 69 b2 21 bd
       0.15445217 -0.06465238 -0.068666756 -0.039476786
000060 b1 5a be 3d 82 34 d9 3b 98 e2 5c ba 29 e6 1c bd
       0.09294642 0.006628574 -0.0008426099 -0.038305435
000070 cf 3e a4 3d 3f e5 02 3e ba 2b 85 3d 89 6e 0a 3d
       0.08019792 0.12782763 0.06502481 0.03379682
000080 cf 68 33 bd 3d 5b d6 bd a3 47 a9 bb db f3 59 3d
       -0.043801125 -0.10466621 -0.0051660105 0.053211074
000090 d8 dc fe 3d e3 bb 0d bc cf 08 7e 3b 71 ab f1 bc
       0.12444466 -0.008650753 0.0038762575 -0.029500695
0000a0 fc fd 7e 3d 3c 3d 3b 3d b2 94 d8 ba bc ea be bd
       0.062253937 0.045712695 -0.0016523807 -0.09322116
0000b0 26 ff 94 bd ad 32 1d bd 29 1a 2d bd 81 55 0e bd
       -0.07275228 -0.038378406 -0.042261276 -0.03474951
0000c0 6c e9 06 be cb 4b 1f 3d 06 be a5 bd 9e d5 aa bd
       -0.13174981 0.03889064 -0.08092885 -0.083415255
0000d0 35 0c 83 bc 96 9d 29 3d f6 4b e0 3c f3 3a 8d 3d
       -0.015997032 0.04141005 0.027379971 0.06896009
0000e0 9e 2e aa 3d 70 38 88 3b 9a 02 0c bd bd 02 4a bd
       0.08309673 0.0041571185 -0.03418217 -0.049319018
0000f0 45 46 e0 3c ed 21 2b bc 6d be ec bc a4 c6 10 3e
       0.027377257 -0.0104451 -0.028899396 0.14138275
000100 44 90 8d 3d 52 ac a7 3b 62 af 3f 3d eb ac 89 3d
       0.06912282 0.0051169777 0.046798117 0.067224346
000110 be ac 69 3d bb 69 1d 3d af 2c 64 bd a2 29 f0 bd
       0.057049505 0.03843091 -0.055706676 -0.11726691
000120 4d a8 9e 3c 87 94 fa 3d 4f 3a 6c bd 75 ff d3 bc
       0.019367361 0.122353606 -0.057672795 -0.025878647
000130 39 30 59 bc 06 2b 3e 3d 10 d8 ef bc 65 b9 c6 bd
       -0.013256126 0.04642775 -0.029277831 -0.0970333
000140 5d 4b d0 bc 70 d7 27 bd fc 1c 2c be ef 8e b6 3d
       -0.025426561 -0.04097694 -0.16807932 0.08913981
000150 79 58 ea bb 63 82 1f bd ad 22 50 bd 16 97 2a be
       -0.00715166 -0.038942706 -0.05081432 -0.16659197
000160 a1 c3 4e 3d d9 1d 9f 3c 82 a5 45 3d 7c 11 96 3d
       0.050479535 0.019423412 0.048253544 0.07327554
000170 85 b0 80 bd 9e c6 8c bb 64 79 81 bd e1 30 b9 3c
       -0.062836684 -0.004296138 -0.063219815 0.022606315
000180 e5 14 24 bd 1e 7c 6e 3c 4e 38 8a bd 8d 8e 86 bc
       -0.04005899 0.014555959 -0.067490205 -0.016425395
000190 2c ae 07 3e e4 76 0b be ba d9 4b bd 81 25 ac bc
       0.13250035 -0.13619572 -0.049768187 -0.021013977
0001a0 19 e0 3c 3d e1 13 55 bc 50 e9 6c 3d fc 2b a8 3c
       0.046112154 -0.013005228 0.05783969 0.020528786
0001b0 69 f4 9e 3d 5b 18 af 3d a7 7f d8 3d 35 93 db 3c
       0.07761461 0.08549567 0.10571223 0.026803592
0001c0 b9 27 ff 3b af e2 92 3c 23 39 0b bd f8 01 52 bd
       0.0077867177 0.017930357 -0.033990037 -0.05127141
0001d0 7c 67 36 be 1f ed 48 3e 79 5b 14 bc 55 41 69 bc
       -0.17812914 0.19621705 -0.009055012 -0.014236768
0001e0 65 0e 13 3e 84 de 1c 3e 42 1a 4b 3d 8c 78 11 be
       0.1436096 0.15319258 0.04958559 -0.14206141
0001f0 e6 c6 c6 3d 79 7b 34 3d 5d 2f 28 bc 0f 32 03 be
       0.097059056 0.044063065 -0.010265199 -0.12812065
000200 0e 90 97 bb d7 b0 9f 3b b4 95 21 3d 26 81 91 3d
       -0.004625327 0.004873376 0.03944941 0.07104711
000210 95 0d 4f 3e c5 55 03 3e fe 01 9a bd 09 48 b5 3d
       0.20220025 0.12825687 -0.07519911 0.0885163
000220 fe 64 12 bd 8c 1f 16 bd d3 03 20 3e 06 bf 3a 3e
       -0.035740845 -0.03665118 0.15626459 0.18236932
000230 75 9d 1c bd e9 3b ed 3c d3 2a c8 3d 1a c3 45 be
       -0.0382361 0.028959231 0.09773793 -0.19312707
000240 fe 97 af bd 8e f0 49 3d 02 c0 e5 3d 34 5b cf 3b
       -0.08573912 0.049301676 0.11218263 0.006328011
000250 cc c1 01 3d cd 5b 4c 3d 4c 43 12 be 97 de 9c 3c
       0.03167896 0.049892236 -0.14283484 0.019149108
000260 53 00 93 3c 49 66 f9 3d a7 e5 7f 3d 9f de af 3d
       0.01794449 0.121777125 0.062474873 0.085873835
000270 aa 68 98 3a 18 37 66 3d 27 0c de bd ae 20 41 3c
       0.0011627872 0.056204885 -0.108421616 0.011787577
000280 cb f3 6f 3c ce 72 17 be e9 45 01 3d 25 ca 2a 3d
       0.014645527 -0.14789888 0.031560812 0.041696686
000290 30 2c e2 3d 02 0b 15 bd d6 88 5c 3d 99 e1 28 be
       0.11043584 -0.03638745 0.053841434 -0.16492309
0002a0 b1 51 86 3d 97 52 ab 3d 6b c9 4f be 82 7a bc bd
       0.0655855 0.08365362 -0.20291679 -0.09203054
0002b0 df c5 f8 bd ce 23 21 be 28 73 65 3d 0c f6 45 bc
       -0.12147116 -0.15736315 0.056018025 -0.012082588
0002c0 4e 43 14 bd 0c f3 83 3d 8a 41 4e 3d 86 74 0b be
       -0.036197 0.06442842 0.05035547 -0.13618669
0002d0 dd 62 b8 3d 1d 43 fa bb aa bd 7c 3d dc 00 6f 3d
       0.09003232 -0.007637395 0.061704315 0.05835043
0002e0 52 28 2a be 5b 97 cc bd 7e 97 1e 3d cf 46 d2 3d
       -0.16616943 -0.09989806 0.038718693 0.10267412
0002f0 ec 69 21 3d e1 0c 48 bd 3a 25 62 3b 4b 8f a0 3c
       0.039407656 -0.048840407 0.0034507052 0.019599577
000300 a4 7f f2 bc ca 7f ed bd c1 a1 c9 3d 7b f1 8a bd
       -0.02960188 -0.115966395 0.09845305 -0.0678434
000310 5c 66 0b be 8e 3a 45 be 3e 7e 5a 3d cc 96 e5 bc
       -0.13613266 -0.19260618 0.05334305 -0.028026007
000320 30 9b ff 3d 88 24 f2 3d 4d dd d2 3d 69 b2 8d bc
       0.124807715 0.11823374 0.10296116 -0.017296987
000330 1d 5f ee 3d 2d 04 45 3d 65 9d 0e 3d 55 5d 95 ba
       0.11639235 0.048099685 0.034818072 -0.0011395613
000340 7a d4 16 bd 15 b4 9e bc bb b6 6b 3d d3 51 20 bc
       -0.036823727 -0.01937298 0.057547312 -0.009785133
000350 ad 00 ae bd 44 23 45 3d 86 45 3a 3e 7c a5 56 3e
       -0.08496223 0.048129335 0.18190584 0.20961565
000360 ed 1f ba 3d 70 e2 80 bd b8 ec ba bd 6f 8e f5 3c
       0.090881206 -0.062931895 -0.09127182 0.029975144
000370 42 02 30 3e 1d 0b 16 be f6 a0 2c be a5 7f 3f bc
       0.17188361 -0.14652677 -0.16858277 -0.011688148
000380 a3 8f 8d bd 7e e3 0a 3d 6b b9 84 3d a7 b0 23 3b
       -0.06912162 0.03390836 0.06480678 0.002497712
000390 87 1e 1f be 40 0a f5 3d 43 6b 14 3d 39 38 c6 3d
       -0.15538989 0.11964846 0.036235105 0.09678692
0003a0 ce ea d7 3c af e9 5a bd 5d 70 af 3c 8b d7 be bb
       0.02635708 -0.053445514 0.021415884 -0.0058240346
0003b0 d1 53 63 bc 73 e3 1d be 80 3f 95 3d c2 1c af bd
       -0.013874964 -0.15418796 0.07287502 -0.08550407
0003c0 c7 76 b6 3d c6 6c 12 be 25 59 06 3d f4 1f 01 bd
       0.08909374 -0.14299306 0.03279986 -0.031524613
0003d0 ba 97 bb 3d a4 46 0c 3e e9 3c cc 3d 65 31 21 3d
       0.09159799 0.13698822 0.09972555 0.039353747
0003e0 a0 92 11 3d c5 2e ed bc a4 c4 18 3c 29 02 4b bc
       0.035540223 -0.028952966 0.0093242265 -0.012390652
0003f0 43 9e 22 bd fc 06 48 3d ee e7 23 3c a2 bf c3 bd
       -0.03970171 0.048834786 0.010004027 -0.095580354

msg_layers.1.W_self.bias f4 [64]
000000 26 1d 1e be ae b2 d2 bc 10 a8 67 be 44 23 8c 3d
       -0.15440807 -0.025719967 -0.22622705 0.06842664
000010 17 ad f6 bd aa 1e a8 3d 75 7d 9b bd c6 1d 83 3d
       -0.12044733 0.08208974 -0.075922884 0.06402163
000020 b3 b6 1e bc f0 f0 bb bc 3a 6a e2 3d 83 a5 60 bd
       -0.009687114 -0.022942036 0.11055417 -0.054845344
000030 2b dc 43 bd b8 b7 c0 3d 5f 1a c0 3d b0 fd 77 bd
       -0.04781739 0.094100416 0.0938003 -0.06054467
000040 05 dc 9f 3d b5 43 0a 3d 34 fc 79 3d 1b 19 aa bb
       0.07805637 0.033755977 0.061031535 -0.005190981
000050 79 ce 0d be c4 45 e6 bc 89 ce 2f 3e 07 f4 2d be
       -0.13848294 -0.028109439 0.1716863 -0.1698762
000060 1d 3a 0f be 83 07 32 be 65 05 44 bd d8 9a 9b bd
       -0.13987012 -0.17385678 -0.047856707 -0.075978935
000070 30 fd 1a 3e e4 36 ba bc f8 ee d8 3c af 6e 39 3d
       0.15135646 -0.022731252 0.026481137 0.04527157
000080 40 0b da bc c7 25 b8 3d bb 1a 31 be 59 c4 ef 3a
       -0.026616693 0.089915805 -0.17295353 0.0018292769
000090 54 f8 c7 bd 3d b1 cb 3d e3 23 f5 bd bf a1 56 3d
       -0.09764162 0.09945915 -0.119697355 0.052400347
0000a0 3e 1a 43 3c 39 81 2e 3d 8d 62 dd bd 39 e5 20 3e
       0.011908112 0.042603705 -0.10809813 0.15712442
0000b0 6b d8 38 3e 09 49 62 3d a8 b7 e2 3d 27 f1 53 3d
       0.18051307 0.055245433 0.11070186 0.051743653
0000c0 60 6c 4a 3e 36 74 9c 3d 0b 82 80 3d ff f1 e3 3d
       0.19767904 0.07639353 0.06274804 0.111301415
0000d0 75 88 50 3d ab ff 2e bd 76 da 56 3d 0a 42 c3 bc
       0.050911386 -0.042724293 0.052454434 -0.0238352
0000e0 34 bc 02 be 23 a2 08 3c e3 24 dd 3c 82 6a e6 3d
       -0.12767106 0.008339438 0.026995128 0.112507835
0000f0 5f 4a a0 bd 67 98 96 3d a1 86 e2 bd cf 8e 28 bd
       -0.07826685 0.07353287 -0.11060835 -0.041151818
