QuantLaxmi_Research/dtrn/results/checkpoints/fold4_BANKNIFTY/dtrn_stage2.pt (torch, 232927 bytes, 37 tensors)

embed.embed.0.weight f4 [32, 2]
-0.9989867 -0.5292511 -0.33421692 -0.28415084 0.5250871 -0.4977183 0.23039411 -0.727378
0.41139203 -0.19580697 -0.36287895 0.38817418 0.5080207 0.17543241 0.080912545 0.36733437
-0.41700196 0.52820975 0.11492192 0.3141671 -0.91322225 0.58771634 0.080502436 0.36828125
-1.0672487 0.48195842 0.57181776 -0.007883091 -0.69571 0.21517292 -0.57221985 -0.7564861
0.4110093 -0.20937239 0.19477819 0.56998456 -0.69953144 -0.09554968 0.0054783267 0.41513944
-0.051511727 0.29180342 -0.45747933 -0.35575247 0.120746285 0.16340397 0.6224209 -0.38120022
0.093168445 0.07760425 -0.98873883 -0.011366368 0.41900745 0.09134444 0.25608152 -0.45649907
-0.47913074 -1.1201042 0.14954826 -0.02841518 0.34330672 -0.29499835 0.20917821 -0.4767142
00000000: 98bd 7fbf 007d 07bf 7b1e abbe 387c 91be
00000010: 1c6c 063f efd4 febe 6fec 6b3e 7235 3abf
00000020: faa1 d23e 9f81 48be 45cb b9be c4be c63e
00000030: a50d 023f 8ea4 333e 7ab5 a53d 4013 bc3e
00000040: 4881 d5be c138 073f 2f5c eb3d 83da a03e
00000050: efc8 69bf 9474 163f 76de a43d 5c8f bc3e
00000060: 9b9b 88bf 41c3 f63e a662 123f 1528 01bc
00000070: 0d1a 32bf 4a56 5c3e 007d 12bf 13a9 41bf
00000080: d06f d23e b765 56be ef73 473e 82ea 113f
00000090: 7e14 33bf 8daf c3bd 8983 b33b 288d d43e
000000a0: f6fd 52bd 4267 953e bb3a eabe 3025 b6be
000000b0: d449 f73d 5f53 273e fa56 1f3f ad2c c3be
000000c0: 19cf be3d faee 9e3d fd1d 7dbf 013a 3abc
000000d0: 2588 d63e cb12 bb3d 1e1d 833e 3fba e9be
000000e0: a050 f5be 935f 8fbf 2e23 193e f4c6 e8bc
000000f0: e6c5 af3e 060a 97be d032 563e e213 f4be

embed.embed.0.bias f4 [32]
0.6184052 0.20312594 -0.17898588 -0.46938697 -0.6735586 0.16305329 -0.33325538 -0.14779563
0.5861638 -0.5052906 -0.1898198 -0.16028541 -0.16389172 -0.7326793 -0.38005647 -0.24449268
-0.72253233 -0.3026246 0.11856103 -0.6092759 -0.3657271 -0.26677155 0.61846787 -0.091742046
0.31462178 0.16329527 -0.33341688 -0.48576415 -0.3320887 -0.5953608 -0.3102219 0.1501078
00000000: ce4f 1e3f 3f00 503e 1348 37be 7d53 f0be
00000010: 566e 2cbf 71f7 263e 73a0 aabe bd57 17be
00000020: d50e 163f ba5a 01bf 1f60 42be dc21 24be
00000030: 3bd3 27be df90 3bbf c396 c2be 4a5c 7abe
00000040: e1f7 38bf 9df1 9abe 20d0 f23d 81f9 1bbf
00000050: 9540 bbbe 4896 88be e953 1e3f 41e3 bbbd
00000060: 1b16 a13e e036 273e 9eb5 aabe 14b6 f8be
00000070: 8807 aabe 9169 18bf 68d5 9ebe dcb5 193e

embed.embed.2.weight f4 [32, 32]
-0.039670605 -0.01954958 0.034588225 0.04989472 0.12297354 -0.19666101 -0.051421873 0.01275129
-0.17506021 -0.0208048 -0.014843923 -0.004547428 0.11098892 0.09319982 -0.18499364 0.108119994
-0.03878436 0.12548707 0.14996314 -0.015520852 0.13908851 -0.0032981301 -0.11436643 -0.06855658
0.13141783 0.06596157 0.13810673 0.17551781 -0.023487637 0.25045073 0.25576538 0.28510752
-0.14941718 -0.026262535 0.1598191 0.11036065 -0.0580366 -0.08274218 0.12984747 -0.08238825
-0.14929755 0.1428364 0.118861556 0.033908956 0.07684309 0.06895559 -0.088313274 0.19032148
0.20925052 -0.04421058 -0.026945263 0.15941466 0.04997798 -0.06808255 -0.19489536 0.0984557
-0.004312817 0.120621435 0.12740213 0.231153 0.0011331189 0.09440858 0.211998 -0.005425419
0.28166825 0.05211078 0.08186907 0.050084427 -0.13306291 -0.07020778 -0.099636815 0.019046748
0.24701817 0.053689063 0.17284736 0.08460248 0.12594318 0.0071859467 0.11896767 -0.11138983
-0.10204125 0.08747786 0.1477932 -0.04706429 -0.02522828 0.11256311 0.16357066 0.016061226
-0.037505418 0.10093514 -0.002205681 -0.12155379 0.06272745 -0.19703561 -0.03352876 -0.08404084
0.05711503 0.19097126 -0.12277976 -0.17132635 -0.03522496 -0.0154238865 0.12605098 -0.041576326
0.0784217 -0.083636 0.20273319 -0.004727724 0.27371535 0.029399326 0.26201782 -0.051396605
0.07012151 -0.09739005 -0.022348028 0.051637877 0.040372647 0.17797297 -0.17690918 0.14958069
-0.0947747 0.2870154 -0.07890139 -0.13501652 0.17848209 -0.084504925 0.13260412 -0.10168399
-0.29963702 -0.0009117648 0.03822219 -0.015181752 0.09100097 0.024617285 0.043400392 -0.10635619
-0.02355074 0.11427423 -0.058910593 0.085167214 -0.12753373 0.15157151 -0.01242117 0.22889766
-0.018696206 -0.15938945 -0.18562567 0.10370871 0.054081243 0.08159783 -0.17931673 0.044538535
-0.05638459 -0.28642678 -0.11827465 0.21834837 0.21347205 0.17060469 0.15508783 -0.059789207
0.16055365 0.005628754 -0.054352198 -0.16542114 0.027501917 0.024220949 0.068751924 0.10793898
0.0044634435 -0.12337234 -0.0335121 0.1309778 -0.08917708 0.006533889 -0.20814012 0.028063543
-0.03404714 0.007209044 -0.08714886 -0.060768526 -0.085267894 -0.034524873 0.018776422 -0.13309422
-0.12556669 -0.16847974 0.019562045 0.07688884 0.044287317 -0.1450925 -0.21252283 -0.18073255
-0.120469 -0.12417134 -0.05935883 -0.01861873 -0.028865742 -0.014109482 -0.1509648 -0.028181085
-0.007872634 -0.04904659 -0.22579478 -0.005917188 -0.21137926 -0.05457292 -0.1941151 -0.044324998
-0.017335283 0.030051423 -0.0060428022 0.038148973 0.07471828 -0.120919116 0.158462 0.19360039
-0.13180865 -0.29858562 -0.10488089 -0.060209945 0.030714853 -0.034081448 0.16678159 0.0081293
0.2384413 0.042432763 0.10624331 -0.09900553 0.10462708 -0.0036087981 -0.035061512 -0.18473272
0.05804876 -0.15117174 -0.06736063 0.13092746 0.2982415 0.030456642 0.29799077 -0.07537283
0.12172166 -0.07429584 0.26887625 0.19418672 0.12297136 0.037366863 0.108695395 0.02365847
-0.024275014 0.14127184 -0.0013997674 0.04570107 -0.12298513 -0.08332899 -0.116015494 -0.106230006
00000000: a57d 22bd 7126 a0bc 62ac 0d3d 685e 4c3d
00000010: 8dd9 fb3d 8161 49be be9f 52bd c9ea 503c
00000020: fc42 33be d46e aabc ed33 73bc 9702 95bb
00000030: 294e e33d 8cdf be3d f96e 3dbe 046e dd3d
00000040: 59dc 1ebd af7f 003e f08f 193e 2c4b 7ebc
00000050: 386d 0e3e 7125 58bb f238 eabd 6467 8cbd
00000060: 6592 063e dc16 873d da6b 0d3e f1ba 333e
00000070: 2569 c0bc 143b 803e aef3 823e 9df9 913e
00000080: d100 19be 8724 d7bc 9ea7 233e c404 e23d
00000090: c9b7 6dbd bb74 a9bd bcf6 043e 2cbb a8bd
000000a0: 75e1 18be b543 123e b06d f33d 1ee4 0a3d
000000b0: e95f 9d3d 9738 8d3d 97dd b4bd a2e3 423e
000000c0: c545 563e 2716 35bd 50bc dcbc 993d 233e
000000d0: b6b5 4c3d dd6e 8bbd a692 47be 24a3 c93d
000000e0: 8852 8dbb 5f08 f73d b475 023e 5fb3 6c3e
000000f0: 2985 943a 4959 c13d 0116 593e b7c7 b1bb
00000100: d236 903e 1d72 553d f9aa a73d 5425 4d3d
00000110: a541 08be 19c9 8fbd 630e ccbd ed07 9c3c
00000120: 55f2 7c3e 10e9 5b3d e6fe 303e 1144 ad3d
00000130: 40f7 003e 1778 eb3b 52a5 f33d 5a20 e4bd
00000140: 01fb d0bd 9827 b33d 1a57 173e 7cc6 40bd
00000150: 8aab cebc 7d87 e63d 117f 273e d592 833c
00000160: 489f 19bd 15b7 ce3d 308d 10bb 32f1 f8bd
00000170: 4077 803d b4c3 49be 7455 09bd 9b1d acbd
00000180: 73f1 693d f88d 433e f473 fbbd 2d70 2fbe
00000190: 0c48 10bd 78b4 7cbc 8213 013e f04b 2abd
000001a0: 8e9b a03d 5a49 abbd 4a99 4f3e 06eb 9abb
000001b0: 6b24 8c3e dbd6 f03c 3327 863e 3f85 52bd
000001c0: de9b 8f3d 6f74 c7bd 3613 b7bc 3d82 533d
000001d0: ca5d 253d 8c3e 363e ae27 35be ae2b 193e
000001e0: 3d19 c2bd aff3 923e 0d97 a1bd c541 0abe
000001f0: 02c4 363e eb10 adbd 60c9 073e b23f d0bd
00000200: 066a 99be 8003 6fba df8e 1c3d e2bc 78bc
00000210: b75e ba3d 30aa c93c 9cc4 313d 46d1 d9bd
00000220: 7bed c0bc 9c08 ea3d 3c4c 71bd 266c ae3d
00000230: 3498 02be 9035 1b3e 2a82 4bbc 2664 6a3e
00000240: c928 99bc fd36 23be a814 3ebe 3b65 d43d
00000250: 4b84 5d3d c31c a73d ce9e 37be 0a6e 363d
00000260: 87f3 66bd 88a6 92be fb39 f2bd b796 5f3e
00000270: 6b98 5a3e ffb2 2e3e 58cf 1e3e 87e5 74bd
00000280: 2d68 243e 6971 b83b 69a0 5ebd 2964 29be
00000290: b34b e13c 036b c63c cfcd 8c3d 1d0f dd3d
000002a0: 1442 923b a3aa fcbd fc43 09bd 0b1f 063e
000002b0: 79a2 b6bd 3c1a d63b af22 55be 84e5 e53c
000002c0: 0475 0bbd d839 ec3b 1a7b b2bd 6be8 78bd
000002d0: efa0 aebd f469 0dbd 03d1 993c da49 08be
000002e0: 8e94 00be f485 2cbe 9540 a03c e577 9d3d
000002f0: 9e66 353d 2193 14be 969f 59be f411 39be
00000300: 73b8 f6bd 8b4d febd 3f22 73bd 4f86 98bc
00000310: d977 ecbc 752b 67bc 8496 1abe 05dc e6bc
00000320: 38fc 00bc 14e5 48bd bf36 67be f8e4 c1bb
00000330: ce73 58be db87 5fbd 1cc6 46be 218e 35bd
00000340: b902 8ebc 672e f63c b302 c6bb 1942 1c3d
00000350: e605 993d 71a4 f7bd dd43 223e 2e3f 463e
00000360: d9f8 06be 37e0 98be cbcb d6bd b49e 76bd
00000370: b79d fb3c fd98 0bbd cbc8 2a3e c130 053c
00000380: f529 743e facd 2d3d 1896 d93d 69c3 cabd
00000390: b946 d63d 9681 6cbb a99c 0fbd 932a 3dbe
000003a0: 89c4 6d3d c4cc 1abe 5ff4 89bd d911 063e
000003b0: 1cb3 983e 3580 f93c 3f92 983e 125d 9abd
000003c0: 3549 f93d 6b28 98bd 26aa 893e e2d8 463e
000003d0: 69d8 fb3d ff0d 193d b19b de3d 68cf c13c
000003e0: 65dc c6bc 91a9 103e 6678 b7ba 0c31 3b3d
000003f0: a1df fbbd 64a8 aabd 8899 edbd 1e8f d9bd

embed.embed.2.bias f4 [32]
-0.17484134 -0.152266 0.03588466 0.024229366 -0.18325984 0.19732466 -0.10111834 0.11021061
0.08905792 0.054761555 0.06865083 -0.17242762 -0.1735354 -0.11595394 -0.048632927 -0.118730046
0.012954059 0.22426964 0.050301027 0.081674956 -0.10066263 -0.0812081 -0.044709146 0.15226287
0.2480753 -0.051713116 0.13210204 0.14894728 0.14271758 -0.03390076 0.04503713 0.16272151
00000000: 9c09 33be 9eeb 1bbe cbfb 123d aa7c c63c
00000010: 78a8 3bbe 7a0f 4a3e 2217 cfbd 1ab6 e13d
00000020: 0064 b63d a74d 603d ce98 8c3d de90 30be
00000030: 44b3 31be 4279 edbd 5233 47bd bd28 f3bd
00000040: 433d 543c f1a6 653e 7308 4e3d 3345 a73d
00000050: 3528 cebd 6f50 a6bd f020 37bd ccea 1b3e
00000060: 7407 7e3e 22d1 53bd c245 073e a385 183e
00000070: 8f24 123e 86db 0abd db78 383d 78a0 263e

input_proj.weight f4 [64, 32]
0.04750847 -0.118271105 0.094950214 0.092712015 0.05109918 -0.09033918 0.14627571 0.04629577
0.06251523 -0.0499512 -0.04878778 -0.16201435 0.009094452 -0.07169417 -0.04112406 0.0919838
-0.037950892 -0.025670238 -0.0029447426 -0.11083144 0.2395899 -0.105870314 -0.042272605 0.12375406
0.08060993 0.06227341 -0.049451113 0.034818966 -0.011115117 0.01634416 0.19292168 0.09454929
0.09528565 0.073844716 -0.19301744 -0.0841518 0.09084533 0.08298905 -0.12327532 0.10877907
-0.058485866 -0.080295905 -0.031195128 0.045629352 0.2072475 0.09795756 0.0409575 -0.095026106
0.191029 -0.057697028 0.10217912 0.13674484 -0.15629274 -0.09123881 -0.17221527 0.022702117
-0.0016854586 -0.07816261 0.028585022 -0.05043135 0.07115272 -0.10655465 -0.005678669 -0.1392209
-0.16166562 0.019438252 -0.0272839 0.05940097 0.07350811 0.100722715 0.02615057 -0.0065005114
-0.19827159 -0.15911944 -0.029985737 -0.15390734 -0.035831317 -0.07034721 0.087944396 0.07081951
-0.07313444 -0.0040874723 -0.07916756 0.20141692 -0.014493771 -0.075461864 -0.18100367 0.078265615
-0.012974981 0.0017559591 -0.0611915 0.20302273 0.074907735 0.0280124 -0.15789323 -0.062428933
0.10094578 0.13264686 0.14445795 -0.06020706 0.09224934 -0.23733827 -0.08473678 -0.07833913
-0.16822863 -0.06777844 -0.0049633216 0.1226667 0.19515762 0.25813165 -0.009980569 -0.13909607
0.116304554 -0.12191601 0.12960872 0.033179242 0.040050548 -0.06653198 -0.20408845 -0.11673034
-0.25371563 0.17678362 -0.09629443 0.048068155 -0.17115891 0.027966956 -0.10575067 -0.14659494
-0.06670354 -0.09903372 -0.09251345 0.095213994 0.16204445 0.062278576 -0.15970197 0.01880624
-0.10545576 -0.017754935 0.1470748 -0.116583 0.016168537 -0.08093 -0.06536829 -0.18787979
0.067989446 0.027229058 0.13671021 -0.097953014 0.09401405 0.053770825 0.1745218 0.21858758
0.13777198 -0.026709393 0.09579805 -0.10967445 0.017304007 -0.064060315 0.25330195 0.19071585
0.06389286 -0.19821076 -0.08605078 -0.07249463 -0.16104181 0.11498404 0.043878157 0.03825955
0.079567336 0.07649074 0.04188096 -0.15196905 0.07641381 -0.07025388 -0.12484213 -0.034685403
-0.040904235 -0.017356424 -0.055290606 0.05671748 -0.20849839 -0.17355907 0.124670215 0.0012267799
0.06695191 0.04479612 0.06342515 0.06044148 -0.12555483 -0.01997452 -0.07888331 0.09700193
0.00020054387 -0.099853575 0.05739935 0.08972717 -0.052038126 -0.08727342 -0.16129525 0.060415383
0.0470202 -0.032387886 -0.023014357 0.10758608 -0.010366312 -0.03819423 0.014815327 -0.0086729275
-0.14314744 0.18367457 0.0713144 -0.004182848 -0.26046503 0.13805537 0.11158863 0.1674205
0.09360615 0.023919497 0.086955436 0.20186377 0.10917783 -0.18055269 0.14775328 -0.06274356
0.00803821 0.024786219 0.2529755 0.0028944227 -0.26461843 -0.023713948 -0.032243077 0.10050729
-0.12727289 0.09947127 0.1657799 0.07216877 0.0874367 0.24581464 -0.0011728441 0.030543515
0.12973112 0.1292745 0.025575943 0.12899423 -0.22419071 -0.011953472 -0.13051891 0.08994692
0.028195594 0.030511005 0.03614077 0.24020824 -0.043324944 -0.25001743 -0.1342346 0.05124585
00000000: 3e98 423d 1f38 f2bd 4275 c23d ccdf bd3d
00000010: 604d 513d bf03 b9bd 4dc9 153e a2a0 3d3d
00000020: fc07 803d a199 4cbd b2d5 47bd 17e7 25be
00000030: e500 153c 65d4 92bd b471 28bd 0162 bc3d
00000040: 6572 1bbd 644a d2bc 95fc 40bb 98fb e2bd
00000050: 0e57 753e 89d2 d8bd 0a26 2dbd c572 fd3d
00000060: d216 a53d 6712 7f3d 408d 4abd 559e 0e3d
00000070: 2e1c 36bc 30e4 853c 438d 453e 0fa3 c13d
00000080: 1f25 c33d e63b 973d 5da6 45be c757 acbd
00000090: 1e0d ba3d 2af6 a93d c577 fcbd 90c7 de3d
000000a0: e08e 6fbd 2e72 a4bd ed8c ffbc d8e5 3a3d
000000b0: b038 543e f99d c83d 0dc3 273d 0c9d c2bd
000000c0: 1b9d 433e b853 6cbd 4943 d13d d706 0c3e
000000d0: 340b 20be 6adb babd 3359 30be caf9 b93c
000000e0: 9bea dcba b813 a0bd 232b ea3c 1a91 4ebd
000000f0: 84b8 913d 5339 dabd 2114 babb ec8f 0ebe
00000100: ac8b 25be f83c 9f3c 7c82 dfbc 6e4e 733d
00000110: 6c8b 963d b647 ce3d b839 d63c 3e02 d5bb
00000120: b507 4bbe 35f0 22be a6a4 f5bc e399 1dbe
00000130: dcc3 12bd 3312 90bd 311c b43d d209 913d
00000140: 82c7 95bd 34f0 85bb 9a22 a2bd 3d40 4e3e
00000150: 4877 6dbc c08b 9abd 0759 39be b949 a03d
00000160: 0495 54bc 3628 e63a f0a3 7abd 31e5 4f3e
00000170: 3a69 993d 437a e53c c3ae 21be 7bb5 7fbd
00000180: a9bc ce3d 94d4 073e c9ec 133e ae9b 76bd
00000190: 39ed bc3d ce08 73be 7a8a adbd 4470 a0bd
000001a0: 2044 2cbe 6ccf 8abd 5ca3 a2bb ae38 fb3d
000001b0: 66d7 473e d529 843e 8a85 23bc 336f 0ebe
000001c0: 1531 ee3d 1aaf f9bd 26b8 043e f5e6 073d
000001d0: 0b0c 243d eb41 88bd 90fc 50be 5110 efbd
000001e0: 04e7 81be c406 353e 0436 c5bd 1de3 443d
000001f0: 4844 2fbe f51a e53c cf93 d8bd fc1c 16be
00000200: de9b 88bd 31d2 cabd b177 bdbd 8eff c23d
00000210: fbee 253e d217 7f3d ea88 23be 8b0f 9a3c
00000220: 31f9 d7bd cc72 91bc c79a 163e 11c3 eebd
00000230: e173 843c a1be a5bd cfdf 85bd 8f63 40be
00000240: 0d3e 8b3d 790f df3c c3fd 0b3e 979b c8bd
00000250: 708a c03d cc3e 5c3d d8b5 323e 6cd5 5f3e
00000260: 1914 0d3e a8cd dabc c531 c43d ff9c e0bd
00000270: 22c1 8d3c 0e32 83bd cbb0 813e 044b 433e
00000280: 43da 823d c3f7 4abe 643b b0bd 1178 94bd
00000290: 25e8 24be c17c eb3d 95b9 333d 0cb6 1c3d
000002a0: 33f4 a23d 2da7 9c3d 5f8b 2b3d c69d 1bbe
000002b0: d87e 9c3d 44e1 8fbd 3bad ffbd 4812 0ebd
000002c0: 338b 27bd 0f2f 8ebc 6778 62bd 9750 683d
000002d0: 9a80 55be 78b9 31be 1953 ff3d e7cb a03a
000002e0: 151e 893d 237c 373d 0ce5 813d 7c91 773d
000002f0: 7291 00be 9ba1 a3bc 938d a1bd f3a8 c63d
00000300: 1649 5239 0880 ccbd 951b 6b3d e1c2 b73d
00000310: ee25 55bd 68bc b2bd 952a 25be 1f76 773d
00000320: 4198 403d 29a9 04bd 9b88 bcbc 1756 dc3d
00000330: 77d7 29bc 8e71 1cbd fcbb 723c e518 0ebc
00000340: 3e95 12be 3015 3c3e 490d 923d 4610 89bb
00000350: ac5b 85be 635e 0d3e 9488 e43d 4870 2b3e
00000360: 95b4 bf3d d2f2 c33c b115 b23d 60b5 4e3e
00000370: a098 df3d cee2 38be a34c 173e b27f 80bd
00000380: b2b2 033c 780c cb3c 0186 813e 5bb0 3d3b
00000390: 117c 87be c143 c2bc 5111 04bd c4d6 cd3d
000003a0: d353 02be 98b7 cb3d 35c2 293e 38cd 933d
000003b0: 0312 b33d d5b6 7b3e 1eba 99ba 6536 fa3c
000003c0: 3cd8 043e 8960 043e a484 d13c 1017 043e
000003d0: 4092 65be 7fd8 43bc c0a6 05be 1736 b83d
000003e0: 72fa e63c 37f2 f93c 5808 143d 26f9 753e
000003f0: 7f75 31bd 4902 80be cc74 09be 2be7 513d

input_proj.bias f4 [64]
-0.05308414 0.061118565 0.21257745 -0.064073026 0.20409346 0.10436552 0.13468051 0.25275335
-0.10747349 -0.07289511 -0.15081741 0.06742585 -0.16736442 -0.12700978 0.2633604 -0.047637813
-0.06312614 0.042127717 -0.064181544 0.15155832 -0.04951066 0.01229485 -0.12829643 0.086834714
0.05677323 0.016611576 0.07557305 -0.1315966 -0.04742756 -0.22195135 0.12726982 -0.008542718
-0.11592349 0.042646296 0.18930644 0.0670522 0.21223375 -0.025618324 -0.13102673 -0.10391333
-0.08655202 0.18650167 -0.1594557 -0.10776076 0.057712995 0.09752843 0.054604672 -0.22083251
0.01836968 0.11782787 -0.035419747 0.007775023 0.14045423 0.073724955 0.13246079 0.12022282
-0.20182714 0.029781422 -0.13708407 -0.011889484 0.17066157 -0.17740756 -0.15936203 -0.02317388
00000000: c16e 59bd 7657 7a3d e7ad 593e b838 83bd
00000010: e0fd 503e 97bd d53d b0e9 093e e368 813e
00000020: 101b dcbd 084a 95bd e16f 1abe 9016 8a3d
00000030: 9461 2bbe da0e 02be 2dd7 863e de1f 43bd
00000040: 4748 81bd 1d8e 2c3d 9d71 83bd 1b32 1b3e
00000050: b1cb 4abd 5770 493c 2460 03be 66d6 b13d
00000060: 0c8b 683d 0015 883c 0bc6 9a3d 42c1 06be
00000070: 6743 42bd 3747 63be 0553 023e c2f6 0bbc
00000080: 4b69 edbd e2ad 2e3d 8cd9 413e aa52 893d
00000090: ce53 593e 85dd d1bc df2b 06be 83d0 d4bd
000000a0: 2f42 b1bd 4bfa 3e3e 5b48 23be acb1 dcbd
000000b0: 7664 6c3d fcbc c73d 26a9 5f3d eb21 62be
000000c0: 037c 963c bd4f f13d 4c14 11bd 9fc5 fe3b
000000d0: 3cd3 0f3e 1cfd 963d cda3 073e 6237 f63d
000000e0: c6ab 4ebe 2bf8 f33c c45f 0cbe 1ccc 42bc
000000f0: e8c1 2e3e 54aa 35be cd2f 23be 26d7 bdbc

msg_layers.0.W_self.weight f4 [64, 64]
-0.049551588 0.04669914 0.08246603 0.03453141 -0.10578562 -0.17295927 0.09354197 0.062315922
0.07011044 -0.07684409 0.092442475 0.069534816 -0.057947043 -0.031797927 -0.06287498 0.018680468
0.030229207 0.051148713 -0.13012108 0.12569591 0.026311066 0.11578159 -0.04708986 0.11602467
-0.01284893 -0.026328744 -0.08790302 -0.074689455 -0.021521023 0.053308975 0.090738684 -0.14064749
-0.05868331 -0.16989608 -0.076044 0.041337967 -0.088971145 -0.0926777 0.05980172 -0.17610551
-0.05647059 -0.0624815 -0.12991446 -0.049996037 -0.06363509 -0.08556279 -0.054679945 -0.06429613
-0.03328665 0.16794609 0.029993065 -0.061099034 -0.060358163 0.067446575 -0.053724144 -0.11289232
0.0027349908 -0.12143151 0.11202981 -0.028932909 -0.0410514 0.080803916 -0.0036020414 0.056351703
0.15156186 -0.10837332 0.06550346 0.09136103 -0.056629345 -0.059689716 0.009347253 0.011363651
-0.18612374 -0.083348125 -0.12264775 0.0793249 0.06266798 -0.15237601 0.041176677 0.054078225
0.007690934 0.054163385 -0.17610568 0.12058993 0.08698566 0.050650407 -0.09340017 0.1793033
0.05786962 -0.0060064867 0.12684105 -0.006533371 -0.06743362 0.01813407 0.2129689 -0.10343247
0.116592504 -0.114568174 0.13650125 0.0975141 0.039551716 -0.23709382 -0.122188225 -0.03440699
0.098274745 0.10627175 -0.07388136 0.02701972 0.09593859 -0.021792883 -0.25595295 0.08570491
-0.08834279 0.14481266 -0.123987846 -0.05580962 0.15427595 0.0532571 0.12126919 0.049310863
0.022341814 0.13724563 -0.13009961 0.09467545 0.06580735 -0.12927082 -0.16244823 0.018869948
0.10450092 0.17427316 0.03433539 0.15299737 -0.02797501 -0.047329556 -0.002974258 0.04850268
0.14518534 -0.13772 0.032537557 0.17232022 0.06631639 0.04540625 -0.025586337 -0.079307884
0.043091916 -0.004435941 0.0011627522 -0.019483166 -0.058311954 0.009197879 -0.0702543 0.14875253
0.014237773 -0.025857033 -0.05660635 -0.11598157 0.13044931 0.034840383 0.08171565 0.075416826
0.11137702 -0.20486113 -0.07501911 0.11830839 -0.03386886 -0.019975416 0.06569884 -0.036372174
-0.077468984 0.081347436 -0.055264145 0.09570112 -0.08684647 -0.056305792 0.07564881 0.10457833
-0.20018226 0.090899445 -0.049882226 -0.18584742 0.08570529 0.022554075 0.08135425 0.10584294
-0.0017399822 -0.1505536 -0.10109268 0.006422101 -0.07060333 -0.1886077 0.014060184 0.07239769
-0.030452497 -0.072644144 -0.09951 0.06900285 -0.12948401 -0.12597828 -0.18097068 0.011981738
0.09972599 0.04677867 0.17810707 0.08415247 0.15598583 0.07771095 0.10133647 0.06391402
0.076363094 -0.08703333 0.09270085 0.17307653 0.031879187 0.001084431 -0.008786704 -0.07662119
-0.101905994 -0.0381945 -0.061874155 0.1449555 0.14087664 0.15516147 0.026089186 0.0069504837
0.016628113 -0.03324009 0.037979044 -0.06625828 0.02005747 -0.00674194 -0.02304346 0.0071563856
-0.24764965 -0.013790476 -0.057080697 0.068269275 -0.07588576 -0.04442361 -0.039405584 -0.031062277
0.107864775 0.0751501 0.14815307 0.02033549 0.04418352 -0.0757388 -0.115702614 0.04768214
-0.020048995 0.038049143 0.1360034 -0.20811164 -0.016839568 -0.0033330882 -0.038251493 -0.0639163
00000000: 9bf6 4abd 9947 3f3d f3e3 a83d cf70 0d3d
00000010: 22a6 d8bd 3c1c 31be ef92 bf3d fb3e 7f3d
00000020: 1096 8f3d 6f60 9dbd 7b52 bd3d 4568 8e3d
00000030: e159 6dbd 8b3e 02bd 99c4 80bd c807 993c
00000040: 3ea3 f73c 5081 513d 763e 05be 6eb6 003e
00000050: 4e8a d73c e61e ed3d 4ce1 40bd 589e ed3d
00000060: 5284 52bc 61af d7bc 8006 b4bd c9f6 98bd
00000070: db4c b0bc 835a 5a3d 34d5 b93d e505 10be
00000080: e95d 70bd 3df9 2dbe f5bc 9bbd 0052 293d
00000090: 8136 b6bd cecd bdbd a6f2 743d 0155 34be
000000a0: b54d 67bd 9aec 7fbd 4c08 05be a5c8 4cbd
000000b0: 1d53 82bd 8b3b afbd 14f8 5fbd b0ad 83bd
000000c0: 9557 08bd 0ffa 2b3e 04b4 f53c fb42 7abd
000000d0: 1f3a 77bd 6e21 8a3d d90d 5cbd 1734 e7bd
000000e0: 883d 333b 15b1 f8bd e36f e53d b504 edbc
000000f0: 8325 28bd 867c a53d 3a10 6cbb 0bd1 663d
00000100: 0833 1b3e d5f2 ddbd ae26 863d 7e1b bb3d
00000110: 2cf4 67bd 347d 74bd 3825 193c 9b2e 3a3c
00000120: 3997 3ebe 6cb2 aabd be2e fbbd 1875 a23d
00000130: 1258 803d 7508 1cbe e0a8 283d 2181 5d3d
00000140: 3b04 fc3b 6dda 5d3d 0c55 34be daf7 f63d
00000150: 8a25 b23d cd76 4f3d 9748 bfbd 499b 373e
00000160: b208 6d3d 10d2 c4bb 9fe2 013e e315 d6bb
00000170: a31a 8abd e78d 943c 8514 5a3e 67d4 d3bd
00000180: 0dc8 ee3d b8a2 eabd fcc6 0b3e 79b5 c73d
00000190: fb00 223d b9c8 72be d23d fabd 58ee 0cbd
000001a0: 4544 c93d 01a5 d93d 1c4f 97bd 7658 dd3c
000001b0: 747b c43d fd86 b2bc 440c 83be 0e86 af3d
000001c0: 11ed b4bd c549 143e 57ed fdbd a198 64bd
000001d0: 84fa 1d3e 1e24 5a3d fb5b f83d 30fa 493d
000001e0: 2e06 b73c 1e8a 0c3e d538 05be 34e5 c13d
000001f0: 01c6 863d 925f 04be d458 26be 2695 9a3c
00000200: 9404 d63d aa74 323e 44a3 0c3d 58ab 1c3e
00000210: d92b e5bc a3dc 41bd c5eb 42bb bfaa 463d
00000220: 77ab 143e 7906 0dbe 1a46 053d b674 303e
00000230: e3d0 873d e7fb 393d 709a d1bc 2c6c a2bd
00000240: 2681 303d 5f5b 91bb 7d67 983a 299b 9fbc
00000250: 84d8 6ebd b3b2 163c 7de1 8fbd 9552 183e
00000260: 8c45 693c 21d2 d3bc 0fdc 67bd bf87 edbd
00000270: 8194 053e cab4 0e3d 895a a73d 2374 9a3d
00000280: a319 e43d 1ec7 51be 9fa3 99bd ab4b f23d
00000290: 13ba 0abd 7ca3 a3bc 1d8d 863d fdfa 14bd
000002a0: 0fa8 9ebd 7c99 a63d a85c 62bd f3fe c33d
000002b0: 90dc b1bd e7a0 66bd c3ed 9a3d 2a2d d63d
000002c0: 94fc 4cbe 7d29 ba3d 4e51 4cbd c94e 3ebe
000002d0: 4186 af3d 53c3 b83c 0f9d a63d 2fc4 d83d
000002e0: 1d10 e4ba b92a 1abe ae09 cfbd 7d70 d23b
000002f0: 7b98 90bd 6022 41be b05c 663c 3d45 943d
00000300: 8477 f9bc 74c6 94bd e6cb cbbd 5e51 8d3d
00000310: 7597 04be 7300 01be 6150 39be 0d4f 443c
00000320: 243d cc3d fe9a 3f3d b361 363e 2158 ac3d
00000330: c0ba 1f3e eb26 9f3d 7f89 cf3d 5be5 823d
00000340: 4164 9c3d 883e b2bd f1d9 bd3d f93a 313e
00000350: c093 023d 7723 8e3a 1cf6 0fbc 92eb 9cbd
00000360: 17b4 d0bd d671 1cbd c16f 7dbd 376f 143e
00000370: f741 103e a6e2 1e3e fdb8 d53c e2c0 e33b
00000380: ae37 883c c326 08bd ea8f 1b3d 6cb2 87bd
00000390: 904f a43c 7eeb dcbb a3c5 bcbc 1d80 ea3b
000003a0: df97 7dbe 73f1 61bc 73cd 69bd c3d0 8b3d
000003b0: fe69 9bbd 88f5 35bd c067 21bd 5176 febc
000003c0: 35e8 dc3d 4ce8 993d 70b5 173e 9d96 a63c
000003d0: c7f9 343d f21c 9bbd 7ef5 ecbd 594e 433d
000003e0: ca3d a4bc 6bd9 1b3d 7a44 0b3e 381b 55be
000003f0: 22f3 89bc f16f 5abb 99ad 1cbd 8de6 82bd

msg_layers.0.W_self.bias f4 [64]
0.06617068 0.08814524 -0.030977635 -0.1480192 -0.011017145 0.26400462 0.16481158 -0.09634092
0.0056951623 -0.0026484781 -0.13154499 0.11962674 -0.1297245 0.10737796 -0.0010439474 0.17610815
0.0390498 -0.030956576 -0.111140996 0.21160974 -0.05933124 -0.095265344 0.051604185 -0.16816968
-0.10303433 -0.064518444 -0.0015113996 -0.07427665 0.059926987 0.11698803 0.2367692 -0.13247958
0.041900966 0.09071068 0.21463627 -0.09602963 0.18323217 -0.048607476 -0.019005517 -0.06394621
-0.02744923 -0.008025517 -0.13584734 -0.20889387 0.104283825 0.16511974 -0.1854793 -0.035051342
-0.08313266 0.19086517 -0.10708092 0.0636755 0.06606503 -0.071242064 0.015392668 0.057582457
-0.048617758 0.016830765 -0.04941585 -0.008784654 0.11125476 -0.0075740623 -0.05162261 -0.17150056
00000000: 7e84 873d 7e85 b43d cfc4 fdbc 5892 17be
00000010: 4181 34bc 9d2b 873e 5ec4 283e 634e c5bd
00000020: 7c9e ba3b 1792 2dbb bbb3 06be ddfe f43d
00000030: 80d6 04be fae8 db3d 10d5 88ba b255 343e
00000040: aff2 1f3d a598 fdbc e49d e3bd 39b0 583e
00000050: 5005 73bd 7a1a c3bd e95e 533d ac34 2cbe
00000060: aa03 d3bd 3f22 84bd 281a c6ba 5b1e 98bd
00000070: 0076 753d 6c97 ef3d a073 723e baa8 07be
00000080: 59a0 2b3d 85c6 b93d 9cc9 5b3e 2fab c4bd
00000090: 37a1 3b3e a218 47bd 75b1 9bbc 3bf6 82bd
000000a0: 35dd e0bc 757d 03bc 911b 0bbe 46e8 55be
000000b0: c292 d53d 2615 293e 49ee 3dbe ff91 0fbd
000000c0: 7541 aabd 2972 433e 3e4d dbbd 4d68 823d
000000d0: 1a4d 873d 5ce7 91bd 8731 7c3c 95db 6b3d
000000e0: 6a23 47bd ace0 893c 4668 4abd 82ed 0fbc
000000f0: 89d9 e33d d72f f8bb 3b72 53bd d89d 2fbe

msg_layers.0.W_msg.weight f4 [64, 64]
0.077304654 -0.121917896 -0.10846682 -0.08822275 0.023237731 -0.007549694 0.045828752 -0.03083474
0.0663451 0.040853918 0.036989335 -0.07694048 -0.08096549 -0.03143864 -0.08794807 0.07296199
0.0540381 0.11354381 0.20037475 -0.15746748 0.08735813 -0.11791073 0.10186583 0.02417082
-0.022379946 -0.13938867 -0.0056634774 -0.033998065 -0.08951248 -0.11095934 -0.13233818 0.10938682
-0.2252278 -0.012602661 -0.0482698 0.1368349 0.07583284 -0.18330754 0.014636149 0.1824302
0.18882713 -0.11749525 0.00400246 -0.1597122 0.010271592 -0.01666932 -0.021658469 -0.022533989
0.00764393 -0.15669963 0.1296235 0.25037605 -0.02828596 -0.04279591 0.037708145 -0.12377013
0.08058247 0.19904046 0.11350681 0.15440713 0.05508878 0.031137565 0.10572085 0.039653048
0.07741111 0.027949031 -0.10013956 -0.09265296 0.049247757 -0.039497897 -0.0919804 -0.05408036
-0.09380488 -0.05055306 -0.05628195 -0.08102816 -0.0062274174 0.029246053 0.046168163 -0.06348026
0.13645642 -0.03501122 -0.041514818 -0.03977219 0.06750536 -0.01242032 0.08962586 -0.07039976
0.072880626 0.11901807 -0.02019872 -0.10276347 -0.13784148 0.10129952 -0.068164736 -0.0021277366
0.07480175 -0.018532118 -0.009439642 0.062099535 0.031743467 -0.09481204 -0.11201893 0.1163603
0.18046282 -0.09852946 0.11636453 -0.08824519 0.114842534 -0.0062871072 -0.025799705 0.1271652
0.101083964 0.054352872 -0.044516206 -0.115022205 0.057606682 0.06992789 -0.04330612 -0.09860028
0.04751655 0.14482623 -0.024083285 -0.09321578 0.055824075 -0.020097364 -0.093268625 0.006718996
-0.14218168 -0.059675574 0.07513328 -0.20663883 -0.11627683 0.12821496 0.05854479 -0.053788345
0.0126317805 -0.15052736 0.11100578 -0.02644309 0.07309542 -0.11573201 0.10527496 0.05982918
-0.020154186 0.071514964 -0.033185612 -0.053455926 -0.078279756 0.021629823 0.08121829 -0.02540241
0.06942221 -0.057621323 0.063475 -0.08378629 0.036048245 -0.09972598 0.0041836803 -0.088631764
-0.08219532 -0.067949586 0.11558804 -0.11343298 0.045448244 0.17020267 -0.057990648 0.04569758
0.10868364 0.034597397 -0.038122643 -0.006984941 0.031755123 0.037636094 0.13337637 0.061913017
-0.13906033 -0.10095235 0.11417228 0.17459041 0.08487716 0.0877222 0.10294092 0.018041164
-0.016619487 -0.017577885 -0.1010045 -0.0027804696 0.077651456 0.045919497 0.04954351 0.11927415
0.15299502 -0.15477234 -0.037929833 -0.10266082 -0.06550046 0.08972458 -0.09903269 -0.13135633
0.022648385 0.1585716 0.049751177 -0.009002602 -0.017744452 0.08245447 0.003166582 0.040999368
-0.0033215212 0.11453457 0.035232842 -0.15242185 0.032470826 0.010741806 0.097772725 0.03254797
0.080448546 -0.034695275 0.11241045 0.07099704 0.1277336 0.17164898 -0.014446605 -0.053628314
0.09684249 -0.019519933 -0.07598729 -0.08314655 0.051712796 -0.15788534 -0.056263704 0.03490636
-0.056726467 -0.015997393 -0.022938315 0.0350664 0.10497748 0.04053247 -0.051146433 -0.039749056
-0.05299873 -0.09573046 0.09778324 -0.026043084 0.025801394 -0.00826921 0.07450871 -0.051574968
0.14459665 0.1516476 0.15417047 0.054111537 0.09105878 -0.08421528 -0.0018464514 0.045255773
00000000: e751 9e3d 17b0 f9bd da23 debd 21ae b4bd
00000010: 0e5d be3c 6c63 f7bb eeb6 3b3d 2399 fcbc
00000020: f1df 873d 7056 273d 2182 173d f892 9dbd
00000030: 3cd1 a5bd cec5 00bd 1e1e b4bd 196d 953d
00000040: 0e57 5d3d a889 e83d 0a2f 4d3e 283f 21be
00000050: d2e8 b23d 2e7b f1bd 089f d03d e201 c63c
00000060: 2656 b7bc e7bb 0ebe b194 b9bb 8e41 0bbd
00000070: 5252 b7bd a73e e3bd a983 07be 3206 e03d
00000080: 1ea2 66be 647b 4ebc 8eb6 45bd 731e 0c3e
00000090: 3f4e 9b3d f9b4 3bbe 75cc 6f3c fbce 3a3e
000000a0: e65b 413e 5aa1 f0bd 1127 833b 988b 23be
000000b0: 2e4a 283c 198e 88bc 1a6d b1bc 3399 b8bc
000000c0: ef79 fa3b de75 20be 06bc 043e 4a31 803e
000000d0: f5b7 e7bc c44a 2fbd db73 1a3d 327b fdbd
000000e0: 6c08 a53d 43d1 4b3e 4276 e83d e71c 1e3e
000000f0: c6a4 613d 3514 ff3c 2c84 d83d 3c6b 223d
00000100: b789 9e3d 5ef5 e43c f815 cdbd d6c0 bdbd
00000110: 04b8 493d 8cc8 21bd 3860 bcbd 5e83 5dbd
00000120: c61c c0bd ba10 4fbd e787 66bd 18f2 a5bd
00000130: 5d0f ccbb 6b95 ef3c d41a 3d3d f001 82bd
00000140: 3bbb 0b3e ed67 0fbd 710b 2abd 2ae8 22bd
00000150: 4040 8a3d 997e 4bbc c38d b73d c02d 90bd
00000160: 7042 953d bfbf f33d c977 a5bc a775 d2bd
00000170: 5126 0dbe 1f76 cf3d f499 8bbd 7f71 0bbb
00000180: a931 993d abd0 97bc baa8 1abc 155c 7e3d
00000190: 7005 023d d12c c2bd 2e6a e5bd 4f4e ee3d
000001a0: 3fcb 383e d0c9 c9bd 8750 ee3d e5b9 b4bd
000001b0: 9032 eb3d 1404 cebb e759 d3bc 9837 023e
000001c0: 1c05 cf3d 1ea1 5e3d a056 36bd c390 ebbd
000001d0: fcf4 6b3d 5b36 8f3d c261 31bd f2ee c9bd
000001e0: b7a0 423d 544d 143e 4f4a c5bc eae7 bebd
000001f0: c9a7 643d 3aa3 a4bc 9f03 bfbd 062b dc3b
00000200: 1398 11be 606e 74bd 7adf 993d 2199 53be
00000210: 8c22 eebd c84a 033e a9cc 6f3d 2b51 5cbd
00000220: 87f5 4e3c d823 1abe 0057 e33d 2e9f d8bc
00000230: 0db3 953d e704 edbd 669a d73d 710f 753d
00000240: 641a a5bc 7076 923d a3ed 07bd 9af4 5abd
00000250: 2351 a0bd 0731 b13c c655 a63d b718 d0bc
00000260: 3b2d 8e3d 5604 6cbd 2eff 813d 2598 abbd
00000270: 53a7 133d 223d ccbd 4117 893b 9284 b5bd
00000280: 0556 a8bd 2729 8bbd 6cb9 ec3d 8d4f e8bd
00000290: f027 3a3d 9c49 2e3e 9a87 6dbd 632d 3b3d
000002a0: 8795 de3d 00b6 0d3d 7d26 1cbd efe1 e4bb
000002b0: a911 023d 4e28 1a3d d193 083e 8198 7d3d
000002c0: d565 0ebe 1bc0 cebd 28d3 e93d d4c7 323e
000002d0: 14d4 ad3d b2a7 b33d b0d2 d23d 10cb 933c
000002e0: 9725 88bc 7fff 8fbc 73db cebd 8a38 36bb
000002f0: ba07 9f3d 1516 3c3d 23ee 4a3d 0146 f43d
00000300: baaa 1c3e a47c 1ebe 505c 1bbd d63f d2bd
00000310: 1b25 86bd 85c1 b73d a7d1 cabd 4682 06be
00000320: 1b89 b93c 9860 223e e4c7 4b3d a67f 13bc
00000330: d05c 91bc e4dd a83d 6e86 4f3b f4ee 273d
00000340: e1ad 59bb 1a91 ea3d 5050 103d 7914 1cbe
00000350: 2100 053d 66fe 2f3c 113d c83d 0551 053d
00000360: 35c2 a43d a21c 0ebd 7337 e63d e566 913d
00000370: 99cc 023e c0c4 2f3e 74b1 6cbc 5da9 5bbd
00000380: 5b55 c63d 44e8 9fbc 399f 9bbd bd48 aabd
00000390: ccd0 533d b2ac 21be c574 66bd f9f9 0e3d
000003a0: 035a 68bd f70c 83bc 22e9 bbbc c9a1 0f3d
000003b0: 6ffe d63d 6005 263d ec7e 51bd e8cf 22bd
000003c0: 3215 59bd 550e c4bd 9442 c83d 4e58 d5bc
000003d0: 725d d33c 957b 07bc 0698 983d 4640 53bd
000003e0: 2511 143e 8249 1b3e ddde 1d3e 0fa4 5d3d
000003f0: 077d ba3d 1079 acbd a104 f2ba 1e5e 393d

msg_layers.0.W_msg.bias f4 [64]
-0.0617086 0.093903884 0.013405037 -0.048691664 -0.04745102 -0.15524757 -0.057344798 -0.02633222
0.02898533 0.061033152 -0.08738566 0.115057826 -0.11850053 -0.23748136 0.076344006 -0.026195591
-0.21320955 0.072371215 0.12409576 0.03157773 -0.012907399 -0.08383351 -0.06734463 0.021865964
-0.13795066 -0.11690666 0.08656459 -0.15598923 0.009821918 0.007667035 -0.05614928 0.08886319
-0.041539665 -0.0142363245 -0.011260567 -0.09683407 0.074167654 0.06589442 -0.120430954 -0.030945072
0.11706287 0.1412301 0.0008419158 -0.07327195 -0.06323574 -0.15111084 -0.09375064 0.0075475406
-0.12757398 0.006697627 -0.027635027 -0.115977325 0.06312214 -0.08924676 0.031031936 0.12321225
0.029941121 -0.028721282 0.04852676 -0.008996719 -0.0905912 -0.0059884177 -0.09857857 0.052527316
00000000: 28c2 7cbd ae50 c03d cda0 5b3c e970 47bd
00000010: 005c 42bd 38f9 1ebe 61e2 6abd abb6 d7bc
00000020: a572 ed3c e6fd 793d 41f7 b2bd 70a3 eb3d
00000030: 68b0 f2bd 502e 73be 3f5a 9c3d 2398 d6bc
00000040: 9b53 5abe 5c37 943d eb25 fe3d a657 013d
00000050: 8e79 53bc e7b0 abbd fbeb 89bd 4020 b33c
00000060: f042 0dbe c26c efbd c748 b13d a4bb 1fbe
00000070: 1cec 203c c03b fb3b cafc 65bd e7fd b53d
00000080: 7f25 2abd 793f 69bc 3e7e 38bc f150 c6bd
00000090: 36e5 973d a7f3 863d 81a4 f6bd 8580 fdbc
000000a0: a8be ef3d a09e 103e 03b4 5c3a 9b0f 96bd
000000b0: bd81 81bd cdbc 1abe 5600 c0bd 5c51 f73b
000000c0: c1a2 02be c477 db3b da62 e2bc 8585 edbd
000000d0: 2e46 813d 01c7 b6bd b036 fe3c b456 fc3d
000000e0: 1547 f53c e548 ebbc ffc3 463d f966 13bc
000000f0: e187 b9bd 7d3a c4bb 90e3 c9bd e226 573d

msg_layers.0.norm.weight f4 [64]
1.0255507 0.95236266 1.0695608 1.0183895 1.0564011 1.1895895 1.1633064 1.0689557
0.9158814 1.022073 0.8371753 0.91043746 0.87039155 0.96321356 0.93771744 0.9847606
0.8964904 0.9848608 1.0413375 1.0555674 0.95559055 1.0367869 0.9255579 1.0150176
0.99564004 0.960336 0.88082856 0.8691772 1.0258172 0.9136058 1.087292 1.0975336
1.0011483 0.9996355 1.0367539 1.0454406 1.0400127 0.90011185 0.9278727 0.8870237
1.0162903 1.164093 1.091161 0.94323945 0.9904662 0.9800987 0.99136573 1.0741737
0.97531 1.2280843 0.91447264 1.0149305 1.0638822 0.9207003 0.84243786 0.9286755
0.8948593 0.8556118 1.1648616 0.91502994 1.050171 0.98896044 0.81888187 0.8428272
00000000: 3f45 833f 0ace 733f 5ee7 883f 965a 823f
00000010: 2738 873f 7844 983f 39e7 943f 8ad3 883f
00000020: 3477 6a3f 4ad3 823f 1f51 563f 6e12 693f
00000030: fbd1 5e3f 2a95 763f 400e 703f 4519 7c3f
00000040: 6580 653f d61f 7c3f 8c4a 853f d51c 873f
00000050: 95a1 743f 6fb5 843f 5df1 6c3f 19ec 813f
00000060: 44e2 7e3f 95d8 753f fb7d 613f 6682 5e3f
00000070: fa4d 833f 12e2 693f 622c 8b3f fb7b 8c3f
00000080: a125 803f 1de8 7f3f 5ab4 843f ffd0 853f
00000090: 231f 853f bb6d 663f 1189 6d3f fc13 633f
000000a0: cd15 823f 0001 953f 2aab 8b3f 2478 713f
000000b0: 318f 7d3f c0e7 7a3f 25ca 7d3f 867e 893f
000000c0: ebad 793f de31 9d3f e11a 6a3f 3ee9 813f
000000d0: 4b2d 883f 04b3 6b3f 02aa 573f adbd 6d3f
000000e0: 8015 653f 6009 5b3f 2f1a 953f 673f 6a3f
000000f0: 016c 863f 832c 7d3f 3ea2 513f 86c3 573f

msg_layers.0.norm.bias f4 [64]
-0.024207328 0.05448524 -0.022052841 -0.06653498 -0.057563063 0.008309007 0.0105508985 -0.005644066
0.07403754 -0.042108417 0.15866573 0.04492932 0.07110153 0.06408262 0.029590981 0.097165175
0.030890765 0.0061657587 -0.12416484 0.027475677 -0.020807518 -0.006921295 0.013025448 -0.019180708
0.010921272 0.04248355 0.122598074 0.07972543 0.0850593 0.0022046047 0.10213506 -0.00544845
0.14769724 0.017802894 0.08408716 -0.03485316 0.03242927 0.07737052 0.06740597 0.020604705
-0.012721802 0.112464204 -0.10125661 -0.0012506918 0.077280745 0.08661069 0.014050757 -0.07348717
-0.008507929 0.06443392 0.08779887 0.018894648 -0.0024853721 0.050894376 0.103184514 0.00077546964
-0.07301661 -0.026509613 -0.16337973 -0.040435802 0.04658757 0.015642598 0.12444469 -0.057624687
00000000: 724e c6bc ea2b 5f3d 29a8 b4bc 7e43 88bd
00000010: 3fc7 6bbd 8022 083c addd 2c3c dbf1 b8bb
00000020: fea0 973d e079 2cbd 4579 223e cf07 383d
00000030: ae9d 913d c03d 833d c968 f23c 89fe c63d
00000040: a10e fd3c 220a ca3b 234a febd ac14 e13c
00000050: 8774 aabc 08cc e2bb b068 553c dc20 9dbc
00000060: 23ef 323c 3b03 2e3d b314 fb3d 1647 a33d
00000070: 9233 ae3d 217b 103b 302c d13d e988 b2bb
00000080: f23d 173e 60d7 913c e435 ac3d 30c2 0ebd
00000090: 8ed4 043d 6f74 9e3d 240c 8a3d 33cb a83c
000000a0: 1b6f 50bc a253 e63d a05f cfbd 41ee a3ba
000000b0: 5e45 9e3d f260 b13d 2535 663c 7180 96bd
000000c0: d764 0bbc eef5 833d e5cf b33d f3c8 9a3c
000000d0: a0e1 22bb 9f76 503d 6752 d33d e348 4b3a
000000e0: bc89 95bd b02a d9bc 044d 27be 03a0 25bd
000000f0: 9cd2 3e3d e824 803c dcdc fe3d dd07 6cbd

msg_layers.1.W_self.weight f4 [64, 64]
0.011086196 0.0014486018 0.0032367124 -0.03997346 0.13388714 0.00089737435 -0.05927655 -0.09486323
-0.02493575 0.045067742 0.07933505 -0.123617515 0.005533699 -0.056551192 -0.033589836 0.06890354
0.026158214 -0.1023134 -0.06405662 -0.003158846 -0.08325481 0.11379353 0.1108994 -0.091424376
-0.07519077 0.15812106 0.042437673 0.184696 0.045933172 0.24849321 0.036215357 0.1459051
-0.09180086 0.03572 0.09459891 0.11834909 -0.055719823 0.05365981 -0.053860962 -0.01949359
0.14278124 0.050000105 0.057423078 0.16317627 -0.20936985 0.02753485 0.029652288 -0.021571588
0.06952449 -0.12847844 -0.03858384 -0.085942775 -0.037966587 0.018133856 -0.0072799325 -0.12185333
0.07831103 -0.03667628 0.0576729 0.14631543 -0.04240387 -0.07869458 0.23584364 -0.013548999
-0.13718352 0.067483544 0.035044257 0.24570245 -0.14411926 -0.15208417 -0.050410096 -0.15287445
0.2644227 -0.04966089 0.10536948 0.27618596 0.10374607 -0.14083272 0.19345821 0.039118264
-0.101865284 -0.036669686 0.09124743 0.011706244 -0.31137046 -0.002903735 -0.080691904 -0.26189876
-0.1327328 -0.07261108 0.10758887 0.010518891 0.105851166 0.063339084 -0.09779844 0.24562034
0.20961705 0.030479386 -0.09215002 -0.24530101 -0.14328377 0.15106602 0.13712084 -0.038972292
-0.25344667 -0.10296527 0.14214456 0.11881877 -0.08601433 -0.02486038 0.202618 -0.12327752
0.041399933 -0.13007407 0.09890683 0.12827529 -0.13896562 0.20845209 0.020373404 -0.2069278
0.13754945 -0.30970597 0.1903202 -0.35689592 -0.058707617 0.060752477 0.113875024 -0.04114994
0.17539912 0.081685044 0.27073562 -0.20588419 0.10284418 0.107439265 0.20493491 0.14980537
-0.009767084 0.09318178 -0.026582522 0.02160868 -0.11271483 -0.0020515812 -0.16461045 0.108117275
0.15621397 -0.16620532 -0.15825687 0.07980361 0.082848504 0.089305155 0.06361399 0.004137127
-0.0013957926 -0.053043902 -0.09376958 -0.0226254 -0.15351205 -0.09706061 -0.085183576 -0.043855842
-0.05801538 -0.038798206 0.06895007 0.0014659853 0.14528607 0.01690772 -0.206982 -0.20668012
-0.09437281 0.2176198 -0.028693112 -0.04717508 0.0938389 0.17547339 -0.104201294 -0.056091525
-0.09495639 0.21432465 -0.047256995 -0.10810334 0.16438991 -0.11724979 -0.15959924 0.10883266
-0.08787588 -0.0003141656 -0.16392675 0.085568935 0.14128023 -0.14821532 -0.05534564 -0.08244902
-0.07486723 -0.058907207 0.0071640927 -0.11970837 0.14775683 -0.17462932 -0.13792944 -0.0051681935
-0.028374497 -0.007553175 -0.04643036 -0.03483889 0.06845401 -0.010713226 0.0514609 0.032123536
0.030269751 0.08932459 -0.046295915 0.021150358 0.037703577 -0.14757107 0.064172715 0.10327387
-0.12900887 -0.0047690445 0.068772785 -0.05130144 0.06918433 0.11802064 -0.17673591 0.087864876
0.026100883 -0.009974548 -0.1860513 0.01022031 0.101998016 0.002144952 -0.053645045 -0.029525854
0.16763169 -0.015001379 0.07137328 -0.022453751 -0.014436722 0.03797711 0.08003995 0.18511906
-0.07853657 -0.060904756 0.030288743 0.13876268 -0.08704298 -0.09438939 0.02881784 0.13623919
0.19351685 -0.07385431 0.09628819 0.04763986 -0.18701921 0.034455933 -0.05676389 0.085898094
00000000: e0a2 353c 03df bd3a 061f 543b 36bb 23bd
00000010: b619 093e c63d 6b3a f8cb 72bd a747 c2bd
00000020: 0f46 ccbc f498 383d 6a7a a23d 2e2b fdbd
00000030: 0854 b53b 39a2 67bd 7f95 09bd 4d1d 8d3d
00000040: c049 d63c b089 d1bd 1e30 83bd a404 4fbb
00000050: 7f81 aabd 950c e93d 3a1f e33d b43c bbbd
00000060: 9efd 99bd 7dea 213e 20d3 2d3d f320 3d3e
00000070: 6c24 3c3d 0175 7e3e 8e56 143d 2668 153e
00000080: 1702 bcbd 224f 123d 13bd c13d 0261 f23d
00000090: 783a 64bd 64ca 5b3d 509d 5cbd 05b1 9fbc
000000a0: 3f35 123e e9cc 4c3d 7634 6b3d ae17 273e
000000b0: 0d65 56be c490 e13c 5be9 f23c e6b6 b0bc
000000c0: db62 8e3d da8f 03be 170a 1ebd c402 b0bd
000000d0: da82 1bbd 748d 943c 808c eebb 3d8e f9bd
000000e0: 8961 a03d de39 16bd 6b3a 6c3d b6d3 153e
000000f0: aeaf 2dbd a02a a1bd ff80 713e 9ffc 5dbc
00000100: d679 0cbe d034 8a3d 918a 0f3d 6c99 7b3e
00000110: 0094 13be f4bb 1bbe d17a 4ebd 1f8b 1cbe
00000120: 6a62 873e 3869 4bbd f4cb d73d 3f68 8d3e
00000130: d278 d43d 7436 10be e919 463e 793a 203d
00000140: bf9e d0bd f432 16bd efdf ba3d 8ccb 3f3c
00000150: f36b 9fbe 974c 3ebb cc41 a5bd 9817 86be
00000160: 1beb 07be 1eb5 94bd 8e57 dc3d 6d57 2c3c
00000170: 7fc8 d83d ecb7 813d 8c4a c8bd e683 7b3e
00000180: daa5 563e e8af f93c 26b9 bcbd 3030 7bbe
00000190: fbb8 12be 0db1 1a3e 6869 0c3e 69a1 1fbd
000001a0: c3c3 81be 75df d2bd 588e 113e 4157 f33d
000001b0: 4828 b0bd ffa7 cbbc 187b 4f3e ed78 fcbd
000001c0: fa92 293d 2332 05be aa8f ca3d 995a 033e
000001d0: 014d 0ebe 7774 553e 20e6 a63c e2e4 53be
000001e0: c3d9 0c3e c891 9ebe 4ce3 423e 10bb b6be
000001f0: 6677 70bd 97d7 783d 4f37 e93d d78c 28bd
00000200: d49b 333e 7d4a a73d dc9d 8a3e 4ed3 52be
00000210: f89f d23d 1e09 dc3d 75da 513e 9466 193e
00000220: 1f06 20bc 17d6 be3d 97c3 d9bc b004 b13c
00000230: 08d7 e6bd d273 06bb a48f 28be 976c dd3d
00000240: 8ef6 1f3e ba31 2abe 170e 22be 1370 a33d
00000250: 7aac a93d 9fe5 b63d 0d48 823d bd90 873b
00000260: 07f3 b6ba 9044 59bd 440a c0bd e758 b9bc
00000270: 4332 1dbe b7c7 c6bd ba74 aebd 2fa2 33bd
00000280: 89a1 6dbd deea 1ebd b235 8d3d 4e26 c03a
00000290: dfc5 143e 0f82 8a3c 17f3 53be f4a3 53be
000002a0: 8846 c1bd bad7 5e3e d10d ebbc a83a 41bd
000002b0: 9c2e c03d 4caf 333e 7d67 d5bd 3ac0 65bd
000002c0: 7f78 c2bd ec77 5b3e 8d90 41bd 4965 ddbd
000002d0: d455 283e a820 f0bd fc6d 23be a8e3 de3d
000002e0: 45f8 b3bd 98b6 a4b9 6adc 27be c43e af3d
000002f0: c4ab 103e c2c5 17be 1cb2 62bd 08db a8bd
00000300: fe53 99bd af48 71bd c4c0 ea3b a929 f5bd
00000310: 914d 173e 07d2 32be 603d 0dbe f359 a9bb
00000320: a271 e8bc a080 f7bb c32d 3ebd 39b3 0ebd
00000330: 9e31 8c3d 8786 2fbc aac8 523d f893 033d
00000340: 45f8 f73c d0ef b63d c9a0 3dbd 8443 ad3c
00000350: 116f 1a3d df1c 17be fc6c 833d 4081 d33d
00000360: e71a 04be a545 9cbb bfd8 8c3d 7521 52bd
00000370: 84b0 8d3d ceb4 f13d 42fa 34be 80f2 b33d
00000380: 85d1 d53c 496c 23bc 3b84 3ebe 1673 273c
00000390: 56e4 d03d 5392 0c3b e8ba 5bbd 34e0 f1bc
000003a0: a4a7 2b3e 58c8 75bc 272c 923d eef0 b7bc
000003b0: 0088 6cbc e38d 1b3d fceb a33d da8f 3d3e
000003c0: c8d7 a0bd 4477 79bd 1920 f83c ce17 0e3e
000003d0: 9743 b2bd 394f c1bd 6413 ec3c 4982 0b3e
000003e0: 4829 463e ee40 97bd be32 c53d 0422 433d
000003f0: f781 3fbe aa21 0d3d 4181 68bd 57eb af3d

msg_layers.1.W_self.bias f4 [64]
-0.081687875 0.17191528 0.11749239 -0.08000254 0.0755784 -0.026425377 0.20158751 0.13632326
-0.03924064 -0.08431158 -0.0073599434 -0.12207624 -0.0018501774 0.12743163 0.04756232 -0.10328417
-0.041585285 -0.17378992 -0.0053018043 0.06096016 0.0041496395 -0.015493613 0.08718656 0.07951282
0.024691703 -0.0036600053 -0.11434635 -0.1955456 0.03257183 0.07398239 -0.007231451 0.053234704
0.06474651 0.21237879 -0.007325261 -0.012531586 0.13332528 -0.0056103887 -0.17303266 0.018752089
-0.08741733 0.081679694 0.05749176 0.19699313 0.14750613 -0.16781372 -0.031447466 0.07073255
-0.114207506 0.048981335 0.026668124 0.0030159405 0.078392416 0.12242019 0.01605462 -0.001028173
0.11670833 -0.12183341 -0.12585053 -0.14614873 0.07755437 -0.1013054 0.2096945 -5.152562e-05
00000000: f94b a7bd 8f0a 303e da9f f03d 5fd8 a3bd
00000010: d9c8 9a3d 087a d8bc f56c 4e3e 5398 0b3e
00000020: cbba 20bd 8dab acbd ae2b f1bb 1c03 fabd
00000030: a781 f2ba 707d 023e b5d0 423d a786 d3bd
00000040: 5555 2abd fcf5 31be c2ba adbb 5cb1 793d
00000050: b3f9 873b ecd8 7dbc de8e b23d 9ed7 a23d
00000060: 4146 ca3c b3dc 6fbb 6b2e eabd 1b3d 48be
00000070: 0a6a 053d 1484 973d cff5 ecbb a20c 5a3d
00000080: d199 843d d379 593e be08 f0bb 4851 4dbc
00000090: 6c86 083e 5ad7 b7bb 792f 31be fb9d 993c
000000a0: db07 b3bd af47 a73d 7b7c 6b3d 91b8 493e
000000b0: d90b 173e 5cd7 2bbe 0fcf 00bd 3adc 903d
000000c0: a0e5 e9bd a7a0 483d 1c77 da3c 16a7 453b
000000d0: 348c a03d 70b7 fa3d fa84 833c c3c3 86ba
000000e0: c704 ef3d cb83 f9bd f6de 00be 03a8 15be
000000f0: d3d4 9e3d 3579 cfbd 28ba 563e 371d 58b8

msg_layers.1.W_msg.weight f4 [64, 64]
0.18964672 -0.002216391 0.13498677 0.08225487 0.09764566 0.049873717 0.027020263 -0.12994805
-0.0092896605 0.07964873 -0.0669789 -0.023424905 0.07533454 0.03958118 0.15616007 -0.014469143
0.05135546 0.052863933 -0.08402117 0.0397885 -0.026554475 0.08973237 0.016438972 -0.024232162
0.17530607 0.14672151 0.14282537 0.055261318 0.06926735 -0.010126311 0.21429345 -0.008552422
0.19044292 -0.020409288 0.055627696 0.17287728 0.022006476 0.061926 0.14860587 0.129072
-0.04839754 0.057696197 -0.059510775 0.0028936379 0.010775826 0.035866544 -0.056260336 -0.081251435
0.16633004 0.07029308 -0.03939379 -0.00076907594 0.007859718 0.004348768 0.24627994 -0.0026210386
0.0373464 0.03411128 0.0184125 0.13685317 0.013721158 0.13455617 0.058106683 0.0114988275
0.077291496 0.085167915 -0.16060439 -0.07938849 -0.11495257 0.10275813 0.16373764 0.046680808
-0.007591017 -0.047567584 -0.08682088 0.073284216 -0.28409946 0.092114165 -0.18114036 0.26830754
-0.022433205 0.08316321 -0.0661739 0.07864113 0.018858213 -0.041152805 -0.078203924 -0.19699049
0.043633394 0.0031954593 0.09815578 -0.04471843 0.09683755 -0.1651303 0.11023151 -0.09142657
0.027950576 0.027519552 0.17374393 0.09445618 0.11812382 -0.0014328713 -0.12773916 -0.055954892
-0.28114206 -0.1428462 -0.1764994 -0.009319832 0.20436102 0.135198 -0.13207495 -0.06537664
-0.05330005 0.055732634 0.046460755 0.12100083 -0.20600545 0.09738201 -0.12465302 0.029825563
-0.1659686 0.013658563 -0.03598101 -0.006156185 0.15981863 0.052107822 -0.16572832 -0.04372115
-0.02064365 0.07305786 0.030895716 -0.09621842 0.07187676 0.08228139 0.14924379 0.011871374
-0.061429426 -0.06705867 -0.10948237 0.17896013 -0.19622445 0.027970739 -0.009177587 0.0122412145
0.009255031 0.10249735 -0.06518821 -0.2077032 0.05814262 -0.13793895 0.033571437 -0.23013684
0.05531115 -0.100412324 0.106239885 -0.0074926945 -0.09203905 -0.17393807 0.17457643 0.017520413
0.015214224 0.10102471 0.18861319 0.17901176 0.0487016 0.07601704 -0.004664206 0.14722377
0.028732734 -0.08505259 -0.19421948 -0.11776433 -0.051540073 0.19864656 0.115800895 -0.2264117
0.001201037 -0.0025085697 -0.06911014 -0.036964074 0.031822167 0.045993563 0.023134824 0.05303295
-0.29913968 -0.007954771 0.04200517 -0.13414371 0.19716668 0.030902222 0.03829602 -0.081228375
0.12991083 0.009536099 0.09464258 -0.18533647 -0.085435994 -0.13438825 0.012009277 0.053164847
-0.25775963 0.12468212 0.007926842 0.046474807 -0.01434064 -0.15158345 0.041552108 -0.0523025
-0.027895296 -0.11831888 0.14437906 -0.15989693 0.30218512 0.012565121 -0.14116424 0.20000412
0.107107416 -0.094218165 -0.008285785 0.065569125 -0.010828334 -0.20712456 -0.075770676 -0.05324623
0.035346523 -0.043693557 -0.09635244 -0.16420063 0.115451135 -0.123947695 -0.15444538 -0.19259183
0.06579871 0.01874609 0.088579245 -0.29366744 -0.1620281 -0.18392347 -0.14172404 0.2078036
-0.1996759 -0.03477091 -0.025271034 -0.20998648 0.19952583 -0.2507337 0.0099948 0.11975565
0.15224527 0.04762003 -0.24014832 0.20928174 -0.1409203 -0.1920077 0.011665038 0.04016774
00000000: c032 423e df40 11bb f939 0a3e 3e75 a83d
00000010: 73fa c73d 6248 4c3d 9959 dd3c 1a11 05be
00000020: a933 18bc e01e a33d 3c2c 89bd 96e5 bfbc
00000030: ff48 9a3d e01f 223d 6de8 1f3e fc0f 6dbc
00000040: 1a5a 523d da87 583d 4b13 acbd 44f9 223d
00000050: c588 d9bc 9bc5 b73d 06ab 863c 8782 c6bc
00000060: 6f83 333e 2a3e 163e d040 123e b159 623d
00000070: 0adc 8d3d d4e8 25bc be6f 5b3e 751f 0cbc
00000080: 7803 433e 6131 a7bc ded9 633d be06 313e
00000090: ed46 b43c 1ea6 7d3d 232c 183e 732b 043e
000000a0: 803c 46bd d952 6c3d 92c1 73bd 30a3 3d3b
000000b0: 178d 303c cce8 123d 3d71 66bd 2767 a6bd
000000c0: 6c52 2a3e d1f5 8f3d 625b 21bd d09b 49ba
000000d0: 0cc6 003c 1c80 8e3b cf30 7c3e bbc5 2bbb
000000e0: 8af8 183d 45b8 0b3d d0d5 963c 3d23 0c3e
000000f0: b5ce 603c 18c9 093e 4601 6e3d 9465 3c3c
00000100: 014b 9e3d 846c ae3d 7a75 24be 6f96 a2bd
00000110: 416c ebbd db72 d23d d7aa 273e 6034 3f3d
00000120: 11be f8bb 3ad6 42bd 25cf b1bd 0916 963d
00000130: 7c75 91be 5aa6 bc3d dc7c 39be 9b5f 893e
00000140: d7c5 b7bc 7951 aa3d 2f86 87bd 9a0e a13d
00000150: 8a7c 9a3c d88f 28bd 6129 a0bd e0b7 49be
00000160: eeb8 323d e96a 513b e605 c93d ac2a 37bd
00000170: c452 c63d eb17 29be 0fc1 e13d db3d bbbd
00000180: 9bf8 e43c af70 e13c eee9 313e 3e72 c13d
00000190: e7ea f13d 2fcf bbba 0ece 02be f530 65bd
000001a0: daf1 8fbe 4646 12be 42bc 34be 35b2 18bc
000001b0: 0444 513e 5871 0a3e a83e 07be 30e4 85bd
000001c0: 2751 5abd e747 643d a24d 3e3d 48cf f73d
000001d0: 18f3 52be 3870 c73d 154a ffbd bd54 f43c
000001e0: acf3 29be 2ac8 5f3c d360 13bd d3b9 c9bb
000001f0: 7fa7 233e 036f 553d afb4 29be f314 33bd
00000200: df1c a9bc 5c9f 953d 0319 fd3c 2a0e c5bd
00000210: 1f34 933d 2583 a83d 5dd3 183e 2780 423c
00000220: 6c9d 7bbd 0e56 89bd 4b38 e0bd 5341 373e
00000230: 10ef 48be e422 e53c 975d 16bc 608f 483c
00000240: 6aa2 173c 21ea d13d 6581 85bd 26b0 54be
00000250: f526 6e3d de3f 0dbe 3482 093d fea8 6bbe
00000260: f28d 623d faa4 cdbd 4c94 d93d 4785 f5bb
00000270: f87e bcbd d21c 32be 2ac4 323e f886 8f3c
00000280: 1545 793c 0be6 ce3d d123 413e dc4e 373e
00000290: 547b 473d d2ae 9b3d 32d6 98bb d4c1 163e
000002a0: e960 eb3c 0d30 aebd 79e1 46be 6d2e f1bd
000002b0: af1b 53bd 016a 4b3e 0529 ed3d 78d8 67be
000002c0: 1d6c 9d3a d166 24bb 9e89 8dbd a467 17bd
000002d0: f657 023d bf63 3c3d 3e85 bd3c 1439 593d
000002e0: d628 99be ba54 02bc 9d0d 2c3d f85c 09be
000002f0: 10e6 493e a826 fd3c 4adc 1c3d 105b a6bd
00000300: 5807 053e 4c3d 1c3c f8d3 c13d d8c8 3dbe
00000310: 11f9 aebd 139d 09be 8fc2 443c 62c3 593d
00000320: 12f9 83be 5759 ff3d 96df 013c 5e5c 3e3d
00000330: 01f5 6abc b138 1bbe 8b32 2a3d 253b 56bd
00000340: ad84 e4bc 2b51 f2bd 1bd8 133e 05bc 23be
00000350: 02b8 9a3e f0dd 4d3c 5c8d 10be e1cd 4c3e
00000360: 225b db3d 74f5 c0bd 1ac1 07bc 1b49 863d
00000370: 5369 31bc 7618 54be a82d 9bbd b818 5abd
00000380: 84c7 103d 04f8 32bd 6e54 c5bd 3624 28be
00000390: a571 ec3d 4ad8 fdbd ee26 1ebe cb36 45be
000003a0: 79c1 863d 6691 993c 0969 b53d 945b 96be
000003b0: b2ea 25be 6f56 3cbe 1b20 11be 78ca 543e
000003c0: d777 4cbe f16b 0ebd 3305 cfbc b206 57be
000003d0: 8050 4c3e 2b60 80be 3bc1 233c 7342 f53d
000003e0: 2fe6 1b3e 380d 433d 71e9 75be f44d 563e
000003f0: 694d 10be ab9d 44be b71e 3f3c ee86 243d
