QuantLaxmi_Research/dtrn/results/checkpoints/fold4_BANKNIFTY/dtrn_stage1.pt (torch, 232927 bytes, 37 tensors)

embed.embed.0.weight f4 [32, 2]
00000000: ea63 81bf 6cb6 03bf 75f0 bbbe 1232 88be
00000010: 7728 0b3f a1d7 f7be 9646 453e 6277 40bf
00000020: 0c1d d93e 1901 3bbe 8269 bdbe 2679 d43e
00000030: 1327 073f 0d1a 493e 0856 633d dbc0 973e
00000040: 43ad debe 5d7a fd3e 7340 bb3d 7295 a73e
00000050: a9d0 6ebf 3516 1c3f 839d 803d 242f ab3e
00000060: 1486 8abf 0fcd 003f 72bd 133f 4ada 033c
00000070: ccc7 36bf 84d7 723e 9367 19bf e244 45bf
00000080: f415 d73e 2842 53be 060b 523e 816b 0b3f
00000090: 9a05 38bf d277 9fbd a0bd 933c 10d4 e33e
000000a0: 0693 41bd 1d83 9f3e e747 f3be 3f25 a8be
000000b0: 6324 053e a0c8 0a3e 924c 233f b9f0 bebe
000000c0: 2e0a b73d 8a5b 573d 881b 80bf 1ef6 cd3b
000000d0: 2c11 d33e 567a b33d cfbe 633e 12c5 f6be
000000e0: b9ea 01bf 9826 92bf a4f0 023e 0021 e1bc
000000f0: 06c9 a23e 51b8 93be 5b0c 3f3e 67f0 f1be
-1.0108616 -0.5145023 -0.36706892 -0.266007 0.5435862 -0.484067 0.19265208 -0.75182164
0.42404974 -0.18262137 -0.3699456 0.4149868 0.52794 0.19638844 0.055501968 0.29639325
-0.43491563 0.49507418 0.09143152 0.32731205 -0.9328714 0.60971385 0.06280043 0.33434403
-1.0822167 0.50312895 0.57710946 0.00804765 -0.71398616 0.23715025 -0.59923667 -0.7705823
0.42008936 -0.20630705 0.20512018 0.5446091 -0.7188355 -0.07786526 0.018034756 0.44497728
-0.047259353 0.3115472 -0.47515795 -0.32840917 0.13002162 0.13553095 0.6378871 -0.37293032
0.089374885 0.052577533 -1.0008402 0.006285443 0.4122404 0.08763568 0.22240756 -0.48197228
-0.50748783 -1.1418028 0.1278711 -0.027481556 0.31793994 -0.2885156 0.18657057 -0.47253725

embed.embed.0.bias f4 [32]
00000000: d636 213f 476f 633e bf3a 29be a8e3 fdbe
00000010: 9b84 29bf f0ed 473e 16f0 9fbe ea6f 61be
00000020: a834 0d3f 0490 fbbe 57dc 2abe 09dd 48be
00000030: 6820 11be 45c9 37bf 6ce5 b6be c12e 86be
00000040: b1e3 38bf 8fcd a7be 39f7 0a3e 214a 14bf
00000050: ee5f b1be 46af 71be 44e3 163f 5cd1 b2bd
00000060: ac27 943e 63ef 383e d44a aebe f1fa 02bf
00000070: 7990 afbe 2571 17bf eb11 9dbe d485 163e
0.629743 0.22210418 -0.16526316 -0.4958775 -0.66217965 0.1952436 -0.3123786 -0.22015348
0.5515847 -0.49133313 -0.16685615 -0.19615568 -0.14172518 -0.7179149 -0.3572191 -0.26207545
-0.7222243 -0.32774016 0.1357087 -0.5792561 -0.346435 -0.23602018 0.5894053 -0.087313384
0.28936517 0.18060069 -0.34041464 -0.51164156 -0.3428991 -0.5915702 -0.30677733 0.14699489

embed.embed.2.weight f4 [32, 32]
00000000: 7d09 11bd 40c6 c0bc ea7f 323c d2bc cf3c
00000010: 42e7 c53d cd76 38be fd09 8abd 1098 233c
00000020: 577f 22be 02eb 3ebd 988c f8bb 615b dfbb
00000030: 266f ef3d 46a4 8d3d 4a86 3fbe 0b94 c33d
00000040: 77a9 85bd fe53 ec3d eeaf 1a3e 21a8 0bbd
00000050: 28a2 0e3e 802a 79bc 95ad debd d1bf b3bd
00000060: 7412 093e 1f3a 903d fd7d f43d aa39 193e
00000070: 0158 1bbd f388 673e 7b4c 6b3e f90e 853e
00000080: 913f 27be 513c 14bd 0128 0c3e 7541 c93d
00000090: 4fe6 9dbd 8369 a5bd 211d da3d f35a bebd
000000a0: fc0a 16be bd31 093e 8507 e43d cafe c13c
000000b0: f31e 8d3d 86c2 453d 6e9e b0bd 2cac 433e
000000c0: 77df 423e 39f5 84bd f5a5 0bbd d28f 273e
000000d0: a9c5 a93d e395 8dbd c769 52be 449d 9a3d
000000e0: 9afe 99bc 2661 e33d 52a6 dc3d c777 5d3e
000000f0: 6d94 893b a6ae a83d afb5 453e 99ad f7bc
00000100: dd42 963e e285 af3d ccb7 e63d 77e4 d53d
00000110: 97d3 b7bd 55f0 c5bd 8f9a b5bd 7ffb b33b
00000120: 4a3e 513e eef0 d43d 527e 3a3e d7ff 903d
00000130: 4497 0d3e d852 253d a7f7 233e 1287 81bd
00000140: 0f62 6bbd fa7a a63d bf38 2e3e 20f6 253c
00000150: b861 913b eb49 2a3e 077e 073e e795 123d
00000160: 728f 80bd 0d46 ee3d 1cb6 873c d450 87bd
00000170: 6ae1 d83d 23f2 0fbe 636d 1a3c 4212 44bd
00000180: cdd2 a53d 80f2 533e 99bb c9bd 0e18 30be
00000190: 0bfe 03bc 61da 033c 17a4 143e ad33 adbc
000001a0: 3a32 d13d de51 97bd 7f36 673e 5929 813c
000001b0: a1ae 973e d406 613d 1edd 903e 5bd0 94bd
000001c0: d232 c93d e0e3 9fbd 1605 9e3b 2f8d e43c
000001d0: 6469 963c 4494 233e a195 1ebe 7593 2f3e
000001e0: 5198 95bd b3f5 9e3e fb4a 6dbd 6894 01be
000001f0: 9e96 1f3e dab6 c1bd 9805 213e 14a6 a7bd
00000200: f838 9dbe 7bbc a2bc 61e2 3a3c 1503 81bd
00000210: ec7a 633d fc25 1b3d fe1a f63c 3749 cbbd
00000220: 0e32 b3b9 7cf2 a03d 05dd 83bd eafd bf3d
00000230: a72f 09be 3d27 fd3d 73f0 eabc 522e 523e
00000240: 8d30 62bd 6202 23be 6a39 49be f9b2 853d
00000250: e19e 2d3d 0024 463d 8f23 23be af53 cc3c
00000260: 20cb 26bd 5a94 96be 6ef4 0bbe 178a 313e
00000270: ad3c 463e cf72 fb3d 31da f63d 1ec6 babd
00000280: 502e ee3d b5b7 c53b 0d55 1ebd ec61 ecbd
00000290: d035 873d 1beb bebc 6609 1c3d 27b2 953d
000002a0: cbd3 32bd 7c4c 93bd d887 9ebd 996a c53d
000002b0: 24d0 05be e904 d73c f50b 32be 5215 9c3d
000002c0: 7768 b83b d225 07bd 0d24 e5bd 1370 f6bb
000002d0: 358c fcbc ae79 463c d854 f5bc 10b1 11be
000002e0: 3f72 32be 4157 55be c39f b93c 13cb 003e
000002f0: a960 c33d ca32 c3bd 38ad 30be 959e 1ebe
00000300: e2ec 0fbe a31f 15be 7437 abbd ab3d 05bd
00000310: fd29 66bd c6e6 0cbd 14df 2cbe 0196 33bd
00000320: 4755 e9bc 165b 87bd 7a6e 7abe 76c7 b1bc
00000330: 3bf8 6abe 576f a2bd e4c2 5bbe 1934 cfbc
00000340: 19b7 3abd 1bd6 6c3c 02c0 cfbc 93cd 713d
00000350: 0e1e c23d d611 dbbd 6730 0f3e 9057 303e
00000360: 17ad 19be 544a a2be cde2 ffbd 4fc1 a7bd
00000370: fc96 553d d071 0ebd a199 103e e5c1 8dbc
00000380: 0a7a 813e d50e 713d 77c3 093e 3751 a7bd
00000390: eef3 0e3e e14a 493c 0d72 80bc b3f1 2dbe
000003a0: d5f8 963d 3d3f 00be e623 50bd 84ee 153e
000003b0: 9ef6 a03e 4fe4 763d 0b0e a63e 588e b4bd
000003c0: 10e5 213e 6c12 72bd 7f56 933e 2070 3b3e
000003d0: 24a8 e63d 27a0 ec3c 13b4 fa3d b0a0 413d
000003e0: fa1a 2abc 0e44 213e 26c3 b13c 7381 953d
000003f0: 010b 0cbe 6bf9 9fbd 809a aabd 9b61 9fbd
-0.03540944 -0.023532033 0.010894755 0.025358591 0.096632496 -0.18014069 -0.06740186 0.009984985
-0.15868889 -0.04661084 -0.0075851195 -0.006816313 0.11691122 0.06916098 -0.18703571 0.09549721
-0.065264635 0.11539458 0.15106174 -0.034095887 0.13929045 -0.015207887 -0.10872952 -0.087768205
0.13385946 0.07042336 0.11938093 0.14963403 -0.037925724 0.22610836 0.22978394 0.25987986
-0.16332842 -0.036190335 0.13687135 0.09826938 -0.077099435 -0.080767654 0.10650087 -0.09294691
-0.14652628 0.1339788 0.11134247 0.023681063 0.06890669 0.048281215 -0.08623968 0.19108647
0.19030558 -0.06492085 -0.034093816 0.16363457 0.08289654 -0.06913354 -0.20548163 0.07549527
-0.018798161 0.11102514 0.107739106 0.21627723 0.004198602 0.082364365 0.19307588 -0.030234145
0.29347888 0.08570458 0.11265525 0.10443967 -0.089759044 -0.0966498 -0.0886737 0.005492627
0.20433918 0.10397516 0.1821225 0.070800476 0.13827235 0.04036221 0.1601244 -0.06324591
-0.057466563 0.08128925 0.17013834 0.010129482 0.004436698 0.1662976 0.1323167 0.03578749
-0.0627736 0.11634455 0.016566329 -0.066072136 0.10589869 -0.14057212 0.009425494 -0.047868975
0.08096848 0.20697975 -0.098502345 -0.17196676 -0.008056174 0.008047671 0.1451572 -0.021142805
0.10214658 -0.07388662 0.22579382 0.015766786 0.2962542 0.054938152 0.282937 -0.07266303
0.09824146 -0.078071356 0.0048223836 0.027899353 0.018360801 0.15974528 -0.15486766 0.17146094
-0.07304443 0.3104683 -0.057932835 -0.12654269 0.155848 -0.09458704 0.1572479 -0.08185974
-0.30707526 -0.019865265 0.011406512 -0.06299416 0.05553715 0.03787802 0.030042168 -0.09926074
-0.00034178834 0.0785875 -0.064386405 0.09374602 -0.13397084 0.12361 -0.028679108 0.20525482
-0.055222083 -0.15918878 -0.19650808 0.06528277 0.042387847 0.048374176 -0.15931533 0.024942247
-0.04072106 -0.29410058 -0.13667461 0.17337833 0.19359083 0.122777574 0.120533355 -0.09119819
0.11629927 0.0060338625 -0.03865533 -0.115421146 0.06602061 -0.023305466 0.0380949 0.073093705
-0.043659013 -0.071923226 -0.07740754 0.096394725 -0.1306768 0.026247459 -0.17387374 0.07621254
0.0056276876 -0.032995053 -0.11188517 -0.0075206845 -0.030828575 0.012113972 -0.029947683 -0.142277
-0.17426394 -0.20834066 0.022659188 0.12577467 0.09539921 -0.095311716 -0.17253578 -0.15490182
-0.14055207 -0.1456285 -0.08360186 -0.032529514 -0.056192387 -0.03439977 -0.16881973 -0.043844227
-0.028483046 -0.0660917 -0.24456206 -0.021701556 -0.22946255 -0.07931393 -0.21461064 -0.025293397
-0.04558477 0.014455344 -0.025360111 0.05903394 0.09478389 -0.10696761 0.13983308 0.17220902
-0.15007435 -0.31697333 -0.12494431 -0.081911676 0.052145943 -0.03477651 0.14121105 -0.01730437
0.2528842 0.058852036 0.1345347 -0.081697874 0.1396024 0.012285919 -0.015679384 -0.16986732
0.0737168 -0.12524123 -0.050815485 0.14641768 0.31438154 0.060276326 0.3243259 -0.088162124
0.15810037 -0.0590996 0.2877693 0.18304491 0.11262539 0.02888496 0.12241378 0.047272384
-0.010382408 0.15748617 0.0216995 0.07300081 -0.13676073 -0.078112446 -0.0833025 -0.07782289

embed.embed.2.bias f4 [32]
00000000: 5a0d 26be 224e 1fbe 859a 2abc 25ca 403d
00000010: e1b1 1dbe 8314 173e bd06 f8bd d72f fd3d
00000020: 8628 163d b721 983d b287 ee3c a661 21be
00000030: 201b 14be 693d b5bd da10 26bd 0cd6 c4bd
00000040: 3fab 3e3d ebf1 553e 3b56 b03d 80c4 ba3d
00000050: 4e4b d1bd ad52 a9bc b8e4 55bd ebc2 263e
00000060: 955c 543e 9b58 df3b 6b51 953d 810d 243e
00000070: f55c 1a3e 2985 bcbc 4fdf fa3c 854a 063e
-0.1621603 -0.15557149 -0.010412817 0.04706778 -0.15399887 0.14753918 -0.1211066 0.1236264
0.03665974 0.074283056 0.029117439 -0.15759906 -0.14463472 -0.08849604 -0.040543415 -0.09611139
0.04655003 0.20893066 0.08610197 0.09119511 -0.10219441 -0.020669306 -0.052220076 0.16285293
0.20738442 0.0068159825 0.0729092 0.16020776 0.15074523 -0.023012714 0.03062406 0.13114364

input_proj.weight f4 [64, 32]
00000000: eb90 0b3d a776 04be 08df 0c3e cd44 053e
00000010: ec67 903c 71cf b0bd a9af cc3d 69a8 cb3d
00000020: 4bfb a43d c99c cfbd 79b7 9cbc b738 1dbe
00000030: e29b ce3b e1e2 81bd 1af3 c4bd c6bb e43d
00000040: 1d6b eebc 2467 a3bc eefd b53b 9afc 98bd
00000050: 5185 433e 5627 11be 8e19 acbd 1efb 043e
00000060: 82bd c63d f667 953c b5d8 7fbc f3c8 ab3d
00000070: a7ff 283d 6af3 18bb 79a7 433e df1b d33d
00000080: ffac ae3d 99ff 903d 3358 32be 0803 81bd
00000090: 1525 9b3d c737 a03d 50a5 14be 428d 043e
000000a0: efdf 29bd b18e d5bd 17d9 41bc 7963 b93d
000000b0: befd 553e 933c 0a3e 8e33 c23c b1be 7abd
000000c0: ec19 563e afa0 8fbd 38aa d23d 0b52 263e
000000d0: 942f 2fbe 8368 02be 56e5 49be 9116 bc3c
000000e0: 0547 a23b 1de2 d2bd 5046 7a3d 1465 0ebd
000000f0: 9dbb c93d cb20 edbd 29b1 0cbd e507 12be
00000100: 2328 30be 31f3 913c edcb 8cbb e5bb a03d
00000110: 0b7a 523d b999 bd3d 3670 773b 923f 913c
00000120: 1300 34be cf97 41be d276 92bb 2b26 01be
00000130: 27d0 b3bc d0c5 32bd 69a9 893d 38ec c73d
00000140: ab08 56bd ae84 9dbc 1190 8dbd 2e30 663e
00000150: 2ca2 06bd 34b8 dfbd c5b2 51be feae 953d
00000160: abf1 0ebc c229 f7bc 49a4 b6bc 2ff5 643e
00000170: bb1d d63d fea0 813c d020 3bbe 797a 99bd
00000180: fc27 8e3d b5ec ce3d 48b9 3e3e 8eeb 80bc
00000190: 609e 5a3d f51a 5ebe 47ee 02be 0417 16bd
000001a0: 0cac 07be ae26 eabd 4d3a d13c 6727 273e
000001b0: efdb 3d3e 309d 953e ab9e 30bd a54a cabd
000001c0: d214 0e3e 2bf7 cdbd c1f8 103e 018c a63d
000001d0: a665 9abb 86e0 bdbd da87 80be 5778 b9bd
000001e0: 660b 63be 0538 053e b6fe 45bd ff3c ba3d
000001f0: f107 07be a38d ffbb e21f fdbd 4593 ffbd
00000200: ad39 94bd bf52 dabd 3a79 bdbd 3bfe ab3d
00000210: 15ee 203e 6f36 973d aea6 1cbe 359a 933c
00000220: bb66 cabd 33f5 9bbc 4b67 143e 675c 0ebe
00000230: cec8 083c ddca cfbd 6119 a8bd c1a9 51be
00000240: f0c2 7d3d 1cc8 123d 5f0f 073e a5c3 e2bd
00000250: ba63 bb3d ce6b 813d a76c 3c3e 3e59 633e
00000260: 386b 173e 5dbd 00bd 0d20 bb3d 9381 dcbd
00000270: a0e0 483c db2b 8fbd 25c2 873e e6cb 4e3e
00000280: 45b6 d93d a09d 20be 4ac1 f1bd 4a67 88bd
00000290: 8f13 f7bd c319 963d 28d0 2b3d e42e 0c3d
000002a0: 64e5 113d b39f d83d a7a9 7c3c 5ae2 f0bd
000002b0: 1926 ee3d 1c7f 0fbd c473 d3bd d9de 81bc
000002c0: 57dd afbb f5a1 69bd 1720 ccbc 9bb1 983d
000002d0: fc83 39be c7af 26be 723a df3d d9f5 22bd
000002e0: 01d9 bb3c 47e9 aa3d 8204 b73c f7c2 f43c
000002f0: ca5c 00be 1ddc b53c 7884 ebbd a8c9 663d
00000300: 6b98 ccbc 6fd6 e1bd 8220 b03d 64f8 d93d
00000310: 06c1 b2bd 424b adbd 2b2e 3dbe 4bab b73d
00000320: 9dcf a23d e28a 75bd f6b7 943c d0d8 f43d
00000330: f155 5bbc 9487 dcbc dd6f e0bc 3f5f 9a3b
00000340: 9cd7 0bbe 48fb 333e cc6c 893d 1561 6d3c
00000350: 389a 91be 77e7 d33d 57f9 b93d edcd 2c3e
00000360: 4a68 ee3d 6817 02bc 4ce9 ed3d 8485 693e
00000370: 53a7 0d3e b432 51be cdb0 0c3e 9422 76bd
00000380: 3b6a 063c 051c 113d d72a 8b3e 460c cd3c
00000390: c658 8fbe a1cb 3bbd 7f60 66bd 8c1e ff3d
000003a0: ed29 efbd 6245 943d a343 3c3e e275 de3d
000003b0: ed6e f33d 05ae 8f3e 1f86 a8bc eb89 833d
000003c0: 186f 273e 4ca9 cc3d 694b 3a3d d503 213e
000003d0: 90ad 77be 47b9 29bd 7e94 22be f698 913d
000003e0: 321b c13c e3f6 833b 3ad6 883d 60fc 833e
000003f0: 5701 81bc c998 81be da25 30be c207 c03c
0.03407375 -0.12935887 0.13756955 0.13014527 0.017627679 -0.08633316 0.09994442 0.09944231
0.08055743 -0.10137326 -0.019130455 -0.15353666 0.006305204 -0.06342102 -0.096166804 0.111686274
-0.02910381 -0.019946642 0.0055539524 -0.07470055 0.19093825 -0.14175162 -0.08403312 0.12986419
0.097041145 0.018238049 -0.015615632 0.083879374 0.041259434 -0.0023338445 0.19106854 0.1030805
0.0852909 0.070800014 -0.17416458 -0.06299406 0.07575432 0.07823139 -0.14516187 0.1294451
-0.041473325 -0.10427607 -0.011831543 0.09052176 0.20897576 0.1349967 0.023706224 -0.061217014
0.20908326 -0.0701307 0.10286373 0.16242234 -0.17107993 -0.1273518 -0.19716391 0.02295998
0.004952314 -0.10297034 0.06110221 -0.034764364 0.098502375 -0.115785204 -0.03434864 -0.14260824
-0.17202811 0.017816158 -0.004296771 0.07848338 0.05138592 0.09257836 0.0037756092 0.017730508
-0.17578153 -0.18905567 -0.004469731 -0.12612216 -0.02194984 -0.04364568 0.067217655 0.09761852
-0.05225436 -0.019228306 -0.06912244 0.22479317 -0.032869503 -0.10923806 -0.20478351 0.07308768
-0.00872461 -0.030171279 -0.022295134 0.22359155 0.104548894 0.015823837 -0.18274236 -0.07494063
0.0694122 0.10103742 0.18625367 -0.015737321 0.053373694 -0.21689971 -0.12786208 -0.036643043
-0.13249224 -0.11433159 0.025540495 0.16323625 0.1854093 0.29221487 -0.043120068 -0.098775186
0.1387513 -0.10056909 0.14157392 0.081321724 -0.0047118245 -0.0927134 -0.25103647 -0.09056156
-0.22172317 0.13009651 -0.048338614 0.09093665 -0.13186623 -0.007798867 -0.12359597 -0.12479261
-0.07237563 -0.10660314 -0.09251638 0.083981 0.15715821 0.07383429 -0.15297958 0.018017868
-0.098828755 -0.019037819 0.14492528 -0.13902436 0.008348657 -0.10146115 -0.08207966 -0.20474912
0.061953485 0.03583537 0.13189457 -0.110724725 0.09149881 0.0631939 0.18400823 0.22202012
0.14786994 -0.03143059 0.091369726 -0.10766902 0.012260586 -0.06990787 0.26515308 0.20194969
0.10630468 -0.15685129 -0.11804445 -0.06660326 -0.120642774 0.073291324 0.04194656 0.034224406
0.035619155 0.10577335 0.015421308 -0.11761923 0.1162836 -0.03503333 -0.10324815 -0.015853332
-0.005366962 -0.05703922 -0.024917645 0.074557506 -0.18116754 -0.16277991 0.108998194 -0.03978524
0.022930624 0.08345275 0.022341017 0.029878123 -0.12535396 0.022199685 -0.11499876 0.056344658
-0.024975022 -0.11027228 0.085999504 0.1064308 -0.087282225 -0.0846162 -0.18474643 0.089682184
0.07949755 -0.059946902 0.018154126 0.11955416 -0.013387189 -0.026920117 -0.02739709 0.0047110613
-0.13656467 0.17576325 0.067102045 0.014488478 -0.28437972 0.10346883 0.09080761 0.1687543
0.11640985 -0.007940151 0.116167635 0.22804838 0.1383336 -0.20429498 0.13739319 -0.06009157
0.008204038 0.035427112 0.27181122 0.025030266 -0.27997416 -0.045848493 -0.05624437 0.12456998
-0.116779186 0.07239796 0.18385176 0.10862328 0.11886392 0.28062454 -0.020571766 0.0642279
0.16350973 0.09993228 0.045482073 0.15724118 -0.24187303 -0.04143646 -0.15876958 0.07109253
0.023572538 0.004027234 0.066814855 0.25778484 -0.01574771 -0.25311878 -0.17201939 0.0234412

input_proj.bias f4 [64]
00000000: a18c c3bc d182 9a3d bccd 6a3e 112f febc
00000010: f520 583e 642c 8b3d b7a0 333e b5af 883e
00000020: 8e57 18be b580 fd3b a616 41be 4dd5 e93d
00000030: f211 37be 61aa 33be ef94 463e 0a34 bcbd
00000040: a29a 5dbd 0a48 d83c bb2e 65bd 572d 003e
00000050: 6d0c 83bd ece5 933d 989b ddbd d921 143e
00000060: f325 8c3d 34c4 2cbd 9538 083d d233 04be
00000070: 3650 f6bc eb0e 51be 58ee 4b3d a2da 83bd
00000080: 8ffe f3bd 1c34 813c f173 133e 0af3 043e
00000090: 447b 5f3e 2dac c7bc 434a 39be 49c8 1abe
000000a0: 2d2f bfbd 228c 633e db6c cdbd 001e a5bd
000000b0: a8d4 ca3c 2ffe 1d3d ce8b ba3b f960 25be
000000c0: acbc 883b 7623 083e 15d2 99bd 465c d2bc
000000d0: a96f 3c3e 76c3 cf3c 1bcd c23d c1ec 8b3d
000000e0: edae 25be daa8 e13b 2b00 f6bd c9ef 383d
000000f0: 98bd d93d e877 50be 051c 0dbe 5885 d23c
-0.023870768 0.075444825 0.22930044 -0.031028302 0.21106322 0.06795576 0.17541777 0.26696554
-0.1487715 0.0077362903 -0.18856296 0.11417637 -0.1787794 -0.17545463 0.19392751 -0.09189613
-0.054102547 0.026401538 -0.05595277 0.12517296 -0.063988544 0.072215885 -0.10820693 0.14466037
0.06843176 -0.0421793 0.033257086 -0.12910393 -0.030067544 -0.20415847 0.04978785 -0.06438185
-0.119137876 0.015771918 0.14399697 0.12983337 0.21824366 -0.024374092 -0.18094735 -0.15115465
-0.0933517 0.22221425 -0.10030528 -0.08062363 0.024759606 0.038572486 0.0056929355 -0.16150273
0.004172882 0.13294777 -0.07510773 -0.025678765 0.1840197 0.025361758 0.09511777 0.068322666
-0.1618001 0.0068865838 -0.12011751 0.045150552 0.10631865 -0.2035824 -0.1378022 0.025698349

msg_layers.0.W_self.weight f4 [64, 64]
00000000: a4c8 013c 7f6d 993d bb21 133e d2ab 00bd
00000010: 9ac5 2ebd 3d9f b2bd 0a2f 213e 0a9a fe3d
00000020: a575 a03b 2332 14be 7ead f13c 8532 7c3c
00000030: cc85 bbbd bc3b b0bd ea18 e23b 5198 843d
00000040: d5f4 f5bc 3016 e93c a827 48be 0722 393e
00000050: 6f9a ba3d 22c1 1b3e 3653 efbd 1525 ff3d
00000060: 4ff3 6e3d 2ed9 3c3d 36f6 d9bc 1c3b 10be
00000070: 5c4d 5ebd bb3a 34bc 98c4 2a3e bc8a 51be
00000080: 687f 53bd 9f49 16be a643 01bb 671c d93c
00000090: 1866 d5bc 858a 25be b20f 1ebb 6fc7 fdbd
000000a0: 9ec3 7b3c 7e80 c8bb 0212 4ebe fd4a febd
000000b0: c366 253c afea 19bd 39d4 bbbd 81d2 0ebe
000000c0: 02bb 1cbd 04a9 623e 2bd2 abbc 8e67 b1bd
000000d0: 7615 cb39 b9ea 0c3d fd24 b03c e8f9 29bd
000000e0: 9544 94bd 4531 69bd 05bd 293d 912a 293c
000000f0: 30d0 183d 11e7 a53c 9dac 95bd 23c5 e4bc
00000100: 8a86 f23d ae04 d3bd 2828 243d b7fe eb3d
00000110: cfc6 abbd fe23 aabd 3bd8 80bc c5b5 89bc
00000120: eadb 22be 2f30 74bd 5ec6 c7bd b4d1 bb3d
00000130: 0b60 9d3d a28d 09be 3d9a bb3c 821c 1f3d
00000140: 27d7 003d db8b 4f3d 4089 17be 8775 cc3d
00000150: f080 8e3d c53f 1b3d 3a04 87bd c002 363e
00000160: 41cf e63c 8bd5 fbbc 30d1 e43d 12c7 ba3c
00000170: 0ef5 3fbd d851 4b3d 8572 383e c22a 9ebd
00000180: 4b26 fb3d cb1a e2bd 7b59 e13d 7b6b d23d
00000190: 935f 7b3c 0b65 55be a371 c7bd 3175 51bd
000001a0: 54b2 923d 7110 aa3d 4d70 43bd d77d 5e3d
000001b0: a8c9 8b3d 89fa 02bc 329a 77be 0266 e23d
000001c0: d517 c3bd 76e1 003e e76d c9bd 1f06 42bd
000001d0: 2c05 043e f501 853d caa6 c23d 397a b43c
000001e0: 92cd 4d3d 5347 e13d 8180 d4bd 90dc ae3d
000001f0: cb8c 1e3d 44b9 cfbd 6dbf 0bbe 75ce 313d
00000200: 6382 ae3d e6d8 533e 72ec 8c3d 0507 183e
00000210: 3fb4 1fbd 535b d9bc 7156 ce3c f534 a73d
00000220: 2007 013e 0640 33be 311b 0a3c 8def 0d3e
00000230: cde7 c63d 3833 933c 33a6 3f3c 883a 40bd
00000240: 3891 0b3c bd87 19bd d22e f9bc 6928 783c
00000250: d3df 09bd 970d 0a3d d65c cebd 6faa 123e
00000260: b818 f03c 9554 553c b4c5 24bd 382e d6bd
00000270: b4de 1c3e fc21 e63c 517f e53d b7be 613d
00000280: ba99 133e 0dae 2cbe 691a 69bd ae48 b03d
00000290: be50 25bd d650 d7bc a0e1 313d d9b9 e1bc
000002a0: 409f 80bd d7da ec3d fc2b aebd 5a3f a03d
000002b0: d91f a0bd 6150 40bb 5dc9 493d 9f7a 9f3d
000002c0: 1a61 4fbe 3cc6 003e b824 97bd 6df8 58be
000002d0: d899 ee3d 86d6 07bb e23a e23d 1c14 093e
000002e0: 0e4a e0bc ffb0 20be 6f72 06be 6bd9 22bc
000002f0: 905b 27bd e777 63be 8765 89bc 67dd 383d
00000300: 852f 0f39 a134 c8bd 40f0 ebbd 99ab 1f3d
00000310: 1572 cbbd d76c b7bd 13c7 1cbe d52c 35bb
00000320: c5d2 8e3d 7895 7f3d 1f71 183e 4b44 b33d
00000330: 673d 003e e761 ac3d 4a13 973d 7957 9b3d
00000340: 0180 cd3d d9d5 77bd 343d a43d 6209 173e
00000350: 6505 5e3d 4bda 57bc 5d69 e7bc 1c10 bebd
00000360: 7070 93bd 00f2 4dbd f4e8 13bd fa62 ed3d
00000370: ba3d ea3d 8ea9 113e 52c4 453d ab8b c1bc
00000380: 317f 43bc 8e95 36bd d84b 8c3d 3a73 27bd
00000390: c230 4f3d 6aed 13bd 64f9 5abd 5895 063d
000003a0: 326f 5ebe 3054 07bd ec2b a9bd 6541 203d
000003b0: 1469 42bd 735d 3ebd dbdf b3bc 57cd 5cbd
000003c0: f15a 043e 8058 573d 820f 0d3e 6b21 343d
000003d0: 5911 843d 98d6 7abd 47e9 adbd 7ae7 973d
000003e0: daf2 43bd dde0 873d 48c5 f33d 0e43 2dbe
000003f0: 78f4 a53b 08c6 723c 479c 49bd 1b70 c1bd
0.007921372 0.07491588 0.14368336 -0.03141386 -0.042668916 -0.087217785 0.157406 0.12431724
0.004896837 -0.1447225 0.029501673 0.015392904 -0.09156379 -0.086051434 0.0068999426 0.064743645
-0.030023972 0.028452963 -0.19546378 0.18079387 0.09111487 0.15210393 -0.11685793 0.12458245
0.058337506 0.046105556 -0.02660666 -0.14085048 -0.054272994 -0.011000331 0.16676557 -0.20463079
-0.051635176 -0.14676522 -0.001972416 0.026502801 -0.026049659 -0.16166122 -0.0024118242 -0.123915546
0.015366463 -0.006118833 -0.20124057 -0.12416647 0.010095301 -0.037577327 -0.09171338 -0.13947488
-0.038264282 0.22134787 -0.02097424 -0.086623296 0.00038735167 0.034403536 0.021502012 -0.041498095
-0.072396435 -0.056931753 0.04144003 0.01032509 0.037307918 0.020251783 -0.07308314 -0.027926033
0.118420675 -0.10303627 0.04007736 0.115231924 -0.08387529 -0.08307646 -0.015728107 -0.016810307
-0.15904203 -0.059616264 -0.097546324 0.09170857 0.07684334 -0.13432935 0.022900695 0.038845547
0.031455185 0.050670486 -0.1479845 0.09983354 0.069581866 0.037902612 -0.06592603 0.17774487
0.028174998 -0.030741474 0.11172712 0.022800002 -0.04686456 0.0496386 0.18012436 -0.07722999
0.12263163 -0.110402666 0.11003395 0.102744065 0.015342611 -0.20839326 -0.09738471 -0.051137153
0.0716292 0.08303917 -0.04771452 0.05431923 0.06825572 -0.007994303 -0.24179915 0.11054613
-0.0952603 0.12586007 -0.09835415 -0.04736912 0.12892598 0.06494514 0.09504469 0.022030937
0.050244875 0.10999932 -0.10376073 0.08538163 0.03870849 -0.101427585 -0.13647242 0.043409783
0.08520963 0.20688209 0.06881036 0.14846428 -0.038990255 -0.026532805 0.025187703 0.081643976
0.12600374 -0.17504892 0.0084293345 0.13860913 0.09712181 0.017968759 0.01169734 -0.04693082
0.00851851 -0.037482966 -0.030417833 0.015146353 -0.03366072 0.033704367 -0.10076301 0.14322828
0.029308662 0.013020654 -0.040227607 -0.10458034 0.1531933 0.028092377 0.11205924 0.05511352
0.14414111 -0.1686327 -0.056909952 0.086076126 -0.040360205 -0.026283663 0.043428063 -0.02755444
-0.062803745 0.11565178 -0.08504483 0.07824583 -0.078185745 -0.0029344785 0.0492643 0.0778706
-0.20251885 0.1257562 -0.073800504 -0.21188517 0.11650437 -0.0020727231 0.11046387 0.13386577
-0.027379062 -0.15692519 -0.1312959 -0.009939532 -0.040858805 -0.22213708 -0.016772045 0.04513302
0.00013655245 -0.09775663 -0.115204334 0.038982008 -0.09933869 -0.089563064 -0.15310316 -0.002764513
0.06973795 0.062398404 0.14886902 0.0875326 0.12523423 0.08417111 0.07376726 0.075850435
0.100341804 -0.060506675 0.08019486 0.14749673 0.054204363 -0.013174604 -0.028248483 -0.09280416
-0.0719918 -0.050279617 -0.036110833 0.11591144 0.11437555 0.14224836 0.04828293 -0.02362617
-0.01193218 -0.04457622 0.068504035 -0.040881373 0.05058361 -0.036115088 -0.053460494 0.03285727
-0.21722105 -0.03303927 -0.082603306 0.039124865 -0.04746349 -0.04647584 -0.021957329 -0.053906765
0.12925316 0.052574635 0.13775447 0.043977182 0.06448621 -0.06123981 -0.0849176 0.074171975
-0.047839023 0.06634686 0.11902863 -0.1692011 0.0050645433 0.014817722 -0.049221303 -0.094452105

msg_layers.0.W_self.bias f4 [64]
00000000: 6fd0 073e c21e 843d 20d4 f1bb 85b1 0fbe
00000010: a299 c43c b202 5f3e 601a 303e 3be6 26bd
00000020: 7ed0 53bd 8da9 8c3c 0a6d f4bd 71a4 0e3e
00000030: dc69 bebd 62b8 e33d dc33 f7bd d058 ce3d
00000040: 6100 ed3c 6458 3abd e3fe afbd f9f0 1f3e
00000050: 8536 95bc aa44 adbd 8fc6 043d c12f 32be
00000060: 4513 95bd 7fb3 87bd 6f0e 0e3c a5df dbbd
00000070: 2676 08bc 8d3a 4f3d 5251 313e 76b4 ccbd
00000080: d2cb 25bd 4df8 f33c 4dbb 393e 590a 3bbd
00000090: 5c23 7e3e df4c f1bd 6a23 873b 32dd 39bd
000000a0: 7a17 94bc 459b 0b3d 00c3 ebbd 51e5 34be
000000b0: 50ad a03d ce07 fa3d b714 2dbe b89e 8fbc
000000c0: f84b 7abd 0b47 543e dd85 b5bd e5ac 253c
000000d0: 1bb4 6c3d 8d31 b1bd 590d a43c 4de9 c33d
000000e0: 0bf1 e7bc 21e3 9b3d 5294 95bc 60e7 62bc
000000f0: 91b9 8d3d 7235 86bd a87e cfba 6624 18be
0.13263105 0.06451179 -0.0073800236 -0.14032562 0.02399904 0.21778372 0.17197561 -0.04074691
-0.051712506 0.017170692 -0.1193486 0.13929917 -0.09297535 0.111191526 -0.12070438 0.100755334
0.028930845 -0.045494452 -0.08593538 0.15619268 -0.018214474 -0.08460362 0.032415923 -0.17401029
-0.07279066 -0.06626033 0.008670433 -0.10736016 -0.00832895 0.050592948 0.17316177 -0.09995358
-0.04047758 0.029781485 0.18137856 -0.045664165 0.24818176 -0.1178224 0.0041240947 -0.045376964
-0.0180776 0.034083623 -0.11511803 -0.17665602 0.07845557 0.1220852 -0.16902433 -0.017531738
-0.061107606 0.20730226 -0.08863423 0.010112022 0.05778895 -0.08652029 0.020025896 0.09565983
-0.02831318 0.07611681 -0.018259201 -0.013849109 0.069201596 -0.06553163 -0.0015830593 -0.14857635

msg_layers.0.W_msg.weight f4 [64, 64]
00000000: fb26 f43d 611f 32be 08a4 a0bd de7a 0abe
00000010: 7b0e 893d 54c9 1e3d 5908 a43d d715 5cbb
00000020: 02fd e23c 06b5 903c db39 b73a 7f79 abbd
00000030: c284 02be 5803 6dbd afa4 43bd 9cba e83d
00000040: 202b 033d 13bc 2a3e 9651 2b3e 2fa9 17be
00000050: eca4 073e c996 0fbe 55e4 823d 3412 053b
00000060: 069d 993c a505 f6bd ee02 313d b082 a0bd
00000070: b76a 0ebe 6081 20be d558 babd b15f 933d
00000080: fed3 8dbe 049e 5e3c 5042 c0bb 36ff 153e
00000090: 7e8d f53d bde3 66be 370a afbc 2cef 6c3e
000000a0: bee7 6c3e 7a8b d3bd 7f6a 0cbd efda 4ebe
000000b0: c049 623d b005 223c 56b6 993b 5ec0 83bd
000000c0: efa5 643d 64d3 26be 9c25 d83d 491a 973e
000000d0: de55 bb3a 1d29 7bbc 0bbd a53d f122 adbd
000000e0: 9756 233d d94e 7a3e f3b8 983d c87c 373e
000000f0: 3e41 c63d 40f4 d63b b86e 8b3d 6333 c6bb
00000100: 61b0 b33d 2c99 253c 86db efbd ddb4 b3bd
00000110: 575e 613d b277 53bd 142c dabd 4ef8 93bd
00000120: 474a a9bd 49b9 ebbc fab1 31bd cd4c 72bd
00000130: a86b d8bc ce0a 2a3d ca10 ba3c 0e94 a1bd
00000140: 9cb4 1f3e a1d7 69bc 71ea c8bc 99e3 75bd
00000150: 0f5e 473d 5622 babc 2566 d73d c0bc 60bd
00000160: 9b8b 7e3d 732c c53d 5dfc 07bd 8540 dcbd
00000170: 3dc5 14be 05c3 da3d cd93 aebd 49d1 193c
00000180: e751 5e3d cf8b 3cbd 8cad 9fbc 7f64 b43d
00000190: 25da 133d e3fc b3bd c07a cebd d083 d63d
000001a0: 0fc3 2d3e 0783 eebd 8e6c 073e 2d26 9fbd
000001b0: a636 dd3d fc04 07bd de98 47bc facb 103e
000001c0: 5f33 a93d e094 0d3d 64c0 06bd 142c cbbd
000001d0: 2bb7 2a3d 1982 a63d d79d 73bd cc72 eabd
000001e0: 8128 7c3d 6245 173e e7f6 f8bb faae 8cbd
000001f0: 6b9a 223d e909 f0ba 381e 9ebd 651f ab3c
00000200: 778a eebd 357d c9bd 4b21 893d cdda 73be
00000210: 2084 b2bd e230 123e 33c1 763d bbb4 86bd
00000220: 13c9 7ebb b538 0dbe 8da8 d23d dca1 3fbb
00000230: 23d6 293d 49e3 ebbd a144 db3d 3eeb 973d
00000240: 7f9a 3abb 2ae4 da3d a24c e1bc 8e3f a1bd
00000250: 0d9d 6fbd a320 15bc e35f 9b3d 3e1d 6abd
00000260: 1b9f bb3d f284 7bbd e9bc c43d dec1 eabd
00000270: 0ccc ebba 3d36 02be e5e2 023c b522 d0bd
00000280: 6cef eebd bf1e 27bd eebb 0a3e e517 bfbd
00000290: 9c38 9a3d befb 163e 2800 90bd 9c50 ab3d
000002a0: 4cb2 043e ae30 6e3c 4367 2abd 6c80 dbbc
000002b0: 530a 753d 3579 143d 1e5c 293e ea14 673d
000002c0: a125 d9bd 8d74 04be 10ab 053e 6629 553e
000002d0: e731 9e3d f477 f53d 5bf1 e23d a58c b43c
000002e0: deba 01bd b5e0 653c b8a2 d9bd 8e61 d53b
000002f0: 2254 aa3d eb39 793d 5a15 3f3d 9dba d93d
00000300: c972 103e e032 10be c411 0abd 3d10 c1bd
00000310: 669d 8fbd e769 b63d 8ab6 d9bd 77ec 05be
00000320: e07a 023d 60f3 283e 97d1 683d 689a 2a3c
00000330: 8613 dabc ffb6 963d d505 fd3b 8aa2 b53c
00000340: 5bd5 e7ba 4b2b d33d c9f9 223d a102 1abe
00000350: ad96 6b3c 1c27 673c 0302 cd3d 099b 383d
00000360: 58b3 983d c5ef 34bd d9d3 d93d 2046 9b3d
00000370: 6d16 053e d276 1d3e c3a0 b7bc ada8 2bbd
00000380: 305a d63d c27f b6bc 90c1 a6bd c030 86bd
00000390: 3dd8 3c3d cef4 11be 130f 4abd 6a68 923c
000003a0: 7f5b 90bd b574 18bc 145a 88bc db36 333d
000003b0: aff4 bc3d 3dc5 ee3c 968b 6dbd 2c6f 15bd
000003c0: 90dd 8cbd 14e3 b3bd 4f72 e43d 1063 f2bc
000003d0: e4a9 9f3c 7c18 ebbb 6b74 823d 651b 74bd
000003e0: 5473 173e ff7f 0f3e 014e 1f3e 8ba6 273d
000003f0: 1548 b03d 3fe6 aebd 3aed 79ba 21c9 5f3d
0.119214974 -0.17394783 -0.078437865 -0.13523433 0.06692215 0.03876622 0.08009405 -0.0033582353
0.027708534 0.017664444 0.0013979034 -0.08372783 -0.12745956 -0.057864517 -0.047764476 0.11363718
0.03202355 0.16673307 0.16730341 -0.14810632 0.13246506 -0.14022364 0.06391207 0.002030504
0.018751632 -0.12012795 0.043215685 -0.07837427 -0.13907896 -0.15674353 -0.090989746 0.07195986
-0.277008 0.013587479 -0.00586728 0.14648136 0.11989878 -0.22547813 -0.021367176 0.23138112
0.23135278 -0.103293374 -0.03428125 -0.20200704 0.055246115 0.009889051 0.0046909256 -0.064331755
0.05582231 -0.16291577 0.105540484 0.2951224 0.0014292558 -0.015329626 0.08092698 -0.0845393
0.0398775 0.2444414 0.07457151 0.17918694 0.09680413 0.0065598786 0.06808227 -0.0060486062
0.08773876 0.01010732 -0.11711793 -0.08774731 0.05502161 -0.051627822 -0.106529385 -0.07225095
-0.082661204 -0.028774874 -0.043382622 -0.059155274 -0.026418522 0.04151421 0.022713084 -0.07889567
0.15596241 -0.014272601 -0.024525853 -0.060031507 0.048673686 -0.02272145 0.105175294 -0.054867506
0.062144857 0.09627619 -0.033199657 -0.107544936 -0.14528365 0.10681728 -0.085242845 0.009388276
0.054277327 -0.04603177 -0.019491933 0.088082306 0.03609671 -0.08788469 -0.100820065 0.1047436
0.1696894 -0.11646085 0.13225004 -0.07770953 0.10801439 -0.032963738 -0.0121824425 0.14140311
0.082617514 0.034565806 -0.03289832 -0.099205166 0.04167859 0.08130283 -0.0594767 -0.11447677
0.061562065 0.14772561 -0.0075977924 -0.06869312 0.039698046 -0.00183135 -0.077206075 0.020888994
-0.11647504 -0.098383345 0.06695803 -0.23813935 -0.08716607 0.1427646 0.060242843 -0.0657744
-0.0038877174 -0.13791163 0.10286055 -0.0029240763 0.041463982 -0.115179606 0.10706449 0.07417916
-0.0028473435 0.1068805 -0.027502362 -0.0787345 -0.058499385 -0.0091020195 0.07586648 -0.057156794
0.09161206 -0.061406083 0.09606344 -0.114627585 -0.0017989888 -0.12716003 0.007988666 -0.1016287
-0.1166676 -0.040800806 0.13548252 -0.093307294 0.07530329 0.1474447 -0.0703128 0.083649844
0.1295864 0.014537973 -0.041602384 -0.026794635 0.0598243 0.036248405 0.16539046 0.05641643
-0.1060288 -0.12935086 0.13053536 0.20816574 0.07724362 0.1198577 0.11081191 0.02203972
-0.03167235 0.014030625 -0.10626739 0.0065118736 0.08316828 0.06084625 0.04665122 0.10631297
0.14106287 -0.14081907 -0.03370835 -0.09426925 -0.07012443 0.08906918 -0.1063052 -0.13078485
0.031855464 0.1649909 0.056840505 0.01041279 -0.026620638 0.073591225 0.0077216425 0.022172231
-0.0017687486 0.10310992 0.039788995 -0.15040065 0.014379186 0.0141084455 0.10010149 0.045069728
0.07456082 -0.044173975 0.1063611 0.07581735 0.12996836 0.15377358 -0.022415524 -0.04190891
0.10466421 -0.022277717 -0.08142388 -0.06552267 0.04610466 -0.14253542 -0.049330782 0.017872054
-0.070487015 -0.009305169 -0.016644515 0.043753486 0.09226357 0.029146785 -0.057994448 -0.036482975
-0.06878197 -0.08783546 0.11154615 -0.029588252 0.01949019 -0.0071745496 0.06369861 -0.059596438
0.14790088 0.1401367 0.155571 0.040930312 0.086074986 -0.0854001 -0.00095339457 0.05463517

msg_layers.0.W_msg.bias f4 [64]
00000000: 9fe4 c8bc c9a9 a53d 8404 ca3c bbb2 2ebd
00000010: 900d 10bd 470f 49be c038 8ebd 1e8a 57bd
00000020: 8be8 833a 5b73 b13d e544 cebd f584 c43d
00000030: 8a6a c0bd faea 64be 74fb 533d 19df b1bd
00000040: 6963 51be 777a 603d d945 173e 5783 203c
00000050: 54e7 9e3c b62f e8bd 7930 d2bd f71c 303d
00000060: 7179 fdbd a1a1 05be 570c a83d 550e 07be
00000070: e7d4 cfbc 7a9c 7f38 fc85 a9bd eecb 893d
00000080: 320a b4bd ff7f 2ebd 5a2e bebc 46e3 d9bd
00000090: 9628 e23d 0c32 a13d a3a1 10be 3020 12bd
000000a0: ee13 0c3e ba00 2c3e 8315 ca3c e6fa 7cbd
000000b0: eca0 ddbd 6dcd 32be 4af0 f6bd 6b25 f93c
000000c0: f70a 04be 5d26 92bc e22d 34bd e8db 02be
000000d0: 0347 e13c 470c a8bd d15a 073d 8d42 203e
000000e0: 3b7f 563d 0ab4 2b3b c51b 313d 7c91 bf3b
000000f0: adcc f5bd 3812 debc f93e 82bd c499 9a3d
-0.024523078 0.080890246 0.024660356 -0.04265092 -0.035169184 -0.19634734 -0.06944418 -0.052621953
0.001006381 0.086645804 -0.10071734 0.09595672 -0.09395321 -0.22355261 0.051753476 -0.086851306
-0.20448078 0.05480429 0.14772739 0.009796939 0.019397415 -0.11337225 -0.10263152 0.042996373
-0.12376679 -0.13049938 0.08205479 -0.13189061 -0.025370074 6.0942468e-05 -0.082775086 0.067283496
-0.08791007 -0.042602535 -0.023215462 -0.10639052 0.110428974 0.07870874 -0.1412416 -0.035675228
0.13679478 0.16797152 0.02466846 -0.061762713 -0.10821709 -0.17461176 -0.1205755 0.03041335
-0.12894808 -0.017840559 -0.04398907 -0.127792 0.027499681 -0.08205467 0.033045594 0.15650387
0.05236743 0.002619984 0.043239374 0.0058462005 -0.120019294 -0.027108297 -0.06359667 0.0754886

msg_layers.0.norm.weight f4 [64]
00000000: d585 833f 7dae 713f ffbc 8c3f 6fda 7e3f
00000010: 0359 7a3f 9e33 963f c340 993f 703e 8c3f
00000020: 71ad 7d3f 5091 6d3f 10c2 663f 819c 693f
00000030: de38 683f acfd 7e3f 9061 683f 26e0 663f
00000040: c013 6a3f b44c 7b3f 174e 7f3f 8544 7f3f
00000050: 50fa 763f e2d3 713f 55ac 733f 23db 753f
00000060: bc0a 6c3f a548 723f 6d26 683f 8e3d 6d3f
00000070: bc74 7f3f 14c2 683f 37d2 813f cee7 953f
00000080: 34c8 6b3f 4cf9 783f 6442 813f 290e 7f3f
00000090: d503 8d3f 9c44 7a3f 9104 803f 0362 713f
000000a0: 3eb3 7a3f ea8e 9a3f 26c0 833f b05c 7a3f
000000b0: bc3c 823f 53f4 6e3f b8d8 863f f045 873f
000000c0: 251b 803f 31a4 a13f a1f5 7a3f 540b 853f
000000d0: 3dc4 873f 643a 7c3f bf97 5a3f 457c 783f
000000e0: c648 5b3f 2af9 623f 0749 9b3f a23c 5c3f
000000f0: 3297 823f b43e 843f ce77 623f 60fa 563f
1.0275217 0.94406873 1.0995177 0.99552053 0.9779207 1.1734502 1.1972889 1.0956554
0.99092776 0.92799854 0.90139866 0.9125443 0.9071177 0.9960582 0.9077387 0.90185773
0.91436386 0.98163915 0.9972853 0.9971393 0.96475697 0.9446393 0.9518483 0.960375
0.9220388 0.94642097 0.90683633 0.9267205 0.997875 0.9092114 1.0142277 1.1711366
0.9210236 0.97255397 1.0098386 0.9963098 1.1016794 0.9776094 1.0001394 0.9429018
0.9792975 1.2074864 1.0293014 0.9779768 1.0174785 0.9334156 1.0534887 1.0568218
1.0008284 1.2628232 0.9803105 1.0394082 1.0606762 0.985266 0.85387796 0.9706462
0.8565792 0.88661444 1.2131661 0.8603002 1.0202391 1.0331635 0.8846406 0.8397579

msg_layers.0.norm.bias f4 [64]
00000000: fb82 6d3d 5a11 553d f3f8 153d bc15 2fbd
00000010: 12a4 fa3c 224e a6bc 27ad 043d 9611 8a3c
00000020: 0c22 35bb 6e53 f83c c559 ba3d 02ea b83d
00000030: 9ec7 6e3d bfdb 243d 261e 083d 20df 143d
00000040: 8e99 243c 5640 0fbc f78b 81bd 1b18 9bbc
00000050: df75 b03c e9f0 a63d e62b 92bd 5467 3d3d
00000060: b67d b23d 8e26 613d afc5 9e3d cdea dd3c
00000070: 34db 133d 8a7f 593b 96ba 363d 13e5 a8bd
00000080: cd35 993d 247f 20bd 94c5 5a3d 7409 9f3c
00000090: 7df4 b63d e93c a7ba 595b 2fbc d7f4 1ebd
000000a0: 522d 2d3d c304 303e 9d9c 2dbd 1fed 0cbd
000000b0: a5f9 c83d 59e6 4b3d a646 6dbd 6fe1 59bc
000000c0: 8a6a 0cbd 95c7 d73d 2db2 733c acfa 03bd
000000d0: f1a8 933d 7846 90bc 5fc2 b53d 3ed0 233d
000000e0: 9433 c9bc 671a 0c3d 89f7 57be acd6 723c
000000f0: 9f23 233c c590 2fbd b4cc 6a3d 0611 d2bc
0.05798624 0.0520185 0.03661437 -0.042745337 0.030595813 -0.020300929 0.032391693 0.016854089
-0.0027638702 0.03031322 0.090991534 0.090290084 0.05829584 0.04024863 0.033231877 0.0363456
0.010046376 -0.008743366 -0.06325524 -0.018932393 0.02154058 0.08151419 -0.07137279 0.04624112
0.08715384 0.05496841 0.07752549 0.0270895 0.03609772 0.0033187591 0.044611536 -0.082468174
0.07480965 -0.03918375 0.05341108 0.019413687 0.08933351 -0.0012759242 -0.010702931 -0.038807716
0.04227955 0.17189316 -0.042385686 -0.034405824 0.09813241 0.049780224 -0.057928704 -0.013298376
-0.03428129 0.10536114 0.014874023 -0.03222148 0.072099574 -0.017611727 0.08874964 0.039993517
-0.024560727 0.034204867 -0.21090521 0.01482169 0.009957223 -0.042862672 0.057324126 -0.025642883

msg_layers.1.W_self.weight f4 [64, 64]
00000000: 1e52 f03c b54a 1c3d 69c9 8d3d 877b abbd
00000010: 677d 8a3d 59f7 563c 3e5a 5fbc 7183 aebd
00000020: 3640 8cbd cc63 6c3c ca68 ed3c e109 9cbd
00000030: 2d89 673b a2fd dabd f45e 8dbd 90ab 463d
00000040: c53f 18bd 421b 2cbe b927 acbd 90c9 1c3d
00000050: 96a1 86bd daf8 8d3d 8f2c b33d f7f5 bdbd
00000060: 36b9 b2bd daf6 d23d dcb8 49bc 0442 0b3e
00000070: ff13 893d 8c6a 413e 36ea a53d 129f bc3d
00000080: 4166 0ebd 9f6f 923d 1311 0d3e 3b45 483d
00000090: c4e5 bbbc d054 5f3b 05f3 e0bd 70ce b1bd
000000a0: af67 063e 3e9f d23d 346c 2c3d f309 de3d
000000b0: ca6c 33be 14aa 673d b8c8 0fbd a4bf 6abc
000000c0: f960 643b b8ed b7bd b6ad ccbd 4cb2 c0bd
000000d0: 7114 da3b 8725 22bd 1836 3abc 884a a1bd
000000e0: afc2 4f3d f135 fbbc 97f0 cfbb 723a a93d
000000f0: 506d bd3b ceaa 01be e6b7 3e3e 453a 06bd
00000100: 29b5 08be 7ae2 2abd 357a 8e3b 50ec 963e
00000110: ec54 c9bd 6b5f 24be 2e5b aebd 6d9b bfbd
00000120: 6174 693e 68bb 2bbb 2023 ef3d 56e5 273e
00000130: 074e ea3d 06f7 7fbd cbb1 773e a63b 533c
00000140: c336 12bd 8f96 b6bb 4372 073e 368e b1bd
00000150: 1fda 8ebe 8d54 8d3d 3295 c2bd 54f2 3dbe
00000160: 30c5 babd b2c5 ecbc e031 df3d 5bf2 a23d
00000170: 4012 0a3e 68bf 133e f9d9 2abe c5a6 8a3e
00000180: a1ec fa3d f1cb 84bd b3cf 26be 85ab 37be
00000190: af56 17be 8f32 423e 39a8 5a3e da7f 25bb
000001a0: 93b5 41be 207f e6bd 6435 193e 0682 2f3e
000001b0: 67ee e1bd 9779 dfbd e53a 6d3e 30db d8bd
000001c0: 3227 c53d 2abe b6bc a5c8 203e d4fd 7e3d
000001d0: 3e4b d7bd 9d14 7c3e 1b93 343d 85ea 42be
000001e0: c22a 2a3e c863 91be b343 8c3e 9085 8cbe
000001f0: 4246 f6bd 9231 52bd 2862 fc3d f82e 8e3b
00000200: 9d7a 1b3e e9fc 8f3d 19cc 6d3e 0d92 25be
00000210: 14e8 f83d 5d60 d33d 85df 413e 0b36 df3d
00000220: 3e4c 0f3d 0934 d13d b464 873c 9f71 543c
00000230: af78 cabd 63ea 91bc 482c c6bd 6b04 e33d
00000240: 3ab7 433e 6cca 04be 55e0 16be 24bd 8c3d
00000250: 8361 8f3d d6b6 073e 7fb0 af3d 3b80 cb3b
00000260: 4617 043d 3e81 c4bb ee1c 59bd 32c1 983c
00000270: 9b21 1bbe b93c 4bbd 7862 c5bd 90b2 d138
00000280: a958 b4bd ac88 2abc 62b7 433d ae77 c03c
00000290: 20c7 fc3d 46c0 783d 259e 2abe 271f 26be
000002a0: 5e0f d5bd f1c0 513e 8f30 8dbc 28dd 20bb
000002b0: ba75 973d b35a 313e 6670 87bd 7265 6ebd
000002c0: 4215 59bd 881e 3f3e b4dd 8fbb 196f 5dbd
000002d0: eecf 083e a42e 96bd cbac edbd 0047 8e3d
000002e0: 6e37 9fbd ea89 00bd 0f11 f7bd 209d 003e
000002f0: 2e76 ec3d 36ed e6bd 7f7a 45bc 6b25 8bbd
00000300: c7f9 9fbd 1042 62bd f810 0b3d 17fa 10be
00000310: 6502 093e 2b12 26be d628 efbd ffc8 31bc
00000320: 90df 4bbd 3eb4 1abd cf6d 89bd 1419 d6bb
00000330: d836 7b3d 400e 42bd 0e39 ca3c 88e0 253d
00000340: 2f27 543c e72d 953d 4653 5cbd 7cf6 3d3d
00000350: 21d4 573d d937 2abe 2764 673d 56e4 d13d
00000360: 81e1 10be 759c 9dbc aa4d 6c3d 57a8 96bd
00000370: 9dbb 843d 47d8 c73d 7cf6 19be 578c 873d
00000380: bf90 653d 29d4 223d 0f85 24be 0808 05bc
00000390: 1777 eb3d 8b27 a3bc 1903 99bd d89f 30bd
000003a0: 7d3b 1e3e 70d7 d5bb 89f0 833d f4fb 35bd
000003b0: 479c 293c f3ff 4c3d 0095 793d 0c41 453e
000003c0: 4cf0 c6bd 47dc 44bd fdb9 373c f6ee 023e
000003d0: ac4d 92bd 9482 e7bd 9716 943c dd98 2d3e
000003e0: 5b45 333e d37a 6dbd 6109 9c3d 504b b93c
000003f0: 0f3d 23be 2d9a e03c c8f7 9fbd 63b5 823d
0.029336032 0.038157184 0.069231816 -0.0837317 0.067622 0.013120496 -0.013632355 -0.08521164
-0.06848185 0.01442809 0.028980631 -0.07619072 0.0035329566 -0.10692908 -0.069028765 0.04850346
-0.03717019 -0.16807273 -0.08406014 0.038278162 -0.06573789 0.0693223 0.08748733 -0.0927543
-0.087267324 0.103009894 -0.01231214 0.13599402 0.06693267 0.188883 0.08101313 0.09210028
-0.034765486 0.07150196 0.13776045 0.04889415 -0.02293671 0.0034077652 -0.10983852 -0.08681953
0.1312549 0.10284279 0.042095378 0.108417414 -0.17521968 0.056558684 -0.03510353 -0.014327917
0.003484784 -0.08980888 -0.0999407 -0.094090074 0.006655269 -0.03958657 -0.011365436 -0.07875544
0.050722774 -0.03066537 -0.006345819 0.08263101 0.0057808533 -0.12662813 0.18624839 -0.032770414
-0.13350357 -0.04171989 0.0043480643 0.29477167 -0.09830651 -0.16052024 -0.08513485 -0.09355817
0.22798301 -0.0026204232 0.116766214 0.16396078 0.11440664 -0.06249144 0.24188916 0.012892639
-0.035696756 -0.005572147 0.13227181 -0.08669703 -0.27900788 0.069008924 -0.09501113 -0.18549472
-0.09119642 -0.028902862 0.10898185 0.07956382 0.13483524 0.14428484 -0.16684712 0.2708036
0.12252165 -0.06484211 -0.16290168 -0.17936523 -0.14779161 0.18964599 0.21353234 -0.0025253207
-0.18916921 -0.11254716 0.14961773 0.17139444 -0.110318 -0.10911863 0.23166998 -0.10588682
0.096266165 -0.022307474 0.1570154 0.062253788 -0.10512398 0.24617238 0.044085603 -0.19034775
0.16617873 -0.2839644 0.273954 -0.2744565 -0.12025119 -0.051316805 0.12323409 0.004339095
0.15183492 0.07030661 0.23222388 -0.16168995 0.121536404 0.10321114 0.18932922 0.1089898
0.03498482 0.10215003 0.016527511 0.0129665425 -0.098863 -0.01781196 -0.09676415 0.11084827
0.19112864 -0.12967843 -0.14734013 0.06872013 0.07001021 0.1325334 0.08578586 0.0062103546
0.032248758 -0.005996852 -0.053006105 0.01864681 -0.15149538 -0.049618457 -0.09637922 9.9991565e-05
-0.08805973 -0.010408562 0.04778231 0.023494568 0.123426676 0.06073024 -0.1666189 -0.16222821
-0.10403322 0.20483758 -0.017235069 -0.0024545882 0.073955014 0.17319755 -0.06613235 -0.058202215
-0.05299879 0.1866399 -0.0043904427 -0.05406103 0.13360569 -0.07333115 -0.11605223 0.06947136
-0.07774244 -0.031381525 -0.120638005 0.12559938 0.115459785 -0.11275713 -0.012053131 -0.06794246
-0.07811313 -0.055238783 0.03395173 -0.14157902 0.1337982 -0.16217868 -0.11677711 -0.010851144
-0.049773753 -0.03776955 -0.067103975 -0.0065337513 0.0613316 -0.04737687 0.024685409 0.040497333
0.012948795 0.07284146 -0.053790353 0.046377644 0.052692536 -0.16622867 0.056491997 0.1024863
-0.14148523 -0.019239644 0.057691254 -0.07356327 0.06481097 0.097580485 -0.15035433 0.066185646
0.056046244 0.039753113 -0.16066383 -0.008119591 0.11497324 -0.019916316 -0.07471294 -0.04312119
0.1545238 -0.0065259263 0.06442363 -0.044429734 0.010352201 0.05004878 0.060933113 0.19263095
-0.09713802 -0.048061635 0.011213777 0.12786469 -0.07143721 -0.11304203 0.018077178 0.16952844
0.17506926 -0.057978462 0.076189764 0.02261892 -0.15941261 0.027417267 -0.078109324 0.06382253

msg_layers.1.W_self.bias f4 [64]
00000000: a26d 95bc e314 c53d 04e0 9c3d 1c60 72bd
00000010: b0c8 c13d f1dc 793d 4981 233e c1d2 183e
00000020: 3576 03be 946b 85bd 92e3 aabc 0c94 f4bd
00000030: 5cc4 7ebb 2163 0f3e 6093 bd3d 3315 0abe
00000040: 5591 bb3a 1247 29be 7632 dd3c 4f0d d03d
00000050: f0a6 ab3b d7a4 f33c 7efa 5c3d e5eb f43d
00000060: a702 b53d a17a 68bc 4c13 2cbe b72a 22be
00000070: d0a0 c23c d8ea ab3c f0ee 283d 3de3 8d3d
00000080: 8fa9 ce3d 3d60 333e 3c89 82ba d1e6 00bb
00000090: a4c2 2d3e b8d0 dbbd 9246 21be c94b bd3b
000000a0: 90d7 9ebd 17c7 b03d e956 9d3d 4754 f93d
000000b0: e2f9 cd3d 499c 23be e66e d8bd 9332 b53d
000000c0: 8285 b3bd d9d9 bd3d 0717 84bb cb89 d23b
000000d0: 68c2 e13d 0048 81bb 786a 893c 3bd3 f9bc
000000e0: 4924 393e f40d ffbd 432c 0abe 97a9 24be
000000f0: e3b1 e33d ac6b ecbd bb7e 033e bee8 3a3d
-0.018240754 0.096231245 0.07659915 -0.05917369 0.09462106 0.06100172 0.15967287 0.14924146
-0.12838061 -0.065146595 -0.020860467 -0.119423 -0.0038874364 0.14002658 0.09256625 -0.1348465
0.001431028 -0.16531017 0.0270016 0.101587884 0.0052384064 0.029741688 0.053949825 0.11959056
0.088383965 -0.014189393 -0.16804236 -0.15836607 0.023758322 0.020986006 0.041243494 0.06928108
0.100909345 0.1751718 -0.0009959112 -0.0019668827 0.16968781 -0.10733169 -0.15749577 0.0057768566
-0.07755959 0.086317234 0.076825924 0.12174278 0.10057427 -0.15977587 -0.10568027 0.08847537
-0.08765699 0.09270067 -0.0040310654 0.0064251176 0.11023408 -0.0039453506 0.016774401 -0.03049623
0.18080248 -0.12453833 -0.13493447 -0.16080318 0.111179136 -0.11543974 0.12841313 0.045632116

msg_layers.1.W_msg.weight f4 [64, 64]
00000000: afde 583e b101 4c3d cf5a 273e 1571 cb3c
00000010: ec6e 8f3d 6948 e03d da7e b23d d457 bdbd
00000020: e1ff 72bd 0ed2 e43c 2b02 f7bd 1a8c d23a
00000030: d15a be3c 8bb0 cb3c 733d d93d 05a5 1e3d
00000040: 5986 473b 9617 163c fefb 08be ecdc ca3d
00000050: 7ed4 44bd 5379 083d 21a9 2fbd 218b a5bd
00000060: b17c 033e 7bc9 b83d cff3 e83d a09c 82ba
00000070: 782b c13d 5c24 85bd 9030 8f3e 957b 82bd
00000080: 51d5 753e 2e26 5e3b 7037 e43d 3e78 073e
00000090: c12d 9a3d 0bbd a23b 3bfd c03d 3ade a43d
000000a0: 9272 c8bd e984 b63d c04d e8bd 2b45 5fbd
000000b0: 557f 903d 2bb2 cd3d f3b0 d0bd 1738 04be
000000c0: bfd4 e93d 74c7 f83d bc70 b6bd 1b10 d3bc
000000d0: 78df 143a a303 49bd dca8 533e b263 393d
000000e0: 9138 aabc eff5 1b3d 45e9 15bd c571 a13d
000000f0: d19d 973d 6eaf d23d 27cf 823a 5bf8 40bd
00000100: aade 253e 0232 ddbc 678f 0ebe e097 4b3b
00000110: 430e 47bd 53a9 8fbc 2390 8b3d 0e85 25bb
00000120: a5a2 623d 3f90 813d 6a36 90bc b5e5 073d
00000130: 688f 2dbe 0fb1 9a3d eaae 17be ce19 133e
00000140: 90dd df3c 9eb1 203e ea80 453d 8326 eebc
00000150: 9417 a23d ad7f 433d ad7d ea3b 7a12 c7bd
00000160: 7acf 0a3e c862 9f3d 9ba1 183e 34af 1d3d
00000170: 1d5f 543c 5ab1 babd 5571 003b 7cdd 6bbc
00000180: a0fa 8dbd c77a 8ebd 8947 a23d eb7c 2b3e
00000190: 36e0 0e3d 29ef 9e3d 7107 6cbd 4d01 c13b
000001a0: 763e 47be 9fe6 bdbd f5b1 62bd 303e 8f3d
000001b0: 8ac2 ca3d 9dee 853c ebd2 75bd 6271 0dba
000001c0: 1bca a13c 0cba 4abc 7fe5 fb3d 9133 cc3d
000001d0: ccb0 97bd 5f80 2c3e 7e03 48bd 281d 9e3c
000001e0: 4a03 96bd 0e5e 573d b0fa 303d a552 a63d
000001f0: 08ca 6c3d a2f4 58bc df93 b3bd 5bff 8a3d
00000200: 4fb9 0ebc c79c 2f3d 206f 7a3b bc3f 82bd
00000210: 7079 cd3d f8eb 023d 7572 e83d 4e1a d2bc
00000220: 5adc 2abd 047c 2dbc a2d0 acbd b5e5 263e
00000230: 8292 21be 40db 133d 9314 a03c f1cc 12bd
00000240: 646c 2e3d ba74 033e 8e31 3dbc e63c 7dbe
00000250: fcfa 893d e6bd d0bd 9f3f 723d c54a 48be
00000260: d37d c13d 171a 8bbd 0f48 e83d d5f2 bc3c
00000270: 3eb9 09be f675 12be ce93 fd3d 3772 383d
00000280: f6f9 3bbd cc86 773d fe23 243e b145 563e
00000290: cc8a e43c 9197 dc3d 50fc c13c 0608 383e
000002a0: cd29 7c3d 8dee e0bd 1869 1fbe 7806 aebd
000002b0: 7b74 e1bd 8bd6 163e 5125 0d3e 8de9 4cbe
000002c0: a3f0 0d3d 1884 5dbd 24a7 38bd 133e d4bc
000002d0: ed3f ca3c ea29 993d 7ebc 063d 9e41 fb3c
000002e0: c3ed 88be b80b 6c3c 07d6 9b3d b7a2 cbbd
000002f0: c8b0 253e a16d 3a3d 2365 863d 2bef e7bc
00000300: 8b6c 033e a004 2b3d 01a4 ed3d a75e 63be
00000310: 42a0 d9bd fbd2 9abd 051b 583d fe57 c43d
00000320: 5168 94be e294 893d 4923 dfbc 4c2d 603d
00000330: 06fa 79bd 9710 1cbe 055e 153c bc98 633b
00000340: 77cf 81bd 8801 19be 50a1 b63d ffcc fabd
00000350: c0c8 903e 2840 ddbc dd0d 35be e5ca 233e
00000360: 2e12 713d 37ae 03be ca16 c2bc d72b fa3c
00000370: b65d df3c 484c 77be 4c11 d9bc f386 b5bd
00000380: 2923 c03d a129 26bc 3968 86bd eef0 45be
00000390: 9187 143e 545c 23be a39b 42be d548 68be
000003a0: 10a1 033d c382 2a3d 8a05 103d 2d15 a9be
000003b0: 2922 cfbd 1665 0dbe 5791 30be d439 363e
000003c0: 8915 71be a144 a43c 7f7f 6fbd 316b 6abe
000003d0: 2ea4 443e f908 92be 3fe2 3dbc 7b3b 173e
000003e0: a20b f13d 745a 493d b7c6 8dbe 6361 313e
000003f0: 4db9 d3bd f18f 61be 92ad c1bc 2a56 76bc
0.21178697 0.0498063 0.16343234 0.024834195 0.070035785 0.10951311 0.08715601 -0.092452675
-0.059326056 0.027932193 -0.120609604 0.0016063482 0.023236664 0.024864456 0.10607424 0.038731594
0.0030445068 0.009160897 -0.13377377 0.09905419 -0.04805421 0.03331883 -0.042885903 -0.08083177
0.12840535 0.09022804 0.11374628 -0.0009964891 0.09432119 -0.065010756 0.27966738 -0.06371228
0.24007155 0.0033897269 0.11143386 0.13229463 0.07528258 0.0049663833 0.094233 0.08050199
-0.097874776 0.08912069 -0.11342955 -0.054509323 0.07055537 0.100437485 -0.101900004 -0.12912022
0.11417531 0.12147418 -0.08908221 -0.025764516 0.00056790514 -0.049075734 0.20669883 0.045261092
-0.020778926 0.038076337 -0.036599416 0.07883028 0.07403148 0.10287367 0.0009979949 -0.04711185
0.16198221 -0.027001385 -0.13921891 0.0031065866 -0.048597585 -0.017536795 0.06814601 -0.0025256309
0.05533089 0.06326341 -0.017604072 0.03317805 -0.16949236 0.075533025 -0.14812818 0.14365312
0.027327329 0.15692756 0.048218645 -0.029071098 0.079146534 0.047729183 0.007156095 -0.09720321
0.13555709 0.07782513 0.14905398 0.038497165 0.01296213 -0.091158584 0.00195988 -0.014396068
-0.069325686 -0.06957012 0.079238005 0.16746871 0.034881793 0.0776046 -0.057624284 0.0058900476
-0.1945742 -0.09272503 -0.055345494 0.06994283 0.09900387 0.016349131 -0.0600156 -0.00053956185
0.019749692 -0.012373459 0.12299632 0.09970773 -0.07406768 0.16845845 -0.048831455 0.019301012
-0.07324846 0.052579932 0.043207824 0.08121232 0.05780986 -0.013241919 -0.087684385 0.067869864
-0.008711173 0.042874124 0.0038213208 -0.063598126 0.10032928 0.03196332 0.11349956 -0.025647309
-0.04171405 -0.01058865 -0.08438231 0.16298564 -0.15778545 0.036097765 0.01954106 -0.03583998
0.042583838 0.12837496 -0.011547459 -0.24730262 0.067373246 -0.1019247 0.059142705 -0.19559772
0.09447827 -0.067920856 0.11341869 0.02306501 -0.1344957 -0.14302811 0.12381707 0.0450308
-0.04589268 0.060431287 0.16029355 0.20925023 0.027898215 0.107710965 0.023679882 0.1797181
0.0615633 -0.10983 -0.15567434 -0.084973276 -0.11008545 0.14730279 0.13783766 -0.20010968
0.034653317 -0.054081053 -0.045081273 -0.025908506 0.024688685 0.074786976 0.032894604 0.030670937
-0.26743898 0.014407091 0.07609182 -0.09943145 0.16180718 0.045514707 0.06562259 -0.028312286
0.12834375 0.041752458 0.11603547 -0.22204076 -0.1062627 -0.075597726 0.052760143 0.09587096
-0.28985837 0.0671785 -0.027238505 0.0547307 -0.061029457 -0.15240704 0.009116654 0.0034728488
-0.06338399 -0.1494199 0.08917487 -0.12246131 0.2827816 -0.027008131 -0.1768107 0.15995367
0.058855228 -0.12859426 -0.023692507 0.030538483 0.027266365 -0.24150193 -0.026497506 -0.0886363
0.09381706 -0.010141761 -0.06562848 -0.19330189 0.1450484 -0.15953189 -0.19004683 -0.22684033
0.032136023 0.04162861 0.035161532 -0.33023968 -0.101139374 -0.13808092 -0.17242943 0.17795497
-0.23543371 0.020052256 -0.0584712 -0.22892453 0.19203255 -0.2852247 -0.011589586 0.14768784
0.11769797 0.04915853 -0.2769067 0.17322306 -0.10338078 -0.22027566 -0.023642335 -0.015035192
